output/4-agents_domain-CoinGame-4_MATE-TD-T0.5_2022-08-10-18-43-23/actor_net_3.pth (torch, 45463 bytes, 6 tensors)

fc_net.0.weight f4 [64, 100]
000000 fd 22 1d 3e c7 a6 b3 3d 27 74 a2 3b 23 b6 c4 bd
       0.15345378 0.08772045 0.004957694 -0.09605052
000010 80 fb de 3d 09 c2 2c 3e 7c 30 22 3d 9c 81 87 bb
       0.108878136 0.16870894 0.03959702 -0.0041353237
000020 20 ab 78 bd 79 7d 1e be c0 0b d8 3d 1d 31 4c 3b
       -0.060710073 -0.15477552 0.10549116 0.0031157203
000030 24 8e 53 bd b2 ce 1b be c2 cd c3 bc 87 41 57 bd
       -0.051649228 -0.15215567 -0.023901824 -0.052552726
000040 fd e1 69 bd a2 81 82 be 8f 21 f5 3c 2f 66 fa bd
       -0.057100285 -0.25489527 0.029923229 -0.12226521
000050 e8 69 14 be a2 9b 04 be de 1b 9b bd 21 72 22 be
       -0.14493525 -0.12949994 -0.075736746 -0.15863849
000060 b8 83 82 bc e4 88 55 bd 45 66 61 3d 82 e0 9a 3d
       -0.015931949 -0.052132502 0.055029172 0.07562353
000070 78 5e 2d bc 37 f5 2c bd b6 49 08 be 6a 53 fa bb
       -0.010581605 -0.042226043 -0.13309368 -0.0076393383
000080 15 7f c1 bd 02 70 77 bd 2c d9 9b bd 39 00 87 3d
       -0.09448067 -0.060409553 -0.076097816 0.06591839
000090 9a b3 0f bd d8 35 1d bd 56 af 8d 3c 1d 7b b1 bd
       -0.03508339 -0.038381428 0.01729552 -0.0866606
0000a0 fb c8 2d bd 7f ef 5b bc 65 65 f9 3b 72 a2 4a 3d
       -0.042427998 -0.0134238 0.007610964 0.049471326
0000b0 1b dc 21 3d a0 28 02 bd 72 68 5b bb ff 98 0c 3d
       0.03951655 -0.031777024 -0.0033479002 0.034325596
0000c0 f1 c6 90 bd 06 80 b4 3c 56 01 ef bd 6c 4a 0f be
       -0.07069195 0.022033703 -0.11670177 -0.13993233
0000d0 5b 60 a3 3d a6 08 53 3d de d9 7a be b6 f7 6b bc
       0.07977363 0.05152192 -0.24497172 -0.014402321
0000e0 d5 ef 0e 3e 32 93 35 3e 0f ca 51 3e a5 25 db bc
       0.13958676 0.17731932 0.20487235 -0.026751349
0000f0 dc fe e8 bd 0e 14 41 bb 10 ce e7 3d 9d 76 24 3e
       -0.113767356 -0.0029461416 0.113186 0.16060872
000100 79 ca c7 bd 7a 2f 6f bd 87 10 41 3e 00 61 94 3e
       -0.097554155 -0.058394887 0.18853961 0.28980255
000110 87 1d 95 bd e6 7d 20 3c 0b a1 65 3c 0c c8 d4 3d
       -0.072810225 0.0097956415 0.014015446 0.103897184
000120 9b 53 5b 3e ad 4d 4a be 99 8b 9a bd 6a c7 40 be
       0.21418612 -0.19756193 -0.075461574 -0.1882607
000130 f6 56 01 be 73 62 fc 3c 0e 2b fc 3a a2 2d aa 3d
       -0.12630829 0.030808663 0.0019238906 0.08309485
000140 90 62 07 be fb a2 87 3d e0 27 b7 3d 5a 43 8f bd
       -0.13221192 0.06622883 0.089431524 -0.06995268
000150 51 19 13 3d 5a d0 e6 3c 55 b9 36 3d 57 01 62 bd
       0.035912815 0.028175522 0.04461034 -0.05517706
000160 17 b8 0d be 50 dc 11 3d 96 71 59 be a4 b0 18 bd
       -0.13839756 0.035610497 -0.21234736 -0.037277833
000170 f7 e8 fc 3c a3 63 c7 bd 3e d6 a8 bd 9b be bf bd
       0.030872805 -0.09735801 -0.082439885 -0.09362527
000180 dc f4 dd bd b8 af 86 be 8d f4 a5 3d 3f 72 33 3d
       -0.10837719 -0.26305938 0.08103285 0.043810125
000190 07 f4 92 be c3 f5 20 be 43 c6 86 bd 4d 3f e6 bb
       -0.28701803 -0.1571875 -0.06580784 -0.007026589
0001a0 5d fe 4a be 6a 5f 45 be 74 35 2b 3c bd 63 9b 3c
       -0.19823594 -0.19274679 0.010449756 0.018968457
0001b0 17 7d ef 3d 91 31 7a 3e b0 18 04 3c e6 46 a7 3d
       0.11693781 0.2443297 0.008062527 0.0816782
0001c0 ec 81 0c 3c a7 2d 68 3e ab 28 a6 3d 72 36 9a 3c
       0.008575898 0.22673665 0.081132255 0.01882479
0001d0 02 3a 41 3e 02 b8 a5 3e 6e b1 b9 bc 2e b2 4e 3e
       0.18869784 0.3236695 -0.022667613 0.20185158
0001e0 2e e0 21 3e 06 fd 99 3d 96 03 3f 3e b9 63 77 3d
       0.15808174 0.075189635 0.18653712 0.060397837
0001f0 f3 ae 1e 3e 1a 12 02 be 39 42 43 3b 3a c8 f7 bc
       0.15496425 -0.12702218 0.002979411 -0.030246843
000200 82 73 0a 3a 4b e9 31 bb a8 fd 3b bc 80 23 46 bc
       0.0005281494 -0.002714711 -0.011474051 -0.012093425
000210 48 99 5b 3d f7 ec 97 bd e9 9c bb bc d2 76 aa 3d
       0.053612977 -0.07418244 -0.022901969 0.083234444
000220 96 b2 20 3d f2 45 9d bd 7c 4d 18 bd db 88 0d 3c
       0.039232813 -0.07679357 -0.03718327 0.008638586
000230 fe f5 4c bd e6 75 87 3d f3 2b f2 3d 1c 22 82 3c
       -0.050039284 0.06614284 0.11824789 0.015885405
000240 2a d3 d8 bd 82 dd 37 bc d2 8d b8 bc 76 5f 8d 3d
       -0.10587151 -0.011222245 -0.022528563 0.06902973
000250 36 a1 a6 3d ae fb 5d bc 0b fa b2 3e 0b 72 9e 3e
       0.08136217 -0.013548775 0.34956393 0.30946383
000260 b5 06 a4 3c eb a3 0b 3c 0f 16 0e 3e 88 75 33 3e
       0.02002273 0.008522968 0.13875602 0.17525303
000270 1e ec b2 bd ea 9f 4a bc 8b ee 2a be 1a 4c a1 3c
       -0.08736442 -0.012367228 -0.1669256 0.019689608
000280 d9 77 3b bc 65 2d f8 bd 81 1d a1 be a0 3b 94 be
       -0.011442148 -0.12118033 -0.31467822 -0.2895174
000290 f6 28 c0 bb 5a 6c e4 bd d4 ef a1 be 72 21 76 be
       -0.005864258 -0.11153479 -0.31628287 -0.24036196
0002a0 f3 5e d0 3d 58 f2 9b 3d d4 75 69 be 6c ac de be
       0.1017436 0.07614583 -0.22798854 -0.43490922
0002b0 73 9d c4 be 26 51 26 bd d3 71 ec bd d2 17 ee 3e
       -0.38401374 -0.040604733 -0.11545148 0.46502548
0002c0 bc 08 25 3e fb 7e 24 bc fa 28 ac 3d d0 97 09 bc
       0.16116613 -0.01004004 0.08406253 -0.008398011
0002d0 c5 47 28 3e 1e 59 b5 3c f7 25 1f be e2 1d 81 3c
       0.16433628 0.022137221 -0.15541826 0.01576132
0002e0 58 b5 a7 3b 17 f7 c1 3d 56 ba be bd aa 1d c9 b9
       0.0051180534 0.09470957 -0.093128845 -0.0003835981
0002f0 67 40 a6 3d c0 a0 14 bd ee 25 04 3e 8b a5 74 bd
       0.081177525 -0.036286116 0.12905094 -0.059728187
000300 7c fe c9 bb 6f 75 b0 bd e1 0a 46 3d a7 20 86 bc
       -0.00616437 -0.08616149 0.04835022 -0.016372992
000310 ac 96 9a 3a 2d 56 b6 bc 69 87 1b be b6 6a 06 bd
       0.0011794171 -0.022257889 -0.15188374 -0.03281661
000320 65 2a aa 3e 31 7a fa 3c 63 d7 17 be 0a d6 d6 be
       0.3323547 0.030575844 -0.14828257 -0.41960174
000330 96 50 49 be 92 eb 96 3e 77 fe ef 3b b1 c0 17 be
       -0.19659647 0.294766 0.0073240357 -0.148196
000340 9e b7 a1 be a4 88 0a be 78 92 e6 3e 7f 73 16 3b
       -0.315854 -0.13528687 0.45033622 0.0022957025
000350 a0 fe d9 bc dd db 4c be 78 0b 82 bd fd 91 c2 3e
       -0.026610672 -0.20005746 -0.06349844 0.38002005
000360 84 99 22 3e 51 bd 68 3c 0e cc 3f be 29 50 93 bc
       0.15878874 0.014205293 -0.18730184 -0.01798256
000370 dd 8b 3d 3e e3 06 67 3e 17 5d a7 bd 27 b9 8d be
       0.18510385 0.22561221 -0.08172052 -0.27680323
000380 a0 a1 22 3b 31 ca 27 bc ef 40 ab 3d 8a 11 9d 3c
       0.0024815574 -0.010241077 0.083619945 0.019173402
000390 91 b1 83 3d 5e 45 1f 3c 20 ce 3b bd bf 9e 88 3b
       0.064303525 0.009721128 -0.045850873 0.0041693146
0003a0 a4 7a 19 3d 1e d9 2c bc b6 bc 6e 3d c6 7e 90 3b
       0.037470475 -0.010549812 0.058285438 0.004409644
0003b0 fd 1a 9e 3d 0b bb 96 bb 18 09 76 3d a4 a0 c9 3d
       0.07719991 -0.004599934 0.060067266 0.09845093
0003c0 85 0a f1 3d c8 cc 2b 3d 78 dd 90 3a 08 90 f9 bc
       0.117695846 0.04194334 0.0011052331 -0.030464187
0003d0 7b 36 cf bd e9 95 09 3c 14 0a a9 bd f4 c1 28 3c
       -0.10117813 0.008397558 -0.082538754 0.010300148
0003e0 0f 80 b4 bc d0 ea 05 bd 5d b0 f6 bd 00 af 40 3e
       -0.02203372 -0.032694638 -0.120453574 0.18816757
0003f0 7b fc 7e 3e 66 c4 de 3e 3f d6 d9 3b 67 76 19 be
       0.24901001 0.43509215 0.0066478546 -0.14986573

fc_net.0.bias f4 [64]
000000 2c 0f 31 bc 96 4f b6 3d 26 cc e1 bc 38 35 7c bd
       -0.01080684 0.089018986 -0.027563166 -0.06157419
000010 fb 3a 8b 3d bb 1a 13 3d 2e 41 6e 3d 99 dc 85 3d
       0.06798359 0.035914164 0.05816763 0.06536216
000020 d9 8c 56 bd 3a c8 62 bd a5 d9 5c bd bd aa 08 3d
       -0.052380417 -0.055366732 -0.0539185 0.033365954
000030 cd 2e cd bc 86 30 1d bd 95 be 74 bd 20 19 e3 3d
       -0.02504673 -0.038376354 -0.059752066 0.110887766
000040 d9 4e 72 3d 22 b0 63 3d 29 ec f8 bd 35 78 56 3d
       0.059157226 0.055587895 -0.12154419 0.052360732
000050 26 0e ba 3c dc 6a cd bc f3 b1 13 3c 9e 45 7d 3d
       0.022711825 -0.025075369 0.009014594 0.06183397
000060 92 b2 76 3d be 74 e6 bd 5e 6c 4c 3c 6a d4 ec b9
       0.06022889 -0.112527356 0.012477009 -0.00045171689
000070 ac 38 98 3d 38 ca b2 3d e6 59 60 3d cf b9 61 bd
       0.07432684 0.087299764 0.054773234 -0.05510884
000080 a8 11 84 3d ac a9 a1 bd 55 11 a0 bd 68 03 c1 3c
       0.0644868 -0.078936905 -0.07815806 0.023561195
000090 33 50 a2 3d b5 2f c5 bc 85 a4 e0 3b d4 5c 6d 3d
       0.07925453 -0.0240706 0.0068555498 0.057949856
0000a0 c9 40 a5 3d 3e 33 84 bc 1b a2 49 3d fd 1a 28 3d
       0.080689974 -0.016137715 0.04922686 0.041041363
0000b0 02 5e 68 3d 87 bf 85 bd d7 9c 5e 3d 5d e3 b6 3c
       0.056730278 -0.065306716 0.054348793 0.022325212
0000c0 c3 bb 16 bc 30 69 96 3d 51 02 24 3d 8e 50 81 3c
       -0.009200039 0.07344282 0.04004127 0.015785482
0000d0 48 f4 43 bd 8f 98 9c 3d 82 fd 33 bc 1e f9 15 3c
       -0.047840387 0.07646286 -0.010985734 0.009153632
0000e0 f1 f9 8c bb 02 10 8e 3d 6a 1e 2c 3b 27 71 49 3d
       -0.0043022563 0.06936647 0.0026263245 0.049180176
0000f0 63 e6 c6 3d 5a c9 ca bc fb 97 12 3d c6 bf 13 3e
       0.097119115 -0.024754215 0.03578947 0.14428625

fc_net.2.weight f4 [64, 64]
000000 e9 e7 88 bd c5 11 3c 3e 6b 71 0b bd d0 53 12 be
       -0.06684858 0.18366154 -0.03404371 -0.14289784
000010 25 c5 b3 bc 7c 96 07 3e 9e 0b 8f be ac 2b 27 3e
       -0.021944592 0.13240999 -0.2793855 0.16325253
000020 73 e7 84 3e 32 8a a0 be 9a 94 cc 3d 5d c0 1a 3c
       0.25957832 -0.31355435 0.09989281 0.009445277
000030 13 bb c6 3d 14 ce 9d bc 65 16 2a be c9 a6 0c 3e
       0.0970365 -0.019263305 -0.16610105 0.13735498
000040 80 97 52 be b1 75 d9 bd ff 2d f9 bb b3 f9 13 3e
       -0.20565605 -0.10618151 -0.00760436 0.14450721
000050 96 0f 52 be a5 46 17 3e da 80 50 be 87 54 6d 3e
       -0.20513758 0.14773043 -0.20361653 0.23176776
000060 28 e4 16 bd 79 8d 35 be 98 34 8b 3e e9 df a2 bc
       -0.03683868 -0.17729749 0.27188563 -0.01988216
000070 98 1c 8f 3b b2 29 62 3e dd 31 ee bd 44 9b 6b bd
       0.0043674223 0.22086218 -0.116306044 -0.05752112
000080 b2 e3 79 3e 3c 6e d7 bd 0f 57 9d 3c 34 56 2e 3d
       0.24403265 -0.105190724 0.019206552 0.04256268
000090 52 be 84 3d d5 82 ec bd 48 d5 7a be fc 20 13 3e
       0.06481613 -0.11548392 -0.24495423 0.14368051
0000a0 c2 90 f9 3d 9f 37 07 3d 6c 2e 5d 3c d0 94 66 bd
       0.121858135 0.03301203 0.013499837 -0.056294262
0000b0 66 43 90 3e 1d 69 d7 bb ae cd e2 3d 5e 27 2f bc
       0.2817642 -0.00657381 0.110743865 -0.010690538
0000c0 7e e4 69 bd 52 c4 ab 3e 62 18 8c be 2d a5 84 3e
       -0.057102673 0.33548218 -0.27362353 0.2590727
0000d0 64 28 9d be 1d 17 13 3e 0e a7 09 3e 42 41 08 3e
       -0.30694878 0.14364286 0.13442633 0.13306144
0000e0 dd bc c3 bd 44 fe 63 be ca 50 74 bc 23 70 88 3e
       -0.09557507 -0.22264963 -0.01491184 0.26648054
0000f0 43 41 01 be 3a 50 89 bd 3e ba 9b bd de 50 8b 3e
       -0.12622552 -0.06704755 -0.07603882 0.27210134
000100 07 15 bf 3d 39 c7 0b 3e 4b da 24 be 1a 33 a5 be
       0.093301825 0.13650216 -0.16098897 -0.3226555
000110 48 df f2 3b e9 02 a9 3e 09 a3 93 be 8b 09 30 3e
       0.007411871 0.33010033 -0.28835323 0.1719114
000120 20 9a e5 3d 94 08 3d 3c 95 48 18 be 34 70 13 3e
       0.11211038 0.01153769 -0.14871438 0.14398271
000130 e9 19 c4 3e 84 23 a3 bc 8f b3 90 be a0 ed 92 3d
       0.38301018 -0.019914396 -0.28261992 0.071742296
000140 ea c6 52 be 9f 07 24 be 4f 7e 6d bd 25 70 04 be
       -0.20583692 -0.16018532 -0.057981785 -0.12933405
000150 d7 0a 58 3d ab 0e 46 3d 3d 04 8d bc 67 df 10 3e
       0.052744713 0.048353832 -0.017213935 0.14147721
000160 16 93 88 3e 7a a8 cd 3d 4c 19 6c 3e e4 a0 88 be
       0.26674718 0.100419 0.23056525 -0.2668525
000170 c7 81 14 3e 68 2a 7b 3d 48 c7 0b bd 9c 0e 5b be
       0.14502631 0.06131974 -0.034125596 -0.21392292
000180 52 00 49 3d 64 5d 8a bd 2c 06 60 3d cd 9c 71 3e
       0.04907257 -0.06756094 0.054693386 0.23594971
000190 2e 47 79 3e 5a f9 a2 bd 60 e4 95 bd e8 0f 14 3e
       0.24343559 -0.07957716 -0.0731895 0.14459193
0001a0 5d e4 78 3e 1f 5f 0e be c7 23 1c be b9 f0 18 be
       0.24305864 -0.13903473 -0.15248023 -0.14935578
0001b0 da dd cc 3d e8 08 cd bd 39 94 a3 bd 8f bf 92 bd
       0.10003252 -0.10011464 -0.079872556 -0.07165443
0001c0 73 f9 82 be c9 73 4b 3d 56 a3 79 3c b8 38 0e 3d
       -0.2558094 0.04967097 0.015236696 0.03472206
0001d0 de 45 d7 bd bd 88 50 3e fb ea 8f bd 96 02 dc bd
       -0.10511373 0.20364662 -0.07027241 -0.10742681
0001e0 f9 05 3b 3e 21 54 c1 3d e2 cb 2e 3e cf 91 1d 3d
       0.18263997 0.094398744 0.17069963 0.038469132
0001f0 cd 6d 3c 3e 18 84 9e bc a9 ea ea 3d 68 07 6f 3e
       0.1840126 -0.019350097 0.11470539 0.23342669
000200 ad de 15 3e 0a 58 8c be f1 35 d5 3d 7d 42 46 3e
       0.14635725 -0.27410918 0.10410679 0.19361301
000210 88 10 7d be c1 f0 c2 3d 18 eb 60 3e 6a fb 14 bd
       -0.24713337 0.095185764 0.21964681 -0.03637258
000220 d5 74 10 be e1 f7 41 3e aa 46 ad bd 3d 52 e0 3c
       -0.14107068 0.18942215 -0.08460744 0.027382964
000230 68 84 31 3e 9b 3f 00 bd e7 b2 a1 bd e8 04 d6 bd
       0.17335665 -0.03131066 -0.07895451 -0.104501545
000240 3c 14 30 3e 15 f6 4a bd 1c d7 ef 3d 79 79 eb bd
       0.17195219 -0.04955109 0.11710951 -0.114977784
000250 cd 04 90 3e 39 ca f0 bd b1 24 26 3e 87 f6 ab 3d
       0.28128663 -0.11757321 0.16224934 0.08396631
000260 48 94 58 bd 83 d2 34 3d bb 81 07 be 12 67 e7 bd
       -0.052875787 0.044146072 -0.13233082 -0.11298956
000270 48 66 23 3d 09 9b 62 be e1 21 97 3d 69 53 0f bc
       0.039892465 -0.22129454 0.07379509 -0.008747914
000280 a5 bc aa be 49 43 65 3e 84 86 f8 bc d4 cc 43 3e
       -0.3334705 0.22388949 -0.03033758 0.19121104
000290 52 52 e6 3c b5 8e 8d 3e c1 f0 57 3d b7 51 af be
       0.028115425 0.2764794 0.052719835 -0.3424203
0002a0 22 fa d6 3d 11 94 6c be 05 e1 80 bd 88 f7 3a 3e
       0.10496928 -0.23103358 -0.06292919 0.18258488
0002b0 3d 69 24 be 89 15 3c 3d 4a cf 51 be 4f 78 d2 bc
       -0.1605577 0.045918975 -0.20489231 -0.025692133
0002c0 c5 18 35 be 26 de 54 be e8 02 60 3e 33 9a 19 be
       -0.1768523 -0.20787868 0.21876109 -0.15000229
0002d0 6f ba 4f 3e c9 d4 a4 bd 53 b4 7b 3c 01 3c 1f be
       0.20285963 -0.08048398 0.015362817 -0.15550233
0002e0 d1 15 19 3e aa 5b 8e 3e f0 8a 2f 3d 27 f6 a4 be
       0.14949729 0.2780431 0.04285711 -0.3221905
0002f0 9c 48 8a 3e 1b cb 83 3e 7f 0a f8 3d 89 9a ff bd
       0.27008522 0.25740895 0.12111377 -0.12480647
000300 49 51 04 3d 1d 32 ed bd c8 49 3a bd 26 d6 6f bd
       0.032304082 -0.11581824 -0.04548052 -0.058553837
000310 da 6e 1a be 28 cf 09 3e fa d5 be 3d d0 b2 1d 3e
       -0.15081349 0.1345793 0.093181565 0.15400243
000320 2c 7f 6f be 83 87 67 3e 34 5d 05 be d9 6c 95 3e
       -0.23388356 0.22610287 -0.13023835 0.29184607
000330 e2 a0 0b 3e 3c 96 fd bd ef 46 3b be d5 74 31 bd
       0.1363559 -0.123821706 -0.18288778 -0.04332431
000340 27 19 20 3c 97 a3 64 be f9 51 10 3b 77 7e 42 be
       0.009771622 -0.2232803 0.0022021516 -0.18993555
000350 95 15 0f 3e 31 90 f4 bd f7 62 27 3e 53 8b 70 3e
       0.13973077 -0.11941565 0.16346346 0.23490648
000360 9f 90 5a 3e 74 11 8f 3d 71 40 91 3d 6f b0 b7 be
       0.21344231 0.06985751 0.07092369 -0.35876796
000370 99 ec 5c 3d bd a3 07 be 13 37 53 be 9c 8c 57 be
       0.053936575 -0.13246055 -0.20626478 -0.21049732
000380 86 f6 18 be 0f 33 ed 3d 35 57 9e 3d e0 95 55 3e
       -0.14937791 0.11582004 0.07731477 0.20857954
000390 33 b3 57 3e 65 95 8c 3e e4 18 6c 3e 31 ac 29 bd
       0.21064453 0.2745773 0.2305637 -0.04142398
0003a0 f7 0d 8c 3e 18 25 98 be d5 b9 02 be c9 fe 3a be
       0.27354404 -0.297158 -0.12766202 -0.18261255
0003b0 58 c2 25 3e b5 44 24 3c 65 e7 e7 bd 6d 04 49 be
       0.16187418 0.010026147 -0.11323432 -0.19630595
0003c0 27 06 8e be dc 59 0f be 42 0f 99 3d e9 67 58 be
       -0.2773907 -0.13999122 0.07473613 -0.21133389
0003d0 2d c8 53 3d 4e aa 25 3e 13 4d 30 bd 79 06 ff bd
       0.051704574 0.16178247 -0.043042254 -0.124524064
0003e0 66 44 ad 3d a4 ac 85 3e 36 39 5f 3d 42 5c 72 be
       0.084603116 0.26108277 0.05449792 -0.23668006
0003f0 84 7e 8c 3e dc 72 18 3e 7d e0 54 3e be 51 01 3e
       0.27440274 0.14887565 0.2078876 0.12628838

fc_net.2.bias f4 [64]
000000 b2 0d 3e 3e 29 fa 05 3e fb 89 07 3d 8e 6d 09 bd
       0.18559912 0.1308371 0.033090573 -0.033551745
000010 98 57 52 bc bd 90 f4 ba 27 e7 9f bd e7 98 72 3d
       -0.012838267 -0.0018658858 -0.07807761 0.05922785
000020 27 45 a5 3c 07 21 0e 3e 37 6b 29 3d 83 a1 12 3e
       0.020174576 0.13879786 0.041362014 0.14319424
000030 94 cf f5 3d 88 22 f3 3d 6e 30 63 3d b8 a8 ef 3d
       0.12002483 0.11871821 0.055466108 0.117021024
000040 16 38 87 3c 39 48 06 be d2 75 eb 3d ea bb 07 3e
       0.016506236 -0.13113488 0.11497082 0.13255277
000050 bb d1 de 3d f8 3e e7 3d 6f a4 10 3d 52 12 af 3c
       0.10879847 0.11291307 0.035313066 0.02137104
000060 0a dc 78 3c 5c b1 83 bc ba 22 d0 3c 20 9f 01 3d
       0.01518918 -0.016075782 0.025407184 0.031645894
000070 8f 0d bb 3d 2c 1b a7 bb 43 1e 5c 3d 4f b4 2a 3d
       0.091334455 -0.0050996747 0.053739797 0.041675862
000080 96 c4 eb bb 26 6f c6 bc fa 0e ba 3d bb 42 81 bc
       -0.0071950657 -0.024222922 0.09084888 -0.01577889
000090 04 0b c2 3d bf 12 b3 3d f2 12 dd 3d 8f 37 8f bd
       0.09474757 0.0874381 0.10794629 -0.06993019
0000a0 e0 07 1e 3d ed 32 73 bd 09 29 0d 3e da e8 cb bc
       0.03858173 -0.05937474 0.13785185 -0.024891306
0000b0 70 1b c8 3d 20 4c 40 39 f1 e4 dd 3d 41 cd c0 bc
       0.09770858 0.00018338906 0.10834683 -0.023535373
0000c0 d8 34 4c 3d dd 30 8f 3d 18 16 43 bd 08 aa 9c bc
       0.049855083 0.06991742 -0.047628492 -0.019124046
0000d0 42 fc d6 3d 43 ec ab 3d ea 00 23 3d 4d 7a 86 bd
       0.10497333 0.08394673 0.039795794 -0.06566296
0000e0 1f f6 b1 3c e7 fc 11 3e da 43 50 3e 97 85 a7 3d
       0.021723805 0.14256631 0.20338383 0.08179777
0000f0 db 3f 37 3d 70 2f ce bb c5 93 dc bd 62 7b 3a bd
       0.04473863 -0.006292276 -0.10770372 -0.045527823

action_head.weight f4 [4, 64]
000000 b8 0e b9 be 8c 35 b2 be 57 ee 3e 3d 2e fa a0 bc
       -0.36144042 -0.34806478 0.046614017 -0.019650545
000010 3b 16 ab 3e cd 85 c6 3d 16 0a b8 3e 38 bf 5c 3e
       0.33415398 0.09693489 0.35945195 0.21557319
000020 66 60 75 3e e4 73 bb be 3c ad a0 3e 78 8d 6e be
       0.23962554 -0.36611855 0.31382167 -0.23296154
000030 d2 f2 2e 3e e3 7c 66 be 2d aa ae be 17 69 8c be
       0.17084816 -0.22508578 -0.3411421 -0.27423927
000040 96 5c dc 3e 5e f5 72 3e a8 b9 a5 3e 28 b5 49 be
       0.43039387 0.23726413 0.32368207 -0.19698012
000050 dd 79 c7 be 85 26 c3 bd ed 7c 7b be f8 e6 bb be
       -0.38960162 -0.095288314 -0.24559374 -0.36699653
000060 3b de d7 3d f3 6e 82 bb b2 e1 bb be df 5e ea 3d
       0.10540434 -0.0039805113 -0.3669563 0.114438765
000070 73 99 a6 3e 50 c0 9a be 81 e6 85 be ca eb 8c 3e
       0.32538947 -0.30224848 -0.26152423 0.27523643
000080 f2 33 33 bb ee 4e c9 3e 84 b8 0f 3e 4d c2 b9 3e
       -0.0027344194 0.3931803 0.14035231 0.36281052
000090 ef 9b 23 3e b8 f1 53 3e a6 4f 8b 3d 01 90 a7 bc
       0.15977453 0.20697677 0.06802301 -0.020454409
0000a0 18 bb 45 3b 0e b6 a6 3e af 88 d9 be b1 fd 2a be
       0.003017133 0.32560772 -0.42487094 -0.16698338
0000b0 37 cd 15 3e e3 be 87 3e ff 02 04 3e 56 59 cc bd
       0.14629065 0.26512823 0.12891768 -0.09977977
0000c0 37 13 b4 be 61 94 b8 be dd 3d 6c bd bd ea 4e bd
       -0.3517091 -0.36050704 -0.057676185 -0.050516833
0000d0 e9 aa de be a0 3c 3a be 94 8f 96 be 49 7b a8 3e
       -0.4348977 -0.18187189 -0.29406416 0.3290656
0000e0 6d 7f 36 be 50 e6 b3 3e 61 b8 c1 be d2 e8 4f be
       -0.17822047 0.35136652 -0.37835982 -0.20303658
0000f0 5e fa 95 be 6b 04 8e 3e 33 35 8f 3e 54 eb 6a be
       -0.29292578 0.27737746 0.27970275 -0.22941333
000100 b2 c1 8a 3e 04 53 74 3e ac 25 8a be 36 89 0f 3e
       0.27100903 0.23859793 -0.26981866 0.14017186
000110 01 30 d1 be 57 ba 82 be ab af b7 be b7 f5 e7 be
       -0.40856937 -0.2553279 -0.35876212 -0.45304653
000120 75 fb 6e bc d3 48 89 3e 38 0d a1 be 8f c3 25 3e
       -0.014586319 0.26813373 -0.31455398 0.16187881
000130 1a 26 a5 be 21 c3 e4 bc 8c 43 00 3e 48 cd 46 3e
       -0.32255632 -0.027925076 0.12525767 0.19414246
000140 22 eb 9c be d8 99 38 be e2 5b d4 be 40 a3 ff bd
       -0.30648142 -0.18027437 -0.4147635 -0.12482309
000150 69 1d 93 3e 51 04 69 bd e6 9e b4 3d ce a7 bd 3e
       0.28733376 -0.056888882 0.0881937 0.37042087
000160 88 93 4f be 5e f9 cd bd ee c7 c6 3e a5 a6 50 bd
       -0.20271122 -0.10057329 0.3882441 -0.050940175
000170 92 ac dc be d1 71 ab 3e 24 ce 1b 3e f5 dd 42 be
       -0.4310041 0.33485273 0.15215355 -0.19029982
000180 24 e2 d5 bd 93 9c b4 be f0 c5 e5 ba 75 7b c1 be
       -0.104435235 -0.35275707 -0.0017530303 -0.37789503
000190 f9 33 a0 be 77 5c 35 be 8c 85 71 be c8 75 82 be
       -0.31289652 -0.17711054 -0.235861 -0.25480485
0001a0 f6 82 f1 3d 0f 83 6e be df 0d 92 3e 79 5b b0 3e
       0.11792557 -0.23292182 0.28526208 0.34444788
0001b0 25 46 b7 be 5e 21 a4 be 22 1b 8e be 42 36 68 3c
       -0.35795704 -0.32056707 -0.27755076 0.014173092
0001c0 4a 20 ad 3e 74 36 a2 3e 00 c1 8a bd 52 b0 b4 bc
       0.33813697 0.3168217 -0.06775093 -0.022056732
0001d0 c9 1a 82 3e 7b b9 38 bd 61 78 4f 3d d5 64 d1 be
       0.2541106 -0.045098763 0.05065191 -0.4089724
0001e0 7f 00 77 3e 7e 60 cc be e9 f3 b5 3e 32 50 5e 3e
       0.24121283 -0.39917368 0.3553765 0.2171028
0001f0 77 1a 9b 3e be 71 f4 bd 26 d9 be be 73 d6 72 3e
       0.3029363 -0.11935757 -0.37275046 0.23714618
000200 e8 8f 54 3e 5b 09 0b be d4 b2 b4 be 76 84 de be
       0.20758021 -0.13577788 -0.35292685 -0.43460435
000210 a2 0b 94 3e 35 43 c3 3e 65 f1 44 3d 58 40 9b 3e
       0.28915125 0.38137212 0.048081774 0.30322528
000220 6d 3d 9e be a9 1f 37 3e 6e 67 ae be a2 5d ef 3d
       -0.3090624 0.17883171 -0.34063286 0.11687781
000230 ef 59 d6 3e ca 91 76 3e 6a 3b 0c bd 85 f4 67 3e
       0.4186549 0.24079052 -0.03423635 0.2265187
000240 81 05 e7 bd d0 10 8a bd c4 f1 fe 3d 04 e7 50 3e
       -0.11280347 -0.06741488 0.12448457 0.20400625
000250 ea bc 09 3e 76 c0 bf 3e ff 3a a9 be 49 b2 e8 be
       0.13450971 0.37451524 -0.33052823 -0.4544852
000260 1c a6 d3 be 29 2f d3 be 34 33 5f ba c7 8f bb be
       -0.4133767 -0.41246918 -0.0008514405 -0.3663313
000270 72 9f 9c 3d 13 fa b2 be 28 13 8a 3e 95 30 90 be
       0.07647599 -0.34956416 0.2696774 -0.28162065
000280 c0 02 d8 be 7e aa 2c be 16 ca 12 be a4 81 0e 3d
       -0.42189598 -0.16861913 -0.14334902 0.034791604
000290 1b 0c f5 3c 9e fb 2a 3e d7 7f df 3e 0f f1 8b 3e
       0.029912999 0.16697547 0.43652222 0.2733235
0002a0 6a 40 cd bc f8 08 81 be 56 26 59 be 38 9f af be
       -0.02505513 -0.25202155 -0.2120603 -0.34301162
0002b0 80 6c 42 3e 5c ff e2 3e 5a 5d 80 3d 5d 32 ad 3e
       0.18986702 0.4433545 0.062678054 0.33827487
0002c0 8e d5 ef be 69 77 a0 3d 6b 5c 0b be 4c 78 be be
       -0.46842617 0.07835276 -0.13609473 -0.37201154
0002d0 51 ee d1 3b ce 96 9f 3e dd ef 1e 3e e0 d5 43 bc
       0.0064065834 0.31169742 0.15521188 -0.011952847
0002e0 99 1c ac 3c 7a c5 af 3e f0 c9 34 3e 59 6e 91 3e
       0.02100973 0.3433035 0.17655158 0.284045
0002f0 1f 55 3b 3e 04 bb af be bb f1 09 bd 29 cd 97 be
       0.1829419 -0.3432237 -0.033677798 -0.29648712
000300 25 52 4d be 83 44 a3 3d 3d 6d 9a 3e 4b b3 d1 3e
       -0.20050867 0.07972052 0.30161467 0.40957102
000310 95 18 1f be 06 bd 1c be 42 9c ef 3a 6c 0e e7 be
       -0.15536721 -0.15306482 0.0018280821 -0.4512819
000320 ae cd 63 3e c1 c7 4a be 1e 64 31 3e 77 d7 be 3d
       0.2224643 -0.19802763 0.17323348 0.093184404
000330 7c 1b 64 be 5e aa df 3c 1b 6b 50 be a3 36 e8 bd
       -0.2227611 0.027302917 -0.20353357 -0.11338546
000340 1c d5 a0 3e 24 a5 c1 bd 6a e0 21 be b2 6f d0 3c
       0.3141259 -0.09455326 -0.15808263 0.025443885
000350 e2 d2 99 be 50 41 c3 be 93 bd 84 3e f2 3a a9 3e
       -0.30043703 -0.38135767 0.25925884 0.33052784
000360 b7 ca a6 3e e2 2d b6 3e 3d 5d 18 bd d6 b8 77 3e
       0.32576534 0.3558188 -0.037198294 0.24191603
000370 b0 3d c2 3a 82 57 7d 3e 28 0e 75 bd 00 c7 be 3e
       0.001481941 0.24740413 -0.059827954 0.372612
000380 e5 a3 aa 3e 19 f5 4f 3e 2a 54 84 3e d5 2c e3 3d
       0.33328167 0.20308341 0.25845462 0.110925354
000390 1a ba 42 3e 91 ae 2d 3e 6e fa 99 be 57 d7 35 be
       0.19016305 0.16961123 -0.30073875 -0.17757927
0003a0 06 35 2d be 35 48 e8 3d b0 58 d5 3d de 10 2d 3e
       -0.16914758 0.113418974 0.104173064 0.16900966
0003b0 d1 31 04 be b7 58 ba be 07 b8 68 3e 1f 3f 25 be
       -0.12909628 -0.3639581 0.22726451 -0.1613736
0003c0 9c c6 97 3e 06 06 a4 be 04 a9 24 3e 27 42 c4 3e
       0.29643714 -0.32035846 0.160801 0.3833172
0003d0 1c 82 53 bd f6 c4 d9 be ac db f5 3c c8 d5 f4 bd
       -0.051637754 -0.42533082 0.030011974 -0.11954838
0003e0 6c 3f 59 be ff b4 b5 be eb b6 5c be 3e 0b 94 bd
       -0.212156 -0.35489652 -0.21554153 -0.07228707
0003f0 0a 79 a6 be 98 f9 d1 3e ec 1b 07 be e2 ed 8c 3e
       -0.3251422 0.41010737 -0.13194245 0.2752524

action_head.bias f4 [4]
000000 fc c4 f0 bc c5 84 30 3d b0 b3 ee bb cd 60 69 bd
       -0.029390804 0.04309537 -0.007284604 -0.056977082
