output/4-agents_domain-CoinGame-4_MATE-TD-T0.5_2022-08-10-18-43-23/actor_net_0.pth (torch, 45463 bytes, 6 tensors)

fc_net.0.weight f4 [64, 100]
00000000: 46c4 5b3e 18cd 9d3d 8026 593d b92a ab3c
00000010: 8c13 b8bd e84d 9b3d 40b2 7d3e c68a 353c
00000020: c653 ce3d 3369 15bd 4fca 7b3e 8a59 213e
00000030: 13b7 843d 7da5 a1bc 127f a9bd bae2 3e3e
00000040: 1525 163c 3ae0 92bb 0881 36be 3b58 1dbe
00000050: 86b0 2abe 4ad6 3bbe f261 51be 58eb d7bd
00000060: ffbd a6be 9a35 99bd f266 ca3c 7158 793d
00000070: 40f3 0ebd c3cf cabb 258d f43c c351 253c
00000080: 044d 3d3d 0386 fabc 55af f6bb 65f4 86bd
00000090: 12d6 883d 8f94 913d 08c1 c53b d9ca 8b3c
000000a0: 693a 4d3b 2da8 b33d 3fbc 8e3d e82a 24bd
000000b0: 6a3d cb3c cd8c 3b3d aebb d93d 7062 bebc
000000c0: 4dce 923d 4fee aa3d f151 f7bd 5b37 8dbe
000000d0: aa6f dfbd d04d 06bd dc92 c5bd 1a45 c8be
000000e0: 7113 c8be 3b0f 59bd 03cc 16be 6284 99bd
000000f0: 71fd 69be 6f62 ed3c 9587 9bbc 401f 313e
00000100: f724 e63d 5c36 80bd cae6 8dbd 31a0 1f3e
00000110: cbc9 823e 84af b33e 95d7 0c3e 1831 eb3d
00000120: ea77 413e 124a 933e 6625 b03e 52fb a0bd
00000130: 596e 5ebd 9c2f 33be 36cc 77bd 8ab3 b5bc
00000140: 1f2b 05be 051b 76bd d263 fa3d 9fa7 273d
00000150: 1670 8bbd 6d8a 473d d9df 393e 542b 34bd
00000160: 000e d9bd 6247 02bd ad3d 1bbe 7fd9 853c
00000170: b385 a2bd 073b e3bd 646e 103e 2eaa 473c
00000180: f5f8 e43d 627a 1b3d 75ef 613e adac db3d
00000190: 5dd4 0c3c d243 4fbd b42a 38be 71ee 05be
000001a0: 0828 173c 7863 983d b372 37be 117d bebd
000001b0: 53f8 58bd a63a 3cbd 9cb3 053e 5995 a1bd
000001c0: 437d 30be 367f e9bd 08f2 08bd cfc6 9f3d
000001d0: 0ece 833d 332c a9bc d5e2 52bd c801 a63d
000001e0: b693 fe3d 3c07 1e3e c20a ba3d 8dad 80bb
000001f0: 8f2e 893d 131e acbd 5d75 f9bd 3e1d 8f3d
00000200: 9908 f2bd 4c9e ecbc 723c ddbc 07ce 88bd
00000210: 3427 ae3d 657d 4dbc 4752 e0bb 4503 93bc
00000220: 43c9 24bc 6dba 403a 747a 4abd df47 aabb
00000230: 1ca8 23bc ffa0 4d3d b7a2 f5bd 6471 50bd
00000240: 514e 763d 7ba1 a83d e3ed 603c 5e84 7bbd
00000250: d883 41bd 5b3b a4bd 824f b23d a29a 0a3e
00000260: f70e af3d 505d 423d 9b71 f43d 472f cb3c
00000270: dd21 103e 9baa 0a3e e299 cf3d 57d3 5a3e
00000280: 4b48 ccbc da2a a8bc 39a2 af3a 903e cb3d
00000290: f47c 323e 1169 fdbd 1d79 803d 2741 bcbd
000002a0: 726e 1cbd c022 c83d 6065 54be 8888 83be
000002b0: a700 95bd 33b8 03be 7676 ccbd bef8 e4bc
000002c0: 703c 3fbd e736 08bd de4b d0bd 024c 843d
000002d0: 2847 ebbd 9a72 dfbd bd28 42bd 1de0 82bd
000002e0: 1cd3 4ebe 98d5 0c3d 86a0 90be 53a7 f6bd
000002f0: aa02 e13d 884d 4e3d 6810 b63c 4303 a63c
00000300: ed7c 7a3d 5bd9 243e ec56 28bd 54f9 a33c
00000310: fd2f 523c f02b cb3c 6f04 0fbd 5ab6 25be
00000320: d439 2bbe fcdf 03be f8d6 3fbe 1714 0abd
00000330: 1c5d 63bc 6694 08be 6f79 43be 383f 73bd
00000340: 207c 00be 3c47 34bc 6de7 48be aea1 9cbd
00000350: cafb 64bd 4dfe fabd 6b9f 4cbd ab0e 85bd
00000360: b67f f73d 654b 3c3e 882e f33d b4fa 843d
00000370: 5d5f 7e3d 720f 7c3e 0d2f 8e3e 29c2 653e
00000380: 8927 2b3e ebc9 3dbd a35e 173d 4bbc 4b3d
00000390: 08e9 843d b932 6cbc 8884 88bd d342 8dbc
000003a0: 140a 07bd 6c13 d13c b4ec 693c 8395 6b3d
000003b0: 61db 2f3d 62dd 9abd 5dc6 a23c 9f1c 883d
000003c0: 7420 103d 3e44 93bd af58 d83c ac1e ed3a
000003d0: 7a30 333d 2c39 7b3d 8a22 b83d b23b 053d
000003e0: c98a ab3d 1346 55bd ccaf 113e 3d32 873e
000003f0: 7ee3 093e 529a 263e 99b3 233e c4f5 7e3e
0.21461591 0.07705134 0.053015232 0.020894395 -0.08988103 0.07583219 0.24775028 0.011080449
0.10074572 -0.03647728 0.24588893 0.15756813 0.06480231 -0.019732231 -0.0827619 0.18641177
0.0091641145 -0.0044822963 -0.17822659 -0.15365689 -0.16668901 -0.18343464 -0.2044752 -0.10542935
-0.3256683 -0.07480927 0.024707291 0.06087536 -0.03489995 -0.006189318 0.02985246 0.010090294
0.046216026 -0.03058148 -0.0075282254 -0.06589583 0.06681456 0.071084134 0.006034974 0.017064499
0.0031315333 0.08772311 0.06969499 -0.04007998 0.024809558 0.045788575 0.106315 -0.023240298
0.07168255 0.08346235 -0.12076176 -0.27581295 -0.1090997 -0.03278905 -0.09647152 -0.3911522
-0.39077333 -0.05299304 -0.14726262 -0.07495953 -0.22850586 0.0289776 -0.018985549 0.17297077
0.11237519 -0.06260368 -0.06928785 0.15588452 0.2554458 0.35094845 0.13754113 0.11483973
0.188934 0.2876745 0.34403533 -0.078604355 -0.054304454 -0.1749863 -0.060497485 -0.022180337
-0.1300473 -0.06008436 0.122260705 0.04093134 -0.06808488 0.048715997 0.18151797 -0.043986633
-0.105983734 -0.031806357 -0.15160246 0.016339062 -0.07935657 -0.11095243 0.1410461 0.01218657
0.11180297 0.03795851 0.22064002 0.10726295 0.008595553 -0.050601788 -0.1798504 -0.1307924
0.009225853 0.07440847 -0.17914848 -0.09301198 -0.052971195 -0.04595437 0.13056797 -0.07889814
-0.17235284 -0.11401217 -0.033433944 0.078015916 0.06435786 -0.020650959 -0.051485855 0.081058085
0.124305174 0.15432447 0.09084083 -0.003926939 0.066983335 -0.08404174 -0.121805884 0.069879994
-0.11818046 -0.028884076 -0.027006362 -0.066799216 0.08503571 -0.012542103 -0.0068457457 -0.017945895
-0.01005775 0.00073519984 -0.049433187 -0.005196556 -0.009988811 0.050202366 -0.11993926 -0.050889388
0.060133282 0.08233925 0.013728592 -0.061405532 -0.047244877 -0.08019134 0.08706571 0.1353555
0.08547776 0.04745227 0.11935731 0.024802817 0.14075418 0.13541643 0.10136773 0.21369682
-0.024936816 -0.020528246 0.0013399787 0.09924042 0.17430478 -0.123735555 0.062731005 -0.09192114
-0.038191266 0.09772253 -0.20741796 -0.25690103 -0.07275515 -0.12863235 -0.09983532 -0.02795064
-0.046688497 -0.033255484 -0.101707205 0.0645981 -0.11488181 -0.109105304 -0.047402132 -0.063904025
-0.2019772 0.034383386 -0.2824747 -0.12043633 0.10986836 0.05036691 0.02222462 0.020265227
0.061154295 0.1609854 -0.04109852 0.02001635 0.012828824 0.024801224 -0.034916338 -0.16182843
-0.16721278 -0.12878412 -0.18734348 -0.033710565 -0.0138771795 -0.1333786 -0.19089292 -0.059386462
-0.1254735 -0.011003312 -0.19619532 -0.076480255 -0.055904187 -0.12255535 -0.04995672 -0.06496938
0.12084906 0.18388136 0.118741095 0.0649313 0.062102664 0.24615267 0.27770272 0.22437347
0.167143 -0.046335142 0.036955487 0.049740117 0.0648976 -0.01441639 -0.06665903 -0.017243778
-0.032968596 0.025521956 0.014277626 0.057515632 0.042933825 -0.07561757 0.019869978 0.06646084
0.0351872 -0.071907505 0.026409475 0.0018090806 0.043747403 0.06133382 0.08990963 0.032527633
0.083760805 -0.05206878 0.14227217 0.26405516 0.13465688 0.16269806 0.1598648 0.2489844

fc_net.0.bias f4 [64]
00000000: bce5 94bd 38d1 213d 5ad5 84bc b48e 973d
00000010: 644e b73d 302e 4b3d d2a2 03bd 5fad b9bd
00000020: 56c8 073e d3aa d0bc eb45 903c a9e2 43bd
00000030: 7780 1b3d 158a f33c 86eb 31bd 2a9b 8b3d
00000040: cc30 84bd 94b5 1a3c 5e21 37bd fdb5 ad3d
00000050: 01e6 c33d 06ef ba3d dea6 69bb e0d9 803d
00000060: 1089 a0bc 4a6d b4bd ee9a 153b 8a0c cebc
00000070: 3593 643d 67fb 23bd 578c 403d 9ca9 383d
00000080: 32d3 cc3d ef05 403d c2bb 353c 2669 443d
00000090: 6c9e 863d 755d a13d efc6 793d dc31 093d
000000a0: e399 19bd c00f abbd abeb e83d 250b 823d
000000b0: 09d5 bd3c 7e92 553c be24 d03c 9335 d73d
000000c0: 3d5e 083d 79c0 a23d 4ccc 29bd 2b90 713d
000000d0: a77c 6bbc 23d8 183d 51f3 b33d 03e4 b73c
000000e0: 0b58 d93d c4de 6a3d c396 873d f3e2 7abd
000000f0: 4fb9 a93d 3bb1 023d 399a bd3c 80f2 bf3d
-0.07270381 0.039506167 -0.016215015 0.07400265 0.08950499 0.049604595 -0.0321377 -0.09066271
0.13260016 -0.02547208 0.017611464 -0.04782358 0.03796431 0.029728929 -0.043437503 0.068167046
-0.0645462 0.009442706 -0.044709556 0.08481977 0.09565354 0.09127621 -0.003565244 0.06291556
-0.019596606 -0.08809908 0.002282794 -0.025152463 0.05580445 -0.040034678 0.04700884 0.045083627
0.1000122 0.04688066 0.011092128 0.04795184 0.06573185 0.07879154 0.060980733 0.033494815
-0.037500273 -0.083526134 0.11373075 0.06349782 0.023172872 0.013035415 0.025408145 0.10508265
0.033292998 0.079468675 -0.0414546 0.05897538 -0.014372981 0.0373155 0.08786643 0.022447592
0.10612496 0.057341352 0.066205524 -0.061251592 0.08287298 0.0319073 0.023144828 0.09372425

fc_net.2.weight f4 [64, 64]
00000000: 936a 843e 2fa5 27bd b378 0fbd 8c96 443e
00000010: ad62 e0bc ace2 173e 04ae 463e f7c4 073c
00000020: bada b63d 3d50 b83d 03fd 313e 9ce7 4d3d
00000030: 6a24 983d b2e3 8f3e 76b6 c8bd 3962 603e
00000040: a304 693e 06f0 4b3d c1c7 843e e926 e1bd
00000050: dad8 013e fa12 fd3d 8e46 08be 3717 373d
00000060: 3f7b a33c 3c73 833d ebf9 23be f882 83bc
00000070: bb7a 99be 47d8 88bd 61bc 2dbd 71ca 1b3e
00000080: 2aca 6a3c eb0c 6f3d 244f 753d bd4a 8ebe
00000090: 4166 0f3d 3c5d 133d f3cb 69be 30f8 f53d
000000a0: 1f75 0d3c b082 2cbe 748f 3ebe 79d4 403e
000000b0: 3af6 5ebe e7a2 0f3e 91d3 203d 3da8 ce3d
000000c0: d170 36be 9d1b 083e 9c7f 04bd 320d efbc
000000d0: afb4 d23d 1f86 ddbc 7d00 48be be4f 72bd
000000e0: c053 683c 3d1c 4c3e 92d9 d0bd 68d0 b5bd
000000f0: ce71 d23c 44be 313e caa4 263e 8817 b23d
00000100: 18c8 53be c055 443c b5c7 753e 8f53 0fbd
00000110: 6b0f aabd 5d84 8ebc 10a5 dcbd b474 063d
00000120: 527a 983c 182a 75be d23e 70be d40d 81bd
00000130: bade 0e3d e7ce d1be 08e0 423e c427 babd
00000140: 59c3 3dbe 260e 65bd 0574 91be c75a 583e
00000150: 7c00 83be d6bc 0cbe 60e2 503e f7bf 10bc
00000160: 5c4b 56bd 22ae 8abd 55df 0f3e 88e9 8f3d
00000170: 5da6 973e cb8f eeb9 b4c5 653e 1caf 06be
00000180: e689 b2bc 2eaf 69be 3632 f5bd ef63 7d3e
00000190: 6165 403e e794 0fbe 5418 9e3e 8c47 7cbd
000001a0: c730 143e f9e6 52bc c4f9 0f3e e92e 7abe
000001b0: 0801 5a3e 59c3 27be 5533 97bd e047 11be
000001c0: e839 c73d d81f 0abe b7f9 cfbb 0153 b7bc
000001d0: b260 98be 2dd9 0abe 999e 643e 0969 8c3b
000001e0: 0359 0ebe 962f 8ebe 6263 323e 17a9 543e
000001f0: 6b94 293e 1bb3 b2bd 4088 adbd 1d04 e93d
00000200: 8cf7 9ebe 3dc2 debc a1cd 833e ee90 cdbd
00000210: aa03 67bd 4cf6 a8bd e570 a1bd c149 113d
00000220: 9faf b8bb 6c3a 10be a604 75be 62aa a53c
00000230: 750b d5bd eaba 46be 3f65 683e bfad 88be
00000240: cd04 02be 141e 3bbe 7d8d 17be 1199 e53d
00000250: 3226 93be f32e 1abe 2fdf 8e3e ebd7 1abe
00000260: ec4c 3dbd e89e 0ebe b983 c23d 4d3e 2f3e
00000270: be25 a03e 44d6 113d 05e4 fa3d 49f4 99be
00000280: 3a56 06be 22f0 15be 1619 1dbd 2066 323e
00000290: 6c72 293e 17dd 1cbe d559 193d 9434 ea3d
000002a0: d680 013e e260 4e3e c4d0 973e bcbe 27be
000002b0: 9b1c a93d aeb9 28be 7467 a1bc c680 18be
000002c0: 034f 3fb9 770d ffbd f416 4f3e 6e77 c93d
000002d0: fb90 a3be fffc f3bb 46b2 a13e 1b23 97bd
000002e0: 2135 06be 77da 38be 5443 373e 105f 853d
000002f0: e35e 0e3d ee44 75bd 2a8b 22bd 8c14 283e
00000300: 8b14 013d 2180 e73d 7480 92bb 75b1 a43d
00000310: 71b3 26be ab92 283e df0f 823b 0621 c63d
00000320: 835b 68be cd73 7bbd b241 e7ba ddfe 7a3e
00000330: 376c 06be 6256 cc3d eedf 81be 539b fd3c
00000340: 4561 d4bd f2bd cabd f47f f9bb 7a4e 1abe
00000350: cab7 113e af59 a83e 729a c73c 4df3 bb3d
00000360: b443 c6bd ee50 cabd 4e2b 15be ab48 493c
00000370: bd25 90bd 13a1 8a3c 14a1 803d 2af1 c23d
00000380: 4fa6 51be 4bee debc 53cf a93e 3589 05be
00000390: 3fce 633d c2ef 923d 97f4 77be 7d3f 093d
000003a0: 4b3d 053e 8a29 4c3c d34d 20be 6dc0 0cbd
000003b0: dfca 24be 61d1 c9bd 8cf0 593e 587c 493d
000003c0: 3e97 49be 902c a23d dd33 eb3c 326e a93e
000003d0: 0391 f63d ef5c 3f3d 9696 0abe cd82 0c3d
000003e0: aa68 e7bc 93c8 403e 5ec7 a9bd ae7b eebd
000003f0: 88a3 5dbe a464 3f3d 463a 04bc b688 6e3d
0.2586256 -0.040929016 -0.035027217 0.19198054 -0.027390802 0.14832562 0.19402319 0.008286706
0.089284375 0.08999679 0.17381673 0.050269708 0.074288204 0.28103405 -0.09800427 0.21912469
0.22755675 0.04978945 0.2593365 -0.1099375 0.12680379 0.12357135 -0.13308164 0.044699874
0.01995623 0.064184636 -0.16013305 -0.016053662 -0.29976448 -0.06681877 -0.04241598 0.15213944
0.014330426 0.05836193 0.059889928 -0.27791396 0.035009626 0.035977587 -0.22831707 0.12010229
0.008633881 -0.16846728 -0.1860941 0.18831052 -0.21773615 0.14026986 0.039264265 0.10090683
-0.17816474 0.13291784 -0.03234826 -0.029181097 0.10288369 -0.027041493 -0.19531436 -0.05915808
0.014180124 0.19932647 -0.10197748 -0.08877641 0.025689032 0.17357737 0.162738 0.086958945
-0.20681798 0.011983335 0.24001963 -0.034991797 -0.08303722 -0.0173971 -0.10773671 0.03282614
0.018613014 -0.23941839 -0.23461464 -0.06301466 0.034880377 -0.40978166 0.19030774 -0.09089616
-0.1853155 -0.055921696 -0.28408828 0.21128379 -0.25586307 -0.1374391 0.20398855 -0.0088348305
-0.052317962 -0.067714944 0.14050038 0.070269644 0.29619113 -0.00045502032 0.22438699 -0.13152736
-0.02179427 -0.22820732 -0.119724676 0.24745153 0.18788673 -0.14021645 0.30877936 -0.06159167
0.14471732 -0.012872451 0.14060122 -0.24431957 0.21289456 -0.16383113 -0.07382838 -0.14187574
0.097278416 -0.1348871 -0.006346907 -0.022378447 -0.29761273 -0.13559408 0.22326125 0.004284982
-0.13901143 -0.2777068 0.17420724 0.20767628 0.16560523 -0.08725568 -0.08473253 0.11377738
-0.31048238 -0.02719223 0.2574282 -0.10037409 -0.05639998 -0.082501024 -0.07882861 0.035470728
-0.00563617 -0.14084786 -0.23927554 0.020222846 -0.10402576 -0.1940724 0.22694872 -0.26695058
-0.12697144 -0.18273193 -0.14800067 0.11210836 -0.28740078 -0.15056972 0.2790465 -0.15121429
-0.046215937 -0.13927805 0.0949778 0.1711361 0.31278795 0.03560473 0.122505225 -0.30069187
-0.1311883 -0.14642385 -0.038354002 0.1742177 0.16547555 -0.15318714 0.037439186 0.1143581
0.12646803 0.20154145 0.29651463 -0.16381353 0.08257409 -0.16477081 -0.01970265 -0.14892873
-0.00018244614 -0.1245374 0.202236 0.098372325 -0.3194655 -0.007445931 0.31581324 -0.07379743
-0.13106205 -0.18052088 0.17896777 0.06512272 0.03475846 -0.05988019 -0.0396835 0.16414088
0.031513732 0.113037355 -0.004470879 0.0804166 -0.16279389 0.164622 0.003969177 0.096742675
-0.22691159 -0.061389733 -0.001764348 0.24511285 -0.13127218 0.09977414 -0.25366157 0.030957853
-0.10370115 -0.098995104 -0.00761413 -0.15068999 0.14230266 0.32880923 0.024365637 0.09177265
-0.09680882 -0.09878717 -0.145673 0.012285392 -0.07038448 0.01692251 0.06280723 0.09518655
-0.20473598 -0.027213236 0.33165988 -0.13040622 0.055616613 0.071746364 -0.24214397 0.033507813
0.13011663 0.012461076 -0.15654688 -0.0343632 -0.16093014 -0.09854389 0.21283168 0.04919085
-0.196866 0.07918656 0.028711254 0.33091885 0.120393775 0.046719488 -0.13534006 0.03430443
-0.02824815 0.18826513 -0.082899794 -0.11644684 -0.21644413 0.046726838 -0.008070534 0.058235846

fc_net.2.bias f4 [64]
00000000: 0f26 ee3d e002 7d3d a717 823d f394 3b3d
00000010: ecfe 90bd 62c8 ea3c fb4e 113e 66c3 bebc
00000020: 35c0 ccbd f3c9 1e3c b22e 953d aa4c 10be
00000030: 90d1 153e f6c6 8bbd 5960 0f3d e2ea 273d
00000040: c6a0 38bc a7fa 983d 312f 1d3d 1e56 06bd
00000050: 4e0e fd3c 5122 d8bc 32d0 edbc 818a 39bd
00000060: 036d 203b 66d5 5c3d a2c4 363d a4d9 b13d
00000070: 3dbe c73d e041 a3bd 34ed 023e 7dc0 0ebe
00000080: 9d8b d53c 61d7 913d b08d 9dbd cb23 863d
00000090: 7f63 883c 5959 f2bc 0fbc 723d d486 1dbd
000000a0: 3fd4 01be 807a 76bc 61a9 873d e3ab 383d
000000b0: 392b 11bd 423a af3c 5ee3 c63d f507 31bd
000000c0: 1867 113d 3599 e53d f87a 4bbd 8891 e7bc
000000d0: 8d75 543c 919d 76bd c82f 803c 4268 d43d
000000e0: f93f a23d 386e 6dbd 68ca 3e3d 8ba2 45bc
000000f0: 5a44 dd3d 1923 ae3d 47b7 aa3d dc88 493c
0.11628353 0.06177032 0.063521676 0.045796346 -0.070798725 0.028660003 0.14190285 -0.023286533
-0.09997598 0.009691703 0.07284297 -0.14091745 0.14630723 -0.06825058 0.035003994 0.040995486
-0.0112688 0.07469683 0.038375083 -0.03279697 0.03089061 -0.02638355 -0.02902994 -0.045298103
0.0024479039 0.05391445 0.044621117 0.0868409 0.09753082 -0.07971549 0.12785798 -0.13940616
0.02606755 0.071211584 -0.0769304 0.06549796 0.016649006 -0.02958362 0.059261378 -0.03845866
-0.12678622 -0.015043855 0.06624103 0.0450858 -0.03544161 0.021390084 0.097113356 -0.04322048
0.03549871 0.112108625 -0.04967782 -0.028267637 0.012967479 -0.06020886 0.015647784 0.10371448
0.07922358 -0.05796644 0.04657975 -0.012062679 0.10804053 0.08502788 0.08335739 0.012300696

action_head.weight f4 [4, 64]
00000000: 3a64 673e d763 a4be 67d8 91be f229 503e
00000010: e5d8 8ebd 8143 6abe 5f5b da3e f9e9 f1bd
00000020: 4852 8cbe 9607 b23c 2258 a93e 549f de3c
00000030: 20a6 90be 1741 2d3e a9d2 4e3e 1d91 4ebe
00000040: e7e2 3d3e d9c6 913e a126 893e e578 7d3e
00000050: 1eda 54bd 3bac 813c fa13 f3bd 3800 8cbe
00000060: 0264 8f3e 7133 56bc a48c a2be 609e 923e
00000070: e8df 4f3d a55b 883e 9096 413e 706a 53be
00000080: 6878 c0be 4a3a 083e 5f24 9dbe d160 8abd
00000090: a917 15be 1ef0 63be db1f 7b3e dbda b73d
000000a0: a1e5 233e e711 483e 4037 e6bd a726 903e
000000b0: 2401 803e 2c4a 243d 80f5 14be 2705 95be
000000c0: b15c 8e3e f033 9cbe beb0 c43e ea76 6abe
000000d0: 8f3a edbe 2ac2 45be 419c 70be 0494 513a
000000e0: 2dc4 98be 84d7 883e fda6 aabe ceff 863b
000000f0: e363 3abe 4e47 3c3e 00e6 623d 58d2 82be
00000100: c67e edbd d298 a63e 1d36 273e 4693 90be
00000110: 7c8e bebd 0e24 b53e d1cf 96be 8caf 273d
00000120: 0003 313e 9dcd 05be 0e42 b7be 1030 52be
00000130: 1923 a13e 3070 86be d78a 50bd f353 7d3e
00000140: d913 a0bd 944e 70be c21f 8ebe 8d0e acbd
00000150: 195d ee3d 5be9 21be 5d14 11bd ed68 b73e
00000160: 4585 b7be 06c2 e2bb 6ba5 ca3d 9148 b2be
00000170: 2f8a 2dbe 923b 95be 90c8 b5bd 7e0a 673d
00000180: b80e 9d3e 9cf5 1cbe e4b9 403e f846 ff3d
00000190: c646 813e 545a 7f3e 4082 76be 37f4 52be
000001a0: 9ea1 88be 9d0c ccbd dd5a 183c 2dc1 d8be
000001b0: b17f 9cbe ba18 bd3d 076f 513e 791d 9a3e
000001c0: f06b c5be 731d 563e 4c76 cebe 7d36 1b3e
000001d0: 3022 853e 468b 413e b70a 5b3d 4c32 a0bd
000001e0: 1bf7 903e 2575 99be 2f78 943e c846 97be
000001f0: 0e53 f53d 10e6 fbbb 4509 10be 0cd4 ab3e
00000200: f43e debd 5213 343e 399a 493e df92 273e
00000210: 178e 873e 7525 d73d 7a4b 603e ae19 d03e
00000220: 8354 dabd 171a bfbe 4a9c 37be 29e0 c1bd
00000230: 2a6d febd 4734 923e 80dc 0dbe 8c30 003d
00000240: e9e5 d83d 8693 433e ae7b 773d f994 ccbe
00000250: f85a b6be e357 933e fbd5 673e eb7d 8dbe
00000260: 4a2d 00be cf94 7c3e 27c2 bbbe 95e1 c03d
00000270: ae66 893e c962 a6be 6e79 b63e f7e6 2c3e
00000280: d738 d4be 5c2e 8ebb 0234 babe b885 13bd
00000290: ecdd 953e 6da8 4fbd 2e0d 83be 07db 58bd
000002a0: 0237 843e af3a dabe abac 65be ae9b a1bd
000002b0: d33a 8a3d 2ed2 af3e a49a 643e 0d11 41be
000002c0: 3976 0c3e ad53 a33d 2c77 f23d 4270 b73e
000002d0: 596a 52be 2d57 96be e640 cebe b643 b93e
000002e0: 543f 913c 66f9 5cbe 64d9 823e 9ea3 ad3e
000002f0: 0a91 5a3e 980b c0be 0ad1 ab3e 9674 153e
00000300: 70b8 403d b3f5 30be d4f9 48be 9f7f 2ebd
00000310: 6823 94be 9dc9 8cbe 0c83 60be b0ae 8dbe
00000320: 8442 933e c1f3 863e 41cd 453b 11ab 173e
00000330: b59f d73d b4c3 b6be 09f7 0d3e c830 ac3d
00000340: 83dc bbbe d185 05be b2b2 063d 7bcc 4d3e
00000350: 777f e23d 158c 88be 9830 80be 9d7c 913e
00000360: c3b7 b83d e420 a7be 8e99 fd3d f3c1 b53d
00000370: 2c8c a2be e2cd ad3e 91c4 e2be 1a8a 7e3d
00000380: b6b0 aa3e c9aa ba3d ff57 e73e 1d12 2dbe
00000390: 44e4 a1be 91a9 6cbd 67ff 4f3e 28b5 953d
000003a0: 2a3f e83b af9b c73e ef3f 473e 9752 8bbc
000003b0: 25f5 f1bd 6b73 a7be 3a19 8abe 722d 463e
000003c0: 4891 4fbe aa69 90be 8f74 3ebe 9814 94be
000003d0: 8ebe 473e 792b d43e 73d8 c63e c53f b0be
000003e0: fcd3 f5bd 58b0 6f3e 14ce 5fbe 557b a4be
000003f0: 43d2 9bbe b93d 473e 4b75 bdbe a484 94be
0.22596827 -0.32107422 -0.28485414 0.20328501 -0.06974963 -0.22877313 0.42647836 -0.11812205
-0.27406526 0.021732133 0.33075052 0.027175583 -0.28251743 0.16919361 0.20197548 -0.20172544
0.18543588 0.2847202 0.26787284 0.24753149 -0.051965825 0.015829196 -0.118690446 -0.27343917
0.28005987 -0.013073788 -0.31747925 0.28636456 0.050750643 0.2663242 0.18905091 -0.20646071
-0.37591863 0.13303486 -0.3069181 -0.067567475 -0.14559807 -0.22259566 0.2452387 0.0897729
0.16005565 0.19538079 -0.11241007 0.2815449 0.2500087 0.0401098 -0.14546776 -0.29105493
0.27805093 -0.30508375 0.38416094 -0.22896925 -0.4633374 -0.19312349 -0.23497106 0.00079947733
-0.2983717 0.26726925 -0.33330527 0.0041198498 -0.18202166 0.18386576 0.055395126 -0.25551105
-0.11596446 0.32538468 0.16329236 -0.2823736 -0.093045205 0.3537907 -0.29455426 0.0409389
0.172863 -0.13066716 -0.35792583 -0.20526147 0.3147209 -0.26257467 -0.050913658 0.24739055
-0.07816286 -0.23467475 -0.27758604 -0.08401213 0.11638851 -0.15811674 -0.03541981 0.3582224
-0.35843864 -0.006920102 0.09894832 -0.3482099 -0.16947244 -0.2914701 -0.08876145 0.05640649
0.30675292 -0.15328068 0.18820912 0.12464708 0.25249308 0.24936801 -0.24073124 -0.20600973
-0.26685804 -0.09963343 0.009299007 -0.4233488 -0.3056617 0.09233232 0.2045251 0.3010061
-0.38558912 0.20909671 -0.40324628 0.15157504 0.26002645 0.18900785 0.053477015 -0.07822093
0.28313527 -0.29972187 0.28997943 -0.2954619 0.11978732 -0.0076873377 -0.14066036 0.33560216
-0.10851851 0.17585495 0.19687738 0.1636462 0.26475593 0.10505191 0.21903792 0.40644592
-0.106606506 -0.37324592 -0.17930713 -0.09466583 -0.12423165 0.2855551 -0.13853645 0.031296298
0.10590727 0.19099244 0.060420685 -0.39957407 -0.3561628 0.2877799 0.22640221 -0.2763513
-0.12517276 0.24666141 -0.36671564 0.09418026 0.2683615 -0.32497242 0.35639518 0.16884981
-0.41449615 -0.0043390226 -0.36367804 -0.036016196 0.29270875 -0.050697733 -0.25595993 -0.052943256
0.25823218 -0.42622897 -0.22429149 -0.07891022 0.06749501 0.34340042 0.22324616 -0.1885416
0.13716973 0.07974944 0.118391365 0.35827833 -0.20548381 -0.29363385 -0.4028389 0.36184472
0.017730393 -0.21579513 0.2555648 0.33913893 0.2134439 -0.37508845 0.33557922 0.14595255
0.047050893 -0.17281227 -0.19626552 -0.042602178 -0.28933263 -0.2749757 -0.2192499 -0.27672338
0.28761685 0.26357844 0.0030182155 0.1481135 0.105285086 -0.35696185 0.13863768 0.08407742
-0.36691675 -0.13039328 0.03288526 0.20097534 0.11059468 -0.26669374 -0.25037074 0.28415385
0.09019425 -0.3264228 0.12382804 0.088748835 -0.31747568 0.3394614 -0.44290593 0.062143423
0.33337945 0.09114606 0.45184323 -0.16901441 -0.31619465 -0.0577789 0.20312272 0.073099434
0.007087608 0.38985965 0.19457982 -0.017007155 -0.11814336 -0.32705244 -0.2697237 0.19353274
-0.20270264 -0.28205615 -0.18599151 -0.28921962 0.19506285 0.41439417 0.38837013 -0.34423652
-0.120033234 0.23407114 -0.21855956 -0.32125345 -0.30433854 0.19457139 -0.3700355 -0.29007447

action_head.bias f4 [4]
00000000: 474d 40bd ffd9 e6bc 9505 acbd 4abe 39bd
-0.046948697 -0.02818012 -0.08399502 -0.04534749
