output/4-agents_domain-CoinGame-4_MATE-TD-T0.5_2022-08-10-18-43-23/actor_net_2.pth (torch, 45463 bytes, 6 tensors)

fc_net.0.weight f4 [64, 100]
-0.017830444 0.05129263 -0.15841126 0.25834084 0.20201264 -0.04915684 0.09983462 0.11249807
0.13613115 0.27073467 -0.08905794 -0.037548464 0.16382028 0.17465298 0.34161302 -0.24312018
-0.14344338 -0.004251001 0.12774895 0.2515743 -0.38401768 -0.21812607 -0.13278593 0.10072511
0.1611378 -0.025414048 0.094585516 0.0026568573 0.04586222 -0.029574156 -0.030180953 -0.040953405
-0.087673254 0.021967577 -0.04328419 0.00600317 0.05135204 0.04325664 -0.07052967 0.05887158
0.097835444 0.029908147 -0.05288541 -0.028406803 0.09633874 0.06407673 -0.12926292 -0.084581904
0.051508687 0.20484158 -0.09951871 -0.086712115 -0.101625435 -0.12715815 -0.17609407 -0.055854928
0.061516475 -0.18151318 -0.11572795 -0.05803809 0.12584208 -0.00015735408 -0.08935317 -0.22773157
-0.35909426 0.16942395 0.088145286 -0.03321575 -0.15742703 -0.27473333 0.29399976 0.10760572
-0.005283941 -0.1132677 -0.111154824 0.14072399 -0.045084365 0.116003804 0.020640843 0.016467245
-0.021074874 -0.015021945 -0.10018147 -0.092454605 0.1386732 -0.046493277 -0.07222054 -0.1461139
-0.03913201 -0.07662746 0.29783124 0.007539534 -0.064032465 -0.12670933 -0.055332318 0.28709218
0.29774073 0.11603745 -0.042764045 -0.09751149 0.19051528 0.19525051 0.19470596 0.2796972
0.16562489 0.30074516 0.16287309 0.068000026 0.2201823 0.031052355 0.2730988 0.21827902
0.09582287 0.2684208 0.08151166 0.080409646 0.037388112 0.019165467 -0.05763337 -0.12806548
-0.050951444 -0.013310237 -0.183536 -0.17437962 -0.24548127 0.07293997 0.027408829 0.05756937
0.011986688 -0.07285052 0.037670717 -0.01526903 0.10757934 -0.03669855 0.08765815 0.005337472
0.06571586 0.040470377 0.070762396 -0.048780452 0.10254159 0.029862633 0.026049465 0.07111115
-0.016077826 -0.0295115 -0.08258518 -0.05757182 -0.032884985 0.10251612 0.1697558 -0.1834451
-0.04007348 0.07360717 -0.07996209 -0.10452453 -0.20401073 -0.33914298 -0.0481268 -0.18374678
-0.25034958 -0.22591561 -0.33400083 -0.23621424 -0.24315521 -0.1354628 -0.17726743 -0.07599105
-0.11894262 -0.026898379 0.10737765 0.09235522 0.21287327 0.12860605 0.09773149 0.07529776
0.101021394 -0.033947926 0.047011796 0.09682202 0.14047328 0.04891057 -0.09004149 0.051786914
0.14809605 0.09600553 -0.07531949 -0.086950004 -0.08325563 0.1019361 -0.108004674 -0.027946904
-0.14104632 -0.13063619 0.16143864 0.17501235 0.24486178 0.11475137 0.27150774 0.094880275
0.14703326 0.052198313 0.07179879 0.3094041 0.18678 0.3132174 0.11596044 0.10686541
0.20964867 0.08659439 0.08003437 0.118043244 0.13035835 0.15981267 0.12289279 -0.05582856
-0.1578859 0.015989382 0.08782439 0.030791987 -0.39469248 -0.25049576 -0.28808764 -0.2812175
-0.022514649 -0.013723029 0.07257824 0.046184693 0.05469568 0.10339623 0.042312775 -0.004997334
-0.042343736 0.002038758 0.08679738 -0.0065686842 0.04866083 0.09867768 0.054853797 -0.023387669
0.14844081 -0.12672716 -0.041286085 -0.11266986 0.07138083 0.03927198 -0.010646673 0.029384332
-0.05514415 -0.006107488 0.03964322 -0.16228572 -0.01401188 -0.16056144 -0.123694286 -0.079654545
00000000: 2711 92bc 3918 523d 9036 22be 4045 843e
00000010: 67dc 4e3e af58 49bd 1876 cc3d 6365 e63d
00000020: f765 0b3e bc9d 8a3e 0264 b6bd 6bcc 19bd
00000030: 81c0 273e 3bd8 323e e7e7 ae3e 7ff4 78be
00000040: d2e2 12be fb4b 8bbb 9fd0 023e 59ce 803e
00000050: f79d c4be 715c 5fbe 09f9 07be f748 ce3d
00000060: 4f01 253e 1f31 d0bc 0db6 c13d ab1e 2e3b
00000070: 06da 3b3d 8045 f2bc 0c3e f7bc c2be 27bd
00000080: 098e b3bd 59f5 b33c c34a 31bd 3db6 c43b
00000090: 8456 523d e02d 313d dc71 90bd 5323 713d
000000a0: f35d c83d ee01 f53c 5f9e 58bd 62b5 e8bc
000000b0: 3f4d c53d a93a 833d 805d 04be 4739 adbd
000000c0: c6fa 523d fec1 513e 77d0 cbbd 1f96 b1bd
000000d0: ff20 d0bd bf35 02be 0152 34be 23c8 64bd
000000e0: b3f8 7b3d 97de 39be c702 edbd 59b9 6dbd
000000f0: bfdc 003e 6aff 24b9 cbfe b6bd 7732 69be
00000100: 34db b7be 797d 2d3e 8485 b43d 3d0d 08bd
00000110: 8d34 21be d9a9 8cbe 2387 963e 6360 dc3d
00000120: e924 adbb e5f8 e7bd 24a5 e3bd f319 103e
00000130: 62aa 38bd 6793 ed3d fc16 a93c 51e6 863c
00000140: 37a5 acbc 9b1e 76bc f12b cdbd d758 bdbd
00000150: 5900 0e3e bc6f 3ebd 5de8 93bd e29e 15be
00000160: e348 20bd dcee 9cbd 567d 983e 320e f73b
00000170: 7423 83bd 17c0 01be 24a4 62bd bffd 923e
00000180: 7971 983e 0ba5 ed3d 5a29 2fbd 1bb4 c7bd
00000190: 7016 433e c0ef 473e 0061 473e 7934 8f3e
000001a0: 9299 293e 45fb 993e 34c8 263e 9943 8b3d
000001b0: 7877 613e 8261 fe3c 9bd3 8b3e 8984 5f3e
000001c0: c83e c43d 736e 893e 96ef a63d d0ad a43d
000001d0: 4724 193d e600 9d3c f810 6cbd 9923 03be
000001e0: 76b2 50bd 2e13 5abc dcf0 3bbe 9290 32be
000001f0: 715f 7bbe 8d61 953d 7b88 e03c dccd 6b3d
00000200: d063 443c a732 95bd 9c4c 1a3d f42a 7abc
00000210: 8f52 dc3d 3851 16bd 1e86 b33d f6e5 ae3b
00000220: 0996 863d 44c4 253d e0eb 903d 03ce 47bd
00000230: 5301 d23d 7ba2 f43c b065 d53c b9a2 913d
00000240: a5b5 83bc 1ac2 f1bc 6b22 a9bd 6ed0 6bbd
00000250: 68b2 06bd f9f3 d13d 77d4 2d3e 08d9 3bbe
00000260: 1724 24bd 5bbf 963d 2ac3 a3bd f510 d6bd
00000270: 30e8 50be 26a4 adbe 9c20 45bd 1e28 3cbe
00000280: d22d 80be 6c56 67be 2802 abbe 25e2 71be
00000290: aefd 78be c3b6 0abe 9885 35be 32a1 9bbd
000002a0: 3098 f3bd fd59 dcbc d0e8 db3d bc24 bd3d
000002b0: 73fb 593e 4eb1 033e 7327 c83d b635 9a3d
000002c0: 4ee4 ce3d fb0c 0bbd 718f 403d a04a c63d
000002d0: 3ad8 0f3e 7356 483d ac67 b8bd 841e 543d
000002e0: 7ea6 173e 8c9e c43d 1b41 9abd d812 b2bd
000002f0: ee81 aabd e0c3 d03d 8e31 ddbd e8f0 e4bc
00000300: 726e 10be 7ec5 05be 2c50 253e 7036 333e
00000310: 0cbd 7a3e c402 eb3d 1003 8b3e 9750 c23d
00000320: e38f 163e e6cd 553d 3e0b 933d 376a 9e3e
00000330: 4243 3f3e 085e a03e ab7c ed3d 41dc da3d
00000340: 24ae 563e 6658 b13d 0fe9 a33d a8c0 f13d
00000350: a97c 053e efa5 233e 37af fb3d 7dac 64bd
00000360: d7ac 21be 2afc 823c 46dd b33d 7a3f fc3c
00000370: 2215 cabe fb40 80be 3980 93be bdfb 8fbe
00000380: a470 b8bc 8ed6 60bc e6a3 943d 292c 3d3d
00000390: 9408 603d 67c1 d33d 2950 2d3d adc0 a3bb
000003a0: a070 2dbd af9c 053b d3c2 b13d 1e3e d7bb
000003b0: 9450 473d 8617 ca3d 60ae 603d 7f97 bfbc
000003c0: de00 183e c4c4 01be 991b 29bd 75bf e6bd
000003d0: 1d30 923d a8db 203d 626f 2ebc 69b7 f03c
000003e0: d5de 61bd 5321 c8bb ee60 223d 3a2e 26be
000003f0: 1692 65bc 386a 24be 6e53 fdbd ec21 a3bd

fc_net.0.bias f4 [64]
0.032587778 0.06591315 0.006147513 0.09168968 0.011460521 0.07125636 0.085669175 -0.003932961
-0.04554759 -0.056728188 0.06980329 0.12875639 -0.0043606414 -0.021911751 0.050377518 0.02856843
-0.041987985 -0.07575933 -0.048344184 0.07597225 0.07665889 0.009722789 -0.04504274 0.054524522
-0.10088153 0.15485199 0.14074835 0.011388638 -0.08587422 0.05383381 0.059205025 0.047711164
0.094712794 -0.06971634 0.054185856 0.030011622 0.0026105454 -0.05010196 -0.062329773 0.1281352
0.08960374 0.10925262 0.0652512 0.076242365 0.026720772 -0.06537791 0.041728523 -0.04696246
-0.034638606 -0.039828133 0.05801184 0.04510124 0.019725481 0.050421603 0.012057863 0.089359
-0.077681005 -0.028874606 0.044056643 -0.050630353 0.097182505 -0.079783104 0.05586397 0.11701106
00000000: c37a 053d 79fd 863d 1471 c93b cdc7 bb3d
00000010: e9c4 3b3c dbee 913d 5273 af3d 11e0 80bb
00000020: 1c90 3abd d15b 68bd 07f5 8e3d b7d8 033e
00000030: b6e3 8ebb 4680 b3bc a858 4e3d 5708 ea3c
00000040: 98fb 2bbd b527 9bbd 8d04 46bd 5797 9b3d
00000050: 56ff 9c3d 554c 1f3c bc7e 38bd 1b55 5f3d
00000060: fa9a cebd 8591 1e3e 5620 103e 6997 3a3c
00000070: d3de afbd d780 5c3d f880 723d c86c 433d
00000080: c8f8 c13d 71c7 8ebd fdf1 5d3d efda f53c
00000090: af15 2b3b b637 4dbd 814d 7fbd e035 033e
000000a0: 2a82 b73d d6bf df3d 6ca2 853d f524 9c3d
000000b0: 85e5 da3c dbe4 85bd 87eb 2a3d b55b 40bd
000000c0: 36e1 0dbd d322 23bd d39d 6d3d 14bc 383d
000000d0: 5597 a13c e286 4e3d 588e 453c da01 b73d
000000e0: 3817 9fbd 708a ecbc bd74 343d c661 4fbd
000000f0: 9f07 c73d 5365 a3bd 9ed1 643d 7fa3 ef3d

fc_net.2.weight f4 [64, 64]
-0.14489937 -0.16046052 0.036893982 -0.042545397 -0.05567266 0.08270236 0.06770642 0.01257411
-0.091714285 0.17958716 0.09086153 -0.11304198 0.0640209 -0.0969435 -0.17907616 0.025181038
0.073953144 0.07685805 0.0092815 -0.12240289 -0.21180172 -0.11495532 0.07788072 -0.0033339085
0.14246275 -0.16399655 -0.13706806 -0.03603603 0.07455659 0.16042636 -0.1215012 0.10464141
0.026408464 0.13325346 0.046793178 -0.026791282 -0.023511268 -0.14115517 0.04059899 -0.10064222
0.044176105 -0.015799124 0.10695826 -0.081722766 -0.09874991 0.12888403 -0.103616394 0.07674425
0.024098435 0.16152546 -0.10915945 -0.13035423 0.019868039 -0.1324374 -0.06148393 -0.023923669
-0.00944721 -0.069819726 0.041485444 0.065323256 -0.029952118 -0.04549268 -0.055430606 -0.07875274
0.048559953 0.070338935 0.18438752 -0.029508563 -0.14841981 0.227151 0.29950634 -0.22635086
0.019101081 0.020629637 -0.26295787 0.046700932 -0.058231328 -0.11314683 0.07153949 -0.15755989
-0.10731322 -0.18154968 -0.082530506 0.1308214 0.15666424 0.11460991 4.423727e-05 0.006400566
0.17241599 0.1739785 0.13493967 -0.14196537 -0.07652782 -0.087047085 0.2474995 0.15434393
-0.018277341 -0.14468762 -0.018062042 -0.26428556 -0.06423957 0.1516731 -0.22610354 0.15441716
0.06743962 -0.12357695 -0.1183964 0.0982738 0.058622293 -0.2465576 0.22880408 0.042252984
-0.1553949 -0.04226417 0.15618767 0.19271134 -0.23336624 0.114627674 -0.055901483 0.17518216
0.09751414 -0.01298697 0.02490171 0.16994928 0.0151702985 -0.11418333 0.14552936 0.20029587
-0.20325315 -0.11936588 -0.27612194 -0.04782709 -0.110996835 -0.06283567 -0.023957876 0.18127955
-0.03135942 -0.03920324 0.16509163 -0.1581114 0.034741607 -0.055974953 -0.10975717 0.30101946
0.0867941 0.22697063 0.048111305 -0.12154265 -0.16055252 -0.106037475 0.18509887 -0.06788744
-0.12794654 -0.01576059 -0.21906456 0.046950962 -0.036593232 -0.038473096 0.019749485 -0.009822212
0.2214172 0.24953683 -0.07964505 0.32993725 0.15365607 -0.025775151 0.019370606 -0.00039704627
-0.2412372 0.07377958 0.3376276 -0.31530327 0.18555073 0.22430591 -0.25893345 -0.16746207
0.1628922 0.1464412 -0.14070882 -0.13243079 0.23103671 -0.022925738 0.2628704 -0.21336247
-0.112329364 0.018935837 -0.18422106 -0.00633065 0.0846983 0.1515555 -0.19981231 -0.10730587
-0.08293695 -0.08221973 -0.23500453 0.1582407 0.34388056 -0.21799178 -0.1619075 0.116180085
0.00458748 0.15911238 0.055784896 -0.056037176 0.20578466 0.22430001 -0.18326238 -0.05636589
-0.0287119 0.21598041 -0.022129117 -0.22981057 -0.2694467 0.08636873 0.056118663 -0.046764623
-0.03155042 -0.17630513 -0.26707378 0.08380265 0.026339445 0.22135997 -0.32515788 -0.07122062
0.12716553 -0.0023213888 0.2598035 0.052114896 0.27306774 -0.16713612 0.13636388 -0.16286452
-0.21127422 -0.049281467 -0.14472708 0.005132716 0.043111444 -0.12366102 -0.16638638 -0.056232695
0.2611038 0.14930315 -0.16650358 0.06124775 0.0015335159 -0.12020988 -0.12946366 -0.21972498
0.24513495 -0.06701395 0.19000629 -0.062313918 -0.26597202 -0.013844387 0.17185529 -0.09423658
00000000: 8060 14be c34f 24be 251e 173d 1544 2ebd
00000010: 0409 64bd db5f a93d aaa9 8a3d a403 4e3c
00000020: b3d4 bbbd b2e5 373e 9c15 ba3d 8e82 e7bd
00000030: 641d 833d 508a c6bd be5f 37be 7748 ce3c
00000040: bf74 973d c167 9d3d 6f11 183c 5eae fabd
00000050: 8de2 58be b26d ebbd ed7f 9f3d b47d 5abb
00000060: c1e1 113e b6ee 27be 925b 0cbe 849a 13bd
00000070: 20b1 983d cf46 243e 9fd5 f8bd 3c4e d63d
00000080: 9056 d83c 9873 083e 34aa 3f3d 6479 dbbc
00000090: b49a c0bc fb8a 10be 204b 263d 821d cebd
000000a0: 01f2 343d 2a6d 81bc ef0c db3d 445e a7bd
000000b0: 653d cabd 2dfa 033e d534 d4bd 172c 9d3d
000000c0: 156a c53c ee66 253e fd8e dfbd 947b 05be
000000d0: 4cc2 a23c ab9d 07be 93d6 7bbd 92fb c3bc
000000e0: 78c8 1abc a5fd 8ebd a4ec 293d 33c8 853d
000000f0: 255e f5bc 8856 3abd 340b 63bd 1e49 a1bd
00000100: cde6 463d dc0d 903d 15d0 3c3e f1bb f1bc
00000110: 5dfb 17be 469a 683e e558 993e 85c8 67be
00000120: df79 9c3c 7cff a83c 6aa2 86be 7a49 3f3d
00000130: f983 6ebd 86b9 e7bd 4c83 923d 6157 21be
00000140: 09c7 dbbd 29e8 39be c105 a9bd 0cf6 053e
00000150: 976c 203e 9ab8 ea3d 688b 3938 d7bb d13b
00000160: d18d 303e 6b27 323e a02d 0a3e 5f5f 11be
00000170: 9eba 9cbd be45 b2bd 8270 7d3e 560c 1e3e
00000180: 5dba 95bc fe28 14be d9f6 93bc 7050 87be
00000190: 0990 83bd 3150 1b3e b087 67be 881f 1e3e
000001a0: c91d 8a3d e915 fdbd d079 f2bd c643 c93d
000001b0: ee1d 703d 9879 7cbe 9e4b 6a3e 7711 2d3d
000001c0: d71f 1fbe 321d 2dbd a9ef 1f3e 1f56 453e
000001d0: 8ff7 6ebe eac1 ea3d f4f8 64bd f462 333e
000001e0: 7eb5 c73d 4dc7 54bc acfe cb3c 2f07 2e3e
000001f0: d88c 783c f3d8 e9bd a605 153e 5c1a 4d3e
00000200: 9821 50be 1976 f4bd db5f 8dbe 57e6 43bd
00000210: 4f52 e3bd fdaf 80bd 4f43 c4bc 59a1 393e
00000220: bc72 00bd 9493 20bd c80d 293e f4e7 21be
00000230: 374d 0e3d fe45 65bd 5ec8 e0bd 391f 9a3e
00000240: 1bc1 b13d fd6a 683e 5c10 453d 5aeb f8bd
00000250: e167 24be 2d2a d9bd 8f8a 3d3e 9208 8bbd
00000260: 6b04 03be 5a1c 81bc 7652 60be a74f 403d
00000270: c9e2 15bd f795 1dbd acc9 a13c 58ed 20bc
00000280: 31bb 623e 9586 7f3e f21c a3bd 89ed a83e
00000290: 0458 1d3e 6926 d3bc 1baf 9e3c a62a d0b9
000002a0: e206 77be c019 973d 86dd ac3e 6e6f a1be
000002b0: 0301 3e3e 73b0 653e ed92 84be 2d7b 2bbe
000002c0: 36cd 263e aff4 153e f915 10be f09b 07be
000002d0: e394 6c3e c2ce bbbc f396 863e b17b 5abe
000002e0: f00c e6bd 541f 9b3c 72a4 3cbe 5771 cfbb
000002f0: 4d76 ad3d 5d31 1b3e 999b 4cbe 2ec3 dbbd
00000300: d9da a9bd d162 a8bd 07a5 70be da09 223e
00000310: 1d11 b03e 3d39 5fbe 14cb 25be d3ef ed3d
00000320: 9252 963b 5bee 223e b47e 643d 3d87 65bd
00000330: 37b9 523e e7ae 653e 22a9 3bbe ebdf 66bd
00000340: 3835 ebbc f829 5d3e 1f48 b5bc 7653 6bbe
00000350: ebf4 89be 17e2 b03d afdc 653d 438c 3fbd
00000360: 033b 01bd 5589 34be e5bd 88be b9a0 ab3d
00000370: d2c5 d73c 30ac 623e 187b a6be 1edc 91bd
00000380: ae37 023e 7122 18bb f704 853e 6e76 553d
00000390: 89cf 8b3e bb25 2bbe f9a2 0b3e f5c5 26be
000003a0: 4558 58be 5ddb 49bd 5633 14be 5830 a83b
000003b0: a095 303d fd41 fdbd 3161 2abe 4154 66bd
000003c0: 66af 853e ede2 183e ea7f 2abe ecde 7a3d
000003d0: 4100 c93a 9930 f6bd 1f92 04be 96ff 60be
000003e0: a804 7b3e 9c3e 89bd 0291 423e e13c 7fbd
000003f0: 7c2d 88be 91d3 62bc d5fa 2f3e 1cff c0bd

fc_net.2.bias f4 [64]
-0.16744061 0.118757196 -0.06433225 0.05587262 -0.015887689 0.017693438 0.01672841 0.115955524
-0.009339485 -0.010973424 0.13361917 -0.04149761 0.063236706 0.07518463 0.038919497 0.0015895482
0.17073794 0.053640243 -0.02118587 -0.051692653 0.034887675 -0.061733842 0.092726104 -0.035927672
0.121677026 -0.06784164 0.117906235 -0.066914424 -0.004804372 0.00048716782 -0.070269294 0.07688579
-0.0072578676 -0.07631805 0.13641754 0.030738816 0.16332504 -0.008008849 0.08977368 0.14128533
-0.0069186874 -0.07265732 0.06941426 0.106232144 -0.026437948 0.09638446 -0.011971937 -0.044921603
-0.053975224 -0.0470698 0.103800274 0.032391004 0.040338494 -0.045575786 -0.002512891 0.01666772
0.11136605 0.05650657 0.0074170697 -0.06078876 0.012140001 -0.00383929 0.12440019 -0.004341409
00000000: 8d75 2bbe f936 f33d a0c0 83bd b0da 643d
00000010: e626 82bc d4f1 903c 050a 893c 177a ed3d
00000020: a404 19bc e0c9 33bc 77d3 083e 66f9 29bd
00000030: 3f82 813d 66fa 993d 0d6a 1f3d 6358 d03a
00000040: edd5 2e3e dfb5 5b3d fd8d adbc adbb 53bd
00000050: 61e6 0e3d a0dc 7cbd 2fe7 bd3d e528 13bd
00000060: ce31 f93d 8ff0 8abd d378 f13d 6e0a 89bd
00000070: fe6d 9dbb 8f6a ff39 59e9 8fbd 4c76 9d3d
00000080: 68d3 edbb a34c 9cbd 0ab1 0b3e f8cf fb3c
00000090: ae3e 273e 8c37 03bc 43db b73d 1aad 103e
000000a0: 28b6 e2bb 5ccd 94bd 1029 8e3d 3d90 d93d
000000b0: 6594 d8bc 3765 c53d f125 44bc b7ff 37bd
000000c0: 2015 5dbd 43cc 40bd 3d95 d43d 6eac 043d
000000d0: fa39 253d adad 3abd 51af 24bb be8a 883c
000000e0: e213 e43d 6f73 673d e40a f33b a3fd 78bd
000000f0: dbe6 463c 999c 7bbb 87c5 fe3d 6142 8ebb

action_head.weight f4 [4, 64]
-0.115835145 -0.101213 0.15561852 -0.20041429 0.3423466 0.24915628 -0.40441275 -0.1192976
0.061053973 -0.18299828 -0.2951814 0.32091796 0.28336355 0.021962821 0.07020452 -0.007424528
-0.24616532 0.48930976 -0.38944957 -0.17522988 0.070621856 -0.20482548 -0.31010714 0.10537139
0.32215342 -0.04756628 -0.27213034 -0.21345472 0.26998702 -0.46069816 0.29391345 -0.25695813
-0.110084444 -0.06688749 0.3245862 -0.19672738 0.13868323 -0.25251845 0.23694707 0.2037356
-0.34100538 -0.109675966 -0.009859421 0.12170383 -0.38887042 -0.17971534 0.28516728 -0.13933983
0.34081742 0.29046232 -0.20526956 0.34254625 -0.15992995 -0.2664164 0.12921552 -0.3925296
0.3317228 -0.018952955 0.3965056 -0.27766985 0.36455113 -0.10865191 -0.26453206 -0.28113085
-0.126122 0.042790912 -0.311575 0.080474876 -0.26937371 -0.27776387 0.32393035 0.0877421
-0.14620501 0.26602885 0.30585402 -0.30051866 -0.42096496 0.22545196 -0.108470194 -0.2295255
0.124807015 -0.40503132 0.27614996 -0.11834854 -0.08192419 -0.07461576 0.34292457 -0.19509585
-0.38948542 -0.055616397 0.22802205 -0.027300974 -0.30152544 0.4438281 -0.24360007 0.30490983
0.25039196 0.06159988 -0.28125855 -0.029613152 0.068809465 -0.007451726 -0.3396061 -0.23625924
0.35614392 -0.10415802 -0.12512594 0.007277307 0.43659806 0.24759574 -0.42605725 -0.10888899
-0.39358047 -0.35592738 0.18108624 -0.30878648 0.22328952 -0.040408757 -0.28950942 0.45647502
-0.112590596 0.20564449 -0.37554747 0.13371487 -0.32077652 -0.13272063 0.24013652 0.00018311941
0.16414154 -0.32322276 0.2986904 0.2953488 -0.3557708 -0.24558909 -0.418803 -0.29443294
0.14316064 0.15873641 -0.26424912 0.18652608 -0.22277509 -0.44796926 0.03637392 0.23587161
-0.4428347 -0.021829795 -0.19053343 0.027237862 -0.40654004 -0.34050098 -0.049339578 -0.21581359
-0.16446878 -0.19502543 -0.022674376 0.41036958 -0.3755405 0.10539723 0.2838701 0.29946378
0.38416725 -0.20347372 -0.19879405 -0.2761579 0.18586643 0.15449771 0.20044307 0.20332494
0.06709406 -0.12513924 0.14387494 -0.5099195 -0.028794374 -0.46541733 0.31979635 0.44233632
-0.13110813 0.07420644 0.13414091 -0.11184263 0.41264334 0.4220377 0.37496692 0.080682285
-0.38434196 -0.49226817 -0.043724164 -0.28201076 0.10013049 0.32168236 -0.15863967 -0.10140426
0.01815311 0.23248911 -0.18521014 -0.3540275 0.27995616 0.27908102 0.11276074 0.15732582
0.09568913 -0.14233011 -0.01653484 -0.19115639 0.105981305 0.27596506 0.09336166 -0.19421464
0.0564355 -0.081606515 0.18691781 0.19913372 0.26569948 0.2688806 0.19355036 0.3437152
-0.07271621 0.37975553 -0.018768955 -0.21397857 0.4149455 -0.023038063 -0.057975285 -0.47595614
-0.28106 0.26985884 0.2754303 0.25633016 -0.30406198 -0.13504204 -0.35000837 -0.37138468
-0.12228478 0.35134563 -0.043746736 0.24721499 -0.06869704 0.19299097 -0.26118094 -0.2134131
0.286708 -0.10796554 -0.1365006 0.041200306 -0.33200186 -0.16976438 -0.21367471 -0.14508046
0.14263794 0.33376878 0.007416748 0.26826626 -0.046261467 -0.038918186 0.18206409 0.3871725
00000000: fa3a edbd c348 cfbd 765a 1f3e 6739 4dbe
00000010: 0e48 af3e d322 7f3e 300f cfbe 4d52 f4bd
00000020: bb13 7a3d e763 3bbe 0422 97be 5c4f a43e
00000030: 0715 913e 60eb b33c 63c7 8f3d 7449 f3bb
00000040: c312 7cbe cf86 fa3e ef65 c7be 766f 33be
00000050: 31a2 903d c5bd 51be 5dc6 9ebe f5cc d73d
00000060: 4bf1 a43e dcd4 42bd ab54 8bbe e093 5abe
00000070: bd3b 8a3e a1e0 ebbe d37b 963e 0490 83be
00000080: f473 e1bd 4ffc 88bd 2a30 a63e e772 49be
00000090: fa02 0e3e 194a 81be 41a2 723e 11a0 503e
000000a0: 4298 aebe cb9d e0bd 6989 21bc dc3f f93d
000000b0: 061a c7be 4c07 38be 7201 923e 1aaf 0ebe
000000c0: 9f7f ae3e 7ab7 943e 2f32 52be 3962 af3e
000000d0: adc4 23be bb67 88be 1351 043e a4f9 c8be
000000e0: 92d7 a93e 3a43 9bbc c802 cb3e be2a 8ebe
000000f0: 72a6 ba3e e584 debd bf70 87be 62f0 8fbe
00000100: 2026 01be 8645 2f3d c286 9fbe 03d0 a43d
00000110: 5aeb 89be 1137 8ebe 33da a53e 21b2 b33d
00000120: c4b6 15be ef34 883e e698 9c3e 95dd 99be
00000130: b888 d7be e1dc 663e 9f25 debd bc08 6bbe
00000140: d29a ff3d 4460 cfbe 8763 8d3e b860 f2bd
00000150: dfc7 a7bd 26d0 98bd cf93 af3e 35c7 47be
00000160: a26a c7be 05ce 63bd 9d7e 693e 4ba6 dfbc
00000170: 8b61 9abe 703d e33e 4c72 79be 241d 9c3e
00000180: 6033 803e 2850 7c3d 1f01 90be 4897 f2bc
00000190: faeb 8c3d 9c2d f4bb dae0 adbe f1ed 71be
000001a0: 7f58 b63e cd50 d5bd 0421 00be 7a76 ee3b
000001b0: c889 df3e bd89 7d3e 2d24 dabe 3101 dfbd
000001c0: 6183 c9be 1d3c b6be ac6e 393e 4319 9ebe
000001d0: 02a6 643e a783 25bd 943a 94be 18b7 e93e
000001e0: e695 e6bd 7894 523e c247 c0be 8dec 083e
000001f0: d23c a4be ebe7 07be 59e6 753e be03 4039
00000200: b814 283e 747d a5be f3ed 983e f537 973e
00000210: 9727 b6be b57b 7bbe 596d d6be eabf 96be
00000220: b498 123e cc8b 223e a94b 87be b100 3f3e
00000230: 271f 64be 3a5c e5be d2fc 143d 5488 713e
00000240: 3bbb e2be 66d4 b2bc 321b 43be f021 df3c
00000250: 0426 d0be 2556 aebe 4c18 4abd 3dfe 5cbe
00000260: 816a 28be bfb4 47be 9dbf b9bc f61b d23e
00000270: d846 c0be 81da d73d 6c57 913e 5153 993e
00000280: 92b1 c43e 6a5b 50be ab90 4bbe 9164 8dbe
00000290: c553 3e3e a634 1e3e f340 4d3e 6a34 503e
000002a0: 9c68 893d 8024 00be f453 133e 168a 02bf
000002b0: 2ee2 ebbc 2e4b eebe 59bc a33e e879 e23e
000002c0: 3641 06be 8cf9 973d 3c5c 093e c00d e5bd
000002d0: fd45 d33e 5315 d83e aafb bf3e c13c a53d
000002e0: 78c8 c4be 930a fcbe 1c18 33bd b763 90be
000002f0: 3711 cd3d 8db3 a43e 7072 22be 09ad cfbd
00000300: d5b5 943c a011 6e3e baa7 3dbe 1843 b5be
00000310: 6a56 8f3e b5e3 8e3e 1aef e63d 051a 213e
00000320: aaf8 c33d fcbe 11be 1374 87bc 80be 43be
00000330: ba0c d93d 4b4b 8d3e 6634 bf3d 34e0 46be
00000340: e928 673d 5121 a7bd 6267 3f3e b6e9 4b3e
00000350: c309 883e b8aa 893e 1132 463e 70fb af3e
00000360: 3cec 94bd 516f c23e 5ac1 99bc 331d 5bbe
00000370: bd73 d43e 52ba bcbc 7e77 6dbd 86b0 f3be
00000380: 19e7 8fbe f02a 8a3e 3305 8d3e b53d 833e
00000390: 03ae 9bbe 7648 0abe 4c34 b3be 2226 bebe
000003a0: 7170 fabd 93e3 b33e c72f 33bd ed25 7d3e
000003b0: 09b1 8cbd 6d9f 453e 82b9 85be f788 5abe
000003c0: 64cb 923e 091d ddbd d0c6 0bbe a7c1 283d
000003d0: 26fc a9be b7d6 2dbe 8bcd 5abe f98f 14be
000003e0: ae0f 123e bee3 aa3e 3108 f33b 325a 893e
000003f0: aa7c 3dbd ad68 1fbd 026f 3a3e 793b c63e

action_head.bias f4 [4]
0.07929345 -0.016367849 -0.009823631 0.047386106
00000000: 9b64 a23d de15 86bc 4bf3 20bc ef17 423d
