output/4-agents_domain-CoinGame-4_MATE-TD-T0.5_2022-08-10-18-43-23/critic_net_1.pth (torch, 44695 bytes, 5 tensors)

fc_net.0.weight f4 [64, 100]
00000000: e97c 26bd 805c 693c a691 f6bd c66f 473d
00000010: e185 e8bc b47b 74bd 69a9 5b3b 0d80 55be
00000020: cb5c e73c 515b 42bd 8e2f 24be 0525 eebc
00000030: 1b25 19be 69be 3abc a48f 9bbd 6a8e 46bc
00000040: f6cd c4bd 6d33 5abd 520d eabd 9546 32be
00000050: 9a80 913d 1b47 643c c40a 32bd 1c28 a9bd
00000060: a3b0 04bd d1b0 fb3c 990c 2fbe e7bd 2fbd
00000070: 89ff 90bc d429 89bd af8d 1dbd 62ed 493d
00000080: 5a1c 03be 1ca8 a3bd 672b f3bd 1e37 47bd
00000090: 5aae 0ebd c78f 573d c455 5abd f468 b5bc
000000a0: 5af5 b2bd c7c4 f5bc 9257 ecbd f62f fb3c
000000b0: 77e5 cdbd 0754 1fbe eb30 62be d71b 213d
000000c0: d482 0f3d 39db 723c 75fe c93d bddc 0c3e
000000d0: 2bea b53d 01f1 14be 7579 24be 6f32 63bc
000000e0: 7acf dc3d 119b c4bb a13f 61bd 0549 0dbd
000000f0: f681 1fbd c0a7 223d f272 323d 6573 7bbc
00000100: 5e72 98bd 2acf 51bb d81f 243e 8283 49bd
00000110: 0ccf 11bd 4322 91bd b50e d73d 456b 193e
00000120: bccb d63d 9ad1 27bd 67f8 f63d c4ad 35bd
00000130: cc2b c7bd 0fbf 963d 11b9 31bd 15fb 4bbe
00000140: e2ab 41be fd0b 6fbd a9fb d3bd 8f6c a4bd
00000150: e63b d7bd 82d2 20be 1f02 86bc 3260 d8bd
00000160: c46b 6abc 347f 9abd 2df9 cabd 64bf e6bd
00000170: a053 24be 4e91 15be 9c26 90bb eb16 10bd
00000180: 6abb a8bd ef38 c0bb ebc8 25be 6aee 32be
00000190: 7b54 3ebd 75f4 a3bd 845a eebd 8f07 bebd
000001a0: b203 f8bd 00d7 95bd 0d9a 2bbe 5e2c 55bd
000001b0: d875 e3bd 4650 72bc 6398 5fbe 6477 bdbd
000001c0: e111 1ebe eb18 58be 9dd8 b5bd fbf3 1bbd
000001d0: 186e e1bd 7e76 2cbd 5eb4 04be 5dcf a9bd
000001e0: 9c46 913d daaa 86bd b9bd 18bd 4803 94bd
000001f0: dff1 2fbe eec3 30bd 5f88 8abc 2d03 97bc
00000200: 91aa 49bd 88b6 20be c58a fabd a0dd b4bc
00000210: f938 c83b f48c 1bbe 21b2 0cbe 1bc3 e03c
00000220: 644f 15be 8d49 efbd 22f8 31be abc4 0fbe
00000230: 8ad1 d8bd 4b58 bcbb 4faa aabd 2867 b4bd
00000240: 283f 593d 5ac8 11be f97e 2dbe 337d 93bc
00000250: 0ce8 ac3d 906f 42bd 84c1 1c3e cd8c 63bc
00000260: 8a5e ef3d 57e0 90bd a1cb e5bd bbf6 80bc
00000270: dca1 aebc 077a bfbd e4bd f8bd e221 d5bd
00000280: 88d8 e63d 0c9d e53c 23e8 463d 1446 0cbe
00000290: 3bde 9fbd cf0d d33d d436 ac3c 6a80 9c3d
000002a0: 5757 1f3e 2287 0dbe 63e4 f03d 9005 033e
000002b0: 85a8 ee3d 2028 ce3c d832 a7bd 1308 dfbc
000002c0: 73cb 59bd 668a 4ebe 5d9d 27bd 638c 46be
000002d0: d5c3 49be 0da4 32be ce32 b8bc 3f98 f7bd
000002e0: 4d90 15bd caea 24bd 5cd5 20be b1c1 ce3c
000002f0: 74b7 e6bd ce32 283c aeb1 ffbd 849f a4bc
00000300: fc3e c4bd a58a 96bd 0e45 ac3c d2ba 9cbd
00000310: 01dd 05be c6de 10be c7ab 2fbd aa88 88be
00000320: 798d 163e 66f8 4b3d c846 143e 7cd1 3d3e
00000330: f120 d03c 4e9b 253d ad0b 123e 40bc a23d
00000340: 9a04 953d 8d05 8a3d 59eb bf3d aaa7 163e
00000350: 586b f83d c7a3 6bbc 2dac d33d daf5 d1bd
00000360: eeb0 083e 103a 7e3d 2a3f 3abc 6db8 40bd
00000370: 63d5 00be a3c2 973c 3c42 cc3d 592f f93d
00000380: 85c1 123e b7dc d33d c37a 063e 24f1 6ebc
00000390: 6562 063e 8688 183e aecc 263d 42bc 253e
000003a0: 91c5 8d3d 1c37 c83d d7a6 6a3e 7f1b 663d
000003b0: e3d2 333d f4f8 0a3e 7b8a b63c c11a 6b3d
000003c0: d2b5 db3c 0478 4f3d 5edb 993d 427c 0f3e
000003d0: 954d 923d 2b35 673b 2faf ad3d c4f7 0c3e
000003e0: a4c9 183e c6f0 bb3d e399 3bbe a68d 69bd
000003f0: ebf5 f93c d4dc 323e 4688 fe3d 4950 f9bc
-0.040646467 0.014243245 -0.12039499 0.04869058 -0.028384151 -0.059688285 0.0033517724 -0.20849629
0.02824249 -0.047450367 -0.16033766 -0.029070387 -0.14955561 -0.011397936 -0.07595757 -0.012118915
-0.096095964 -0.0532717 -0.11428322 -0.17409737 0.07104607 0.0139329685 -0.0434673 -0.082596034
-0.032395016 0.030723961 -0.1709465 -0.042905714 -0.017699974 -0.06697431 -0.038465198 0.04929865
-0.12803784 -0.07991049 -0.11873513 -0.04863655 -0.034834243 0.05262735 -0.05330445 -0.022144772
-0.08738203 -0.030001057 -0.1154014 0.030662518 -0.100535326 -0.15559398 -0.22088973 0.03933319
0.035036877 0.014822775 0.09862987 0.1375608 0.088825546 -0.1454506 -0.16061957 -0.013867005
0.107817605 -0.0059999307 -0.054992322 -0.034493465 -0.0389423 0.03971076 0.04356665 -0.015347336
-0.07443689 -0.0032014349 0.16027772 -0.04919768 -0.035597846 -0.07086613 0.10500852 0.14982326
0.10488078 -0.040971376 0.12059098 -0.04435517 -0.097251505 0.0736066 -0.043389384 -0.19919999
-0.18913224 -0.058361042 -0.10350735 -0.080285184 -0.105094716 -0.15705302 -0.016358433 -0.10565223
-0.01430792 -0.07543793 -0.09910808 -0.112669736 -0.16047525 -0.1460621 -0.004399134 -0.035178106
-0.082388714 -0.005866162 -0.16189925 -0.1747376 -0.046467286 -0.08005611 -0.11638358 -0.092787854
-0.1211008 -0.073163986 -0.16757984 -0.052044265 -0.11106461 -0.0147896465 -0.21835475 -0.092512876
-0.15436508 -0.21103255 -0.08879206 -0.038074475 -0.11007327 -0.04210519 -0.1295943 -0.082915045
0.07093546 -0.06575556 -0.03729031 -0.07227188 -0.1718211 -0.043155603 -0.01691073 -0.018434132
-0.04923493 -0.1569463 -0.122334994 -0.022078335 0.0061103073 -0.15190488 -0.13739826 0.027436784
-0.14581066 -0.116839506 -0.17379811 -0.14039867 -0.105868414 -0.00574783 -0.08333265 -0.08808738
0.053038746 -0.14236584 -0.16942967 -0.018004036 0.08442697 -0.047469676 0.15308195 -0.01388855
0.11687954 -0.070740394 -0.1122048 -0.01574265 -0.021317415 -0.09349447 -0.12145594 -0.10406853
0.11271769 0.028028987 0.048561227 -0.13698608 -0.07806059 0.10305368 0.021022238 0.076416805
0.15560661 -0.1382108 0.11762311 0.1279509 0.11653236 0.025165617 -0.081639946 -0.02722553
-0.05317254 -0.20169982 -0.040921558 -0.19389491 -0.1970361 -0.17445393 -0.022485163 -0.120895855
-0.03651457 -0.040262975 -0.1570639 0.025238844 -0.1126546 0.010266019 -0.124850616 -0.020095594
-0.09582326 -0.07350663 0.021029022 -0.07652821 -0.13072588 -0.14147481 -0.04288843 -0.26666766
0.14702405 0.049797438 0.14480126 0.18536943 0.025406333 0.040431313 0.14262266 0.07946062
0.07276268 0.0673934 0.09371061 0.14712396 0.12129849 -0.014382309 0.10335574 -0.102519706
0.13348743 0.06206709 -0.011367599 -0.047050882 -0.125814 0.018525427 0.09973571 0.12167234
0.14331634 0.103448324 0.13132767 -0.01458386 0.13123472 0.1489583 0.04072254 0.16185096
0.069224484 0.09776136 0.22915207 0.056178566 0.04390229 0.1357153 0.02228283 0.05739856
0.026820097 0.050651565 0.07512544 0.14012244 0.07143704 0.0035279493 0.08480679 0.1376639
0.1492067 0.09176783 -0.18320422 -0.057019852 0.03051277 0.17467052 0.12428336 -0.03043379

fc_net.0.bias f4 [64]
00000000: f68d 74bd 24f2 e9bd b247 413e 6cd7 013e
00000010: fb68 e23d c0d1 473e 834d 5fbe dd10 463d
00000020: 3524 ea3d 2da7 473e 7d03 273e c5c4 28be
00000030: 8463 7f3d 478f cd3d 561b 0a3e 5617 2dbe
00000040: 2972 413d 5098 9f3d 5485 19be 2b33 383e
00000050: 3b9e e4bd ef70 20be 63c4 183e f67c f93d
00000060: 74a9 c13d 8586 163e 8072 983d f671 cebd
00000070: ce52 473e e16d 813d 0aa4 d43d 041b 5cbe
00000080: dfe2 9e3d a8a7 45be 3cfd 1c3e 127b 23be
00000090: 323e 003e ba48 2a3e fa36 f1bd ec0b 4b3e
000000a0: 6945 213e 9038 453e 84dc adbd f68d 3a3e
000000b0: 81be 33be 22d7 3cbe b515 023e 6b18 143e
000000c0: 0d34 cd3c dd17 073d 613a a1bd 4dce 413e
000000d0: 396f 9cbb 6e8b 2dbe b0bf 44be 65ba d5bd
000000e0: 12bb 2e3e a987 b43d 8ba7 42be 6580 43be
000000f0: 31ce 25bd f485 e63d ba52 3dbe 1dff 4fbe
-0.059705697 -0.11423138 0.18875006 0.12679833 0.1105518 0.19513607 -0.21806912 0.048355926
0.11432687 0.19497366 0.16309924 -0.16481312 0.062350765 0.100370936 0.1348699 -0.16903433
0.047228012 0.07792723 -0.14992267 0.17988269 -0.111629926 -0.15668081 0.14918666 0.121820375
0.09456149 0.14699753 0.07443714 -0.1008033 0.19465181 0.06319786 0.103828505 -0.2149468
0.07758116 -0.19302237 0.15330976 -0.15964916 0.12523726 0.16629305 -0.11778064 0.19828767
0.15749134 0.19259858 -0.08489326 0.18218216 -0.1755314 -0.18441442 0.12703593 0.1446244
0.025049234 0.032981742 -0.07872463 0.18926354 -0.004774001 -0.1694772 -0.19213748 -0.104359426
0.17063549 0.088149376 -0.19009225 -0.19091947 -0.040479843 0.11256018 -0.18488589 -0.20312162

fc_net.2.weight f4 [64, 64]
00000000: 5f20 683d a931 eabd cfe6 ae3d 085a dabc
00000010: c98c 563d 0547 e43d 886a a6bd 6064 87bc
00000020: 7165 1d3d e558 13bd 9203 ce3d 0293 883c
00000030: e5bf af3d 3349 2a3e 02da 043e 5cef 4bbe
00000040: a24f e03d 1e8d 3f3d 13f5 5abd e056 a13d
00000050: a2b6 57bd 5a42 36be fba3 b43c fdc0 2d3b
00000060: c3af 0c3d 0ef3 2f3e d703 0a3e 9bb4 bd3b
00000070: 0968 f7bc eb9f 2dbc a4cb 023e a47c 26be
00000080: 68b6 473d 045e b4bd b3c9 803d 66aa 72bd
00000090: 35eb 833d 80da 2cbd 25ed 8bbc 2dcc 703d
000000a0: 885d 15bc b927 3abd 5bdc 41be 067c 06ba
000000b0: f90e 3cbe a5fe d0bc 27d1 ce3c 181d 153e
000000c0: f6bb c9bc 1e22 27ba 401b 9cbc c78e 4d3a
000000d0: 68cd 05bd 2235 f2bd c72a f2bd 73bc 42be
000000e0: 54bb bd3d b939 c53d 3471 04be d878 f3bd
000000f0: 515a df3d 0fca 983c c950 0ebe 2fe7 9bbd
00000100: d6db 963d d95e 22be 491e db3d 37b1 52bc
00000110: 2c40 193d 475c 243d 3615 27be b11a 203d
00000120: d768 61bd 0a73 983d bb00 253d 8616 7bbc
00000130: 63ee 5bbc 5c3b ff3c 134f f53d 4f8f e2bd
00000140: ded8 1f3e bc44 6ebd 2171 e5bd ea8c 2c3e
00000150: 0a64 f6ba f8e1 97bd c444 e73d 634e 3bbd
00000160: ef2b 1c3e 279f 6c3c 653a f53d f017 f2bd
00000170: 1178 34bd d026 e8bb ba83 a63d 531f c0bd
00000180: ccd7 e33d 1e26 96bd b521 52bc 5040 1f3c
00000190: c978 63bc 648a d2bc 0eab 48be a692 f13d
000001a0: 3dec 173e 48d1 203e 4150 1bbe 1482 afbc
000001b0: e51f 0d3c 41ec 00be f76a 1dbd 1186 1d3e
000001c0: 04ec 2a3e f4b9 f03d 18dc 87bd 7de2 2bbd
000001d0: 39df 1ebd aca7 9cbd 9f2d 2abe 400a 33be
000001e0: 0913 133d 904f 5c3d b0d2 d6bd 6d11 f4bd
000001f0: c9cf 87bd 4918 9d3c 70a0 fa3c bc58 13be
00000200: 1824 ebbb b0df 19be 0d61 993d 7465 043e
00000210: 6352 b13d cffd 78bd 8422 4dbe 5d8f 9ebc
00000220: 8e18 5cbd e4ef d93c 945d 653d aa3d 56bd
00000230: f606 373c f3a3 4fbd 3d1b 253e 9f2b 9ebd
00000240: f9e6 1f3e 0baf 5ebd a206 253d 7323 7e3d
00000250: f024 0fbe 36ea 81bd 8dd7 0e3e 5413 72bc
00000260: f068 2e3c 914e bf3c 7a33 0f3e 54ff 18be
00000270: e41d a43d c7d3 2c3d dda7 2b3c 39d1 153d
00000280: cd3a d9bd 60d3 8dbc 0ee8 53bd 6c87 a3bd
00000290: 8137 a63d 9b04 ba3d 1c38 643c 0329 a3bc
000002a0: 9a51 bb3c acf6 4e3d 785a 10be 0444 d33d
000002b0: 7ad4 5a3d 5add febd 4b62 d43d 7dde 283d
000002c0: 69bb 813d c981 48bd ff54 ffbd df0c 123e
000002d0: 8dd2 b43d b4b9 e0bd 83e4 abbd ac3e 763d
000002e0: 20e2 25bd 335f 93bd 6fdd 15be 6266 5d3b
000002f0: 79b8 e83d 0427 1e3e 9268 bcbd fe43 c93c
00000300: c864 cc3d a0df 1ebe 6a71 343e 8046 6abb
00000310: 7ec8 0e3d 3595 413d 9a16 45be 4440 eebd
00000320: 333e a83d 8e90 143e 8a32 8f3d 9a7b 25bd
00000330: 48d8 063d 0f2d 223e 14ee 67bd 8e1e 97bb
00000340: 5774 37bd 207b 3ebc 456a 42bd 2c02 22bd
00000350: e3ab 12be ae39 11be 09c1 013e e0a6 053e
00000360: 2a52 2a3e 5be9 be3d 50e7 56bd 4d56 11be
00000370: 80ac 953d 299e 803a c267 8ebc ae7d 0c3d
00000380: cab2 e3bd 26a5 25be a63a 40bd 9821 11be
00000390: f6b4 e5bc 4e25 0d3c 2791 5bbd 2f8c ce3d
000003a0: 147f 933d 6546 1e3e 3b8c 853c c1da df3d
000003b0: 3f18 11be 57ab cdbc ff38 a53d aaab 403e
000003c0: 4bf6 49bd b5dd 02bd cd00 11bd 254a 81bd
000003d0: b297 aabd 327b 33be ddf8 a8bc b518 58bc
000003e0: 8534 debc 6177 03bb b934 64bd a075 a5bd
000003f0: 8863 b9bd ee5c 93bd 81c3 afbd 5eb6 4bbd
0.056671496 -0.11435253 0.08540117 -0.026654258 0.052380357 0.111463584 -0.08125788 -0.016527355
0.03842682 -0.03597345 0.10059275 0.016671661 0.08581523 0.16629486 0.12973788 -0.19915527
0.10952689 0.04676544 -0.053456377 0.07877898 -0.052664407 -0.17798749 0.022050848 0.0026512735
0.034347307 0.17182562 0.13478027 0.005789352 -0.030200975 -0.010597209 0.12772995 -0.16258484
0.04875794 -0.088069946 0.06288471 -0.059244536 0.064413466 -0.042200565 -0.017080853 0.058788467
-0.009116538 -0.04544804 -0.18931715 -0.0005130175 -0.18365087 -0.025512049 0.025246216 0.1456188
-0.02462576 -0.0006375628 -0.019055963 0.0007841405 -0.032666594 -0.118265405 -0.118245654 -0.190172
0.09264246 0.0963015 -0.12933809 -0.118882835 0.10905898 0.018651037 -0.13898005 -0.07612454
0.07366149 -0.15856494 0.10699136 -0.012859634 0.037414715 0.040127065 -0.16316685 0.039087955
-0.055031624 0.07443817 0.0402839 -0.015325194 -0.013423535 0.031156234 0.11977973 -0.1106249
0.15610072 -0.05817102 -0.11203218 0.1685063 -0.0018798125 -0.07416147 0.11292413 -0.045729052
0.15251134 0.014442242 0.119740285 -0.11820972 -0.044059817 -0.007084705 0.081305936 -0.093809746
0.11125144 -0.07331489 -0.012825419 0.009719923 -0.013883778 -0.025700755 -0.19596502 0.11795549
0.14836212 0.15704834 -0.15167333 -0.02142433 0.008613561 -0.12590124 -0.038432088 0.15383174
0.16691595 0.11754218 -0.066337764 -0.041964043 -0.0387871 -0.07649168 -0.16618966 -0.17484379
0.035906825 0.053786814 -0.10489404 -0.11917386 -0.06631429 0.01917662 0.03059408 -0.14389318
-0.0071759336 -0.15026736 0.07489214 0.12929326 0.08658292 -0.060788926 -0.20032698 -0.01935547
-0.053734355 0.026603647 0.055997446 -0.0523049 0.011171093 -0.050693464 0.16123672 -0.07723164
0.15615453 -0.054366153 0.04028953 0.062045526 -0.13978934 -0.063435 0.13949414 -0.014775116
0.010645136 0.023352893 0.1398448 -0.1494115 0.08013514 0.042194154 0.010477033 0.036576483
-0.106069185 -0.017312706 -0.051734976 -0.07984814 0.08116055 0.0908291 0.013929393 -0.019917017
0.02286606 0.050528213 -0.14097011 0.10315707 0.05342529 -0.12444563 0.103703104 0.041227806
0.06334574 -0.048951898 -0.124673836 0.14262722 0.08829222 -0.1097292 -0.083931945 0.060118362
-0.040498853 -0.07195892 -0.14635251 0.0033782949 0.1136331 0.15444571 -0.09199633 0.024568554
0.0998016 -0.15514994 0.17621389 -0.0035747588 0.034859173 0.047261436 -0.19246903 -0.116333514
0.082149886 0.14508268 0.069920614 -0.04040108 0.032921106 0.15837501 -0.056623533 -0.0046117967
-0.044788685 -0.011626035 -0.047464628 -0.039552853 -0.14323382 -0.1418216 0.12671293 0.13051939
0.16632906 0.09321853 -0.05246669 -0.14193077 0.073082924 0.000981276 -0.01738346 0.034299545
-0.11118086 -0.1617628 -0.04693093 -0.14172971 -0.02804039 0.008614851 -0.053605225 0.10085332
0.072019726 0.15456541 0.016302219 0.10930396 -0.14169405 -0.025106115 0.08067512 0.18815485
-0.04930715 -0.031949718 -0.035401154 -0.0631297 -0.08329715 -0.17527464 -0.02062648 -0.013189484
-0.027124653 -0.002006017 -0.055714343 -0.08079076 -0.09052187 -0.07195459 -0.08582211 -0.049734466

fc_net.2.bias f4 [64]
00000000: 1546 b93d 93fe b4bb a4d0 333d 4324 143c
00000010: 16b6 d0bd e1e2 673e 2d08 7cbd 72d1 75be
00000020: fbcb afbd 9ace 553e 18ff 5ebe 7128 5a3e
00000030: 55aa 133e b910 34bd 59a0 42be e04d abbd
00000040: fc1b 043e e4af 3abe de85 8a3d 39ed 8a3d
00000050: 684d 6ebe b786 66be 2e54 9dbd 057f 593e
00000060: 6d0a 44be e47c a53d 0ab9 c1bd 1757 2b3e
00000070: dff0 3b3e c50a 9b3d c6ba bb3d 803f 563e
00000080: baee 163d 5f61 7cbe f823 be3d ef58 663d
00000090: 3832 153e 3147 153e b50f 93bc c65a 543d
000000a0: c26f 96bd 12af cabd 5394 acbc 805d 00be
000000b0: 4d0b 603e 3af5 c1bd f260 72be a254 24be
000000c0: fda2 38be f246 b23d 30c7 a5bc 9ba5 51bd
000000d0: 60f2 62bd 7e69 9dbd b57a 863d 8972 48bd
000000e0: 84e7 6fbe 2dd7 163d b1ad b63d 7563 36be
000000f0: 99d0 2bbe 2c7a c5bc b91c 493e f284 6b3e
0.0904657 -0.0055235117 0.043900147 0.009041849 -0.1019098 0.22645141 -0.061531235 -0.24005678
-0.08583828 0.20879593 -0.21776998 0.2130449 0.14420445 -0.04396126 -0.1900648 -0.08364463
0.129013 -0.1823116 0.067638144 0.06783528 -0.23271716 -0.22512327 -0.076820716 0.2123986
-0.19144602 0.080804616 -0.094591215 0.16732441 0.18353604 0.075704135 0.091664836 0.20922661
0.03684876 -0.24646519 0.09284204 0.056237157 0.14569938 0.14577939 -0.017951826 0.05184438
-0.07345535 -0.09896673 -0.02106682 -0.12535667 0.21879311 -0.094706014 -0.23669794 -0.1604791
-0.18030925 0.08704938 -0.020236582 -0.051183324 -0.055406928 -0.07686137 0.06566373 -0.048937354
-0.2342816 0.0368263 0.08919848 -0.17811377 -0.16778792 -0.024106108 0.19639863 0.22999933

value_head.weight f4 [1, 64]
00000000: caf9 d23d f9fb 0b3e 1098 c83d efcb bd3d
00000010: ed3d 5bbe ef0a d43d b946 e7bd 6686 53be
00000020: b4c2 74be 9fa7 d53d e096 3fbe 15b1 8f3d
00000030: 7dc0 1f3e 25c2 53be adc8 3fbe 87e5 3dbe
00000040: 3a8b 3e3e f8f3 66be fb0d a73d 396c bc3d
00000050: e29a 33be 095b 26be 8c66 43be 19ca 903d
00000060: 15bd 2bbe b525 d23d 46c7 6cbe 361d c33d
00000070: d51d 2f3e 068e fa3c f040 b03d e2a5 113e
00000080: 14da b63d 3780 f8bd 5698 8c3d 4207 153e
00000090: c08c f93d 8834 8c3d 03bb fcbd 9fbb f73d
000000a0: 1b29 0ebe aac2 fcbd 8e7a 1abe 3961 3fbe
000000b0: 67ed 223e 3db9 57be 53b7 13be 6513 67be
000000c0: dea6 26be d12d 993d 0563 eb3d 2e42 64be
000000d0: 224f 12be 45ca 28be 2598 e03d 5990 cb3c
000000e0: 72e0 47be e61c 8f3d 371f 013e e42f 6cbe
000000f0: 57a3 6fbe d127 3fbd e471 a13d 6815 323e
0.1030155 0.13670339 0.097946286 0.09267413 -0.21410342 0.10353648 -0.11292786 -0.20656738
-0.23902398 0.10432362 -0.18709898 0.070161976 0.15600772 -0.20679529 -0.18728895 -0.18544589
0.18607798 -0.22554004 0.081569634 0.09200329 -0.17539552 -0.16245665 -0.19082087 0.07069797
-0.16771348 0.10261098 -0.23122892 0.09527056 0.17101224 0.0305853 0.08606136 0.14223436
0.08928314 -0.1213383 0.06864993 0.1455355 0.12185049 0.06845957 -0.12340357 0.12096333
-0.13882868 -0.12341817 -0.15085813 -0.18689431 0.15910874 -0.21066757 -0.14425401 -0.22565992
-0.16274592 0.07479442 0.11493496 -0.2229087 -0.14288 -0.1648341 0.10966519 0.024849104
-0.19519213 0.06987934 0.12609564 -0.23065144 -0.23402153 -0.04666883 0.07883051 0.17390978
