output/4-agents_domain-CoinGame-4_MATE-TD-T0.5_2022-08-10-18-43-23/critic_net_0.pth (torch, 44695 bytes, 5 tensors)

fc_net.0.weight f4 [64, 100]
0	0x3e126045	0.14294536
1	0x3d5b9633	0.053610038
2	0x3bda6764	0.006665157
3	0x3e21ecca	0.15812984
4	0x3cd160b6	0.02555881
5	0x3e03e2be	0.12879464
6	0x3e04792a	0.12936845
7	0x3bf00fd9	0.007326108
8	0x3d08f60f	0.033437785
9	0xbd178218	-0.0369893
10	0x3cfbc1a4	0.030731983
11	0x3da5868c	0.080823034
12	0x3db9b0c4	0.090669185
13	0x3c0f857a	0.008759851
14	0x3c303e40	0.010757029
15	0x3da69052	0.08132996
16	0x3e3176df	0.17330502
17	0x3b13b5da	0.0022538812
18	0x3d61a4f0	0.055088937
19	0x3cf768bc	0.030201308
20	0x3cfa90bd	0.030586595
21	0x3d9f4b84	0.07778075
22	0x3e0ef53d	0.13960738
23	0xbc56edb5	-0.013118197
24	0x3e159bfb	0.14610283
25	0x3d213e6c	0.03936617
26	0x3e02fc16	0.12791476
27	0x3df536c6	0.11973338
28	0x3cdcc35c	0.026948623
29	0x3e4015ac	0.18758267
30	0x3d9f1501	0.07767678
31	0x3e008ac9	0.12552942
32	0x3cbe7c19	0.023252534
33	0x3d9108a5	0.07081727
34	0x3c40469b	0.011735584
35	0x3d3381dd	0.04382502
36	0xbaa07e75	-0.0012244718
37	0x3e245d92	0.16051319
38	0xbbb90bef	-0.0056471745
39	0x3dbe996e	0.09306608
40	0x3d3fc5dd	0.046819557
41	0x3ceb9ff3	0.028762793
42	0x3c97d10e	0.018532302
43	0x3d467036	0.048446856
44	0x3e354fba	0.17706195
45	0xbcb4500f	-0.022010831
46	0x3de48d18	0.11159724
47	0x3e18fa82	0.14939311
48	0x3e0b4c60	0.13603354
49	0x3da7f48e	0.08200942
50	0xbe1b2305	-0.15150078
51	0xbdd805eb	-0.10548004
52	0xbd9cba48	-0.07652718
53	0xbd75f4b7	-0.06004783
54	0xbe082c5f	-0.13298176
55	0xbd9de710	-0.07710087
56	0xbb5903f7	-0.0033113935
57	0x3dda1ce5	0.106500424
58	0xbdc634a0	-0.09678006
59	0xbe28d71f	-0.16488312
60	0xbc4fe531	-0.012688921
61	0xbc98180f	-0.01856616
62	0x3e16831a	0.14698449
63	0xba44d734	-0.00075088744
64	0xbd42158f	-0.04738384
65	0x3d3ab1c7	0.045579698
66	0x3c4d5884	0.012533311
67	0x3b9a7b5d	0.004714413
68	0x3dcac7d7	0.09901398
69	0xbdecfc48	-0.11571556
70	0x3d69a2cc	0.05704002
71	0x3d51f8d8	0.051262707
72	0x3d4459fc	0.04793738
73	0xbdfee7a2	-0.12446524
74	0xbdbcde89	-0.09222133
75	0x3e0bf67e	0.13668248
76	0x3d4b15b1	0.049581233
77	0x3df446a1	0.11927534
78	0x3df41aee	0.11919199
79	0x3db89616	0.090130016
80	0x3e1f4d5c	0.15556854
81	0x3e4db3db	0.2008814
82	0x3e3115a2	0.17293409
83	0x3e03c95a	0.12869778
84	0x3d516eec	0.051131174
85	0x3c04cb54	0.008105118
86	0x3e3f19d1	0.18662192
87	0x3da1415d	0.07873795
88	0x3d048171	0.032350007
89	0x3e060e83	0.13091473
90	0x3dfc0be1	0.12306953
91	0x3e155b17	0.1458553
92	0x3e3c0c11	0.18363978
93	0x3e504c01	0.20341493
94	0x3c08bd14	0.008345861
95	0x3d3b6cda	0.045758106
96	0x3e393006	0.18084726
97	0x3e56d6bc	0.20980352
98	0x3a850da6	0.0010151162
99	0x3db2ec32	0.08736457
100	0xbd195e36	-0.037443362
101	0xbd1fd3b8	-0.03902027
102	0x3e036cee	0.12834522
103	0x3d181899	0.037132833
104	0xbd4be3a1	-0.04977763
105	0x3b75ce49	0.0037506989
106	0x3d0fb376	0.035083257
107	0xbb9f977a	-0.0048703523
108	0x3cfcbd11	0.030851873
109	0x3bf0eb45	0.007352265
110	0x3d3a46a4	0.045477524
111	0xbd25d545	-0.040486593
112	0xbd4be331	-0.049777213
113	0x3d2bc0da	0.041931964
114	0x3d5c34c4	0.05376126
115	0xbd3b89e8	-0.045785815
116	0xbd9fa305	-0.077947654
117	0xbd8e86c8	-0.06959301
118	0xbd430b76	-0.047618352
119	0xbc3b45cb	-0.011430214
120	0x3adbdff9	0.0016775123
121	0xbd01ade6	-0.031659983
122	0x3de5374e	0.11192189
123	0x3e0f05b9	0.13967027
124	0xbd17d2f0	-0.0370664
125	0x3dfe7bfc	0.12425992
126	0x3d42eadd	0.047587264
127	0x3e04fa46	0.12986097
128	0x3df29176	0.11844151
129	0x3df1f27c	0.11813828
130	0x3ca63f03	0.020293718
131	0xbcd15344	-0.0255524
132	0xbc79176a	-0.015203336
133	0x3df0a855	0.11750857
134	0x3db97d11	0.09057058
135	0xbd2e4ac2	-0.042551763
136	0x3d431181	0.047624115
137	0x3cd2a1ab	0.025711855
138	0xbd7e4766	-0.06207981
139	0x3d873c86	0.06603341
140	0x3c8aea1a	0.016957331
141	0x3d0922a9	0.03348032
142	0x3d2549bd	0.040353525
143	0x3daac3c2	0.08338119
144	0x3dbc4671	0.09193123
145	0x3cceb8bb	0.02523457
146	0xbca5cd34	-0.02023945
147	0x3deebeba	0.11657472
148	0x3db5ab55	0.088705696
149	0xbc53226c	-0.012886625
150	0xbe35d4cc	-0.17756957
151	0xbca85948	-0.020550385
152	0xbcd0ec1d	-0.025503213
153	0xbe46d3a1	-0.19416668
154	0xbe2367fa	-0.15957633
155	0xbd1ffebc	-0.039061293
156	0xbdc2a56d	-0.09504209
157	0xbd5733f6	-0.05253979
158	0xbdf373ca	-0.118873194
159	0x3c29e7f2	0.0103702415
160	0x3dadcc43	0.084862255
161	0x3dcd9328	0.100378335
162	0x3c2299f6	0.009924402
163	0xbc8cc642	-0.01718438
164	0xbc56fdad	-0.013122004
165	0x3d062d24	0.032757893
166	0xbb5abc36	-0.0033376343
167	0xbdabce32	-0.08388938
168	0xbcd63e6e	-0.026152816
169	0xbdad57d3	-0.08464017
170	0xbbf2798d	-0.007399744
171	0xbd3ec559	-0.046574924
172	0x3c135bb4	0.008994032
173	0xbde50ca8	-0.111840546
174	0xbd9adbd4	-0.0756146
175	0x3d8fbe9f	0.0701878
176	0x3de8ac28	0.11360961
177	0xbb84dc74	-0.0040546004
178	0x3d85458e	0.06507407
179	0x3dcbfaf5	0.09959976
180	0x3dd6a678	0.1048097
181	0x3db05b12	0.0861112
182	0x3dbcbd7e	0.0921583
183	0x3e0b874d	0.13625832
184	0xbc0904b1	-0.008362935
185	0x3d225e32	0.039640613
186	0x3dce3fa3	0.100707315
187	0x3d0ac5c0	0.033879995
188	0x3d8442be	0.064580426
189	0x3e28f149	0.16498293
190	0x3d5b831f	0.053591844
191	0x3d9b9cad	0.07598243
192	0x3de216ce	0.11039506
193	0x3c531408	0.012883194
194	0x3e267c36	0.1625832
195	0x3deeef93	0.11666789
196	0x3dbbb154	0.09164682
197	0x3d4cf8b9	0.050041888
198	0x3e05881f	0.13040207
199	0x3dd8525d	0.105625845
200	0x3d2b16cb	0.041769784
201	0xbe29ae05	-0.1657029
202	0xbdda51f2	-0.10660161
203	0xbdac9461	-0.084267385
204	0xbd6a8e2d	-0.057264496
205	0xbdff0c0e	-0.12453471
206	0xbe2a0c92	-0.16606358
207	0xbe3807e1	-0.17971756
208	0x3d1541a8	0.036439568
209	0x3c6c7b6f	0.014433726
210	0xbded40fe	-0.11584662
211	0xbd9a7335	-0.07541505
212	0xbe3c3e52	-0.18383148
213	0xbe00f353	-0.12592821
214	0xbdfcacbc	-0.12337634
215	0xbdf535b8	-0.11973137
216	0xbe49ce5f	-0.1970763
217	0xbda97a3b	-0.08275267
218	0xbcd68fa2	-0.026191536
219	0x3c0f5a9d	0.008749631
220	0xbd8ea996	-0.0696594
221	0xbe069ef9	-0.13146581
222	0xbdcf2e71	-0.1011628
223	0xbd4b5b23	-0.04964746
224	0xbe126724	-0.14297158
225	0xbc6b668b	-0.01436771
226	0xbe80ff3d	-0.2519473
227	0xbe04105e	-0.12896869
228	0xbdec6379	-0.115424104
229	0xbd24764a	-0.04015187
230	0xbe85c7eb	-0.26129088
231	0x3dcdde3e	0.10052155
232	0xbe24c12c	-0.16089314
233	0x3d650be0	0.055919528
234	0xbe0a41a6	-0.13501605
235	0xbe058961	-0.13040687
236	0xbe84c1cd	-0.25929108
237	0xbd9175d2	-0.071025506
238	0xbe858e19	-0.26084974
239	0x3db1984d	0.08671627
240	0xbdd6c8fc	-0.104875535
241	0xbdc571a8	-0.09640819
242	0xbdcb3fab	-0.09924253
243	0xbd04cce5	-0.032421965
244	0xbd7c1ba7	-0.06154981
245	0x3a18bb20	0.00058262236
246	0x3b8ebf59	0.0043563065
247	0xbdf238fa	-0.11827274
248	0x3d0e6da4	0.03477253
249	0xbd65aca9	-0.056072865
250	0x3e4f8be8	0.20268214
251	0xbd6bd797	-0.05757865
252	0x3e0d1e6f	0.1378114
253	0x3e0290fc	0.1275062
254	0x3db070d5	0.08615271
255	0x3d13b8f3	0.036065053

fc_net.0.bias f4 [64]
0	0x3e0b5c42	0.13609412
1	0x3d9f4761	0.07777286
2	0xbe4d8da3	-0.20073561
3	0xbe059181	-0.13043787
4	0xbe0c0f0f	-0.1367762
5	0x3da59be5	0.08086375
6	0x3dc57b13	0.09642615
7	0xbdfdde2c	-0.123958915
8	0x3e27ebd9	0.16398562
9	0x3e016dfc	0.12639612
10	0x3d94daa5	0.07268266
11	0x3d47375d	0.048636783
12	0x3e0d7627	0.13814603
13	0x3e2b1293	0.16706304
14	0xbe1665cd	-0.14687271
15	0x3dd84cdf	0.10561537
16	0xbd8b6d84	-0.06807998
17	0x3e1f2a41	0.15543462
18	0xbd1a8814	-0.03772743
19	0x3e000f5d	0.1250586
20	0x3e2c8c1e	0.16850325
21	0xbe5d82d9	-0.21631946
22	0xbda287d0	-0.079360604
23	0x3e0a431c	0.13502163
24	0xbe42234b	-0.18958776
25	0x3d74c25d	0.05975567
26	0x3de6ca7a	0.11269088
27	0x3defd726	0.11710958
28	0x3d8f4d17	0.069971256
29	0x3dfa8066	0.12231521
30	0xbd2c8b6e	-0.042125158
31	0xbddde83b	-0.1083531
32	0x3e416a87	0.18888293
33	0x3deaa7f6	0.11457817
34	0xbe440dae	-0.19145843
35	0x3e1db9f6	0.1540297
36	0x3e2884cd	0.1645691
37	0x3dd9de41	0.10638095
38	0xbe469b99	-0.19395293
39	0xbe48b4b0	-0.19600177
40	0xbe33fa85	-0.17576034
41	0x3e037d84	0.12840849
42	0x3e08f18c	0.13373393
43	0xbda92e06	-0.082607314
44	0x3de19494	0.11014667
45	0x3db8100c	0.08987436
46	0x3d6d299d	0.057901014
47	0xbe54a8b8	-0.20767486
48	0xbe581f39	-0.2110566
49	0xbde03e6a	-0.109494045
50	0xbe4ece67	-0.20195924
51	0xbe0f7b8c	-0.14011973
52	0x3cc4c85b	0.024021318
53	0x3dbca7d3	0.092116974
54	0xbd91c31f	-0.071172945
55	0x3e003741	0.12521078
56	0x3ad4f3df	0.0016246996
57	0xbe5b5263	-0.21418147
58	0x3e196cf1	0.14982964
59	0xbe472aab	-0.1944987
60	0xbdddbf4b	-0.10827502
61	0xbde423b0	-0.11139619
62	0x3dbcaeb4	0.092130095
63	0xbe5597cb	-0.20858686

fc_net.2.weight f4 [64, 64]
0	0xbd899a59	-0.067188926
1	0xbd59953f	-0.053120848
2	0x3e2d0393	0.16895895
3	0x3e14d2e1	0.14533569
4	0x3db1778b	0.08665379
5	0xbd8ed905	-0.06974987
6	0xbc002f43	-0.007823768
7	0x3e7e4b75	0.24833472
8	0xbe67b5cd	-0.22627945
9	0xbe32a540	-0.1744585
10	0xbcaec836	-0.021335702
11	0xbe71b428	-0.2360388
12	0xbdc8f45d	-0.098122336
13	0xbe87ff1c	-0.2656182
14	0x3e63790a	0.22214141
15	0xbdc66af8	-0.096883714
16	0x3d236bfd	0.039897908
17	0xbdf60441	-0.1201253
18	0xbc0bb4d2	-0.008526998
19	0xbd54c59d	-0.05194627
20	0xbe50875d	-0.20364137
21	0x3e138f1f	0.14410065
22	0x3e7b100f	0.24517845
23	0xbe1deeb4	-0.1542309
24	0x3e02914f	0.12750743
25	0xbc8fd477	-0.017557366
26	0xbd75f89c	-0.060051546
27	0xbe6f9f6e	-0.23400661
28	0x3dd8c2e7	0.1058405
29	0xbe39be47	-0.18138991
30	0x3e390bc0	0.18070889
31	0x3e582c86	0.21110734
32	0xbe6df939	-0.23239602
33	0xbe2ee413	-0.17079191
34	0x3dabb628	0.08384353
35	0xbde9cb54	-0.11415735
36	0xbe84260f	-0.25810286
37	0xbd6386fb	-0.05554865
38	0x3e58aa20	0.21158648
39	0x3de4bf3e	0.11169289
40	0x3d924222	0.0714152
41	0xbe2bb1ca	-0.1676704
42	0xbca44970	-0.020054549
43	0x3e77dfa6	0.24206409
44	0xbe4f56b3	-0.20247917
45	0xbe6ff384	-0.23432738
46	0xbdfbef9f	-0.123015635
47	0x3e8abe78	0.2709844
48	0x3e3f0972	0.18655947
49	0x3df2cbee	0.11855303
50	0x3e552c4b	0.20817678
51	0x3dd1051a	0.10206051
52	0x3de97fe4	0.11401346
53	0xbe11e891	-0.14248873
54	0x3e1f292d	0.15543051
55	0xbdae0271	-0.084965594
56	0xbe226d69	-0.15862049
57	0x3e88fedb	0.2675694
58	0xbe038ea7	-0.12847386
59	0x3e35f591	0.17769457
60	0x3e6d8332	0.23194578
61	0x3e130b13	0.14359693
62	0xbd8bc334	-0.068243414
63	0x3e130edc	0.14361137
64	0xbde87b15	-0.11351601
65	0xbe49e99c	-0.19718021
66	0x3e80f1ec	0.25184572
67	0x3e57c01e	0.2106938
68	0x3e7f957c	0.24959368
69	0xbdcf239e	-0.10114215
70	0xbd29e95b	-0.04148231
71	0x3da13a92	0.078724995
72	0xbe4c0612	-0.1992419
73	0xbe59e436	-0.21278462
74	0xbe2ec5a1	-0.17067577
75	0xbe1c2c91	-0.15251376
76	0xbe839418	-0.25698924
77	0xbd1777ce	-0.03697949
78	0x3e270b64	0.16312939
79	0xbe62236c	-0.22083825
80	0xbd49a943	-0.049233686
81	0xbe29347c	-0.16523927
82	0xbded9c65	-0.116020955
83	0xbe7eb7ff	-0.24874876
84	0xbdc6ddf3	-0.09710302
85	0x3e63105e	0.22174212
86	0x3d9ea4cc	0.07746276
87	0xbcf64d41	-0.030066134
88	0x3e12bb66	0.143293
89	0xbe54b783	-0.20773129
90	0xbe622e79	-0.2208804
91	0xbd1dab8e	-0.038493685
92	0xbda6c398	-0.08142775
93	0xbd95fc86	-0.07323556
94	0x3e82f6eb	0.25579008
95	0x3e84815b	0.2587994
96	0xbe0c8e71	-0.13726212
97	0xbc8f4fb6	-0.017494064
98	0x3e6ccb56	0.23124442
99	0xbcb89d5b	-0.02253597
100	0xbe62a22e	-0.22132179
101	0xbe1f17fe	-0.15536496
102	0x3de602f5	0.11231033
103	0x3d381d24	0.044949666
104	0x3e48cb61	0.19608833
105	0xbe26f1b6	-0.16303143
106	0xbdf12c67	-0.11776047
107	0x3e817baa	0.2528966
108	0xbdfaa551	-0.12238563
109	0xbda24f82	-0.07925321
110	0xbe4f4744	-0.2024203
111	0x3e8939d4	0.26801932
112	0x3e4298a1	0.19003536
113	0x3e3459ac	0.17612332
114	0x3e6fe430	0.2342689
115	0x3e76b0a2	0.24090818
116	0x3d59eb60	0.053202987
117	0xbe4e89e6	-0.20169792
118	0x3e617170	0.22015929
119	0xbe62fc33	-0.22166519
120	0xbd56b369	-0.052417193
121	0x3e7f3351	0.2492192
122	0xbddc8cf8	-0.10769075
123	0x3d8add61	0.06780506
124	0x3dd26263	0.10272672
125	0x3e6a964e	0.22908899
126	0xbd86131d	-0.06546614
127	0x3e4e2df0	0.20134711
128	0xbe8e04f7	-0.27738163
129	0xbe09936a	-0.1343514
130	0x3d6fb84f	0.05852538
131	0x3e66e2b6	0.22547421
132	0x3e4037df	0.18771313
133	0xbcebdc65	-0.028791616
134	0x3cd558d8	0.02604334
135	0x3e4f16df	0.20223568
136	0xbe808711	-0.25103047
137	0xbcb54d67	-0.022131635
138	0xbe2c0f48	-0.16802704
139	0xbd98790d	-0.074449636
140	0xbe39d389	-0.181471
141	0xbd43e99e	-0.047830217
142	0x3e65ac84	0.2242909
143	0xbc87cfd6	-0.016578596
144	0x3e26c3ac	0.1628558
145	0xbddb842f	-0.107185714
146	0xbd97bf2b	-0.07409509
147	0xbd45418d	-0.048158217
148	0xbe82571d	-0.25457087
149	0x3e693d45	0.22777279
150	0x3e3cd41d	0.1844029
151	0xbca5e9e1	-0.020253124
152	0x3dd7ef72	0.105437174
153	0xbce8f08e	-0.028435018
154	0xbe13f94a	-0.14450565
155	0xbbb32dfc	-0.0054681282
156	0x3d27b372	0.040942617
157	0xbd9f1289	-0.07767207
158	0x3e13dffc	0.14440912
159	0x3e815709	0.25261715
160	0xbd9eb38f	-0.07749092
161	0xbe69122b	-0.22760837
162	0x3e3e6651	0.18593718
163	0xbdbfa03f	-0.093567364
164	0xbd1a76f6	-0.037711106
165	0xbddcdb55	-0.10784022
166	0x3e109d26	0.14122447
167	0x3e74a227	0.23889981
168	0x3e80fae5	0.25191417
169	0xbe840507	-0.25785086
170	0xbda111f1	-0.0786475
171	0x3e1e69b9	0.15470017
172	0xbe58b73b	-0.21163647
173	0xbdcdbf04	-0.10046199
174	0xbc786d53	-0.015162784
175	0x3e61a903	0.22037129
176	0x3d560dbc	0.052259192
177	0x3e493765	0.19650038
178	0x3e790913	0.24319868
179	0x3e0596f6	0.13045868
180	0xbcff586a	-0.031170089
181	0xbe63b48e	-0.22236845
182	0x3d51abfe	0.051189415
183	0xbe6b2c42	-0.22966102
184	0x3d01154d	0.031514455
185	0x3e27ea92	0.16398075
186	0xbe209a20	-0.15683794
187	0x3df3e90b	0.11909684
188	0x3e8c5f61	0.27416518
189	0x3e467918	0.19382131
190	0xbddb20fa	-0.10699649
191	0x3dbbf3ca	0.091773584
192	0x3dc8e2d0	0.09808886
193	0xbba20dca	-0.0049454914
194	0xbe14a5bc	-0.14516348
195	0xbd77d453	-0.060505223
196	0xbc837805	-0.01604844
197	0x3c87e7bd	0.016589994
198	0x3bbb4181	0.005714596
199	0x3d28dd57	0.04122671
200	0x3e19f533	0.15034942
201	0x3e1ce0a0	0.15320063
202	0xbc4f0951	-0.012636499
203	0x3e01fef6	0.12694916
204	0x3ce1241c	0.027483039
205	0x3dc458a4	0.09587219
206	0x3c3899a8	0.011267103
207	0x3da277ba	0.07932992
208	0xbd0e9bef	-0.03481668
209	0x3dc9cf26	0.098539636
210	0xbd4ca87e	-0.049965374
211	0x3dde4961	0.1085384
212	0x3cb65564	0.022257514
213	0x3d4bbea6	0.049742363
214	0xbd023819	-0.03179178
215	0x3d88b6c3	0.06675484
216	0xbe1326f5	-0.1437033
217	0x3dadabdd	0.08480046
218	0xbbd0017d	-0.0063478337
219	0x3e098572	0.13429812
220	0xbd9e619c	-0.07733461
221	0x3e20e7a4	0.15713364
222	0xbd965f7a	-0.073424295
223	0xbddd3fde	-0.10803197
224	0xbd822f0e	-0.06356631
225	0x3c91e689	0.017810123
226	0xbe18e701	-0.14931871
227	0x3e20cb85	0.15702637
228	0x3be2f362	0.006925986
229	0xbd335c07	-0.043788936
230	0xbdc73cda	-0.097284034
231	0xbd88a549	-0.06672151
232	0x3c68cb81	0.014208675
233	0x3db4be15	0.08825318
234	0x3ce7bbab	0.02828773
235	0xbb4fb9e1	-0.0031696486
236	0xbd4f1f53	-0.050566982
237	0x3cde15c6	0.027109992
238	0x3d66c7e2	0.056342967
239	0x3cec2472	0.028825972
240	0xbcec86d8	-0.028872892
241	0xbe033851	-0.12814452
242	0xbe0dc266	-0.13843688
243	0xbc1305e5	-0.008973573
244	0xbdc6f061	-0.097138174
245	0xbd6047fc	-0.05475615
246	0xbc0333cf	-0.008007958
247	0xbda5cd21	-0.08095766
248	0xbdeef32a	-0.116674736
249	0x3bcd7530	0.0062700734
250	0x3e02aca6	0.12761173
251	0x3bdf07b2	0.0068063373
252	0xbe09b6bb	-0.13448612
253	0xbd173e11	-0.036924426
254	0x3ba54e15	0.0050447085
255	0xbb015be2	-0.0019738604

fc_net.2.bias f4 [64]
0	0xbd28ae67	-0.041181948
1	0xbdff6789	-0.1247092
2	0xbe44de1b	-0.19225352
3	0x3e28f45f	0.1649947
4	0xbdd1ce1b	-0.102443896
5	0xbc98c655	-0.01864926
6	0x3e10720a	0.14106002
7	0x3e50edf6	0.20403275
8	0x3e038c85	0.12846573
9	0xbe060ec3	-0.13091569
10	0x3e608471	0.21925522
11	0xbcc5a472	-0.024126265
12	0xbd20be6c	-0.0392441
13	0xbddc078d	-0.10743628
14	0x3e14ca59	0.14530315
15	0x3e08a8af	0.13345598
16	0x3e4d1b9e	0.20030066
17	0x3da34e5c	0.0797393
18	0xbdcfe6c7	-0.10151439
19	0xbe25637a	-0.16151229
20	0xbd13a1c2	-0.036042936
21	0xbc27ffce	-0.01025386
22	0x3e04f130	0.1298263
23	0xbdcff1a6	-0.10153513
24	0xbe1b2cdd	-0.15153833
25	0xbcdacf6e	-0.026710238
26	0xbe12686b	-0.14297645
27	0x3dbfe79c	0.09370348
28	0xbe3d1619	-0.18465461
29	0xbddf67f5	-0.109085
30	0xbd0c5310	-0.034258902
31	0x3e0fca60	0.14042044
32	0xbc2f2a58	-0.010691248
33	0x3e56e351	0.20985152
34	0xbe679f3c	-0.22619337
35	0x3e04a20e	0.12952444
36	0xbe386096	-0.18005595
37	0xbd02fc06	-0.03197863
38	0xbc948f92	-0.018134866
39	0xbe2aaa42	-0.1666651
40	0x3dfb98c0	0.12284994
41	0x3e5d494a	0.21609989
42	0x3e0dc7ff	0.13845824
43	0x3e56f232	0.20990828
44	0xbe342e29	-0.17595734
45	0xbd930a0f	-0.07179653
46	0x3e6237f6	0.2209166
47	0x3d9e463a	0.077282384
48	0xbd00289c	-0.031288728
49	0x3e223bce	0.15843126
50	0xbd48330c	-0.048876807
51	0x3db583fc	0.08863065
52	0xbe051116	-0.12994799
53	0xbdc66978	-0.09688085
54	0x3e5f335e	0.21796939
55	0x3d13eb4f	0.03611308
56	0xbc1f5058	-0.009723745
57	0x3da7bee3	0.081907056
58	0x3dc6de8f	0.097104184
59	0xbe0008a6	-0.12503299
60	0xbdd39aee	-0.10332285
61	0xbe76b304	-0.24091727
62	0x3e57ac4a	0.21061817
63	0xbd771b22	-0.06032861

value_head.weight f4 [1, 64]
0	0xbde5d962	-0.11223103
1	0xbe677a8c	-0.22605342
2	0xbe48e084	-0.19616896
3	0x3d701be2	0.05862034
4	0xbe76427e	-0.24048802
5	0xbe272e26	-0.16326198
6	0x3e370978	0.17874706
7	0x3d93fa27	0.07225447
8	0x3e2fa4a0	0.17152643
9	0xbe14fbb9	-0.1454915
10	0x3dda30e5	0.10653857
11	0xbe469f2d	-0.19396658
12	0xbdbc29c1	-0.091876514
13	0xbe054583	-0.13014798
14	0x3e1a77ea	0.15084806
15	0x3e21d883	0.15805249
16	0x3dabfb1d	0.083975054
17	0x3e366617	0.17812382
18	0xbe6a1429	-0.22859253
19	0xbe01fa6d	-0.12693186
20	0xbdeac3d8	-0.114631355
21	0xbe44cd25	-0.19218881
22	0x3e03de82	0.12877849
23	0xbe2c1350	-0.16804242
24	0xbe52acf3	-0.20573787
25	0x3da7f25c	0.08200523
26	0xbe5df2f1	-0.21674706
27	0x3e242859	0.16031016
28	0xbe1ca714	-0.1529811
29	0xbe5ef01c	-0.21771282
30	0x3d5e6dd2	0.05430395
31	0x3d6da365	0.058017153
32	0xbda840aa	-0.08215459
33	0x3dc661b4	0.09686604
34	0xbe353f08	-0.17699826
35	0x3d626e2b	0.055280846
36	0xbe4ffca0	-0.20311213
37	0x3d6cdf63	0.057830226
38	0x3d9ee71b	0.077589236
39	0xbe20af42	-0.15691856
40	0x3de579c8	0.112048686
41	0x3da7c7b5	0.08192388
42	0x3e2a32b3	0.16620903
43	0x3e130af4	0.14359647
44	0xbe6aa94f	-0.22916149
45	0xbe44858e	-0.19191572
46	0x3e0b7849	0.13620104
47	0xbb1cb452	-0.002391119
48	0x3db1f6e8	0.08689672
49	0x3e34a433	0.17640762
50	0xbdfffa5f	-0.12498926
51	0x3dead037	0.11465495
52	0xbe0eaa1d	-0.1393208
53	0x3b411eee	0.0029467898
54	0x3e3acedf	0.18242978
55	0x3dab1ac1	0.08354712
56	0xbe2b76b5	-0.16744502
57	0x3d5471ad	0.051866222
58	0x3e06f025	0.13177545
59	0xbe1d8e1d	-0.15386243
60	0xbdff069c	-0.124524325
61	0xbdca5d69	-0.09881098
62	0x3e13dcde	0.14439723
63	0xbe00e065	-0.125856
