output/4-agents_domain-CoinGame-4_MATE-TD-T0.5_2022-08-08-16-01-39/actor_net_3.pth (torch, 45463 bytes, 6 tensors)

fc_net.0.weight f4 [64, 100]
00000000: 2537 0c3e a120 0a3e 24b1 5fbc e2b8 b33c
00000010: 753d 5cbe 6296 423d 7e37 073d b009 9ebd
00000020: 8865 073d 9da0 31be 0704 483d 0eb2 083e
00000030: fa87 1e3e eef7 603d 7f01 c0be 67e0 013e
00000040: ed0d 4a3e 5ed6 3b3d 9012 973c a3de 8abe
00000050: 1581 813e 1b9e c33d 0289 ef3d 0da2 d53c
00000060: 7efc ddbd 5b99 563d ac1c 11bd ea17 623d
00000070: ac63 6f3d 34db 99bd 9d5d 57bd 29c6 ca3d
00000080: b521 c53d dc16 693d 8a48 d93d b8c9 97ba
00000090: c221 9cbc 1666 30bc 3d1d 0a3e a1f3 a4bd
000000a0: 48db 673d f7cc dd3d 6a3a dd3b d398 4a3d
000000b0: 994b 373e 0bc9 613d 94cf 773d 7e4c acbc
000000c0: 387a d0bd a662 103d 30de 52bd 7ff6 61be
000000d0: 2ae0 2b3d 46cf b03c 5b8d 7cbd 32df 53be
000000e0: 1952 d8bd 07c2 60be 220d 2ebe fe27 4e3e
000000f0: 5e7b 29be 60b9 e0bd 9a8e 07be 95fd debc
00000100: 0fa6 76bd 4931 92be eef3 56be 8940 59be
00000110: 647e 703c 3d84 053e dae7 26be 2815 c0bd
00000120: e510 b7bd e190 833c 6544 483e cde7 343d
00000130: a32a 4fbd f356 2f3c a369 9d3d 2e51 12bc
00000140: 4b55 95bd eb71 cb3d a41f 153e 11c8 b53d
00000150: d811 f43d 27d0 38be 25f2 44bd dc16 943c
00000160: 8e0c edbd 066d 603d 7ab6 223d 7866 293e
00000170: e9d8 30be 63fe a83d f899 783e 9c03 233e
00000180: 43f0 bf3d b6ee 33be 9636 eebb 556d 743e
00000190: a0fb 6c3c abc7 d7bd c58d 66bd e73e 4dbe
000001a0: d737 8abe 9f11 863e 8804 fcbc 3847 2abd
000001b0: 351b 50be 22d5 99be 483b bb3d 8cac 3f3e
000001c0: cb53 ef3d e39d 16be 6824 81be f64c 963e
000001d0: 8383 8f3e afc2 b23d adbd 953d 0899 13be
000001e0: dc90 bc3e 0ac2 743e 39ae 7a3e ccd9 b93d
000001f0: 28d5 a5bd 53c5 813d 66e8 54bc 0eb7 cf3d
00000200: 6bb2 97bc bbca 2bbd e4b2 b03d 6515 5a3a
00000210: bd53 42bc a4f8 503d 671e 7d3d 982a 6e3d
00000220: 8a67 33bb 2c46 adbc 6a40 433d a7a6 653c
00000230: 717f 013e fd0a 703d 3b2b c1bc 2152 b13d
00000240: 8721 113e 9e4e a73d 1eb1 8abc 4579 b7bc
00000250: ee02 d5bc 1208 e9bd fe8a 81bd 149d 19be
00000260: 92eb 5f3d 7672 013d dd44 523c 2bb7 34be
00000270: 9c88 9c3c 0dd8 90bd bc25 f13d c6dc ba3e
00000280: 9bed 43be 9b54 42be d524 1abc 393f f5bb
00000290: 50af 843e 8081 d6be d143 91be f5c3 87be
000002a0: 845b 863d 93f8 223e fd85 cfbe 42ef 01bf
000002b0: 5b86 31be c3cf a5bc 8ece 9a3d 6470 be3d
000002c0: b9b2 47bc b3fb 27bd 995a 623e 5f48 693d
000002d0: b2d1 69bd 3679 0dbc e182 7ebd c40a 6e3d
000002e0: b8d2 863d 202e 15be 2efa 6d3d ff3e aa3d
000002f0: 040b 503d 440a 983e 7ad7 0d3d 40fd 653d
00000300: 319e 55be 594c 143d 9073 013e 45ba 803d
00000310: 60a1 383d 19f2 74be acb7 bdbd d625 223e
00000320: f9b6 84bc e617 32be 15e6 70be 3cc4 29be
00000330: c6ca 87be d3c7 6a3e a6f5 afbc 9227 26be
00000340: 564f 0abe d043 9fbe 67d2 1b3e 3682 583d
00000350: 4d88 a8bc c8a5 37be 7532 b4be cab6 593e
00000360: ebc9 1e3d 6c39 673c 088f 833d 2b15 7ebe
00000370: 6d20 533e 54ee 293e e2d0 583e 877f 0d3e
00000380: cc94 fc3b e124 77bd d4a3 fa3c 06ef 07bd
00000390: 546f 76bd ea62 edbd 719a 84bc 5e29 d8ba
000003a0: 731d fb3c 37bb 933d 4d07 0f3b 562e cd3c
000003b0: de2b cf3d d5e9 4e3d d2a9 32bd 68c7 2d3d
000003c0: 3d2f 373c 8739 e4bc 088a 00bd e363 23bd
000003d0: 3a26 1d3e ac42 68bd 01b8 9fbd 0bf4 fdbc
000003e0: 633e a1bd e963 0bbd 0b44 6f3d 2c13 cb3c
000003f0: d5f9 bc3d fdb2 b0bc db29 fc3d 4d88 8d3d
0.13692911 0.1348901 -0.013653073 0.021938745 -0.21507819 0.047506697 0.033011906 -0.077166915
0.033055812 -0.17346425 0.048831966 0.13349172 0.15481558 0.054923944 -0.3750114 0.12683259
0.19731875 0.045858733 0.018441468 -0.27122983 0.25293794 0.095516406 0.11696054 0.026078248
-0.10839175 0.052392345 -0.035427734 0.055198587 0.058444664 -0.07512513 -0.05257951 0.09901077
0.0962557 0.056906566 0.10609539 -0.0011580503 -0.019059066 -0.010766527 0.13487716 -0.08054281
0.056605607 0.108301096 0.0067513483 0.04946215 0.17899932 0.05512337 0.060500696 -0.021032568
-0.101795614 0.03525033 -0.051481426 -0.22066687 0.041961826 0.02158321 -0.061658245 -0.20690611
-0.10562534 -0.21949016 -0.16997197 0.20132443 -0.16550967 -0.109728575 -0.13237992 -0.027220527
-0.06021696 -0.28553227 -0.2099149 -0.21216024 0.014678571 0.13038726 -0.16299382 -0.09379035
-0.08938769 0.016060295 0.1955734 0.044166375 -0.05057777 0.010701883 0.07686164 -0.008930488
-0.07291659 0.099338375 0.14562851 0.0887605 0.11917466 -0.18048154 -0.04808249 0.018077306
-0.1157466 0.054791473 0.039724804 0.16542995 -0.17270245 0.082516454 0.24277484 0.15919346
0.09371998 -0.1757153 -0.0072696907 0.23869832 0.014464289 -0.105361305 -0.056287546 -0.20043527
-0.26995727 0.2618532 -0.03076388 -0.041571826 -0.20322879 -0.3004542 0.091421664 0.18718165
0.11685904 -0.14708667 -0.25223088 0.29355592 0.28030023 0.08728539 0.073115684 -0.14413846
0.3682927 0.23902145 0.24480523 0.090747446 -0.08097297 0.06336465 -0.012994861 0.10142337
-0.018517694 -0.041941386 0.08627871 0.0008319228 -0.011860785 0.051018372 0.061796572 0.05814609
-0.0027374947 -0.021151625 0.047668852 0.014016784 0.12646271 0.05860423 -0.023580184 0.08658243
0.14172946 0.08169292 -0.01693016 -0.022396693 -0.026002374 -0.113784924 -0.06325339 -0.15001327
0.054668017 0.0316033 0.012833801 -0.17647998 0.01910811 -0.070724584 0.117747754 0.36496562
-0.19133608 -0.18977587 -0.0094081955 -0.0074843434 0.25915003 -0.41895676 -0.28372052 -0.2651669
0.06560424 0.15915136 -0.40531912 -0.50755703 -0.17336409 -0.02024067 0.075589284 0.092987806
-0.012188607 -0.041011523 0.22104873 0.056953784 -0.057084747 -0.008634856 -0.062136535 0.058115736
0.0658316 -0.14568377 0.058099918 0.08312797 0.050791755 0.29695332 0.034629323 0.05614972
-0.20861126 0.036205623 0.1264174 0.06285528 0.045075774 -0.23920478 -0.09263548 0.15834746
-0.01620053 -0.17391929 -0.2352527 -0.16578764 -0.2652189 0.2292779 -0.021479439 -0.16226032
-0.13506827 -0.31106424 0.15216981 0.052858554 -0.020572806 -0.17934334 -0.35194746 0.21261135
0.038766783 0.014112812 0.064237654 -0.24812762 0.20617838 0.16594821 0.21173432 0.13818179
0.0077081677 -0.060337905 0.030595697 -0.033186935 -0.060164765 -0.11591132 -0.016186925 -0.001649182
0.03065369 0.07213443 0.002182442 0.025046509 0.10115789 0.05051597 -0.043618985 0.042426497
0.011180696 -0.027859462 -0.031381637 -0.03989018 0.15346614 -0.05670421 -0.07798768 -0.031000158
-0.078732274 -0.03403083 0.0584145 0.024789415 0.09227339 -0.021569723 0.12312671 0.06910763

fc_net.0.bias f4 [64]
00000000: fef4 8e3d 9bc0 e63b 026d bb3d 216f 2cbd
00000010: 7aa2 203c b043 14bd ab70 703c 9a4b eebd
00000020: adf6 15bb 72d7 073d de14 783d 9a70 893d
00000030: 561e 5f3d 0fd8 30bc 6cf6 8c3d 825d 293d
00000040: e253 2dbd f76a 023d 687f ef3d 7b12 abbc
00000050: 7d83 ea3c 7048 693d 2891 5e3d 0f0e ecbc
00000060: c48d 2a3d 99b9 923b ebd1 c73d 3cb2 6bbd
00000070: 7341 6dbd 3806 913d bbd7 6f3d 4ca0 cd3c
00000080: 6292 563d 406a ec3c 3635 d53c 7a36 033e
00000090: 0167 35bc 70b9 3ebd 3d82 e6bc 28eb 433d
000000a0: 0199 923d 2507 c33c 27b7 b73c be5a eabc
000000b0: c803 863c 6e80 8a3d 2172 bf3c 12f7 e43d
000000c0: f08c 793d 08f6 d13c f0be c73d 8ce9 de3d
000000d0: 28cc a53d b753 453d a5bd a9bb b095 d63c
000000e0: 00b1 ff3b fa2c 983a d372 a53c 2e36 82bc
000000f0: daec 943d 139a cebb a9ba 353c 1f67 e93d
0.06980322 0.0070420033 0.09151651 -0.04209817 0.009804362 -0.036197364 0.0146753 -0.116355136
-0.0022882626 0.03316445 0.060566776 0.0671093 0.05447229 -0.0107937 0.06882939 0.04134894
-0.042316325 0.03184029 0.11694223 -0.020882836 0.028627152 0.056953847 0.05433765 -0.028815297
0.041639104 0.0044776914 0.097568356 -0.057543024 -0.057923745 0.07081264 0.058555346 0.02510085
0.052385695 0.028859258 0.02602635 0.1281375 -0.011071921 -0.046563566 -0.028138274 0.047831684
0.071580894 0.023807118 0.022426201 -0.028607722 0.016359225 0.06762777 0.02336985 0.111799374
0.060925424 0.025630012 0.09753215 0.10884389 0.0809558 0.04817554 -0.005180078 0.026194423
0.0078030825 0.0011610084 0.020196354 -0.015894976 0.07271738 -0.006304988 0.0110918665 0.11396622

fc_net.2.weight f4 [64, 64]
00000000: cb55 223d 9743 1abe 6a07 ccbc 8322 08bc
00000010: b646 02be 496b 9f3d 182f 41be 1df4 873e
00000020: 3416 7f3e 1013 c33d 913f 0ebe 42d3 f4bd
00000030: 3d08 38be 5a46 7b3e f34d 573d 036c 16be
00000040: f588 10be cc73 e8bd 7eb9 83be b06f 3e3e
00000050: 5a4a a93d 7c31 bf3e 7caa 83be 58c7 42be
00000060: d610 d4bd c5f5 4e3e f072 dd3c 730f 8b3e
00000070: d0e5 5c3d 8ba4 8cbe ff7f 0bbe 12e9 63be
00000080: 7e61 99bd ec6f 6d3e d7e6 ca3e 1974 1cbe
00000090: d7dc 833e 4cfb 323e bf00 f83d 2241 90be
000000a0: d066 47bd 0008 c63d 80b4 06bd 3023 893d
000000b0: 9353 6bbe 52ad 44be aa08 eabd b650 87bd
000000c0: 02dc 0dbd de71 523e b5bc a2bd 5a77 81be
000000d0: d65d aebd 39c4 bf3d 528e 893d 7ecc 42be
000000e0: 0b83 36bd 8833 d23e 0b2f 733e 6ee6 103d
000000f0: b189 f0bc e1e6 4c3c 3425 3abe 0f06 99be
00000100: 6cb1 e4bd cf29 f9bd ae24 00be d28d bcbb
00000110: 5a79 1639 fc04 1e3b 0a9c 22be cc91 cfbd
00000120: 3482 d33d 6cdc 23be c4a5 133e cb24 e03c
00000130: 716b 50be bd37 16be c455 a33d d93f 7ebe
00000140: 8367 9a3d 6c66 00bd d717 64bd 096a 1c3c
00000150: 567c 43bc 92a0 de3c 3248 28be c748 783d
00000160: bc5b ef3c 5318 2bbd ca18 24be fac0 95bc
00000170: a300 493d 7766 68bd ee49 35be bfac a0bd
00000180: d264 dbbc 5e58 193e 3860 033e b317 d2ba
00000190: dfd9 bfbb 8256 3d3e 8cc2 49be fc6a fcbd
000001a0: 3217 fb3d f455 e0bd d111 f83d 5ff8 3a3e
000001b0: 0e8c c1bd 03c8 323e 5307 4e3d 5953 003e
000001c0: e69e 123e 3ecd 153e c272 57be 2ada 7c3e
000001d0: d27f af3d 1732 a63d d352 61be b5f6 cc3c
000001e0: 3e8e abbd 7ca2 403e 5dd2 2e3c c1d3 85bd
000001f0: afb0 20bd b9b8 3abd 7bba 4cbe 5925 b23d
00000200: eeab 073e 63c5 8d3d 5986 e23b 04d4 29bd
00000210: 99f8 273e 3c22 74bd 42a3 9d3e b5c0 1bbe
00000220: 78d8 86be bc5e cdbd 5089 573e 45da 143c
00000230: a3a8 653e 02ee 6cbe 4b20 8ebb 257f 203d
00000240: 4f65 053e 8f62 4e3e dcb8 993d 7c6a 8dbd
00000250: 1dd8 46be ae58 83be 1089 0b3d d193 153e
00000260: 29da 743e 2c95 1dbe 9ddb 1d3e 1941 18be
00000270: b830 b63c e1e4 a43e ab31 103e c70f 333e
00000280: f8c2 6b3e 2891 9fbe 24c5 87be 1df6 c73d
00000290: 40ac 08be 07fe 0ebe 0ba7 10bd 4381 5e3e
000002a0: 9aee ef3d e6fb 17be c903 913d d4a0 9abd
000002b0: 0a7a 6c3e 637d 623e c25e 153e cb33 b73d
000002c0: 1860 b73d edcb 983d 58bb 853d 303b 453e
000002d0: e7f1 613e 014b 34bd d15c ccbd 7d5d 493e
000002e0: 6912 29be ab2f b3be d2e5 f8bd 2b86 2dbe
000002f0: 2c81 263d 70d8 bebd 5b78 2c3e e96f 493e
00000300: 3071 c33d bdc3 f13e 8547 c13e a242 5fbd
00000310: 5bb8 50bd 4556 68bd f8ff 513d 4664 a0bd
00000320: 1d91 c13d 3ce7 053c 4892 ffbe 526e 3a3d
00000330: 4fcd de3d 3734 7f3e b651 e3bd c3b5 8a3e
00000340: e071 5dbe dcd9 4bbe eb1f 553d 016f 86be
00000350: 4f0a ca3d 454d 0f3e 6a91 063e a131 f0bd
00000360: 70d0 26be 2fad 4dbc 655d b53e 3dc4 d83d
00000370: 8d3c 51be 097a 0c3e c920 953e 330a 0e3b
00000380: a2a8 9abe c17e fc3c 47c3 80bc c5dd e63d
00000390: 7125 81bd 8e80 d7be ae62 213e 4745 173e
000003a0: e379 94be f0a6 a73e c119 8dbe fe70 1dbd
000003b0: 4a4b 75bd ef74 06be a650 99be 9696 dfbd
000003c0: a927 4cbe 15a6 a33d c586 bb3e 5c60 8fbe
000003d0: c695 a3be d2ff b83b d46e b93e 3793 cfbc
000003e0: 8103 823e 61e0 9bbd 5b45 8e3d a59a 983e
000003f0: d269 9a3e d589 2ebe 350c 113e a234 26be
0.0396326 -0.15064846 -0.024905879 -0.0083090095 -0.12722287 0.07784135 -0.18865621 0.2655343
0.24910814 0.0952512 -0.13891436 -0.11954357 -0.17971893 0.24538556 0.052564573 -0.1468964
-0.14114745 -0.113502115 -0.25727457 0.18597293 0.082661346 0.3734244 -0.25716007 -0.19021356
-0.10354774 0.20210941 0.027032346 0.27160224 0.053930104 -0.27469286 -0.13623045 -0.22256878
-0.07489298 0.23187226 0.39629242 -0.15278663 0.25754425 0.17478675 0.12109517 -0.28174692
-0.048682034 0.09669495 -0.032886982 0.066961646 -0.229811 -0.19206741 -0.11427434 -0.06607191
-0.034633644 0.2055125 -0.07946149 -0.2528637 -0.085139915 0.093635984 0.067165986 -0.1902332
-0.044558566 0.4105494 0.23748414 0.035376005 -0.029362531 0.012506218 -0.18178254 -0.29887435
-0.11166653 -0.121661775 -0.12513992 -0.005754211 0.00014350322 0.0024111858 -0.15879837 -0.101352304
0.10327569 -0.16002053 0.14418703 0.027361294 -0.20353486 -0.146697 0.07975343 -0.24829043
0.075392745 -0.031347677 -0.055686798 0.009546765 -0.0119314995 0.027176175 -0.1643379 0.06061628
0.029218547 -0.041771244 -0.16025081 -0.018280495 0.049072873 -0.056738343 -0.17703983 -0.07845449
-0.026781473 0.14975116 0.12829673 -0.0016028791 -0.0058548297 0.18490031 -0.1970312 -0.12325093
0.122602835 -0.10953894 0.12112773 0.18258809 -0.094505414 0.17459111 0.050299954 0.12531795
0.14318427 0.14629075 -0.2103987 0.24692598 0.08569302 0.08115023 -0.22004251 0.025019983
-0.0837674 0.18811983 0.010670272 -0.065345295 -0.039231 -0.04558632 -0.19993012 0.0869853
0.1324918 0.06922414 0.006912988 -0.04146196 0.16403426 -0.05960296 0.30788618 -0.1521023
-0.26337028 -0.10027835 0.21048474 0.009085243 0.22427611 -0.23137668 -0.0043373457 0.039183754
0.13026927 0.20154785 0.07505962 -0.06905076 -0.19418378 -0.25653595 0.03406626 0.14607169
0.23911346 -0.15388936 0.15415807 -0.14868583 0.022240028 0.3220587 0.14081447 0.17486487
0.23023593 -0.31165433 -0.26517594 0.09763739 -0.13346958 -0.13964091 -0.035315555 0.21728997
0.117154315 -0.14842185 0.070808 -0.07550207 0.23093429 0.22118144 0.14586928 0.089454256
0.08953875 0.07460771 0.065298736 0.1926086 0.22064935 -0.04401684 -0.09978641 0.19664569
-0.16510929 -0.34997305 -0.1215321 -0.16945712 0.04065053 -0.09318626 0.16842787 0.19671597
0.09543073 0.4721965 0.37749878 -0.054506905 -0.050957065 -0.056722898 0.0512695 -0.07831626
0.09451506 0.008172806 -0.4991629 0.045515366 0.10879003 0.24922262 -0.110995695 0.27091798
-0.21625471 -0.19907326 0.052032392 -0.26256564 0.098652475 0.1399432 0.13141409 -0.11728216
-0.1629045 -0.012553497 0.35422817 0.105843045 -0.20433255 0.13718428 0.29126576 0.002167356
-0.30206782 0.03082216 -0.015718115 0.11272768 -0.063059695 -0.42090267 0.157603 0.14772521
-0.28999242 0.3274455 -0.2755871 -0.038437836 -0.059886254 -0.13130544 -0.29944342 -0.10917394
-0.19937004 0.07990662 0.36626258 -0.28003204 -0.31950206 0.0056457305 0.36217368 -0.025338752
0.25393298 -0.07611156 0.06946822 0.29805484 0.3015886 -0.17044766 0.14164813 -0.16231015

fc_net.2.bias f4 [64]
00000000: 7acd 3e3c ebbe e4bc 4dc0 863d febf 893c
00000010: a602 223e 86ac 593c 531d 5e3d 861c 6c3c
00000020: 382d aa3d 5814 82bd 894e 983d ad55 193d
00000030: f18c d43d b31b 64bc 0059 af3d 6470 64bd
00000040: cc29 3b3d 9da1 7c3c 8ce6 12bc b8a9 803d
00000050: 338b ea3d b892 d03d 320e 033e 7528 243d
00000060: c7cf 2ebd ee3c ec3d f317 d039 c787 053c
00000070: a682 b33b 747a 71bc 3979 9c3d 30f2 f1bc
00000080: 200e 4bbd 0294 6b3d a27a d0bd 41ff a53d
00000090: 183f 7a3d b42b 213c 4166 083e 660f a83a
000000a0: 829e 1b3d 5192 74bc 6c6e df3c 39e2 8cbd
000000b0: d3ca 26bd 9ea8 0ebc 7a43 443d fd52 203e
000000c0: a20f b63c 98ee 893d c99a 12bc 6383 eb3d
000000d0: b799 9c3d 5434 353d 4e26 e23d 0e2d a23d
000000e0: 3bf3 aa3d cde6 113e c11d d03d d074 59bd
000000f0: be4d 473c f3bd 2d3e 0a94 603d 6712 43bd
0.011645669 -0.027923068 0.06579647 0.016815182 0.15821323 0.013285762 0.054227185 0.014411097
0.08309406 -0.063515365 0.074368544 0.037435222 0.10378445 -0.01392262 0.08561897 -0.055771247
0.045694157 0.015419391 -0.0089660995 0.06282371 0.114523314 0.101842344 0.12798384 0.040077645
-0.04267862 0.11535059 0.00039690695 0.008150048 0.005478221 -0.014738668 0.07640309 -0.02953443
-0.049574018 0.057514198 -0.1017964 0.081053264 0.061095327 0.00983708 0.13320257 0.0012821972
0.03799296 -0.014927463 0.027274333 -0.06879086 -0.040720772 -0.008707194 0.047915913 0.15656658
0.022224251 0.06734961 -0.0089480365 0.114996694 0.07646506 0.044239357 0.11042462 0.0791875
0.08347174 0.142482 0.10161925 -0.053089917 0.012164531 0.16966991 0.05482868 -0.04762497

action_head.weight f4 [4, 64]
00000000: 0e90 97be c96b a4be 58dd 1a3e 9ed3 773e
00000010: d3a9 2a3e a364 5fbe 8fa2 b3be e1d5 a03e
00000020: 6ae4 9bbe 83c9 37bd 36f2 a4be 3c56 7fbe
00000030: ab25 253e 7e69 cabe 1a9f 913e 5d1d 84be
00000040: b9be 843e 9884 a43e e8fd 283e fa81 c8be
00000050: a52c 543e 39e4 973e e23f 403e 69c9 be3d
00000060: 3f07 9abd 9e80 bdbe 5062 bbbd 1eca d8be
00000070: cfdc 093e fc83 c0bc 0bb4 7dbc ab6b d63e
00000080: eb86 64be ba45 b1be 6e99 f43d 6f43 8f3e
00000090: a6ec 19be 00bf 83be 5b91 073e cf3e fbbd
000000a0: c3a1 b9be 754f 84be ffac 8ebb a373 23be
000000b0: cfc1 563e 7941 bfbe f940 e4be c06e dfbb
000000c0: 958f 3a3d 6630 a93e 148b 38be bcf2 223e
000000d0: 58e3 d6be ec62 1dbe e568 c73e 4c0e a13e
000000e0: d090 39be 2b83 df3e 87ed d3bc 8cee b6be
000000f0: 22cc 853e 2bdc 863e 14f3 b7be a692 9d3e
00000100: ea17 893e 42b0 103e 7b4b b4be acda 78be
00000110: b6d0 20be 8553 693e 7751 a93e 1210 acbe
00000120: 43d4 9d3e 775c 6dbd cf04 3a3e 0f4d 573e
00000130: ccdc 9ebe c3d4 b53e 1b50 b4be 26b5 543e
00000140: 9807 18be 998f b4be 3b3d 99be 3bba b33e
00000150: cd12 22be 0119 5dbe 53c2 55be 24e6 80be
00000160: 19e6 73bd 7a20 5a3e ed8a 903e 4220 663e
00000170: 924b 03be 6f65 ad3d 0d13 d4bd 9204 39be
00000180: 56d8 8a3e 6832 863e 4baf 09be c16b bbbe
00000190: 4e72 593e 53a7 613e 2f1f babb 8316 433e
000001a0: f08c 823e ba87 563e 2b07 283e 0fe9 5e3e
000001b0: b31c 2fbe 9b43 973e 5676 b23e 5fe6 1a3d
000001c0: 47ee 6bbb f1cb a8be 5500 893e 8eae c63c
000001d0: 3bd7 9e3e d9aa f1bd 0888 e3be 240e 7dbe
000001e0: 2f6d cc3d b5ad e8be a8f3 003e b2aa 7a3e
000001f0: f2ea 9fbe 7aa4 d1be a4d3 933e c726 56be
00000200: 143b 843e 11f5 8cbd 31d1 c3be 66c7 8e3e
00000210: 191b 91be 3f7b 033e 6746 7e3e 2c1a 8fbe
00000220: 5207 cf3d e8c1 b6bd 5312 783e e043 dcbe
00000230: 8a30 abbe 8959 0e3e cb49 d3be f20a 9cbe
00000240: d0b6 9b3e 260f 29be 37f9 9abd 8abc ea3d
00000250: 974c c93e 396e 4fbe 237a 953e e4b5 3d3d
00000260: c356 aabe 0c76 05bd dbc5 523e b647 8c3e
00000270: 3c2f 973e 2b8e b03e 5d62 d03e faf2 673c
00000280: 1ea0 bdbe e6b3 6f3e db6e 653e 0c0e 263a
00000290: ca46 a2bd 40c8 643e f4cf 09be 2a19 a6be
000002a0: 53a1 61be a372 6b3e 79fb a7be fbc4 213e
000002b0: 4003 ba3e a2fd 76be 4875 7bbe 2294 b0be
000002c0: d974 823e e827 9c3e 1bd9 91be ed94 443e
000002d0: b557 74be 45c8 47be 91ce ca3d c12a 82be
000002e0: 6561 a6be fe07 74be a2e6 96be 53d7 e63d
000002f0: 85c3 c03d 158b 95be 6ea2 efbe d63f 7d3d
00000300: 0411 b9be 2152 2f3e 32cd 8d3e 697f 98be
00000310: c10d 6b3e ab8e 78be bae2 6abe 1f43 8c3e
00000320: 65fb d43c 3808 993e 3bd5 50be 848e a93e
00000330: 2614 b63e 05e8 f6bd f7fe 8d3e a669 ad3e
00000340: a055 65be 5ec5 8a3e 7d83 313e 887d cdbc
00000350: 11b2 a6be 7d87 7c3c 6fe9 a8be 8ec9 0a3d
00000360: 50c7 bd3e 3d2f 88bd d65b 96be 49ba cebe
00000370: 2811 17be ad23 acbe 2ff5 debe 5100 9dbc
00000380: 2d24 873e 5ab3 9ebe 6523 23be 2b18 87bd
00000390: 56b4 733d 4185 87bc 4dfd 31bd 6226 8c3e
000003a0: 88b1 993e d127 cdbe 60fd 443e 2692 913d
000003b0: a2a0 92be cf46 cd3d 1379 4f3e 5d24 783e
000003c0: 8cc2 cbbe d4a1 9abe 908b 823e 706e 63be
000003d0: 91c5 513e 5a38 583e 42a8 08be 5ff7 943b
000003e0: 4363 a13e aa38 113e a30e c43d ee7e 5bbe
000003f0: c8b6 84bd aaa6 823e c320 d13e 40d0 bebd
-0.29602093 -0.32113484 0.15123498 0.2420182 0.16666345 -0.21815734 -0.3508496 0.31413177
-0.30447704 -0.04486991 -0.32216042 -0.2493524 0.1612765 -0.3953361 0.28441697 -0.25803652
0.2592676 0.3213241 0.16503108 -0.39161664 0.20720156 0.29666308 0.1877437 0.0931576
-0.07520913 -0.3701219 -0.09149611 -0.42341703 0.13463138 -0.023500435 -0.01548482 0.4187902
-0.22317092 -0.3462351 0.11943327 0.27981135 -0.1503168 -0.2573166 0.13239042 -0.12267839
-0.36256227 -0.2584187 -0.004354119 -0.1596208 0.2097237 -0.3735464 -0.4458082 -0.0068186224
0.045547087 0.33044738 -0.18021804 0.15912908 -0.41970325 -0.15369767 0.38947216 0.3145622
-0.18121648 0.4365476 -0.025870098 -0.35728872 0.26132303 0.2633985 -0.3592764 0.30775946
0.26776057 0.14129737 -0.35213837 -0.24302167 -0.15704617 0.22785766 0.33069965 -0.3360601
0.30826005 -0.05794951 0.18165897 0.2102549 -0.3102783 0.35513887 -0.35217366 0.20772228
-0.14846647 -0.35265806 -0.29929528 0.3510302 -0.15827484 -0.2159157 -0.2087491 -0.25175583
-0.05954561 0.21301451 0.28230992 0.22473243 -0.12821797 0.084666125 -0.10355196 -0.1806815
0.27118176 0.26210332 -0.13445775 -0.36605647 0.2123501 0.22036485 -0.005679987 0.19051556
0.25498152 0.20950213 0.16408984 0.21768592 -0.17100792 0.29543766 0.34855908 0.037817355
-0.0036000179 -0.32968095 0.26758066 0.024253156 0.31023583 -0.11800165 -0.4443972 -0.24712425
0.099817626 -0.45445028 0.12592947 0.24479178 -0.31233937 -0.40945798 0.28872406 -0.2091323
0.25826323 -0.0688268 -0.38245538 0.27886504 -0.28340986 0.12839983 0.24831544 -0.27949655
0.10108818 -0.089237034 0.2422574 -0.43020535 -0.3343547 0.13901342 -0.41267237 -0.304771
0.30412912 -0.16509685 -0.07567065 0.11461742 0.39316246 -0.2025689 0.29194745 0.046316043
-0.3326932 -0.03258328 0.20583288 0.2739846 0.29528224 0.34483466 0.40700045 0.014157051
-0.37036222 0.2340847 0.2240557 0.00063344906 -0.07923658 0.22342014 -0.13458234 -0.32441074
-0.22034197 0.22992949 -0.32809046 0.15797798 0.36330605 -0.2412019 -0.24556458 -0.34488016
0.25479773 0.30499196 -0.2848595 0.19197436 -0.23861583 -0.1950999 0.09902681 -0.25423244
-0.3249618 -0.23831174 -0.29472834 0.112715386 0.094122924 -0.29207674 -0.46803612 0.061828457
-0.36145794 0.17121173 0.27695614 -0.29784706 0.22954465 -0.24273174 -0.22938052 0.2739496
0.02599878 0.29889083 -0.20393841 0.33116543 0.35562247 -0.12055973 0.27733585 0.33869666
-0.22395945 0.27103704 0.17335315 -0.025084272 -0.3255773 0.015413162 -0.32990596 0.033883624
0.37066126 -0.06649635 -0.2936694 -0.403765 -0.14752638 -0.33620968 -0.43546435 -0.01916519
0.26394787 -0.3099621 -0.1593147 -0.065964065 0.059498154 -0.016543033 -0.043454457 0.27373034
0.30018258 -0.4006944 0.1923728 0.07107954 -0.28638178 0.10023271 0.2026103 0.24232621
-0.39796865 -0.3020159 0.25497103 -0.22210097 0.20485522 0.21115246 -0.13345435 0.0045460905
0.31521043 0.14181772 0.09573104 -0.21435139 -0.06480175 0.2551778 0.40845308 -0.09317064

action_head.bias f4 [4]
00000000: 9845 aa3c 8957 bebd 8e57 99bd 35dd b0bd
0.020785138 -0.0929404 -0.07487403 -0.08635942
