output/4-agents_domain-CoinGame-4_MATE-TD-T0.5_2022-08-08-16-01-39/critic_net_3.pth (torch, 44695 bytes, 5 tensors)

fc_net.0.weight f4 [64, 100]
000000 7a 5a e6 bb 48 cb bb ba 3e 9d bd bd 02 af b6 3c
       -0.0070298286 -0.001432755 -0.09258507 0.022300247
000010 ff 0b a8 bd 34 9c 05 be 5b 3d 8b 3c 39 6a d3 bd
       -0.08205413 -0.13047868 0.01699703 -0.10322995
000020 df 0d b2 bd 8a df 9c bd f5 30 2a be 30 c1 06 be
       -0.08694052 -0.07659824 -0.16620238 -0.13159633
000030 a8 22 21 bd bb 2d 82 bc d8 e7 1d be 02 69 28 be
       -0.03933969 -0.015890947 -0.15420473 -0.16446307
000040 a4 62 25 be dc 92 40 3d cf 85 eb bd 45 f9 2a bd
       -0.1615091 0.047015056 -0.11500131 -0.04174163
000050 47 f7 81 bd a6 24 12 bd 28 c9 c1 bb b7 c0 35 bd
       -0.063459925 -0.035679482 -0.0059138723 -0.04437324
000060 00 be 13 be 82 0a e5 bc da 92 f1 bd a9 25 e5 bd
       -0.14427948 -0.027959112 -0.11795588 -0.11188824
000070 b7 35 03 be b0 ef 3c bd 19 2a e2 3b e9 9f bf bd
       -0.1281346 -0.04612702 0.006901991 -0.09356672
000080 da 7c c6 bc 21 71 88 3d 63 3a 92 bc 22 3f 8d 3b
       -0.024229456 0.066622026 -0.017850107 0.0043105045
000090 12 e2 09 be 20 3f b3 ba 3d ec 3c be 3d b3 9d bd
       -0.13465145 -0.0013675429 -0.18449493 -0.077002026
0000a0 13 4e 04 be 38 d6 5e bd 9d ae 10 be cc a9 58 bd
       -0.12920408 -0.054403514 -0.1412911 -0.052896306
0000b0 76 71 39 bd ad 29 3e bd 2b bb 34 bc 4a 60 60 bd
       -0.04527422 -0.046426464 -0.011030952 -0.05477933
0000c0 d8 01 1a be dd 3f ef bd ff 80 1c 3e ef e9 a1 3d
       -0.15039766 -0.11682103 0.15283583 0.079059474
0000d0 d9 49 a8 3d d2 6e 1d 3e d9 cc d8 3d 86 c1 1f 3e
       0.0821721 0.15374306 0.105859466 0.15601167
0000e0 b9 2f 24 bd 01 c7 e7 3d 1a 06 66 bd 37 bb 11 3c
       -0.040084574 0.11317254 -0.056158163 0.008894733
0000f0 1d 81 d2 3d c4 81 d4 3d 3e 7c 43 be c3 12 ea bd
       0.10278533 0.10376313 -0.19090363 -0.1142936
000100 38 1f 9b bd 09 1b 03 3e af 65 5d bd af 93 ca bd
       -0.07574314 0.12803282 -0.05405205 -0.0989145
000110 47 df 2d be 10 2e 2e bd 52 82 cb 3d 18 fc 0a bd
       -0.16979705 -0.042524397 0.09936966 -0.03393182
000120 77 34 e4 bd 1f b2 67 bc b5 17 2a be c8 d2 80 bd
       -0.111428194 -0.0141415885 -0.16610606 -0.06290203
000130 57 0e ca bb 1b 46 6e bc 7c f7 c9 bc 09 d4 aa bd
       -0.00616626 -0.014543082 -0.024654143 -0.08341224
000140 16 4c da bd 80 39 c2 bd cd 7a 17 be 4b 29 38 bd
       -0.106590435 -0.094836235 -0.14792939 -0.044961255
000150 19 3c 32 be d9 a7 ba bd 4f 81 76 bd 1a be 11 3d
       -0.17405738 -0.09114046 -0.060181912 0.035581686
000160 de 51 21 be 22 91 58 bd 11 c2 12 be 04 c9 fb bd
       -0.15753886 -0.052872784 -0.14331843 -0.122942
000170 93 8a 8d bb 38 4c 0d be d6 a9 16 bc c2 8c 57 bd
       -0.004319498 -0.13798606 -0.0091957655 -0.05262447
000180 88 7d 15 3b 05 c7 ca bd 9c 9f 99 bd ca c9 a2 bd
       0.0022810418 -0.09901241 -0.07501146 -0.079486445
000190 57 06 04 3d 37 52 f3 3c 09 ab b2 3c e7 10 db 3d
       0.03223261 0.029702289 0.021810072 0.10696583
0001a0 fa 95 b8 bc fc dd 0b 3e 17 66 cc 3d 2a 67 24 3e
       -0.022532452 0.13658899 0.099804096 0.16054979
0001b0 eb 5b f8 3d 1c 36 c5 3d 5a 39 2f 3e dd e5 68 3d
       0.12126907 0.09629461 0.17111722 0.05685984
0001c0 1f c8 6e 3d bd d4 b9 3d b1 a5 2a 3e 01 89 bf 3d
       0.05829632 0.0907378 0.16664769 0.09352303
0001d0 cf a4 36 3c 76 16 ba bc 3e 54 92 bc e3 fb 13 bc
       0.011147692 -0.022715788 -0.017862435 -0.009032222
0001e0 23 df 40 3d 3b 08 f6 3d 84 6e fc bb 97 60 14 3e
       0.0470878 0.120132886 -0.007703604 0.14489971
0001f0 25 7c c4 3d c3 c9 98 3d 97 64 b7 3c 03 28 d5 3d
       0.09593991 0.07460358 0.022386832 0.10408022
000200 92 66 61 3d db 8f 8a bc da 95 ad 3d 18 95 e9 3c
       0.05502946 -0.016914299 0.084758475 0.028513476
000210 77 e7 09 3e d8 b2 77 3d e0 25 1d 3e 1e 9b f3 3d
       0.13467203 0.060473293 0.1534648 0.11894821
000220 61 10 18 3e a8 db d0 3d 8c c6 5d bc 0b 77 b9 bb
       0.14849998 0.10198146 -0.013536107 -0.005659943
000230 1b e0 5c 3d 7c 6c 09 3e fd 25 10 bb 2d 92 d7 3d
       0.05392466 0.1342029 -0.00219953 0.10525928
000240 83 96 50 bc ce d7 30 bc b8 8f fe 3d 60 b2 f8 3d
       -0.012731197 -0.010793639 0.12429756 0.12143397
000250 b2 bb 29 3e cb 94 2d 3c f9 03 05 be 14 70 2e bc
       0.16575506 0.010594557 -0.12989797 -0.010646839
000260 9e b9 69 bd bd f6 d4 bd 85 20 aa bd 7b 84 9c bd
       -0.057061784 -0.10398624 -0.08306984 -0.07642456
000270 ee 69 5e 3d ba 8c e3 3c bc b3 45 bd 63 fa 24 bc
       0.05430024 0.027777065 -0.04826711 -0.0100694625
000280 ec 8a 9c bd 13 1d fe bd 5d 7e a6 3d e2 72 58 3d
       -0.07643685 -0.12407889 0.08129571 0.052843936
000290 e2 70 d6 3b 4c c6 5b bc 71 f9 75 3d cf 89 a1 bc
       0.0065442184 -0.013413977 0.06005234 -0.019719033
0002a0 4b c6 e6 3d 05 b9 95 3d 6b 6d 2b be 76 89 21 3d
       0.1126829 0.0731068 -0.16740958 0.039437734
0002b0 c7 59 0c 3e e6 9a 20 3e cd 41 1e 3e 64 54 22 3d
       0.13706122 0.15684089 0.15454789 0.039631262
0002c0 99 e3 0d 3e d5 c9 33 3e 97 ad fd 3c 51 b0 8e 3d
       0.13856353 0.17557462 0.030966563 0.069672234
0002d0 99 88 76 3c 7f bc 3d 3d 00 6d ae 3d 9f 1d 6d 3d
       0.015047216 0.046322342 0.08516884 0.057889577
0002e0 b0 20 03 3d 0a 93 09 3e 0b 4f 15 3d e4 97 89 3d
       0.032013595 0.13434997 0.036452334 0.06718424
0002f0 ba 99 35 3d 49 d7 48 bb 2c 75 ee 3d f7 7f 85 3c
       0.04433606 -0.0030645898 0.116434425 0.01629637
000300 ef b4 44 bc 36 ae dc 3d 51 9d f3 3d 71 fe 06 3d
       -0.012006029 0.107754156 0.1189524 0.032957498
000310 33 f3 d2 3c 1c c4 10 bd 05 ff 2e 3e 75 8b cc 3d
       0.025750732 -0.035343274 0.1708947 0.09987537
000320 fc b1 0d be 5e f2 8d bc 9b 80 a6 bd e3 98 3b be
       -0.13837427 -0.017327484 -0.08129998 -0.1832004
000330 76 e9 75 bd 4d e4 66 bd 86 5c 08 bd 57 fd 01 be
       -0.0600371 -0.05637007 -0.033291362 -0.12694298
000340 32 74 2d be 2b 2a 9c bd 7a 9e 19 bb 94 ef 82 bd
       -0.16938856 -0.076252304 -0.0023440407 -0.06393352
000350 c8 bf ff bd d8 85 87 bd e1 d0 5e be 79 2c d5 bd
       -0.12487751 -0.066173255 -0.21759368 -0.10408873
000360 64 02 7c bd a0 31 00 3d 51 19 d7 bd d3 8d 59 be
       -0.061525717 0.031297326 -0.105028756 -0.21245508
000370 16 98 57 bd aa 37 c8 bd 7b 6f 05 be 14 f3 07 be
       -0.052635275 -0.09776242 -0.13030808 -0.1327632
000380 94 2e 28 be 90 b9 88 bd fd 25 6e bd e7 5a b3 3c
       -0.16424018 -0.06676018 -0.058141697 0.021893932
000390 52 ac 93 bd 6e d8 0a be 8f 8e d5 bd 2d 07 0e be
       -0.07210602 -0.13559124 -0.104275815 -0.13869925
0003a0 69 a0 fc bd d0 88 59 be 1b f9 36 be dd 0d 9c 3c
       -0.12335283 -0.21243596 -0.17868464 0.01904958
0003b0 a7 68 27 bd dd 58 0c bd c9 4c ea bd 22 5f 4b be
       -0.04087129 -0.034264434 -0.11440427 -0.19860509
0003c0 1f 0e 63 3d 32 fb 5c 3c 6f b3 d1 bc 41 31 07 be
       0.05543339 0.013487624 -0.025598256 -0.13202383
0003d0 90 5b 1e be bd 5d 9a bc c5 a9 04 be 5a 14 0a be
       -0.15464616 -0.018843526 -0.12955387 -0.13484326
0003e0 57 85 c1 bd d8 e8 73 bd c8 69 ee 3d 77 12 82 3d
       -0.09449261 -0.05954823 0.1164127 0.06351178
0003f0 17 59 87 3d 6a 6c 6f bd 7c e9 1a 3e c7 dc 99 bb
       0.066087894 -0.058453 0.1512813 -0.004695508

fc_net.0.bias f4 [64]
000000 5b a0 4b 3c f1 81 24 3e 75 a8 a7 bd ae d1 00 be
       0.012428368 0.16065194 -0.081864275 -0.12579986
000010 95 84 01 3e 1e 24 df bd ee c3 27 3e 00 ea d2 3a
       0.12648232 -0.10895561 0.16383335 0.0016091466
000020 22 94 1c 3e c3 c7 f5 bc dd 94 e1 bd cb b9 ce bc
       0.15290883 -0.03000248 -0.110147215 -0.025235077
000030 76 c9 66 bd 63 2e 35 3e 2e 45 fa bd 5f 9d c3 bd
       -0.056344472 0.17693476 -0.12220226 -0.095515005
000040 cd 4c 1f be db 36 ab 3d fb ec 19 3e dc d7 42 3e
       -0.15556641 0.08360072 0.15031807 0.19027656
000050 57 c9 e4 3d 59 7b 17 be d3 0e 1e 3e fe 94 07 be
       0.11171215 -0.14793147 0.15435342 -0.1324043
000060 a3 58 b5 bd 87 4b 1b 3e c6 9b 36 be 4e 29 22 3d
       -0.08854797 0.1516553 -0.1783286 0.039590172
000070 13 92 68 3d 31 61 e5 3d f7 be 38 be 7d 7f 0e 3e
       0.056779932 0.112001784 -0.18041597 0.1391582
000080 72 3a 1c 3e 82 8f 4a 3e 52 8e dc 3c e4 10 28 be
       0.1525667 0.19781306 0.026923332 -0.16412693
000090 08 4a 8f 3c 2a d8 8a bd 4b 7c cc bd 47 37 28 be
       0.017491356 -0.06779511 -0.099846445 -0.16427337
0000a0 79 0a 4c be f3 fa 23 be 60 40 1d 3d 11 7c f8 3d
       -0.1992587 -0.16013698 0.03839147 0.12133039
0000b0 37 55 2b be 1f 2f 05 3e 7e 8b 02 be 66 6c 2a be
       -0.16731726 0.13006257 -0.12748525 -0.16642913
0000c0 5b a2 5a be be 27 27 3e 9c f7 31 3e 11 ba 1e 3e
       -0.21350996 0.16323754 0.17379612 0.15500666
0000d0 e8 68 93 3d 2e 31 b4 3d 57 59 10 3e 1b c6 e6 3d
       0.07197744 0.08798443 0.1409658 0.11268254
0000e0 5e 7a 34 be f4 3a 42 3e 2b 76 91 bd 66 22 0d be
       -0.17624804 0.18967801 -0.07102617 -0.13782653
0000f0 eb 89 6d 3d b6 9b 1e 3e 3d 65 3f 3e c3 d3 54 3d
       0.057992857 0.15489087 0.18690963 0.051959764

fc_net.2.weight f4 [64, 64]
000000 36 52 20 bd 36 bb 44 3c 57 5f 4f bd 76 95 54 3d
       -0.039140902 0.012007525 -0.050628033 0.05190035
000010 ba 4a 95 bd 5b 65 34 be 41 7f 94 3d e7 e9 d8 3d
       -0.072896436 -0.17616789 0.07250834 0.10591488
000020 0a cc c3 bc be 40 35 bd de 60 20 bc f0 a0 7e 3c
       -0.023901004 -0.044251196 -0.00978872 0.0155413
000030 b6 c2 61 bc 73 db 0b 3d ad 3d eb bb 1a d3 a1 bd
       -0.013779333 0.03414483 -0.007178983 -0.079015926
000040 75 67 bf 3c 31 79 57 bd 79 3e 9f bd 1b 5d 4f 3d
       0.023364762 -0.05260581 -0.077755876 0.0506259
000050 9c 16 8c 3d 7f 49 83 bc 6f c9 db ba 6b cf 4b be
       0.0684025 -0.016026257 -0.0016768406 -0.19903342
000060 15 87 38 be ce a2 b2 bd c7 36 2d be 03 ea 87 3d
       -0.1802028 -0.08722459 -0.16915427 0.06636431
000070 1c 27 08 3e 16 27 e2 bb 73 6f f6 bd b8 64 35 3d
       0.13296169 -0.006901632 -0.12032976 0.044285506
000080 07 cd 06 3e 8d fb aa 3d c4 09 bd 3d 9b e1 3e be
       0.13164149 0.08348761 0.09230378 -0.18640749
000090 62 e9 ba bd 57 be 4a 3d ea bf 09 be 72 e2 85 3c
       -0.091265455 0.04949793 -0.13452116 0.01634333
0000a0 4c df c5 3c 5b 90 7f bd db f1 f7 3d ca 89 16 3e
       0.024154328 -0.062393527 0.12106677 0.14701
0000b0 73 fe 42 be 41 16 11 3e 20 63 37 be 77 5b 46 be
       -0.19042377 0.14168645 -0.17908907 -0.19370829
0000c0 4b a1 c0 bd eb 18 16 3e eb 6b 59 bd 63 ac fb 3c
       -0.09405764 0.14657943 -0.053081434 0.030721849
0000d0 94 e9 af 3d 05 eb 9e bd 61 32 ab 3c 55 a3 0e 3d
       0.08589473 -0.0775967 0.020898046 0.034823734
0000e0 46 e1 b4 3b 6d 6b d3 3d f2 79 ab bd 0b e3 01 be
       0.0055200187 0.10323224 -0.083728686 -0.12684266
0000f0 3a 27 c7 3c e7 53 57 3d 9d 52 95 3d 9a 8d 94 3d
       0.024310697 0.05257025 0.07291148 0.07253571
000100 39 77 02 3e 8c 76 a9 bd 1a 6d 07 3e 6b 74 3e 3e
       0.12740792 -0.08274564 0.13225213 0.18599097
000110 12 34 bb bc ab 06 8f 3d 29 6c e3 bd a1 e3 04 be
       -0.022851977 0.06983694 -0.11104614 -0.12977459
000120 c2 56 16 be 78 82 82 3e 7a ae d8 3d c6 24 24 be
       -0.14681533 0.25490165 0.10580154 -0.16029653
000130 8d aa 6c 3e 97 7a 24 be 1d d6 87 3e 60 87 ab 3d
       0.23111935 -0.1606239 0.26530543 0.0837543
000140 fe 4f 51 3e 5b 5e 71 be 0e 02 08 be c3 53 a7 bd
       0.20440671 -0.2357115 -0.13282034 -0.08170273
000150 2c 33 6b be 7f 8f b5 3d dd de e2 bd b4 44 0e 3e
       -0.2296874 0.0886526 -0.11077664 0.13893396
000160 b2 7b 6d 3e 25 75 11 be 9e 93 33 3e 7f 54 4c 3e
       0.23191717 -0.14204843 0.1753678 0.19954108
000170 ed c7 2b be 1f 4e 55 be 63 19 32 3e 4b 63 f5 bd
       -0.16775484 -0.20830582 0.17392497 -0.11981829
000180 5b 22 ce bd 24 92 91 bd 83 16 1f bd af c4 8c 3e
       -0.100651465 -0.07107952 -0.03883983 0.27493808
000190 ed 49 04 bd b0 94 22 3e e3 02 0c 3e 41 9d 1c 3e
       -0.032297064 0.15877032 0.13672976 0.15294363
0001a0 f8 a4 aa 3c b6 69 57 3e f8 27 fd bc bf 80 be bd
       0.020830616 0.2103642 -0.030902848 -0.093019
0001b0 22 21 38 3d 86 82 81 bd f5 99 37 3e 78 41 43 3e
       0.044953473 -0.063237235 0.17929824 0.19067943
0001c0 a0 56 65 3e 96 0e 11 bd 20 2c 37 bd 8c f8 97 bd
       0.22396326 -0.0354143 -0.044719815 -0.074204534
0001d0 c9 53 87 be 5c dd 37 be 61 cb 15 be 6f 37 f9 bd
       -0.2643111 -0.17955536 -0.14628364 -0.12168776
0001e0 d4 9d 1c 3e f8 c7 1f be 73 52 58 3e 68 fe 82 3e
       0.15294582 -0.15603626 0.21125202 0.25584722
0001f0 c1 1c c4 bd 80 f2 16 be 06 01 d3 bc 0a 19 92 bd
       -0.09575797 -0.14740944 -0.025757324 -0.07133682
000200 df 90 b9 bd dd c5 25 bd 5e 46 4f bc 7e 94 a9 bb
       -0.09060835 -0.0404719 -0.012651054 -0.0051751724
000210 af ca 21 3e 64 6e 0f be 44 69 2f 3e f5 a1 9c 3d
       0.15799974 -0.14006954 0.1713 0.07648078
000220 21 94 1d 3e 02 a9 05 be 49 f0 19 3c 0f fa 92 bc
       0.15388538 -0.13052753 0.009395667 -0.017941503
000230 9a 48 ae bd ba 46 2c 3e 15 35 ba bd 54 a0 8f 3d
       -0.085099414 0.16823855 -0.09092156 0.07013002
000240 29 e1 08 3d ca 2d 11 3d 53 dd f5 3a c9 8d 17 3e
       0.033417854 0.03544406 0.0018757976 0.1480018
000250 be 3b c9 3d 66 55 d2 3c bd e0 e7 3d ca 24 18 bd
       0.09825848 0.025675487 0.11322162 -0.03714446
000260 e2 3e 99 bb dc d0 db 3d b1 30 52 be 5b 7a 7d 39
       -0.0046766857 0.10733196 -0.20526387 0.00024173541
000270 70 a2 69 bc 3a e3 b7 bd 35 39 63 bd 24 b6 02 3d
       -0.0142599195 -0.08978887 -0.05547448 0.031911984
000280 e8 49 1c 3e 74 b2 d6 3d 35 cb 1c 3e d2 fb ea 3b
       0.15262568 0.10483256 0.15311892 0.0071711326
000290 b1 fb f0 3d 9d ad 13 bd 45 a1 b7 bd c2 55 2f be
       0.11766756 -0.036054242 -0.089663066 -0.17122558
0002a0 d7 f8 b6 bb 98 ef d1 bd 4c dc 1f 3e cf 92 2d 3c
       -0.0055838632 -0.10250777 0.1561138 0.010594084
0002b0 45 3f 20 bd 60 73 c8 3d ec 5b 61 3a 4b 8c a6 bd
       -0.03912284 0.09787631 0.0008596766 -0.081322275
0002c0 1c 27 31 be 87 24 5b 3d 9f 63 fb 3d c5 99 b5 3a
       -0.17300075 0.053501632 0.122748606 0.0013855031
0002d0 70 4b 04 bd 74 db d2 3d df fd 6d 3d c9 4f 3f 3d
       -0.032298505 0.102957636 0.05810344 0.04670695
0002e0 c2 80 6f bd cc be ac 3d 1d 21 77 3d f3 bd 2b be
       -0.058472402 0.08434829 0.060334314 -0.16771679
0002f0 a6 fb e5 bd 59 d3 1d 3e b1 62 ee 3d f1 64 38 3e
       -0.11229639 0.15412654 0.11639918 0.18007256
000300 26 15 ed 3d 10 55 04 be 2b 0b 2b 3e b5 11 14 3d
       0.11576299 -0.12923074 0.16703479 0.0361497
000310 4c d9 85 be 31 4a 62 3e 15 4e 19 be 52 9f 06 be
       -0.26142347 0.22098614 -0.14971192 -0.13146713
000320 0b f8 de bc c4 c8 75 3e c3 4f 67 3d 3a ea 83 bd
       -0.027217885 0.24002367 0.05647255 -0.064411595
000330 64 4f 46 3c 99 43 de bd c0 f2 97 3e da dc 38 3d
       0.012103889 -0.10852737 0.2967739 0.045132495
000340 7d f9 1d 3d ac fc 6d be 15 b4 e6 bd 61 7d 0a be
       0.03856801 -0.23240918 -0.11264817 -0.13524391
000350 cf 82 a4 bd d3 93 8d 3e 17 49 15 be 3e 72 8e 3e
       -0.08032762 0.27651843 -0.14578663 0.27821535
000360 a0 1d 5d 3e e7 cb 62 be f5 0c 09 3d cc af c6 3e
       0.21593332 -0.22148095 0.033459622 0.38805997
000370 1e 7d 8b bd ff 95 23 be e6 5b dc 3d eb e7 49 be
       -0.068109736 -0.15975188 0.10759716 -0.19717376
000380 c4 25 e0 bc d8 cd 7c bd 44 25 03 be 2c 60 20 3d
       -0.027361758 -0.061719745 -0.12807184 0.039154217
000390 dd e2 5d be d9 2a 2f 3e 8f fe 35 3e 93 dc 56 3e
       -0.21668573 0.17106189 0.17772888 0.2098258
0003a0 fc 1a ef 3d 00 28 1c 3e 63 04 c6 bd 61 4f 58 bd
       0.11675069 0.15249634 -0.096688055 -0.052810077
0003b0 60 37 43 3e fc 49 00 bc 4a ef 01 3e be 17 9d 3d
       0.19064093 -0.007830139 0.12688938 0.07670544
0003c0 c1 36 d4 3d 32 70 a1 bd 39 97 e7 bc 7b 5e 6d be
       0.10362006 -0.07882728 -0.02827035 -0.23180573
0003d0 a7 38 58 be 4c b5 cc bd 0c ca 36 be 7c d7 9c be
       -0.21115361 -0.09995517 -0.17850512 -0.30633152
0003e0 0b c9 33 3b 54 a7 28 be 66 fb 4e 3e 4b 39 07 3e
       0.0027433063 -0.1647008 0.20213088 0.1320545
0003f0 e9 6c ac 3d 23 d8 3e bd ee 40 94 bc b9 3d 60 be
       0.084192105 -0.046592843 -0.018097367 -0.21898545

fc_net.2.bias f4 [64]
000000 56 6f 34 3d e6 bf 16 be 7f ea 03 3e 47 20 87 3b
       0.04405149 -0.14721641 0.12882422 0.004123721
000010 40 99 90 bc a3 00 1e bc c5 11 ea bc ea 8c a9 3d
       -0.0176512 -0.0096437065 -0.028572926 0.0827883
000020 1b da 8f bd 82 ff 01 be e5 23 13 be 4a 10 2c 3e
       -0.07024022 -0.12695125 -0.14369161 0.16803089
000030 4b 9d ac bd aa e0 be 3d 29 77 4a be cd ad 1f be
       -0.08428439 0.09320195 -0.19772018 -0.15593643
000040 71 e2 b5 3d 2c 24 59 be 83 11 69 be cd f5 fb 3d
       0.08881081 -0.21205205 -0.22760586 0.12302742
000050 ca 6a ec bc d7 bf ba 3b a7 2b 43 be 03 4d a6 3d
       -0.028859515 0.0056991386 -0.19059621 0.081201576
000060 74 23 89 3d 50 29 9d 3c b8 b1 d2 bd bd 61 49 be
       0.06696215 0.019184738 -0.102878034 -0.1966619
000070 2f ab 31 3e d8 b8 45 be 92 39 54 be 8e b1 17 be
       0.17350458 -0.19308794 -0.20725086 -0.14813825
000080 9b a4 91 bc cc 6b 62 be d7 a3 32 3e c4 cc 77 3d
       -0.017778685 -0.22111434 0.17445312 0.060498014
000090 42 d4 57 be 64 37 30 3e fe d1 b3 bd 95 e0 02 be
       -0.21077064 0.1720863 -0.08780287 -0.12780984
0000a0 80 06 32 3e e3 ca 41 be ef 2d 58 be 7f 5d 3c 3e
       0.17385292 -0.18925051 -0.21111272 0.18395041
0000b0 89 52 a2 3d ed 16 ab 3c 11 8b f4 bd bd 99 8d bb
       0.079258986 0.020884955 -0.11940587 -0.0043213055
0000c0 c8 ba 30 3c 25 9c 7f be 8b 1f db bd ff 6f f7 3d
       0.01078672 -0.24961908 -0.10699376 0.120819084
0000d0 78 fa f2 3d b1 0b 76 bd 6d 37 02 3e ba e9 52 bd
       0.118641794 -0.060069744 0.12716456 -0.05149243
0000e0 7f a8 14 be af ba ab 3d 83 ba 9a bd 0d ca 62 3e
       -0.14517401 0.083852164 -0.075551055 0.22147389
0000f0 c1 48 2c 3e d5 db 28 3e a5 89 52 be 3b 6c b0 bd
       0.16824628 0.1649011 -0.2056032 -0.08614393

value_head.weight f4 [1, 64]
000000 10 fc b1 3d ad 84 3b be 60 b1 1e 3e 43 fc 0c be
       0.08690655 -0.1831233 0.1549735 -0.13768105
000010 b2 ac 97 3d fb 18 a2 3d a2 2e 05 3d 61 89 11 3e
       0.07405986 0.07914921 0.032515176 0.14212562
000020 a2 69 2e be 7d 98 67 be 39 e4 21 be dc af 87 3d
       -0.17032483 -0.22616763 -0.15809716 0.066253394
000030 be cd 6d be dd 98 32 3e d9 f7 18 be 24 53 1b be
       -0.23223016 0.17441125 -0.14938296 -0.15168434
000040 aa 8f 0c 3e 6b 92 dc bd 2b 60 13 be bc 7a 10 3e
       0.13726678 -0.107701145 -0.14392154 0.1410932
000050 81 5e 93 bd 1c d4 59 3d 63 07 0e be 1a 8e 75 b8
       -0.071957596 0.0531808 -0.13870005 -5.8544894e-05
000060 70 18 23 3e 19 82 61 be bc 4f 47 be 97 d3 78 be
       0.15927291 -0.22022285 -0.1946401 -0.24299465
000070 a2 03 17 3e 8f 0e 30 be 9c fe 08 be 0f 6c ec bd
       0.1474748 -0.17193054 -0.13378376 -0.11544048
000080 63 94 ae 3d 4f bf 02 be c0 5c 19 3e 28 58 b6 3d
       0.08524396 -0.12768291 0.14976788 0.08903533
000090 f5 49 18 be ff a3 2a 3e 80 7c 38 be 30 ff 28 be
       -0.14871962 0.16664122 -0.18016243 -0.16503596
0000a0 f7 56 2c 3e 22 1f 15 be 3e cb 00 be f7 7b e5 3d
       0.1683005 -0.14562657 -0.1257753 0.11205285
0000b0 e9 51 e3 3d a1 5b 00 3e 4f 1e 04 be a9 4a 3f be
       0.110996075 0.12534954 -0.12902187 -0.18680824
0000c0 03 ef b6 bd 47 38 0b be c8 f2 19 be ea e2 3a 3e
       -0.089323066 -0.13595687 -0.1503402 0.18250623
0000d0 0a b3 12 3d dc 62 67 3a c9 2c 14 3e a3 10 3f be
       0.035815276 0.0008826682 0.14470209 -0.1865869
0000e0 b6 0b 29 be 5c 0a 10 3d f2 5d 1b be 47 2c 23 3e
       -0.16508374 0.03516613 -0.15172556 0.15934859
0000f0 34 8d f1 3d b0 e2 82 3d 85 0a f0 bd c4 9b 51 be
       0.117945105 0.063908935 -0.117207564 -0.20469576
