output/4-agents_domain-CoinGame-4_MATE-TD-T0.5_2022-08-08-16-01-39/critic_net_2.pth (torch, 44695 bytes, 5 tensors)

fc_net.0.weight f4 [64, 100]
0	0x3dea8971	0.11451996
1	0x3d82ba6e	0.06383215
2	0x3d4e4cb9	0.050366137
3	0xbd019806	-0.03163912
4	0x3d6a7467	0.057239916
5	0x3e0318d9	0.12802447
6	0x3d943909	0.07237441
7	0x3d8f717e	0.07004069
8	0xbbb776f0	-0.0055988953
9	0x3c907f86	0.017638933
10	0x3deac2d5	0.114629425
11	0xbcb1796c	-0.021664344
12	0x3df222f1	0.11823071
13	0x3e21b6db	0.1579241
14	0x3e27e2ef	0.16395162
15	0x3e189e2a	0.14904085
16	0x3e1bcf93	0.15215902
17	0x3bd9c396	0.00664563
18	0x3e16972b	0.14706104
19	0xbc914657	-0.017733736
20	0x3d659ff4	0.056060746
21	0xbd51503e	-0.051101916
22	0x3d888774	0.06666461
23	0x3e02cad7	0.1277269
24	0x3db47143	0.088106655
25	0x3dd13c5f	0.10216593
26	0xbc4ead0d	-0.012614501
27	0xbb619625	-0.0034421769
28	0x3e12c458	0.14332712
29	0x3c95df3f	0.018294929
30	0x3d84a000	0.0647583
31	0x3de58713	0.11207404
32	0x3c363615	0.011121293
33	0x3e1b29dd	0.15152688
34	0x3d161a98	0.036646456
35	0x3e005321	0.12531711
36	0x3daaee11	0.08346189
37	0xbc504210	-0.012711063
38	0x3d9231ee	0.071384296
39	0x3dcc41f4	0.09973517
40	0x3b068a14	0.0020529078
41	0x3de3e11a	0.11126919
42	0x3e23d3bd	0.1599874
43	0x3d96143d	0.07328079
44	0x3e0f5846	0.13998517
45	0x3db5d84c	0.08879146
46	0x3db9a8fe	0.09065436
47	0x3dbeed6a	0.09322627
48	0x3e0917ee	0.13388035
49	0xbd059011	-0.032608096
50	0x3e062da1	0.13103344
51	0x3daa5a10	0.08317959
52	0x3db6225a	0.08893271
53	0x3dc9f5da	0.098613456
54	0x3e22e68b	0.15908258
55	0xbdcf32a8	-0.10117084
56	0x3e0ae59d	0.13564153
57	0x3d052cb6	0.032513343
58	0x3d0cefc1	0.034408335
59	0x3e14e8ae	0.14541885
60	0xbdfbce2d	-0.12295184
61	0xbcb06c26	-0.021535944
62	0x3e1af105	0.15131004
63	0xbdd2e48b	-0.10297497
64	0xbc68b987	-0.014204389
65	0xbe3620d7	-0.17785965
66	0x3b896b98	0.0041937344
67	0x3c3fcd78	0.011706702
68	0xbdfa8f0c	-0.12234315
69	0xbd235704	-0.039877906
70	0xbde967a5	-0.11396722
71	0xbdedbeb8	-0.11608642
72	0xbe0916bb	-0.13387577
73	0xbe1f28a5	-0.15542848
74	0xbe489e46	-0.19591627
75	0x3d8bac42	0.06819965
76	0x3cc5264b	0.024066111
77	0x3dee0990	0.11622918
78	0xbd044e65	-0.032301325
79	0x3c9a0149	0.018799441
80	0x3d0afc62	0.033932097
81	0x3dfec46e	0.1243981
82	0xbd08906e	-0.033340864
83	0xbb256829	-0.0025239086
84	0x3e3ab982	0.18234828
85	0x3d8ad81c	0.06779501
86	0x3bca9591	0.0061823805
87	0xbd43984c	-0.047752663
88	0x3da2af56	0.07943599
89	0x3e04d7c6	0.12972936
90	0x3dcb2add	0.09920285
91	0x3dfa1a5e	0.122120604
92	0x3e34b6f1	0.17647912
93	0x3c60574b	0.013692687
94	0x3d22ed6f	0.039777216
95	0x3def8226	0.11694746
96	0x3e05bc85	0.13060196
97	0x3d0fc7f6	0.035102807
98	0x3d67ee8b	0.056623977
99	0x3d97b982	0.0740843
100	0xbd4ec5a9	-0.050481472
101	0x3dbdf37f	0.09274959
102	0x3d35e2f8	0.044405907
103	0x3b7fe19e	0.003904439
104	0x3cd44d00	0.025915623
105	0xbb263d45	-0.002536611
106	0x3e042d05	0.12907799
107	0x3cd2534c	0.025674485
108	0xbd0d7de1	-0.034543876
109	0x3dbc39d8	0.0919072
110	0x3c01ee26	0.007930314
111	0x3dd1f8c5	0.10252527
112	0x3ded111a	0.115755275
113	0xbcb33db2	-0.021880005
114	0x3d928615	0.0715448
115	0x3b3f86ef	0.0029224714
116	0x3d8b73ed	0.068092205
117	0x3a93ab90	0.001126634
118	0xbc882b5d	-0.01662224
119	0x3e0c7710	0.13717294
120	0xbc4f08d1	-0.012636379
121	0x3da7ee10	0.08199704
122	0x3dae7fd3	0.08520474
123	0x3e26f077	0.16302668
124	0x3c192a23	0.009348425
125	0x3c326980	0.010889411
126	0x3d8420c8	0.06451565
127	0x3dc14413	0.09436812
128	0xbbf78c14	-0.0075545404
129	0x3d8775c8	0.06614262
130	0xbc81a0bc	-0.015823714
131	0x3df66359	0.12030668
132	0x3dee7db0	0.11645067
133	0xbc812d84	-0.015768774
134	0x3df539fa	0.11973949
135	0x3d991103	0.07473948
136	0x3c2f12ee	0.0106856655
137	0x3e12da85	0.14341171
138	0x3ddfa4d5	0.10920111
139	0x3cf88133	0.030335044
140	0x3d6b1429	0.057392273
141	0x3d68f0b6	0.056870185
142	0x3ca12d4d	0.019674921
143	0x3e13eeb8	0.14446533
144	0x3ded30fd	0.115816094
145	0x3dcc0abb	0.09962984
146	0x3d770fbc	0.06031774
147	0x3e1348cf	0.14383243
148	0x3da3509d	0.0797436
149	0x3ce853ea	0.028360326
150	0x3e0f11aa	0.13971582
151	0x3ce671f4	0.028130509
152	0x3dacb3c3	0.08432724
153	0xbc8db637	-0.0172988
154	0x3e380b04	0.17972952
155	0x3d319aa8	0.043360382
156	0xbd79b6d7	-0.060965385
157	0x3c4367df	0.01192662
158	0x3e167445	0.14692791
159	0x3de774b7	0.113015585
160	0xbd7f78ab	-0.062370937
161	0xbd947c8d	-0.07250319
162	0x3d2b11f5	0.041765172
163	0x3d462874	0.048378423
164	0xbc9873de	-0.018609937
165	0xbe1a02ba	-0.15040103
166	0xbda9c473	-0.08289423
167	0xba10f52f	-0.0005529699
168	0x3bb2f4cb	0.0054613105
169	0xbd238d79	-0.03992984
170	0xbd38087a	-0.04492996
171	0xbe225f87	-0.15856753
172	0xbe04b892	-0.12961033
173	0xbc9cd742	-0.019145612
174	0xbe07e555	-0.13271077
175	0x3b1939db	0.0023380432
176	0x3cda9e7b	0.026686898
177	0xbc09399d	-0.0083755525
178	0x3c39d2c2	0.0113417525
179	0x3dbf7e41	0.09350253
180	0x3dfe0a66	0.12404327
181	0x3d9d0e12	0.07668699
182	0x3c178bc2	0.009249629
183	0x3cf5bc38	0.029996976
184	0x3e337918	0.17526662
185	0x3dca55da	0.09879656
186	0x3cf96bde	0.030446943
187	0x3e0c705a	0.13714734
188	0x3d390bac	0.045177147
189	0x3c9e2ab0	0.019307464
190	0x3c59081d	0.013246563
191	0x3d865c3d	0.06560562
192	0x3e32f49c	0.17476124
193	0x3e13bae5	0.14426763
194	0x3d5d52af	0.05403393
195	0x3b1a7d75	0.0023573313
196	0x3e026ee6	0.12737617
197	0x3c38121a	0.0112347845
198	0x3ddcfdf6	0.10790627
199	0x3db3ec65	0.08785323
200	0x3d89d6f5	0.06730453
201	0x3dee0a85	0.116231
202	0x3e0c0c39	0.13676538
203	0x3d428816	0.047493063
204	0x3d02d250	0.03193885
205	0x3c3712b0	0.011173889
206	0xbcec6a3b	-0.028859248
207	0x3bb6efd3	0.0055827885
208	0x3ce4efbd	0.027946347
209	0x3e0cd2f2	0.13752344
210	0x3d9c4e89	0.07632167
211	0x3d465c37	0.048427787
212	0xbd63c833	-0.055610847
213	0x3d0639e8	0.032770067
214	0x3defc090	0.1170665
215	0x3c70b318	0.014691137
216	0x3e2beb4c	0.16788977
217	0x3e27526b	0.16340034
218	0x3dce696e	0.10078703
219	0x3e16e3d0	0.14735341
220	0xbd61bbba	-0.05511067
221	0x3db84cef	0.08999049
222	0x3dfeda2e	0.12443958
223	0x3e16cdf4	0.14727002
224	0x3e0bf07f	0.1366596
225	0x3e03a6ea	0.12856641
226	0x3d4c6f6d	0.04991095
227	0x3d997b7c	0.07494256
228	0x3e0f83f7	0.14015184
229	0x3df38f56	0.118925735
230	0x3e1a149d	0.15046926
231	0x3d182467	0.03714409
232	0x3dbe579a	0.092940524
233	0x3cb8022a	0.02246197
234	0x3d1ea49c	0.038731202
235	0x3dbd3916	0.09239404
236	0x3d47ac5d	0.048748363
237	0x3e1c444a	0.15260425
238	0x3df5efb0	0.120086074
239	0x3c3832dd	0.0112425955
240	0x3d32cfbd	0.043655146
241	0xbd32a8d2	-0.04361803
242	0x3d4badbe	0.04972624
243	0x3dd9b803	0.106308006
244	0xbc9ca76e	-0.019122805
245	0x3e0bad00	0.13640213
246	0x3c9a54aa	0.0188392
247	0x3da9c5c7	0.08289676
248	0x3d3f01ae	0.04663246
249	0x3d1f9d55	0.038968403
250	0x3c550f37	0.013004116
251	0xbcc34a27	-0.02383907
252	0xbb94bb5b	-0.004538936
253	0x3e27f84e	0.16403314
254	0x3db632d8	0.088964164
255	0x3d0b3ab6	0.033991538

fc_net.0.bias f4 [64]
0	0x3e0ede31	0.13951947
1	0x3e1893bc	0.14900106
2	0x3dfe4ea5	0.12417344
3	0xbe393ff5	-0.18090804
4	0xbe38ce6f	-0.18047498
5	0xbded1d24	-0.11577824
6	0xbe0fbb85	-0.14036377
7	0xbe07e681	-0.13271524
8	0xbe3470fa	-0.17621222
9	0xbe3b208e	-0.18274137
10	0xbdefce07	-0.117092185
11	0x3dad296d	0.08455167
12	0xbe1122a6	-0.14173374
13	0x3def1252	0.11673416
14	0x3e2f01a7	0.17090474
15	0xbe278ea5	-0.16363008
16	0x3e0cdc67	0.13755952
17	0xbe37a824	-0.17935234
18	0x3dda3065	0.10653762
19	0xbd75f8ef	-0.060051855
20	0x3db8976c	0.090132564
21	0xbcf1fcfe	-0.029539581
22	0xbe0e7d42	-0.1391497
23	0xbdd6aae2	-0.10481812
24	0x3dcc0cd5	0.09963385
25	0xbe3747c2	-0.17898467
26	0x3e11a0c4	0.14221483
27	0xbe46dc14	-0.1941989
28	0xbd7cdb7b	-0.06173275
29	0x3c4b1f31	0.012397573
30	0x3d260976	0.040536366
31	0xbe2f516f	-0.17120908
32	0xbdf376a9	-0.11887867
33	0xbe540ca7	-0.20707951
34	0x3e149fb9	0.14514054
35	0xbe558f5b	-0.20855467
36	0x3dec7eb0	0.11547601
37	0x3d6f56e1	0.058432464
38	0xbe19dcc0	-0.15025616
39	0x3d7d24da	0.061802723
40	0xbdbda1dc	-0.09259388
41	0xbe01bf0d	-0.12670536
42	0xbd672c4f	-0.05643874
43	0xbdcff4e3	-0.1015413
44	0x3e24db8e	0.16099378
45	0xbde52ba3	-0.11189964
46	0xbe18b099	-0.14911117
47	0x3a769c06	0.00094074046
48	0xbe540afd	-0.20707317
49	0x3ddf85ac	0.10914168
50	0x3e157885	0.14596756
51	0x3df18f29	0.11794884
52	0xbe3290b7	-0.17438017
53	0x3e1d62b5	0.15369685
54	0x3d24187c	0.040062413
55	0xbe5845f0	-0.21120429
56	0x3e176f9b	0.14788668
57	0xbe1ac50a	-0.15114227
58	0x3e2ce03f	0.16882418
59	0x3c62e85c	0.013849344
60	0x3e21d359	0.15803279
61	0x3dc0866f	0.09400641
62	0xbde7a53a	-0.11310811
63	0xbd8f13ef	-0.06986224

fc_net.2.weight f4 [64, 64]
0	0xbd9915bf	-0.07474851
1	0xbd7a2afa	-0.061076142
2	0x3dd11345	0.102087535
3	0xbe32cdd9	-0.17461337
4	0xbd921971	-0.07133759
5	0x3d8d1b0e	0.06889926
6	0xbdc1b497	-0.09458273
7	0xbe4495e6	-0.19197807
8	0xbe19f770	-0.15035796
9	0xbe36fd18	-0.17869985
10	0xbe0d7c12	-0.1381686
11	0xbd68a65e	-0.056799285
12	0xbdbddf0d	-0.09271059
13	0x3b54bdf8	0.0032461863
14	0x3db298f5	0.087205805
15	0xbde0b163	-0.10971334
16	0x3dd1903a	0.10232587
17	0xbd0605ea	-0.032720484
18	0x3e15ff16	0.14648089
19	0xbe011263	-0.1260467
20	0xbddc894d	-0.107683755
21	0x3dd3d9ac	0.10344252
22	0xbccaf8d9	-0.024776863
23	0xbc5f5759	-0.013631665
24	0xbd8c1b81	-0.068411835
25	0xbdf2219b	-0.11822816
26	0xbd24adc5	-0.040204782
27	0xbd89f4a5	-0.06736115
28	0xbe064e37	-0.13115774
29	0xbd5b30ff	-0.053513523
30	0xbb0df4e7	-0.0021660866
31	0xbda3e64a	-0.080029085
32	0x3d3a45c0	0.045476675
33	0x3c974fbe	0.018470641
34	0x3d8a516a	0.0675381
35	0xbd909c95	-0.07061116
36	0x3e036d24	0.12834603
37	0xbd38b0ec	-0.0450906
38	0xbe33cf85	-0.17559631
39	0xbcae3418	-0.021265075
40	0xbce55be3	-0.027997917
41	0x3d29ef0c	0.04148774
42	0x3da970d0	0.082734704
43	0xbda93e9e	-0.082638964
44	0x3d8e642c	0.069527
45	0xbd18fe59	-0.03735194
46	0xbe2d576f	-0.16927885
47	0x3d8ad8d2	0.067796364
48	0x3d51c775	0.051215608
49	0x3e02909b	0.12750475
50	0x3da3b7fa	0.07994075
51	0x3d9f428b	0.07776364
52	0x3d535b54	0.05160077
53	0x3e102890	0.14077973
54	0xbda7c7cd	-0.08192406
55	0xbe2139ad	-0.15744658
56	0x3c845b34	0.01615677
57	0xbdbb4eae	-0.09145866
58	0x3dc661be	0.096866116
59	0x3d609c53	0.054836582
60	0x3e0c2b21	0.13688327
61	0xbc0f7c1f	-0.00875762
62	0xbe277e14	-0.16356689
63	0xbe180bc8	-0.14848244
64	0xbd92e9f1	-0.07173527
65	0xbe4d84c7	-0.20070182
66	0xbe6eabf3	-0.23307781
67	0x3e830136	0.2558686
68	0x3d234252	0.03985817
69	0x3e0aa1b8	0.13538253
70	0x3e0cf5b0	0.13765597
71	0x3e8223a8	0.2541783
72	0x3e26d43e	0.16291901
73	0x3d5caebb	0.053877573
74	0x3d991374	0.074744135
75	0xbcf1dfea	-0.029525716
76	0x3d73ffb5	0.059570033
77	0xbb298488	-0.0025866348
78	0xbe48e628	-0.19619048
79	0x3e62cbb8	0.22148025
80	0xbe270933	-0.16312103
81	0x3e6a94ba	0.22908297
82	0xbe317307	-0.17329036
83	0x3e485dd2	0.1956704
84	0xbd1607fb	-0.036628705
85	0x3dd05bc8	0.10173756
86	0x3de5bb52	0.11217369
87	0x3e85ba6c	0.2611879
88	0xbceaaa4d	-0.028645659
89	0x3db6df33	0.089292906
90	0xbdbb5950	-0.091478944
91	0x3dfa07cf	0.122085206
92	0x3d6eb92e	0.05828207
93	0xbdaffd6c	-0.08593258
94	0xbdefd086	-0.117096946
95	0x3e55f5b1	0.20894505
96	0x3d88048a	0.06641491
97	0x3e22d6a4	0.15902191
98	0xbe11d761	-0.14242317
99	0x3e27efa3	0.16400008
100	0xbe134f75	-0.14385779
101	0xbd25a18d	-0.04043727
102	0x3e3939c2	0.18088439
103	0xbd2ba6f2	-0.04190726
104	0x3d2d9450	0.04237777
105	0x3dc480f7	0.095949106
106	0xbe3a509f	-0.18194817
107	0x3c2928cb	0.010324667
108	0xbe022844	-0.12710673
109	0x3d5861a6	0.0528275
110	0x3dcf7f5b	0.10131713
111	0xbd2f11ed	-0.042741705
112	0x3e22ccc3	0.15898423
113	0xbdac8709	-0.084241934
114	0xbe479b75	-0.19492896
115	0xbe81fda8	-0.25388837
116	0x3e4d122b	0.20026462
117	0xbdc9bda0	-0.09850621
118	0xbdf942dd	-0.12170956
119	0x3d536c75	0.051617105
120	0xbded3bb7	-0.11583655
121	0x3e3c8323	0.184094
122	0xbe10d9bb	-0.14145558
123	0x3b557f9f	0.0032577289
124	0xbe66d97d	-0.22543903
125	0xbe1f06bd	-0.15529914
126	0x3e877d58	0.26462817
127	0xbe046116	-0.1292766
128	0xbe65a7c2	-0.22427276
129	0xbe5322eb	-0.20618789
130	0xbe19a7ff	-0.15005492
131	0x3e3ffdad	0.18749113
132	0x3dc76ef8	0.097379625
133	0x3e2bab11	0.16764475
134	0x3e08d4be	0.13362405
135	0x3dddf39f	0.10837483
136	0x3c254ad7	0.010088644
137	0x3da17a96	0.078847095
138	0x3e8445c8	0.2583449
139	0xbd16d7b3	-0.0368268
140	0x3e2373e3	0.15962176
141	0xbe51fc23	-0.20506339
142	0xbcdb03f9	-0.026735293
143	0x3e796d96	0.2435821
144	0xbdb4c9fe	-0.088275895
145	0x3e31d94e	0.17368051
146	0xbdc778f1	-0.097398646
147	0x3bcea436	0.0063061966
148	0xbdcc877e	-0.099867806
149	0x3e02d684	0.12777144
150	0x3d8e29c0	0.06941557
151	0x3e3622b5	0.17786677
152	0xbe6e785c	-0.23288101
153	0x3d1ff158	0.039048523
154	0xbe74fedc	-0.23925346
155	0x3e15424b	0.1457607
156	0x3da3e7d9	0.08003206
157	0xbe35e857	-0.17764412
158	0xbc71b8fe	-0.014753578
159	0x3e4d42c0	0.20044994
160	0x3c872922	0.016499106
161	0x3e81d7b1	0.25359872
162	0xbe1502c3	-0.14551835
163	0x3e7dbebb	0.24779789
164	0xbe39071f	-0.18069123
165	0xbc097adc	-0.008391108
166	0x3e80cf20	0.25158024
167	0xbd2aa5af	-0.041661914
168	0x3e0ac3da	0.13551274
169	0x3d837603	0.06418993
170	0xbe0617b1	-0.13094975
171	0x3d05ad99	0.03263626
172	0xbe1d70b2	-0.15375021
173	0x3ddb1432	0.10697211
174	0x3e7bee3c	0.24602598
175	0xbe0b95b3	-0.13631324
176	0x3e1b64e6	0.15175208
177	0xbd85cc92	-0.06533159
178	0xbe6cd05f	-0.23126362
179	0xbd41e1c5	-0.04733445
180	0x3e20a640	0.1568842
181	0xbe0bd26b	-0.13654487
182	0xbdd0fc4c	-0.10204372
183	0x3da6b593	0.08140101
184	0xbdb0d0aa	-0.086335495
185	0x3e19a3b9	0.15003861
186	0xbe6c6fdf	-0.2308955
187	0x3d6b66da	0.057471134
188	0xbd770a63	-0.06031264
189	0xbe69e0f7	-0.22839724
190	0x3df3ac70	0.11898124
191	0xbc9a0a0a	-0.018803615
192	0xbdf32529	-0.11872322
193	0xbd1d8832	-0.038459964
194	0xbe6a5190	-0.22882676
195	0x3e822c2a	0.2542432
196	0x3dddecc0	0.10836172
197	0x3dfc7ea3	0.123288415
198	0x3d580ca6	0.052746437
199	0x3dfe64b0	0.12421548
200	0x3dd4a481	0.10382939
201	0x3e00ed36	0.12590489
202	0x3e08338c	0.13300914
203	0xbe625f41	-0.22106649
204	0x3e4e1e4d	0.20128746
205	0xbe892abd	-0.2679042
206	0xbe02e6e0	-0.12783384
207	0x3e8b17bb	0.27166542
208	0xbe7a7ebf	-0.24462412
209	0x3cb40644	0.021975644
210	0xbe3456d2	-0.17611244
211	0x3dc9815e	0.09839128
212	0xbe2d6fcf	-0.16937183
213	0x3e4f1a00	0.20224762
214	0x3c33a41a	0.010964418
215	0x3e61f931	0.22067715
216	0xbdf5be7c	-0.11999223
217	0x3e2995af	0.16561006
218	0xbcf685b0	-0.030093044
219	0x3ddf2646	0.10895972
220	0x3e85f585	0.2616388
221	0xbe79e7db	-0.24404852
222	0xbd9dba0f	-0.077015035
223	0x3e865dd6	0.26243466
224	0x3e1547ef	0.14578222
225	0x3ded2281	0.11578847
226	0xbe32d7bb	-0.17465107
227	0x3dd664b9	0.1046843
228	0xbdb6a7da	-0.08918734
229	0xbdcfa52b	-0.10138925
230	0x3d286a32	0.0411169
231	0xbe2613a9	-0.16218437
232	0xbc885da6	-0.016646218
233	0x3e88d223	0.26722822
234	0xbe160c05	-0.14653023
235	0x3e6e05f6	0.23244461
236	0xbd8817fd	-0.066452004
237	0x3ce1c463	0.027559465
238	0x3d4b63d1	0.04965574
239	0xbe2fe13f	-0.17175768
240	0x3e446a1b	0.19181101
241	0xbe64d369	-0.22346272
242	0xbe147b00	-0.14500046
243	0xbdbc885e	-0.092056975
244	0x3dbc944c	0.09207973
245	0xbe63832d	-0.22218008
246	0xbd8022a1	-0.06256605
247	0x3e011adc	0.12607902
248	0xbdc205ab	-0.09473737
249	0x3e040e75	0.1289614
250	0xbdb5b528	-0.088724434
251	0x3e6bf122	0.23041204
252	0xbe03097a	-0.12796584
253	0xbe528424	-0.2055822
254	0x3dd37f31	0.10326994
255	0xbc505492	-0.012715476

fc_net.2.bias f4 [64]
0	0x3c1c8be4	0.009554837
1	0xbd9aa8e7	-0.07551747
2	0xbd3e7a00	-0.046503067
3	0xbe347713	-0.17623548
4	0x3e00d7c9	0.12582316
5	0x3e0f6f08	0.14007199
6	0xbe13cd02	-0.14433673
7	0x3c4f234f	0.012642696
8	0x3e08fb5b	0.13377135
9	0x3e5aef55	0.2138036
10	0xbd934979	-0.07191748
11	0x3d175d6c	0.03695433
12	0x3b6d04cb	0.0036166187
13	0xbe46ad6f	-0.19402097
14	0x3e257a2c	0.16159886
15	0x3e2c11e0	0.16803694
16	0xbd1607b8	-0.036628455
17	0x3ddffeaf	0.10937249
18	0x3d8fbe11	0.07018674
19	0x3d8bbbb7	0.06822913
20	0xbe1a702d	-0.15081854
21	0xbd4932ed	-0.049120832
22	0xbe1ad4c8	-0.15120232
23	0xbceaa89d	-0.028644854
24	0x3d56e7f9	0.05246732
25	0x3d2db75e	0.0424112
26	0xbe639ccc	-0.22227782
27	0x3e33f65b	0.17574446
28	0x3e183cdc	0.14866966
29	0xbe22eb96	-0.15910181
30	0x3cb44b19	0.022008466
31	0x3e50d329	0.20393051
32	0xbe2f1dd0	-0.17101216
33	0x3c19d507	0.009389169
34	0x3e0a0977	0.13480173
35	0xbe253e5c	-0.1613707
36	0x3d9a38b1	0.07530344
37	0x3e297ed3	0.16552286
38	0xbd21bafc	-0.039484963
39	0xbe5341a4	-0.20630509
40	0xbd741755	-0.059592564
41	0xbc18d61a	-0.00932839
42	0x3d36265b	0.044470172
43	0xbcd50b7a	-0.026006449
44	0x3e158397	0.14600979
45	0xbe3238b9	-0.1740445
46	0xbd914e8a	-0.07095058
47	0xbc25446d	-0.010087115
48	0xbdf5d323	-0.12003162
49	0xbe47bb89	-0.19505133
50	0xbdf4d5c7	-0.11954837
51	0x3bafe528	0.0053678937
52	0xbda38972	-0.079852
53	0xbdf08cbf	-0.11745595
54	0x3dba723b	0.09103819
55	0xbc4a6f6f	-0.012355669
56	0xbe5e04c6	-0.21681508
57	0xbe006409	-0.1253816
58	0xbc004e48	-0.007831164
59	0xbe71f671	-0.23629166
60	0xbe01dfaf	-0.12682985
61	0xbe08b78d	-0.13351269
62	0x3e27cd10	0.16386819
63	0x3e3abdda	0.18236485

value_head.weight f4 [1, 64]
0	0x3d5f6864	0.054542914
1	0xbe5f6363	-0.21815257
2	0xbe4ebdc9	-0.20189585
3	0xbe1cc18a	-0.15308204
4	0x3e182cf8	0.14860904
5	0x3e272910	0.16324258
6	0xbe481a16	-0.19541201
7	0x3dedb952	0.11607613
8	0x3a54944b	0.00081092556
9	0x3df4941e	0.119423136
10	0xbe4838cd	-0.19552918
11	0x3e16d26f	0.14728712
12	0xbdff7128	-0.12472755
13	0xbe126db5	-0.14299662
14	0x3da7f865	0.08201674
15	0x3e07b395	0.13252099
16	0xbe57d50e	-0.21077368
17	0x3e3bd7fa	0.18344107
18	0x3dc4d51f	0.09610962
19	0x3e1ab02e	0.1510627
20	0xbdff6f36	-0.12472384
21	0xbe2faef4	-0.17156583
22	0xbe3d68e3	-0.18497042
23	0xbe08b4c0	-0.133502
24	0x3ddf54a2	0.10904814
25	0x3dec1bc1	0.11528731
26	0xbe0ea217	-0.1392902
27	0x3e244493	0.16041784
28	0x3e10376c	0.14083642
29	0xbe4c1ce1	-0.19932891
30	0x3d8ff88b	0.07029828
31	0x3d69b75b	0.057059627
32	0xbe2adcd8	-0.16685808
33	0x3e0942b2	0.13404348
34	0x3d9943fc	0.0748367
35	0xbe123216	-0.14276919
36	0x3daf3bde	0.08556341
37	0x3d1951cd	0.037431527
38	0xbe466151	-0.19373061
39	0xbe23631f	-0.1595578
40	0xbe0ca921	-0.13736393
41	0xbe255058	-0.1614393
42	0x3e0ae310	0.1356318
43	0xbe4961d7	-0.19666229
44	0x3e2ab838	0.16671836
45	0xbe544c00	-0.20732117
46	0xbc1d0ed9	-0.0095860595
47	0x3d73cdbf	0.059522387
48	0xbe1671d4	-0.1469186
49	0xbe350cff	-0.17680739
50	0xbdf11cce	-0.11773072
51	0xbe09c316	-0.13453326
52	0xbe1a431a	-0.1506466
53	0xbe1a8eb5	-0.15093501
54	0x3d4a3eb5	0.04937621
55	0x3d9182fe	0.07105063
56	0xbe5dc85a	-0.2165846
57	0xbe086664	-0.13320309
58	0x3d033817	0.032035913
59	0xbe1dded5	-0.15417035
60	0xbe10fc6f	-0.14158796
61	0xbe67cbf8	-0.22636402
62	0x3e18b33b	0.14912121
63	0x3dc5ba20	0.09654641
