output/4-agents_domain-CoinGame-4_MATE-TD-T0.5_2022-08-09-17-01-46/actor_net_3.pth (torch, 45463 bytes, 6 tensors)

fc_net.0.weight f4 [64, 100]
-0.098856606 -0.12956296 0.002721483 0.063411236 -0.075718895 -0.24261941 -0.0799803 0.11291816
0.07781898 0.06754311 -0.034878116 -0.129371 -0.07214821 0.07899709 0.04128821 -0.18627404
-0.0070693814 -0.08480108 -0.038017936 0.037560746 -0.12614411 -0.10155409 0.053038005 0.12937143
-0.0055950433 0.014850157 -0.01234908 0.00027635228 -0.022902738 -0.075101286 0.042936295 -0.024753382
-0.06865436 0.16285357 -0.082911246 -0.045736916 0.089513294 0.1250972 -0.09136929 0.0030046008
0.050951276 -0.018932398 -0.11335329 -0.0040584938 -0.15454172 0.052204613 -0.083617926 0.036693502
0.034229524 -0.068036295 0.3397944 0.167638 0.12534997 0.08251698 -0.05511251 0.12181936
0.09173545 -0.14657164 -0.24233916 -0.063785866 0.093930945 -0.029710643 -0.25286806 -0.24215224
-0.13445887 -0.017286971 -0.11545946 -0.09614306 -0.065848045 -0.21682334 -0.073228024 0.05914424
-0.117216125 0.07500628 0.11781963 0.15928021 0.24417529 0.087544546 0.100502856 -0.022938779
0.02457137 -0.047729038 -0.02349455 -0.20431374 -0.048601154 5.4230222e-05 0.08630592 0.0058028046
-0.016988887 0.015511172 -0.13052776 0.07240878 0.059299953 0.057489768 0.002885016 0.16096097
0.09061035 0.039301757 -0.037486773 -0.11512618 0.20597056 0.134184 0.08320126 -0.20564751
-0.38205597 0.2507884 0.082009174 0.0019307911 -0.10608361 -0.23725182 0.18383774 0.21983947
0.038305294 -0.029927032 -0.22014447 0.09416735 0.15466027 0.25496775 0.06671359 -0.12885931
0.26950702 0.12636389 0.20342688 0.061277214 -0.111501224 0.003816569 -0.06055054 -0.020320624
0.0987805 0.033462156 0.026236141 0.07781865 -0.048297383 -0.027532352 0.08406386 -0.0041632964
-0.047059815 0.031198645 -0.026550258 0.085193396 0.038479056 -0.036050864 -0.019636054 0.05223312
-0.093775705 0.11197117 0.055754505 0.07807727 -0.037576795 0.01837309 -0.3072145 -0.08277509
0.09975626 0.25596154 0.3981891 -0.21340577 -0.23838484 -0.12546806 0.092639044 0.2375221
-0.3719269 -0.1866629 -0.16409072 0.07602813 0.1527923 0.024383256 -0.3682109 -0.121920235
-0.11873139 0.06956253 -0.04449625 0.0148625 0.022451516 0.15779477 0.03721496 -0.3285337
-0.024659522 0.05748947 0.32074025 0.3287651 0.051493373 -0.17667961 -0.08971367 0.09603336
0.1420161 0.023044365 -0.013731901 0.08490821 0.002047174 0.016870622 -0.019427458 0.23024833
0.048268866 0.046642724 0.1264018 0.051108476 0.15567036 -0.045826502 -0.031176869 0.01945864
-0.114094354 -0.23607782 -0.17259671 -0.25284588 -0.2976698 0.08705728 -0.02148124 -0.040748924
-0.029191393 0.049720224 0.18488088 0.17007056 0.09926621 0.2647582 0.10683227 0.15328802
0.25535002 0.037578806 0.31517884 0.08801708 0.10447028 0.27805611 0.07943199 0.21031684
0.113250256 0.10903136 -0.057929926 -0.09762318 -0.010914854 0.014271654 0.15087396 0.12289139
0.091908954 -0.023214115 0.03980558 0.053770166 0.08056317 -0.058789838 0.026512166 0.008943049
0.016582418 0.018492578 0.03230545 0.114234 0.040846355 0.059880544 0.0016593254 0.08234276
0.06105315 -0.04318183 0.11603045 0.10316299 0.27419177 0.32933277 0.18286143 -0.0954685
00000000: 5575 cabd 27ac 04be e85a 323b c0dd 813d
00000010: 8212 9bbd 3971 78be b6cc a3bd a341 e73d
00000020: 8f5f 9f3d 0b54 8a3d 5bdc 0ebd d579 04be
00000030: 71c2 93bd 3ac9 a13d d31d 293d 9fbe 3ebe
00000040: 45a6 e7bb 30ac adbd b2b8 1bbd 4cd9 193d
00000050: ec2b 01be 97fb cfbd 613e 593d f279 043e
00000060: a056 b7bb 134e 733c cc53 4abc 60e3 9039
00000070: 869e bbbc b4ce 99bd f8dd 2f3d 9bc7 cabc
00000080: a89a 8cbd 16c3 263e 5fcd a9bd a256 3bbd
00000090: bf52 b73d 7b19 003e d31f bbbd d6e8 443b
000000a0: 49b2 503d 1e18 9bbc c525 e8bd 1dfd 84bb
000000b0: 2f40 1ebe 81d4 553d e03f abbd ed4b 163d
000000c0: 4234 0c3d 9d56 8bbd 88f9 ad3e 4ca9 2b3e
000000d0: be5b 003e aafe a83d a8bd 61bd 6e7c f93d
000000e0: ccdf bb3d e016 16be c227 78be 2aa2 82bd
000000f0: de5e c03d bc63 f3bc ec77 81be c2f6 77be
00000100: 96af 09be 689d 8dbc 0276 ecbd a7e6 c4bd
00000110: 57db 86bd f006 5ebe 93f8 95bd 3b41 723d
00000120: 020f f0bd e49c 993d 6b4b f13d 5a1a 233e
00000130: 1609 7a3e 8e4a b33d 71d4 cd3d 1bea bbbc
00000140: e649 c93c 867f 43bd a477 c0bc 9f37 51be
00000150: 0112 47bd 4275 6338 28c1 b03d 7425 be3b
00000160: 472c 8bbc 9222 7e3c 12a9 05be 0e4b 943d
00000170: 82e4 723d 647a 6b3d 8912 3d3b f4d2 243e
00000180: eb91 b93d e1fa 203d bb8b 19bd 46c7 ebbd
00000190: f2e9 523e 8867 093e 6c65 aa3d 4395 52be
000001a0: d79c c3be 5667 803e 6df4 a73d 9912 fd3a
000001b0: 5d42 d9bd 24f2 72be f63f 3c3e 991d 613e
000001c0: 03e6 1c3d 8929 f5bc 8d6d 61be d0da c03d
000001d0: 435f 1e3e 228b 823e 22a1 883d b2f3 03be
000001e0: d3fc 893e 8965 013e 234f 503e d1fd 7a3d
000001f0: c15a e4bd 671f 7a3b d803 78bd 7077 a6bc
00000200: 6e4d ca3d 9d0f 093d 2ded d63c 625f 9f3d
00000210: 7ad3 45bd 878b e1bc ac29 ac3d 436c 88bb
00000220: cbc1 40bd 4d94 ff3c ed7f d9bc e079 ae3d
00000230: 379c 1d3d 12aa 13bd cadb a0bc 65f2 553d
00000240: 7a0d c0bd 2451 e53d d65e 643d fae6 9f3d
00000250: 20ea 19bd 2a83 963c 384b 9dbe fd85 a9bd
00000260: 034d cc3d 640d 833e 71df cb3e 0b87 5abe
00000270: 281b 74be b37a 00be 8ab9 bd3d fe38 733e
00000280: 346d bebe 8f24 3fbe 6607 28be a3b4 9b3d
00000290: 9675 1c3e 65bf c73c 2486 bcbe 51b1 f9bd
000002a0: 7129 f3bd cd76 8e3d b341 36bd d881 733c
000002b0: 3eec b73c f494 213e b76e 183d 9235 a8be
000002c0: c402 cabc 147a 6b3d 1138 a43e e653 a83e
000002d0: b7ea 523d 80eb 34be cdbb b7bd 23ad c43d
000002e0: ab6c 113e 89c7 bc3c c4fb 60bc 5be4 ad3d
000002f0: e129 063b 4234 8a3c 5526 9fbc 38c6 6b3e
00000300: 93b5 453d 710c 3f3d 796f 013e 1f57 513d
00000310: 0d68 1f3e 92b4 3bbd a266 ffbc ba67 9f3c
00000320: 4daa e9bd 62be 71be 31bd 30be 0475 81be
00000330: 2d68 98be 164b b23d 6df9 afbc 58e8 26bd
00000340: ca22 efbc 6fa7 4b3d 6a51 3d3e fa26 2e3e
00000350: 154c cb3d 638e 873e e1ca da3d 89f7 1c3e
00000360: 3dbd 823e 3cec 193d 1f5f a13e 4d42 b43d
00000370: 84f4 d53d 5f5d 8e3e 3dad a23d 4c5d 573e
00000380: c0ef e73d d54b df3d ee47 6dbd a9ee c7bd
00000390: 37d4 32bc a8d3 693c b47e 1a3e 7bae fb3d
000003a0: c33a bc3d 872b bebc 2d0b 233d 1b3e 5c3d
000003b0: 4efe a43d 9dcd 70bd 0b30 d93c de85 123c
000003c0: dad7 873c bf7d 973c b852 043d 84f3 e93d
000003d0: 824e 273d 4d45 753d b97d d93a 52a3 a83d
000003e0: de12 7a3d 6edf 30bd 5fa1 ed3d 1e47 d33d
000003f0: dd62 8c3e 4e9e a83e 0740 3b3e fd84 c3bd

fc_net.0.bias f4 [64]
-0.03873953 0.09332918 0.015588547 -0.09801436 0.0147389015 -0.0651929 0.027953548 0.011352975
0.055208556 -0.03521741 0.095825374 0.066738464 -0.0457037 0.104585335 -0.0011908481 0.10559383
0.018315174 0.08625869 -0.047785453 -0.06736562 -0.12179803 0.07435743 0.014239191 0.09082
0.020218857 0.08975544 -0.13583262 0.019229604 -0.025368938 0.037189014 0.011158182 -0.004429037
0.15804537 -0.0064593605 0.07999226 0.09658132 -0.050498348 0.030690387 -0.0021675332 0.07700642
0.014689944 -0.102649905 0.031585854 0.031114297 -0.0041595697 -0.0013362137 -0.025617855 -0.09583352
0.013156376 -0.037158977 0.04581302 0.016236225 0.09474842 -0.08749422 -0.005737365 0.07163555
0.053586476 0.1169687 0.026191853 0.00498656 0.07094662 0.046729192 -0.021231133 0.003875057
00000000: 57ad 1ebd 5e23 bf3d 1b67 7f3c c1bb c8bd
00000010: 6f7b 713c db83 85bd d7fe e43c d401 3a3c
00000020: 5e22 623d 2240 10bd 1840 c43d 2dae 883d
00000030: ce33 3bbd d630 d63d 3b16 9cba 9441 d83d
00000040: b409 963c 65a8 b03d aeba 43bd fcf6 89bd
00000050: 3f71 f9bd b548 983d 7f4b 693c d6ff b93d
00000060: 04a2 a53c b3d1 b73d b517 0bbe 6787 9d3c
00000070: 85d2 cfbc 8253 183d cfd0 363c 7521 91bb
00000080: a5d6 213e 0ba9 d3bb fbd2 a33d 6dcc c53d
00000090: 5bd7 4ebd 686a fb3c 2c0d 0ebb 8bb5 9d3d
000000a0: 17ae 703c 1d3a d2bd 2b60 013d 69e3 fe3c
000000b0: 004d 88bb e423 afba 89dc d1bc 5d44 c4bd
000000c0: d78d 573c 0334 18bd 6fa6 3b3d d501 853c
000000d0: 760b c23d 2b30 b3bd 8200 bcbb a9b5 923d
000000e0: 7e7d 5b3d 498d ef3d 4c90 d63c 4c66 a33b
000000f0: 764c 913d 1c67 3f3d eaec adbc abf4 7d3b

fc_net.2.weight f4 [64, 64]
-0.03890502 -0.1888872 -0.08249045 0.24075888 -0.17283304 0.07129821 -0.1547073 0.24999303
-0.12812118 0.051446617 -0.009733126 0.07290801 -0.119957626 -0.29327726 -0.021434287 -0.06973759
-0.11955917 -0.02330798 0.17868274 0.19307438 0.012456763 -0.18433 0.10575484 0.04359037
0.10922988 0.10199925 0.032280404 0.04670711 0.08791175 -0.06690304 0.1587206 0.14628756
-0.100770615 0.1801028 -0.047493435 -0.18994188 0.22762583 0.032488387 0.08813396 -0.024093727
0.16267365 0.15436941 -0.14365436 -0.025544258 0.2660128 0.07385807 0.07652909 -0.026557812
-0.12746707 -0.02824046 -0.22136699 0.15848108 0.09128454 0.25707188 0.21293682 -0.17334904
0.18743521 -0.033766124 0.0962747 -0.1037447 -0.19686435 0.12531534 0.2957438 -0.06777433
0.06380235 0.30463332 0.25682792 -0.27311036 -0.059970412 -0.17926195 0.32835045 -0.3459311
0.11488896 -0.21465491 0.041326262 0.14431293 -0.014203145 0.4378789 0.014218014 0.22936372
0.14778374 0.14162521 -0.06571872 -0.2591777 -0.22564742 0.11018871 -0.026679033 0.28441963
-0.19650619 -0.063128464 -0.21612485 0.05818668 0.1836594 -0.15145954 -0.2311381 -0.17801131
0.12781651 -0.13134608 0.16962358 0.32112557 -0.18969387 -0.1418229 -0.02937151 0.070030995
-0.2631418 -0.30298018 0.2097192 0.3165146 -0.07369596 0.004310346 -0.1843182 -0.050349634
0.31883138 -0.0066232043 0.14608352 -0.2081731 0.0351094 -0.15497427 -0.19990803 0.27578312
-0.10496744 0.22730647 -0.18774453 0.10069259 0.10630286 -0.17477101 -0.4467296 0.2614008
-0.18163443 0.13467976 0.08598221 -0.29078543 0.099663205 -0.09803624 0.20072469 -0.2707172
0.14066534 -0.023193004 0.0367022 0.015208946 0.11160943 0.32831278 0.10408584 0.11501245
0.16240114 -0.04693933 -0.08773524 0.04210322 -0.16947854 0.008997337 0.009525433 -0.08419825
0.036746487 0.05774196 -0.20432469 0.16251436 0.08598804 -0.021989532 -0.1625322 0.026215285
-0.03240945 -0.0348777 0.11521148 0.24756223 -0.17662254 -0.12794009 -0.044339214 -0.1537188
-0.11850027 -0.23471816 0.18292321 0.06973663 -0.1307364 0.11489836 -0.05119209 0.09274783
0.009973731 -0.1229365 0.062993005 0.058127727 -0.0770717 -0.056991003 -0.11759267 0.08872687
-0.19697194 0.030137945 -0.16966827 -0.025200935 0.0010375597 -0.14062819 -0.1695707 0.108962245
-0.15636703 0.06119872 -0.15914807 -0.033792462 -0.34135342 0.42966312 -0.21073034 0.096979715
-0.23512517 0.20330535 0.0961834 0.37674075 -0.25038818 -0.13801321 -0.1540462 -0.48775133
0.24085848 0.3217223 0.15774131 0.09603156 -0.0955257 -0.029775208 0.22121923 -0.20370102
0.22136676 -0.41033113 -0.1023988 -0.22457112 0.26123908 -0.35844874 -0.11102819 -0.063068144
-0.0071556736 -0.024570666 0.09242282 -0.11701386 -0.09644147 -0.38418669 -0.06479862 -0.34992868
0.04029186 -0.07126684 -0.07244883 0.224278 0.34078568 0.09369323 -0.06719406 0.067713805
0.3222669 -0.19489661 -0.15236592 0.22436695 0.36294934 -0.17226493 -0.075528875 0.008951404
-0.07418578 -0.1280834 -0.12404564 -0.43582577 -0.14349844 -0.08212175 0.031884745 -0.20062302
00000000: df5a 1fbd a56b 41be c1f0 a8bd 7f89 763e
00000010: 25fb 30be cc04 923d 976b 1ebe 2cfe 7f3e
00000020: 3332 03be b0b9 523d b077 1fbc cb50 953d
00000030: 58ac f5bd 7028 96be f596 afbc 95d2 8ebd
00000040: 70db f4bd 60f0 bebc 9cf8 363e 4ab5 453e
00000050: 7317 4c3c 01c1 3cbe fe95 d83d d18b 323d
00000060: eab3 df3d fce4 d03d 7538 043d f44f 3f3d
00000070: 130b b43d 7604 89bd a787 223e 68cc 153e
00000080: d360 cebd de6c 383e 7a88 42bd 2080 42be
00000090: bf16 693e 8b12 053d 947f b43d 3560 c5bc
000000a0: ec93 263e 0413 1e3e 211a 13be 3142 d1bc
000000b0: d432 883e e642 973d 49bb 9c3d c58f d9bc
000000c0: ba86 02be 8a58 e7bc 07ae 62be dd48 223e
000000d0: 64f3 ba3d ed9e 833e 1c0c 5a3e 6982 31be
000000e0: 04ef 3f3e 594e 0abd ab2b c53d 1a78 d4bd
000000f0: cf96 49be aa52 003e bb6b 973e 45cd 8abd
00000100: ceaa 823d e6f8 9b3e f37e 833e 1fd5 8bbe
00000110: 89a3 75bd 7290 37be 8d1d a83e e21d b1be
00000120: e74a eb3d 7fce 5bbe ba45 293d c5c6 133e
00000130: 4fb4 68bc aa31 e03e acf2 683c 53de 6a3e
00000140: 9f54 173e 3306 113e 8997 86bd f1b2 84be
00000150: 1e10 67be 9eaa e13d fd8d dabc 739f 913e
00000160: eb38 49be 7f49 81bd d54f 5dbe 2855 6e3d
00000170: 3611 3c3e 3618 1bbe 77af 6cbe 9948 36be
00000180: 55e2 023e 967f 06be ceb1 2d3e 926a a43e
00000190: 1c3f 42be 063a 11be 859c f0bc 696c 8f3d
000001a0: 86ba 86be 3820 9bbe a1c0 563e 340e a23e
000001b0: e8ed 96bd ce3d 8d3b e9bd 3cbe 6b3b 4ebd
000001c0: de3d a33e 7707 d9bb eb96 153e 542b 55be
000001d0: e0ce 0f3d 93b1 1ebe b1b4 4cbe 7233 8d3e
000001e0: 2bf9 d6bd 07c3 683e 1a40 40be eb37 ce3d
000001f0: 50b5 d93d 2cf7 32be beb9 e4be 53d6 853e
00000200: 60fe 39be 7ee9 093e 7117 b03d d4e1 94be
00000210: 391c cc3d 39c7 c8bd c68a 4d3e 729b 8abe
00000220: 930a 103e 41ff bdbc 0c55 163d f12e 793c
00000230: 7c93 e43d 9d18 a83e f52a d53d a68b eb3d
00000240: 7c4c 263e 7443 40bd 89ae b3bd 6d74 2c3d
00000250: c88b 2dbe 9169 133c 9010 1c3c 2270 acbd
00000260: 7c83 163d d582 6c3d 7e3a 51be 2a6a 263e
00000270: 7f1a b03d 6423 b4bc d76e 26be 70c1 d63c
00000280: c5bf 04bd ebdb 0ebd fff3 eb3d f480 7d3e
00000290: 8adc 34be ba02 03be 099d 35bd 7668 1dbe
000002a0: 45b0 f2bd f559 70be 3950 3b3e 14d2 8e3d
000002b0: c3df 05be d54f eb3d ccae 51bd 93f2 bd3d
000002c0: dc68 233c 22c6 fbbd 7a02 813d 5717 6e3d
000002d0: c4d7 9dbd 666f 69bd 6dd4 f0bd 6fb6 b53d
000002e0: 03b3 49be dae3 f63c 85bd 2dbe 3172 cebc
000002f0: bafe 873a d600 10be f1a3 2dbe 9927 df3d
00000300: ae1e 20be 82ab 7a3d b6f7 22be f769 0abd
00000310: e0c5 aebe cefc db3e b2c9 57be 4d9d c63d
00000320: a7c4 70be 472f 503e cdfb c43d 2ae4 c03e
00000330: e132 80be 5653 0dbe 49be 1dbe 8bba f9be
00000340: 9ba3 763e c9b8 a43e f086 213e 32ac c43d
00000350: faa2 c3bd 23eb f3bc 4b87 623e 0097 50be
00000360: f8ad 623e ec16 d2be 76b6 d1bd f9f5 65be
00000370: 21c1 853e 9886 b7be bf62 e3bd df29 81bd
00000380: 247a eabb 6c48 c9bc 2d48 bd3d f6a4 efbd
00000390: 1b83 c5bd 1eb4 c4be 24b5 84bd da29 b3be
000003a0: 1409 253d 59f4 91bd 0d60 94bd 22a9 653e
000003b0: 767b ae3e 3ce2 bf3d 0a9d 89bd 89ad 8a3d
000003c0: 2b00 a53e fa92 47be d005 1cbe 73c0 653e
000003d0: 7fd4 b93e 3866 30be e2ae 9abd e9a8 123c
000003e0: b7ee 97bd 4b28 03be a40b febd 8e24 dfbe
000003f0: 41f1 12be 732f a8bd 9499 023d 1f70 4dbe

fc_net.2.bias f4 [64]
-0.05386115 0.13798115 0.06316203 -0.0053690295 0.12921195 -0.059856165 0.034761034 0.03862211
-0.058612313 -0.027281422 -0.012654057 0.13275029 -0.12662263 0.15164931 0.033721633 -0.00571641
0.15067148 -0.03725109 0.11344183 -0.043127548 -0.069373086 0.12702341 0.08072644 0.03793184
0.08794813 0.02431853 0.029227233 -0.08102803 0.04793779 0.07876411 0.009742709 -0.03626289
0.08960625 0.046531413 -0.016615191 -0.019759411 0.073676 0.10998143 0.12717207 -0.040745325
0.13893282 -0.0010045032 0.09080307 0.14476638 0.07009233 0.046346564 0.11343715 -0.043698315
-0.004625244 0.017625783 0.052755166 -0.020315593 0.053603034 -0.022554759 0.16511296 0.040540624
-0.020262025 0.084608234 0.17682554 -0.052065037 0.109211616 -0.060980394 0.10729613 0.018252145
00000000: 829d 5cbd ee4a 0d3e 185b 813d afee afbb
00000010: 2350 043e bd2b 75bd 9661 0e3d 3832 1e3d
00000020: 7713 70bd 4a7d dfbc f652 4fbc b1ef 073e
00000030: 5da9 01be f549 1b3e b21f 0a3d b950 bbbb
00000040: a049 1a3e 9994 18bd 3154 e83d 83a6 30bd
00000050: 7a13 8ebd 6d12 023e e753 a53d 6b5e 1b3d
00000060: 261e b43d a737 c73c f36d ef3c 06f2 a5bd
00000070: 6b5a 443d 144f a13d e29f 1f3c 6588 14bd
00000080: 7b83 b73d b997 3e3d 951c 88bc 7dde a1bc
00000090: 71e3 963d f23d e13d 6539 023e 92e4 26bd
000000a0: 6844 0e3e 89a9 83ba f6f6 b93d a33d 143e
000000b0: 918c 8f3d e5d5 3d3d bd51 e83d 01fd 32bd
000000c0: 5c8f 97bb f263 903c cd15 583d e36c a6bc
000000d0: db8e 5b3d c2c4 b8bc 5f13 293e ed0d 263d
000000e0: 8cfc a5bc 1547 ad3d c111 353e 2642 55bd
000000f0: 57aa df3d 94c6 79bd 13be db3d 8685 953c

action_head.weight f4 [4, 64]
-0.008442485 0.1998709 0.052745752 0.3627374 0.10232648 -0.10876024 0.28904974 0.056796793
-0.23166491 -0.39577138 -0.20829488 -0.25345096 -0.1570186 0.20819174 0.26596317 0.10759003
0.39840004 0.019730438 0.019824881 -0.3439946 0.14646713 -0.26956907 0.3491145 -0.3936909
0.217831 0.42685157 -0.51476616 -0.20385832 -0.33182082 -0.20389114 -0.07024122 0.0066117807
0.4537563 -0.33392483 -0.027909964 -0.54365975 -0.21854393 0.07360763 0.045939203 -0.070857905
0.068146974 -0.3964452 -0.188572 -0.07939754 -0.15419398 -0.31743574 -0.21233895 -0.17510815
-0.38122633 0.3213188 -0.4468157 -0.31021297 -0.33755255 0.20603563 0.31571698 -0.19841513
-0.097062014 -0.5056769 0.45105153 0.10946272 0.18250313 0.092664935 0.033284947 -0.21139857
0.228148 -0.17806835 -0.2698167 -0.30120087 -0.223462 0.27046698 -0.36794373 0.17460473
0.2867169 0.29281268 -0.016900431 0.16378683 0.07427461 -0.085329644 -0.19372746 -0.07507947
-0.44094273 -0.23802656 0.016179897 0.2569138 -0.079316236 0.11521348 -0.32739955 0.2898346
-0.25038296 -0.49203503 0.3100627 0.2642322 0.17627701 0.11017161 0.25593013 -0.27733466
-0.32647145 0.38322422 0.0011454249 0.3867403 0.37701175 -0.09972226 0.05083262 0.017409775
0.07648561 0.4208707 -0.036255542 -0.0188132 0.29639682 0.111240454 0.27080464 -0.0758985
0.22826464 -0.31814918 0.48391744 0.10682612 0.09331301 -0.09756073 -0.4011956 0.34320495
0.25395197 0.33786356 -0.5002384 -0.28284165 -0.20458767 -0.29069877 -0.16913657 0.22096984
-0.3351379 0.25775963 0.26990417 -0.18885657 0.2029588 -0.1520565 -0.27444884 0.060582843
-0.18889925 0.35276473 0.41909257 0.13259159 -0.16748102 0.24675345 -0.30588377 -0.18444951
-0.38409057 0.31459296 -0.3647709 -0.12764852 -0.12249596 0.367762 0.25535628 -0.17163858
0.26601052 0.021254666 0.18824844 -0.07178068 0.35506153 0.017069142 -0.015605019 0.19040525
0.0134880785 0.014302868 -0.1767592 0.20773071 -0.103549495 0.38715118 -0.36620417 -0.1418696
-0.31369427 -0.14777051 -0.2965105 -0.45675686 0.2937742 0.34230903 0.32699308 0.29642934
-0.23348762 0.32772157 -0.072743185 -0.19655946 0.4056483 0.06548545 -0.007387872 -0.25436014
0.07332412 0.10054116 0.1375188 -0.3950203 0.30405524 0.0700586 0.33152458 -0.02628006
0.33871174 -0.35846066 -0.046834584 0.33583176 -0.07144485 -0.0035838995 0.33273727 -0.17824806
0.35361636 -0.18544665 -0.38162163 -0.19537409 0.23314717 -0.4610769 0.24658181 0.15534244
0.35138974 -0.25474566 0.38906878 0.21828884 0.24934098 -0.32738757 -0.33896223 0.02051846
-0.41279158 -0.042193715 -0.21700056 0.21489103 -0.26446727 0.09961223 -0.15532716 -0.039444625
-0.089544356 0.0049389657 0.22481555 -0.38482687 -0.14675473 -0.33059508 0.14714205 0.36542362
0.4263067 -0.030525401 0.279242 0.28770113 -0.16164494 -0.25494847 -0.21479775 0.025394673
0.029856011 -0.4259238 0.017511437 0.15782997 -0.21481942 -0.1859193 -0.2840802 0.047070984
-0.20423646 -0.25975698 -0.099731684 0.36706063 -0.42307055 0.03157483 -0.25710985 -0.10539246
00000000: 5952 0abc f5aa 4c3e ee0b 583d b7b8 b93e
00000010: 8c90 d13d b0bd debd 54fe 933e c1a3 683d
00000020: 9139 6dbe 8ca2 cabe 414b 55be 53c4 81be
00000030: 7cc9 20be 3730 553e 532c 883e 2958 dc3d
00000040: 17fb cb3e baa1 a13c ca67 a23c 0f20 b0be
00000050: 7bfb 153e f504 8abe 23bf b23e db91 c9be
00000060: 170f 5f3e 4a8c da3e b7c7 03bf 3cc0 50be
00000070: 6be4 a9be d7c8 50be a1da 8fbd a3a7 d83b
00000080: bf52 e83e 32f8 aabe 70a3 e4bc 492d 0bbf
00000090: fbc9 5fbe 99bf 963d bf2a 3c3d f31d 91bd
000000a0: a490 8b3d defa cabe 0519 41be 2d9b a2bd
000000b0: 07e5 1dbe f086 a2be 626f 59be 8d4f 33be
000000c0: 1930 c3be e683 a43e 07c5 e4be 3cd4 9ebe
000000d0: b0d3 acbe 01fb 523e a8a5 a13e 562d 4bbe
000000e0: 73c8 c6bd 0b74 01bf 3af0 e63e fe2d e03d
000000f0: 1ae2 3a3e 1dc7 bd3d cc55 083d de78 58be
00000100: a19f 693e 8d57 36be 6a25 8abe 0037 9abe
00000110: 39d3 64be a67a 8a3e 1f63 bcbe 95cb 323e
00000120: 8fcc 923e 8beb 953e c672 8abc bcb7 273e
00000130: 491d 983d 4fc1 aebd 7e60 46be 44c3 99bd
00000140: 3fc3 e1be 3cbd 73be b48b 843c 358a 833e
00000150: 8d70 a2bd 0cf5 eb3d eaa0 a7be 3365 943e
00000160: 3232 80be 04ec fbbe 8ac0 9e3e 7149 873e
00000170: f681 343e a7a1 e13d 4609 833e cffe 8dbe
00000180: 4427 a7be f735 c43e 1522 963a d302 c63e
00000190: af07 c13e 2f3b ccbd de35 503d f29e 8e3c
000001a0: 7da4 9c3d 5d7c d73e b180 14bd 241e 9abc
000001b0: 53c1 973e 09d2 e33d e8a6 8a3e ac70 9bbd
000001c0: 35be 693e 73e4 a2be 07c4 f73e a7c7 da3d
000001d0: e41a bf3d eccd c7bd 8269 cdbe 8fb8 af3e
000001e0: fe05 823e 74fc ac3e a00f 00bf 9fd0 90be
000001f0: 6e7f 51be 78d6 94be 2332 2dbe eb45 623e
00000200: 3297 abbe 12f9 833e e130 8a3e 9e63 41be
00000210: 6fd4 4f3e b3b4 1bbe 8f84 8cbe b725 783d
00000220: ce6e 41be 949d b43e 4d93 d63e 17c6 073e
00000230: 2580 2bbe f0ac 7c3e cc9c 9cbe 55e0 3cbe
00000240: 85a7 c4be 5412 a13e 40c3 babe 4bb6 02be
00000250: 29df fabd 4d4b bc3e 0fbe 823e 06c2 2fbe
00000260: 8832 883e 441e ae3c 33c4 403e c001 93bd
00000270: a0ca b53e 96d4 8b3c 32ac 7fbc 98f9 423e
00000280: 1afd 5c3c 9456 6a3c 5d00 35be 5cb7 543e
00000290: c211 d4bd ae38 c63e 1d7f bbbe 4446 11be
000002a0: 899c a0be 2751 17be 39d0 97be 09dc e9be
000002b0: 9269 963e 2143 af3e a36b a73e 96c5 973e
000002c0: 6117 6fbe 1fcb a73e 61fa 94bd e246 49be
000002d0: 22b1 cf3e 3c1d 863d f615 f2bb 7e3b 82be
000002e0: f52a 963d 86e8 cd3d bad1 0c3e 1a40 cabe
000002f0: 21ad 9b3e e27a 8f3d 97bd a93e 4849 d7bc
00000300: a06b ad3e 2888 b7be 9fd5 3fbd 24f2 ab3e
00000310: ad51 92bd dbdf 6abb 8a5c aa3e a986 36be
00000320: 340d b53e bae5 3dbe e963 c3be 2510 48be
00000330: 22be 6e3e 4512 ecbe f17f 7c3e 1712 1f3e
00000340: 5be9 b33e 066e 82be 0634 c73e 1c87 5f3e
00000350: 3e53 7f3e 589f a7be 758c adbe 5416 a83c
00000360: 6b59 d3be 51d3 2cbd 6535 5ebe 650c 5c3e
00000370: 4168 87be 7f01 cc3d 150e 1fbe b090 21bd
00000380: 0863 b7bd 0cd7 a13b 0c36 663e 0708 c5be
00000390: df46 16be c243 a9be 68ac 163e ce18 bb3e
000003a0: df44 da3e 6810 fabc cff8 8e3e 904d 933e
000003b0: 4086 25be 9b88 82be f1f3 5bbe 7d08 d03c
000003c0: 9894 f43c af12 dabe 2574 8f3c 2e9e 213e
000003d0: 9ff9 5bbe a161 3ebe f672 91be 81cd 403d
000003e0: 5d23 51be defe 84be 2040 ccbd 5fef bb3e
000003f0: b49c d8be 9c54 013d e7a3 83be 01d8 d7bd

action_head.bias f4 [4]
0.13079111 0.0052337167 0.0841466 0.031973746
00000000: 1bee 053e 997f ab3b 0d55 ac3d e7f6 023d
