output/4-agents_domain-CoinGame-4_MATE-TD-T0.5_2022-08-09-17-01-46/critic_net_2.pth (torch, 44695 bytes, 5 tensors)

fc_net.0.weight f4 [64, 100]
-0.1527834 0.038422514 -0.04989911 -0.02370717 -0.14720172 -0.11240505 -0.034097575 -0.12584239
-0.0037912 -0.108465105 0.00017020779 -0.13576105 -0.13453384 -0.0504962 -0.18944988 0.0038720996
-0.11288472 -0.15077254 -0.008421203 -0.19362195 -0.016286239 0.0028156014 -0.040051542 -0.12910794
-0.016994728 0.019852223 -0.0021891866 -0.13546023 -0.00018555194 -0.13442087 -0.091943815 -0.19087106
-0.07988869 -0.07542091 -0.11319166 -0.085336804 -0.097476445 -0.23416324 -0.10543762 -0.19395448
-0.054569006 -0.031491835 -0.18753143 -0.18953975 -0.0530933 -0.1246777 -0.05875117 -0.062573
-0.14225261 -0.06805509 0.07472339 -0.024987822 0.048976135 -0.005961704 0.08676779 -0.010078205
-0.0006168941 -0.070072904 0.09561946 0.057038452 -0.013264242 -0.189232 -0.0063989414 0.1420031
0.004502839 0.014662339 0.023470921 0.11558827 0.09096726 0.04061609 -0.061042473 0.041797623
0.14449213 0.048439078 0.1172237 -0.11430426 -0.0060829455 -0.23350658 -0.09130466 -0.09811195
-0.052556135 -0.052892987 -0.14119364 -0.15786633 -0.13611609 -0.13004766 0.050369732 -0.0144249415
0.02867871 -0.044907395 -0.12354026 -0.05524962 -0.13803668 -0.059511047 -0.08186083 -0.18137003
-0.2193749 -0.08065714 -0.1352626 -0.053155158 -0.09709011 -0.007142549 0.14082626 -0.006278672
-0.06536692 -0.087542966 -0.030836513 0.019185908 0.11212406 0.03791559 -0.18641695 -0.15931702
0.13057375 0.064840004 -0.008041551 0.20550881 0.04276346 0.1786495 0.029621828 0.08713189
-0.022244072 0.009431639 0.0204053 0.063688606 -0.034333542 0.027639952 -0.028320491 -0.014874677
0.10065404 0.17933112 0.03295747 -0.057799105 0.02164054 0.073724456 0.040644668 -0.00017472616
-0.04685147 0.068929754 0.015951272 0.061744887 0.023809545 -0.059024327 0.034888145 0.04143596
0.117071815 -0.003168352 0.019169886 0.026734876 0.07154896 0.046281144 0.04951838 0.013684723
-0.16784014 -0.13361262 -0.042059284 -0.048809264 -0.04318074 -0.17589472 -0.112526335 -0.10963146
0.07278752 -0.20388344 0.079866305 -0.016587544 -0.0360874 0.048696876 -0.14795293 -0.07102473
0.029012008 -0.09469094 0.1283737 0.09753868 0.06680933 0.042489104 -0.066734895 -0.0017369424
0.04197948 0.023616266 0.13618681 -0.02362767 0.18430877 0.14413528 0.020643402 0.025135279
0.06822418 -0.022945162 0.066585876 0.031431668 -0.06436758 0.11169554 0.101488814 0.08669887
0.07605958 0.07025231 -0.039470404 -0.042263288 0.056342956 0.009006266 0.030039446 -0.016937304
-0.118292674 -0.06723437 -0.15907198 -0.18445419 -0.16897646 -0.13235185 -0.02265966 0.0148693975
-0.07745007 -0.14680187 -0.11134567 -0.10036314 0.040755324 -0.14957717 -0.17052794 -0.05596438
-0.13169475 -0.10037388 -0.15012102 -0.15158074 -0.12523937 -0.14351785 -0.13502927 -0.023934226
-0.06667626 -0.0717302 -0.059193976 -0.19341616 -0.10973222 -0.0029029003 -0.13113812 0.024511915
-0.027428681 -0.09561998 0.0061848634 -0.13405007 -0.13881734 -0.08664924 -0.08293052 -0.020312333
-0.1767369 -0.1517354 -0.019918183 -0.14734527 0.008050039 -0.018196631 -0.15084462 0.026670111
-0.09375028 -0.019821838 0.0067981365 -0.088305146 -0.026932504 0.060286537 0.13106859 0.033765495
00000000: 4073 1cbe ed60 1d3d 0263 4cbd 8a35 c2bc
00000010: 0cbc 16be 9e34 e6bd e6a9 0bbd d4dc 00be
00000020: c875 78bb f422 debd ce79 3239 f204 0bbe
00000030: 3dc3 09be 1ad5 4ebd 26ff 41be 0dc3 7d3b
00000040: 1b30 e7bd 1e64 1abe 16f9 09bc d544 46be
00000050: b86a 85bc f485 383b 160d 24bd df34 04be
00000060: 8738 8bbc 21a1 a23c 7578 0fbb 16b6 0abe
00000070: b890 42b9 a0a5 09be 0a4d bcbd b473 43be
00000080: ae9c a3bd 4776 9abd 07d1 e7bd 10c5 aebd
00000090: bba1 c7bd 7dc8 6fbe aeef d7bd 019c 46be
000000a0: c083 5fbd 95fd 00bd 3d08 40be b516 42be
000000b0: 5c78 59bd 0657 ffbd 11a5 70bd 4626 80bd
000000c0: abaa 11be 7860 8bbd 9408 993d 43b3 ccbc
000000d0: 339b 483d 665a c3bb 50b3 b13d 0e1f 25bc
000000e0: 10b7 21ba 6282 8fbd 23d4 c33d 27a1 693d
000000f0: 4352 59bc 09c6 41be 36ae d1bb 4369 113e
00000100: 8d8c 933b 4f3a 703c 1746 c03c 8bb9 ec3d
00000110: 0b4d ba3d 0f5d 263d ac07 7abd fc33 2b3d
00000120: bff5 133e 0e68 463d fb12 f03d 5a18 eabd
00000130: 7253 c7bb 591c 6fbe f0fd babd ebee c8bd
00000140: 1a45 57bd 51a6 58bd 1195 10be b6a7 21be
00000150: 0462 0bbe 372b 05be 7e50 4e3d 9756 6cbc
00000160: 9def ea3c d1f0 37bd ad02 fdbd 6d4d 62bd
00000170: 7d59 0dbe dbc1 73bd a7a6 a7bd 11b9 39be
00000180: d0a3 60be 922f a5bd 4782 0abe 39b9 59bd
00000190: 2ed7 c6bd 0b0c eabb c234 103e 51bd cdbb
000001a0: 17df 85bd ba49 b3bd db9c fcbc c42b 9d3c
000001b0: 4da1 e53d 614d 1b3d 16e4 3ebe 0024 23be
000001c0: 20b5 053e d6ca 843d b6c0 03bc e770 523e
000001d0: bd28 2f3d e5ef 363e 7aa9 f23c 3472 b23d
000001e0: 3339 b6bc 2987 1a3c 0429 a73c 2c6f 823d
000001f0: 54a1 0cbd 2e6d e23c 6000 e8bc ebb4 73bc
00000200: b523 ce3d 94a2 373e 69fe 063d c1be 6cbd
00000210: 8047 b13c d9fc 963d 067b 263d b236 37b9
00000220: 54e7 3fbd 0b2b 8d3d 3eac 823c 35e8 7c3d
00000230: 3c0c c33c 7ec3 71bd dfe6 0e3d c1b8 293d
00000240: 59c3 ef3d 20a4 4fbb 2a0a 9d3c 1903 db3c
00000250: 4388 923d 4c91 3d3d c9d3 4a3d e335 603c
00000260: 49de 2bbe bfd1 08be 5b46 2cbd 39ec 47bd
00000270: 4ade 30bd bf1d 34be 3574 e6bd 7586 e0bd
00000280: a011 953d d2c6 50be f290 a33d 9ae2 87bc
00000290: 62d0 13bd 6076 473d f980 17be 6a75 91bd
000002a0: 97aa ed3c 53ed c1bd 6574 033e 5cc2 c73d
000002b0: 54d3 883d 0e09 2e3d 4eac 88bd 1eaa e3ba
000002c0: adf2 2b3d e676 c13c 8e74 0b3e d18e c1bc
000002d0: 70bb 3c3e 3398 133e 5a1c a93c 80e8 cd3c
000002e0: 1eb9 8b3d 7ef7 bbbc 2d5e 883d 7ebe 003d
000002f0: 26d3 83bd a2c0 e43d 5ed9 cf3d 2d8f b13d
00000300: 20c5 9b3d 71e0 8f3d b8ab 21bd 451c 2dbd
00000310: dfc7 663d 048f 133c 4915 f63c 1ac0 8abc
00000320: 6e43 f2bd 2cb2 89bd c4e3 22be 8fe1 3cbe
00000330: 2a08 2dbe 3e87 07be c0a0 b9bc c69e 733c
00000340: 249e 9ebd 3b53 16be 3309 e4bd 318b cdbd
00000350: 0eef 263d c22a 19be e09e 2ebe e83a 65bd
00000360: fdda 06be d290 cdbd 53b9 19be fb37 1bbe
00000370: c03e 00be 58f6 12be 1d45 0abe b611 c4bc
00000380: 908d 88bd 48e7 92bd 6275 72bd e30e 46be
00000390: 49bb e0bd 963e 3ebb 1249 06be 36cd c83c
000003a0: 1db2 e0bc 68d4 c3bd 65aa ca3b 6c44 09be
000003b0: 2226 0ebe 2875 b1bd 7ad7 a9bd 0d66 a6bc
000003c0: 85fa 34be 8660 1bbe 752b a3bc aee1 16be
000003d0: 50e4 033c 1a11 95bc 0377 1abe 477b da3c
000003e0: 2600 c0bd 6861 a2bc e7c2 de3b 54d9 b4bd
000003f0: 8ea1 dcbc 04ef 763d d836 063e b04d 0a3d

fc_net.0.bias f4 [64]
-0.13448869 -0.0548648 -0.11156543 -0.042890985 0.11557266 -0.09517295 -0.092268325 0.18067206
0.046968378 0.20003419 0.096362635 0.037298955 0.19159155 0.11749365 0.19356109 0.09215544
0.18541911 0.15171109 0.18059601 0.15112142 -0.17743662 -0.20599306 0.15050289 -0.04753116
-0.20060253 0.06988914 -0.14705725 -0.17700642 0.173443 0.13518374 0.18603054 -0.09040735
0.110970266 0.17230856 -0.16110872 0.18253615 -0.21109302 0.14122571 0.1420139 -0.19699691
0.13027036 -0.1578185 -0.18449934 0.15878749 0.14441304 0.029639773 0.18197939 -0.1951828
0.032781497 -0.16379988 0.11971067 -0.15760255 -0.09003306 0.20122091 0.05085415 -0.21445885
0.10949684 -0.09147198 0.07958776 -0.18143356 0.14956659 0.1829074 0.16832088 0.04227947
00000000: 67b7 09be eab9 60bd 6b7c e4bd 75ae 2fbd
00000010: 5cb1 ec3d 09ea c2bd 2df7 bcbd 1902 393e
00000020: ea61 403d c3d5 4c3e c659 c53d cac6 183d
00000030: 9330 443e 83a0 f03d e134 463e febb bc3d
00000040: 82de 3d3e 275a 1b3e 29ee 383e 93bf 1a3e
00000050: f2b1 35be d8ef 52be 6e1d 1a3e 09b0 42bd
00000060: c06a 4dbe 0a22 8f3d 2d96 16be 2c41 35be
00000070: 0b9b 313e 9b6d 0a3e ca7e 3e3e 7d27 b9bd
00000080: 6144 e33d a871 303e aff9 24be c2ea 3a3e
00000090: c528 58be 799d 103e 186c 113e 8fb9 49be
000000a0: 9865 053e 2c9b 21be 65ed 3cbe 3099 223e
000000b0: 03e1 133e 1ccf f23c ce58 3a3e 00de 47be
000000c0: e445 063d 28bb 27be de2a f53d 9062 21be
000000d0: 4163 b8bd db0c 4e3e 714c 503d 1a9b 5bbe
000000e0: e13f e03d a955 bbbd e8fe a23d b8c9 39be
000000f0: fc27 193e 144c 3b3e 4f5c 2c3e 3d2d 2d3d

fc_net.2.weight f4 [64, 64]
0.25878197 -0.1124775 0.21774 -0.025419865 -0.24531995 0.16473384 0.2279842 -0.2085518
-0.27148154 -0.06666014 -0.041579667 0.024897406 -0.0066511803 -0.120616004 -0.23161812 -0.076320514
-0.14821102 -0.10169485 -0.050841585 -0.19156364 0.23293838 0.068894714 -0.1159632 0.15523404
0.08224482 0.008973127 0.19810253 0.09081883 -0.128352 -0.2148227 -0.07774949 0.093801916
-0.20906286 -0.14075474 0.13341507 -0.12981458 0.22837667 -0.04781308 -0.17518653 0.085894756
-0.08534945 0.23338437 0.22811864 -0.25025374 -0.027993975 -0.24197859 -0.21323645 0.16837426
0.013440361 0.086119555 -0.13550541 0.10582546 0.26337227 -0.063308075 0.029316481 0.23386726
0.012313046 0.07337459 -0.14781256 0.06002815 -0.18682583 -0.11344402 -0.0938786 -0.18066722
-0.12250038 -0.10142871 0.04361833 0.048990786 0.16565372 -0.153274 -0.0555196 0.023558386
0.16660322 0.17954244 0.12967907 0.021477006 0.12873723 0.014626058 -0.047425836 0.070188515
0.18075034 0.050681025 0.01808081 0.1743848 -0.16544428 -0.021171426 -0.0070504528 -0.015245176
-0.16170394 0.073521934 -0.0278001 -0.04233631 0.013131718 0.0436108 0.06000776 -0.10331946
0.069392756 0.12796767 -0.1190625 0.005593267 -0.16457637 0.029562248 0.13844492 -0.083877705
0.071977474 -0.18331741 -0.14842118 -0.024492368 0.040116664 -0.005505822 0.16607603 -0.22027618
-0.11714894 -0.14567603 0.16329095 -0.011737972 -0.14876622 0.089902945 0.0650808 -0.083998986
0.10001497 -0.010593554 0.11296941 -0.091129266 0.04837096 0.15612526 0.06888591 0.14668143
0.084341645 -0.067034125 0.09551171 -0.05647314 0.05638428 0.021177994 0.07379043 0.06637261
0.085677415 0.043786425 -0.008686156 -0.0892507 -0.06344528 0.08006063 0.11102937 0.042833023
0.052829802 -0.056814916 0.10026821 -0.010650666 -0.07889584 0.046733875 0.10541308 0.04418641
0.06925252 0.06523035 0.0032061625 -0.07388509 0.1389411 0.007140337 -0.022354787 -0.063003995
0.057911884 0.13469164 -0.011007171 0.04350865 -0.038606796 -0.043378863 -0.11729821 0.04760143
-0.034200806 -0.07788314 0.076434076 -0.060666174 -0.06744422 -0.12246029 -0.024154466 -0.11469572
-0.06636958 0.04064283 0.025001135 0.08115848 -0.1286166 0.077390075 -0.016986206 0.020178594
0.10930575 0.07087845 -0.07185952 -0.11534049 0.07375858 -0.017247442 -0.09356607 0.04179645
0.22188176 -0.17459019 0.17694108 -0.16182202 -0.21948263 0.22328027 0.2315966 -0.11712602
-0.13477519 -0.12849344 -0.1613349 -0.025170615 -0.08952312 -0.16735488 -0.10513725 -0.22900501
-0.09209625 -0.031202959 -0.095497005 -0.18615595 0.2504921 0.14254457 -0.1873578 0.18843107
0.23050302 -0.018288592 0.21384758 0.26352435 -0.090843916 -0.17425944 -0.0588913 0.23937623
-0.042654566 -0.15883787 0.11344469 -0.23505758 0.07781115 -0.0162773 -0.01669299 0.015024246
-0.11555015 0.17972648 0.11881529 -0.07799298 -0.06634514 -0.06483571 -0.11035396 0.06722739
0.03878134 0.122199126 -0.2326751 0.24030477 0.17258072 -0.20825557 -0.18457201 0.16613954
-0.08001201 0.08552431 -0.038375426 0.13317648 -0.05278177 -0.1855034 -0.019799411 -0.1568747
00000000: 127f 843e 9b5a e6bd 3cf7 5e3e 523d d0bc
00000010: 2735 7bbe fdaf 283e b174 693e 9a8e 55be
00000020: a1ff 8abe 1d85 88bd 714f 2abd a5f5 cb3c
00000030: 25f2 d9bb 8605 f7bd 4d2d 6dbe ee4d 9cbd
00000040: a1c4 17be 6445 d0bd 443f 50bd 4229 44be
00000050: 6687 6e3e ac18 8d3d 1d7e edbd acf5 1e3e
00000060: f96f a83d 0604 133c 64db 4a3e 39ff b93d
00000070: b56e 03be 7bfa 5bbe 203b 9fbd 381b c03d
00000080: 9314 56be 0322 10be f69d 083e 1dee 04be
00000090: 93db 693e a6d7 43bd 1964 33be 97e9 af3d
000000a0: b1cb aebd 50fc 6e3e ef97 693e 4221 80be
000000b0: 9f53 e5bc 3cc9 77be a85a 5abe 4d6a 2c3e
000000c0: f634 5c3c 735f b03d eec1 0abe 05bb d83d
000000d0: bbd8 863e aaa7 81bd 1e29 f03c e67a 6f3e
000000e0: a8bc 493c 6b45 963d 2d5c 17be 14e0 753d
000000f0: 454f 3fbe 5755 e8bd 6c43 c0bd d400 39be
00000100: 7be1 fabd dbb9 cfbd 22a9 323d 90aa 483d
00000110: 21a1 293e dcf3 1cbe 8568 63bd 84fd c03c
00000120: 099a 2a3e f9d9 373e 97ca 043e 8cf0 af3c
00000130: b1d3 033e 22a2 6f3c 9841 42bd ffbe 8f3d
00000140: 9e16 393e e896 4f3d 351e 943c ee91 323e
00000150: 3a6a 29be b36f adbc 7c07 e7bb e7c6 79bc
00000160: b895 25be ab92 963d 09bd e3bc d768 2dbd
00000170: 6b26 573c 3da1 323d b2ca 753d 2799 d3bd
00000180: ca1d 8e3d f509 033e 0ad7 f3bd b947 b73b
00000190: b586 28be 872c f23c 81c4 0d3e 13c8 abbd
000001a0: ed68 933d 8fb7 3bbe b9fb 17be 38a4 c8bc
000001b0: 5f51 243d 2f6a b4bb d60f 2a3e 1490 61be
000001c0: c9eb efbd 192c 15be be35 273e 9f50 40bc
000001d0: 2c56 18be 091f b83d 1549 853d a907 acbd
000001e0: a6d4 cc3d 9690 2dbc 825c e73d fba1 babd
000001f0: a120 463d 4ddf 1f3e 0e14 8d3d a833 163e
00000200: 50bb ac3d 3049 89bd a59b c33d 6150 67bd
00000210: 34f3 663d 797d ad3c 701f 973d 5dee 873d
00000220: a477 af3d 6559 333d 6150 0ebc 12c9 b6bd
00000230: 99ef 81bd d4f6 a33d 5e63 e33d ae71 2f3d
00000240: 1064 583d c2b6 68bd 6b59 cd3d 2280 2ebc
00000250: 2494 a1bd 056c 3f3d d0e2 d73d cffc 343d
00000260: 44d4 8d3d 7d97 853d 7b1e 523b 1151 97bd
00000270: 9346 0e3e 7df9 e93b 6321 b7bc 3d08 81bd
00000280: 0335 6d3d 9bec 093e 6c57 34bc 2036 323d
00000290: 2922 1ebd 09ae 31bd 0b3a f0bd b8f9 423d
000002a0: 2516 0cbd 3281 9fbd 7889 9c3d 187d 78bd
000002b0: 3220 8abd 76cc fabd 96df c5bc 97e5 eabd
000002c0: c6ec 87bd 1979 263d 2ecf cc3c 6b36 a63d
000002d0: 12b4 03be b07e 9e3d a826 8bbc 944d a53c
000002e0: b1db df3d b928 913d 162b 93bd a337 ecbd
000002f0: bd0e 973d 824a 8dbc 919f bfbd c132 2b3d
00000300: f934 633e c5c7 32be 0b30 353e acb4 25be
00000310: 0ec0 60be 95a3 643e a927 6d3e c4df efbd
00000320: 8202 0abe c993 03be fa34 25be 9b32 cebc
00000330: e657 b7bd 145f 2bbe 3352 d7bd 4a80 6abe
00000340: f59c bcbd 599d ffbc ef93 c3bd aa9f 3ebe
00000350: 8040 803e 34f7 113e b9da 3fbe 13f4 403e
00000360: fc08 6c3e f5d1 95bc dcfa 5a3e aaec 863e
00000370: 600c babd 1171 32be 0138 71bd 0b1f 753e
00000380: 8eb6 2ebd 65a6 22be b155 e83d efb2 70be
00000390: 745b 9f3d f957 85bc bdbf 88bc 4128 763c
000003a0: 8fa5 ecbd 380a 383e 6e55 f33d c9ba 9fbd
000003b0: f6df 87bd 96c8 84bd 4201 e2bd 84ae 893d
000003c0: 2fd9 1e3d 8943 fa3d 6242 6ebe 7412 763e
000003d0: 00b9 303e f340 55be 7200 3dbe 7c20 2a3e
000003e0: 56dd a3bd 5f27 af3d 8d2f 1dbd 6a5f 083e
000003f0: b231 58bd 9af4 3dbe 6032 a2bc c3a3 20be

fc_net.2.bias f4 [64]
-0.0058995006 0.10594159 -0.044857454 -0.18711989 -0.099296816 -0.1585211 0.16164441 -0.13796088
-0.12604718 0.07844094 -0.14783227 0.000634072 -0.12524065 -0.12559061 0.16762663 -0.13780493
0.050111376 -0.1535009 -0.14360057 -0.005142179 -0.13099924 -0.14894567 0.15920664 -0.080024265
-0.063644215 0.08769832 0.04316968 -0.20387033 -0.18674698 -0.10043867 -0.0040367176 -0.116402045
0.020324359 0.006678531 -0.18151063 -0.0012328807 0.12946479 0.12376633 0.011476636 -0.035671346
0.06994547 -0.22262134 0.025252782 0.08719464 0.09454692 -0.11174684 -0.19923556 0.06797495
-0.027084481 0.007756247 0.15222874 -0.1116325 0.15711361 -0.08810138 -0.0909795 0.028336491
0.082819216 -0.20848271 -0.052982457 0.13540883 0.038335685 0.04488261 0.1831199 0.07787894
00000000: 9950 c1bb e8f7 d83d 73bc 37bd 5b9c 3fbe
00000010: 215c cbbd 5b53 22be 1d86 253e 9e45 0dbe
00000020: 8312 01be a5a5 a03d 5861 17be da37 263a
00000030: 163f 00be d39a 00be 51a6 2b3e bc1c 0dbe
00000040: 9641 4d3d 572f 1dbe 070c 13be b97f a8bb
00000050: aa24 06be 3785 18be 1107 233e c3e3 a3bd
00000060: e657 82bd 2d9b b33d b1d2 303d 62c3 50be
00000070: 9a3a 3fbe cab2 cdbd 7146 84bb 3264 eebd
00000080: 457f a63c 94d7 da3b ecdd 39be 9d98 a1ba
00000090: 6b92 043e 3479 fd3d 8008 3c3c 1e1c 12bd
000000a0: 923f 8f3d d9f6 63be ecde ce3c 1a93 b23d
000000b0: d1a1 c13d 87db e4bd 6804 4cbe 7336 8b3d
000000c0: 46e0 ddbc 1e28 fe3b dae1 1b3e 959f e4bd
000000d0: 64e2 203e 7f6e b4bd 7653 babd ee21 e83c
000000e0: 1f9d a93d 7e7c 55be 2204 59bd 9da8 0a3e
000000f0: e105 1d3d d4d6 373d c883 3b3e fe7e 9f3d

value_head.weight f4 [1, 64]
-0.13517193 0.16768625 0.0074804346 -0.2277565 -0.21032694 -0.2257294 0.11958985 -0.17493714
-0.2060217 0.13317008 -0.17398255 -0.15084453 -0.09108828 -0.19667536 0.18234168 -0.16171551
0.06485977 -0.15764384 -0.24147767 0.084651135 -0.18309565 -0.20571834 0.07689049 -0.21909748
-0.18125626 0.06582441 0.1567385 -0.21570727 -0.20728873 -0.23581587 0.09140198 -0.23514247
-0.21753255 0.039539315 -0.1965905 -0.20517562 0.18345673 0.107444644 -0.1280212 -0.20401706
0.121942595 -0.14233713 0.13158692 0.15670349 0.11652782 -0.14570364 -0.20534116 0.08953745
-0.10593583 -0.18472111 0.090653874 -0.12711693 0.115973145 -0.2417597 -0.22369288 -0.08592324
0.1507405 -0.13218057 -0.15845335 0.09190498 0.017242191 0.15844408 0.087505005 0.11620884
00000000: 836a 0abe f2b5 2b3e 6f1e f53b 0039 69be
00000010: f25f 57be 9c25 67be 86eb f43d b922 33be
00000020: 5af7 52be bd5d 083e 7b28 32be fd76 1abe
00000030: 7e8c babd 4465 49be c7b7 3a3e c098 25be
00000040: 33d5 843d 636d 21be ec45 77be 935d ad3d
00000050: 6d7d 3bbe d4a7 52be c378 9d3d 175b 60be
00000060: 3e9b 39be f3ce 863d 0f80 203e 5ee2 5cbe
00000070: 7f43 54be b779 71be f630 bb3d 30c9 70be
00000080: dac0 5ebe faf3 213d 054f 49be 8f19 52be
00000090: 15dc 3b3e f00b dc3d fd17 03be d9e9 50be
000000a0: 0abd f93d d3c0 11be b9be 063e e176 203e
000000b0: 23a6 ee3d 5633 15be f444 52be 695f b73d
000000c0: e2f4 d8bd 8827 3dbe bda8 b93d f12a 02be
000000d0: 5483 ed3d db8f 77be bf0f 65be 86f8 afbd
000000e0: b85b 1a3e 585a 07be 9841 22be ae38 bc3d
000000f0: 7f3f 8d3c 2a3f 223e d335 b33d e6fe ed3d
