output/4-agents_domain-CoinGame-4_MATE-TD-T0.5_2022-08-09-17-01-46/critic_net_3.pth (torch, 44695 bytes, 5 tensors)

fc_net.0.weight f4 [64, 100]
00000000: 32bf c4bd d060 fb37 665c a03d d932 f33d
00000010: 99bd 163d 9802 f23c 2995 7d3b 5328 de3d
00000020: d8e6 a53c 1f71 81bd 5f4d b6bd 8845 62bc
00000030: 921f 6abc 6b5e dbbd e23a 3d3d 50dd 36bd
00000040: 3b02 b0bd 8dd9 febd 5cf1 d9bb 8304 a83c
00000050: 3f8f 80bd b8ae 66bd c8fc d9bd 6d5d bbbd
00000060: 9ee4 803b b47c 1abd 2893 bbbb 3e16 7fbc
00000070: 38a2 3e3d 70b9 cdbd f98d 13bd a0e0 093d
00000080: 54c5 ab3c 736d 28bd 0fc1 683d c934 86bd
00000090: d469 06bc 455f 09bc 328b 983d 9661 babc
000000a0: 25bc 09bd 8884 6cbd 066d 493d ab4e 03bd
000000b0: 6d03 74bd 77c7 333d 6f5c 71bd b1c6 72bd
000000c0: d878 0bbc 2fd3 7e3c 061e 5dbd 0c7f dcbc
000000d0: 5853 86bd 6e23 8abc b5c3 26be e0d4 0e3d
000000e0: 5e6f c73d 4d9a 883d eefb 19bd 4b3a 883d
000000f0: fa22 b53c 6dd7 3fbd 8dac 873d 0600 683d
00000100: 8ab4 d93d 994a f83d ea48 633d 7031 f03d
00000110: e26e 1e3d 7a68 933d 7248 233e 3cd2 ac3d
00000120: 3f9b edbc 1965 943d b36e 213e 87bf 723a
00000130: 9860 953b 258c cdbd d2d3 103d b3b0 44bb
00000140: 3509 abbd eb63 94bc ae70 b2bd 7abc 763c
00000150: 5042 933c 0fe7 213d 34ec 46bd 9b7c 22bd
00000160: 2594 ecbc 8979 b8bd c824 0fbd f84b d6bc
00000170: e20b d63c aa7f b1bc 14ef d5bd e2c4 233d
00000180: 1b55 87bd cb5c fcbd 0ea0 933b 6b66 a1bd
00000190: 8382 8ebc a0d2 e23d c5bc b63d 16ca 563d
000001a0: 2512 afbc 141a d53d 3d5b 1b3e f826 8c3d
000001b0: cc92 b33d 1764 8c3d cf6d 513d 3d35 8f3c
000001c0: 27b9 a2bb 762f 093e 8c50 3ebc 4bc7 ac3d
000001d0: 9d0e e33d 3422 423d 827a a83d e11c 433e
000001e0: 0ecf 0a3e f2d9 943d 2786 a63d f1ed 313d
000001f0: 90c3 c83b 1025 d43d bc8a 153e e2a2 233e
00000200: 63b6 053e 4d6c 1fbd db1d 93bc eddb 2c3e
00000210: b89f 953d 1a20 af3d f795 173e 14b7 483c
00000220: b856 78bc 9a21 2f3e 22cd 323d 4851 2bbc
00000230: acad 01bb ad94 233d 7ed7 0d3e 5867 343e
00000240: 34f9 00bc 3bd1 163e 314b 64ba bcd8 2c3c
00000250: ce4c 433d f08a 7b3d b261 14bd 3d78 193d
00000260: 097b 063e c524 2a3d 5ed0 ea3d 5f14 c03c
00000270: 8165 633d 60e6 323b 70bc bd3d bf53 f03d
00000280: 2092 c8bd a489 053d 2e42 1d3e 3880 95bd
00000290: 358c 593d 25cf 913b 653e 6f3d 85ad 6e3c
000002a0: 0231 14be 82b4 07be 8f3c 08be bc4f 58bd
000002b0: f9af 513d ac90 0cbe 42fc 9cbc bb66 9f3d
000002c0: 98bb 193d eb62 1ebd 4d62 033e dabc 023d
000002d0: 4dae 893d 5768 e43d c8cb a53d 4e0d 203e
000002e0: e64a 183e 87b9 693d 1972 a63d 2f38 f4bc
000002f0: b907 493d 817d 1b3e 43ad 2c3e 2947 2e3c
00000300: 20fe 823d 0e5c bb3c 85db 7c3d b659 1c3e
00000310: 966e 033e 1d7e 413e 2bf4 093e ceef c23d
00000320: b12a 11bd a983 26be 092a fcbc 9e78 503d
00000330: 2b8e aabd 623b 2abc c703 f63c 3383 81bd
00000340: 4300 e7bd 1986 0dbe 0eb8 b0bd 9ad5 75bd
00000350: 36e0 42be f01b 33be 52d4 b2bd f5d9 e4bc
00000360: a7f9 4dbd c3dd f1bd 2fe5 12be 598c 1ebd
00000370: 5453 4cbc 121d c7bd 3314 ccbd 9d9b 12be
00000380: c2e0 e8bd cf5e 95bd 8901 2b3c fe84 c9bd
00000390: 9187 0abe 9ce5 9d3c 0cc9 883b 3fb9 eabc
000003a0: d400 63bd 1f00 cabd 78ce 37be d125 8cbd
000003b0: dfa3 3abe 382c 01be f1f1 69be 7538 5bbe
000003c0: b251 12bd ca3b 08be 1b7a 18be ba92 62bd
000003d0: 3797 89be 072c 253d 339f eabc 95b8 2fbb
000003e0: 83dd 88bd f3f2 b8bd 17cf 51bd 097d 20be
000003f0: da1e fabc 171d df3c aa97 a5bd 10ba 91bd
-0.0960678 2.9966614e-05 0.078301236 0.11874933 0.03680191 0.029542252 0.0038693643 0.10847535
0.020251676 -0.06320404 -0.08901476 -0.013810523 -0.0142897535 -0.10711368 0.046198733 -0.044644654
-0.085941754 -0.12443838 -0.0066510867 0.020509964 -0.06277322 -0.05631897 -0.10643917 -0.09148679
0.0039335033 -0.037716582 -0.0057243295 -0.015569268 0.046541423 -0.10045135 -0.036024068 0.033661485
0.020968117 -0.041120004 0.05682474 -0.06553037 -0.008203942 -0.00838453 0.074484244 -0.02275161
-0.033626694 -0.05774358 0.04917624 -0.032057445 -0.05957358 0.043891396 -0.058926042 -0.05927152
-0.008512698 0.01555328 -0.05398371 -0.02691605 -0.06558865 -0.016862597 -0.16285594 0.034870982
0.097380385 0.066700555 -0.037593774 0.066517435 0.022111405 -0.046836305 0.06624708 0.056640647
0.10630138 0.121236034 0.05548946 0.117281795 0.038679965 0.07197662 0.15945604 0.084385365
-0.029004691 0.07245845 0.15764885 0.0009260107 0.004558634 -0.10036496 0.035358258 -0.0030012548
-0.083513655 -0.01811405 -0.08712898 0.015059585 0.017975956 0.039526995 -0.048565105 -0.039669614
-0.028879235 -0.09007556 -0.034947187 -0.026159272 0.026128713 -0.02166732 -0.10445991 0.039982684
-0.066080295 -0.12322386 0.004505164 -0.07880863 -0.017396217 0.1107533 0.08922724 0.052438818
-0.021370957 0.10405365 0.15171523 0.0684337 0.08768234 0.06855028 0.051130112 0.01748144
-0.0049659195 0.13397011 -0.011615884 0.084364496 0.11086772 0.0473959 0.082264915 0.19053985
0.13555548 0.07268132 0.08131056 0.04343981 0.0061268285 0.103586316 0.14603704 0.15980104
0.13057856 -0.038921643 -0.017958572 0.1688077 0.073058546 0.08551045 0.14803301 0.0122506805
-0.015157394 0.17102662 0.04365266 -0.010456391 -0.0019787354 0.03993671 0.13851735 0.17617548
-0.007871915 0.14728253 -0.0008708714 0.01054972 0.04768067 0.061411798 -0.036225982 0.037468184
0.13132872 0.041538972 0.11465524 0.023447214 0.055516724 0.0027297959 0.09264457 0.11734723
-0.09793496 0.032601967 0.15357277 -0.072998464 0.053112227 0.0044497424 0.058409113 0.0145677375
-0.1447182 -0.13252452 -0.13304351 -0.052810416 0.05119321 -0.13727063 -0.019163255 0.07783266
0.03753242 -0.038668554 0.12830468 0.031918384 0.06722698 0.11152714 0.08095509 0.15630075
0.14872321 0.0570617 0.08127231 -0.029811947 0.04907963 0.15184595 0.16862969 0.010637083
0.06396127 0.022871044 0.061732788 0.15268597 0.12835154 0.18895765 0.13472049 0.09518395
-0.035441104 -0.16261162 -0.030781763 0.05089628 -0.08327898 -0.0103901345 0.030031098 -0.063238524
-0.11279347 -0.13820685 -0.08628856 -0.06001816 -0.19030842 -0.17491126 -0.08731903 -0.027935961
-0.050286915 -0.11809876 -0.14345239 -0.038708065 -0.012471039 -0.097223416 -0.0996479 -0.14317174
-0.11370994 -0.07293474 0.010437378 -0.09839819 -0.13528277 0.019274525 0.0041743573 -0.028652785
-0.05542071 -0.09863304 -0.17949855 -0.068431504 -0.18226574 -0.12614524 -0.228462 -0.21408255
-0.035722442 -0.13304058 -0.1489033 -0.05531571 -0.2687318 0.04032519 -0.028640365 -0.00268129
-0.06682875 -0.09030714 -0.051222887 -0.15672697 -0.03053229 0.02723555 -0.08085568 -0.07115567

fc_net.0.bias f4 [64]
00000000: b554 58bd 1dc0 333e a88c 1ebe c11d 213e
00000010: fd67 033e cd2d 6bbe 631e 38be b053 f43d
00000020: 88d2 31be bb6d e73d 30ed de3d 76af 0b3e
00000030: fc06 323e 0d5a 073e 5e6b 1f3e 88fb dcbc
00000040: 7f5e 883d 40a6 283e 3ba9 8f3d 881e 133e
00000050: ca80 bb3c e6e9 31be 2544 f33d 85c1 323e
00000060: d0f4 32be 8dc1 4fbe dbfa 5ebe 18f7 26be
00000070: 205d 21be f847 4bbd a28f 06be f9d5 153e
00000080: 5d54 153e 232c 403e fb1a 16be de54 393e
00000090: 60e5 3fbe 889b 273e 2979 2ebe 1d5a a2bd
000000a0: 0691 173e 84d2 89bd 88ca 523e 0f18 1abe
000000b0: 0cc6 26be a148 24be 2b15 493d cf13 22bd
000000c0: bf58 d63d 06f0 3d3e faf5 183e a073 25be
000000d0: 2f52 263e f2e5 d0bd 422e 793d a14d 09be
000000e0: 75b4 fd3d ca39 23be 7775 0e3e ee13 6abe
000000f0: 1020 4b3e 80af 273e 4a1c 02be 29dc eb3d
-0.052815158 0.17553754 -0.15483344 0.15734006 0.12832637 -0.2296669 -0.17980342 0.119300246
-0.17365468 0.11300226 0.10885084 0.13641152 0.17385477 0.13217945 0.15568301 -0.026975408
0.06658649 0.1646967 0.070147 0.14367115 0.02288856 -0.17374381 0.11878232 0.17456634
-0.17476201 -0.20288678 -0.21775381 -0.16305196 -0.1575818 -0.04962918 -0.13140729 0.14632405
0.14582963 0.18766837 -0.1465873 0.1809878 -0.18739843 0.16367924 -0.17038406 -0.07927344
0.14801416 -0.06729606 0.20585072 -0.1504824 -0.16286486 -0.1604333 0.049092453 -0.039569672
0.10466146 0.18548593 0.14937583 -0.16157389 0.16242288 -0.102001086 0.06083513 -0.1340852
0.12387935 -0.15940014 0.13911997 -0.22859165 0.1983645 0.16375542 -0.12706104 0.115166016

fc_net.2.weight f4 [64, 64]
00000000: 63e5 983d bb7b 6cbc 3f99 693d 77a9 15be
00000010: df0a 88be e43f 453d 74bd 793e c1d6 15be
00000020: d747 163e e6e6 8fbd d37a c9bd 2dd6 4ebe
00000030: 9065 28be fbec ccbc 651b 36be 5624 c8bd
00000040: 9301 81bd 155b d1bd 7025 6dbe 31c0 6abc
00000050: f61e 4bbe 235e 803e 13b8 5abd d0c8 32be
00000060: 0dec 413d c6cd ef3d 31d6 883e b609 753e
00000070: e6f6 143e d198 aebd b24d 543e 5049 51be
00000080: cc2d aabd 062b 6ebc b585 393e 4c92 45bd
00000090: eaa0 2b3e b83c 9bbd 28ef 303e 73df 5d3e
000000a0: 558d 98bc 5a67 0a3e de22 2bbd 2f85 053e
000000b0: ce41 d13d 3377 863e 3234 f73d ef9b 05be
000000c0: 22b5 f2bd 1fd6 55be f773 2cbe ce4f 233d
000000d0: 2800 86bd 9779 5a3e dd79 8cbc 4724 493e
000000e0: 1798 4fbe 025b 283e 3e75 e2bd 2735 9a3c
000000f0: 01bb 83be 0aeb 14be 2142 883e 9c61 06be
00000100: 1b92 acbd be2c 093e f4b6 48be 59ac 013e
00000110: 1336 04bd 0a22 4ebd 7490 51be 19d7 b9bd
00000120: 6505 93bd cc66 f73d 5cfd 84bd 0c58 f73c
00000130: 6e52 2dbd 5307 033e 6cd2 283d 3835 e5bd
00000140: 3989 07be 5683 d13d 42a5 18bd c1bb 3c3d
00000150: d88f 10bc 6c2f 19bd 7b00 db3d ca45 ba3c
00000160: 3586 0fbd 5fb5 98bc f97c 323d 43c6 91bd
00000170: 982e 83bd 14ae 88bc 9cf9 1cbd 23ff 20bd
00000180: a492 313e ca89 ec3d e238 533c 9a03 5f3d
00000190: 0715 87bb 5782 e0bc 4ce2 fbbb d24e a2bd
000001a0: bf0d b53d f1b9 84bd b4b4 053e a881 1abe
000001b0: d054 bfbd 55c1 0abe aca1 c0bd 72df 5a3d
000001c0: 9ed4 193e df5b c83d 3077 8a3d 5e58 e2bd
000001d0: 62f7 2c3e 9cd6 edbb 1e63 9e3c 6b3d 39bd
000001e0: b81c b53d 8edb b4bd 2cf0 7f3d 02eb a2bd
000001f0: 2559 403e 9def 3bbd 2fa3 33be 3874 143e
00000200: 47c9 263d 2252 63be 7512 3c3e c8fa 0cbc
00000210: d953 d6bd ab25 c73d 8295 3f3d f723 2dbe
00000220: 8904 193e 7c32 81be 2598 38be cfc8 6fbe
00000230: dd22 0dbe 0e51 bbbd d690 82be d806 07bc
00000240: bc2a 0abe be94 15be 1d01 09be 5d8f 0bbd
00000250: 3f1d 28bd fd4c 713e e348 5bbe 1404 62be
00000260: f13b 4c3e 86a4 513e bc47 4a3e 7026 473e
00000270: 99a3 263e 1abf 9a3d 57e6 a63d b9ce 1dbd
00000280: 5e2f 7abe bcf9 0fbd 65a5 c53d c68a 69be
00000290: cb04 c33d 18f9 b8bc eb04 b63d 8a1b a93d
000002a0: a996 96bd 97a7 16bd c1dd 5abd 0436 713e
000002b0: f710 f33d 5b46 2d3d 0387 163e e8e6 063d
000002c0: 256b 30be c618 31be 5fb3 03be 1e87 273e
000002d0: 96c9 9fbd 87b9 413e 2970 0bbe 2762 1d3e
000002e0: 3c6c 15be 9aa3 fd3d 761a 93bd e48e 703e
000002f0: 94f6 66bd c67b 5ebe 1bfc 6f3e e68f b3bd
00000300: 5823 f63d 3b20 ee3c d5d9 76bd 0aac c63c
00000310: 8037 61bd 6e87 a0bc a3d0 67bd 9502 283a
00000320: ea51 773d aeec e53c e8db 483d ef15 203e
00000330: d835 673d f92d 1f3e f527 303e f094 143d
00000340: c813 8a3d 6e8c fd3d f708 133d 57e3 513d
00000350: 54ab e33d 5c99 a7bd cc59 a7bc 6e92 e23d
00000360: c520 08be c2a7 8fbd 3d59 6ebc 2907 d5bd
00000370: 1a6c 0a3d 8d71 203d e3c0 443d e00a febc
00000380: 7c90 bc3d 0376 2dbd 81cc 83bd d72b f93d
00000390: cc3f 20be 8933 993c 1826 94bc bfbe 903c
000003a0: f5b0 1d3e 8c7b 3c3c bd1b 09bd a05f 45be
000003b0: c81b f2bc fd66 70bd f501 503c 2dfa 37bd
000003c0: 3310 7cbd 54ce 563c 86cf f1bc 3903 15be
000003d0: daa0 913d 1ed3 3ebd b9de 74bd 2428 c63c
000003e0: 61d5 e93d 27f9 f6bd 4aa4 67bc 08e4 babd
000003f0: 5d28 c0bc 8321 07bd e731 63bd ebc9 243e
0.07465627 -0.0144337965 0.057030912 -0.14615427 -0.26570794 0.048156634 0.24388677 -0.14632703
0.14675842 -0.07026462 -0.0983788 -0.20198889 -0.16444993 -0.025015345 -0.17783888 -0.097725555
-0.062991284 -0.10222451 -0.23158813 -0.014328049 -0.1983603 0.2507182 -0.053398203 -0.17459416
0.047344256 0.1170917 0.26725915 0.23929486 0.1454731 -0.08525241 0.20732763 -0.20438123
-0.08309516 -0.014536625 0.18117411 -0.048235223 0.16760603 -0.075799406 0.17278731 0.2166727
-0.01862208 0.13515988 -0.0417813 0.13039087 0.102176294 0.26262817 0.12070502 -0.13047765
-0.118509546 -0.20882462 -0.16841112 0.03987103 -0.065429986 0.21335445 -0.017147953 0.19642745
-0.20272861 0.16440967 -0.110575184 0.018824173 -0.2572861 -0.14542785 0.26612952 -0.13123173
-0.08426305 0.13395974 -0.19601041 0.12663402 -0.03227813 -0.05032543 -0.2046526 -0.0907423
-0.07178763 0.12080154 -0.06493637 0.030193351 -0.04231494 0.12795763 0.0412163 -0.11191791
-0.1323594 0.102301285 -0.037266977 0.046077494 -0.0088233575 -0.03739874 0.10693451 0.022738356
-0.0350401 -0.018641172 0.043576214 -0.071178935 -0.064053714 -0.01668457 -0.038323984 -0.039305817
0.17341095 0.11549719 0.01289198 0.054446794 -0.0041223797 -0.0274059 -0.007686889 -0.0792519
0.088405125 -0.06480778 0.13057214 -0.15088522 -0.093423486 -0.13550313 -0.094058365 0.05343575
0.15022513 0.09783148 0.067610145 -0.11052011 0.16891244 -0.0072582494 0.019334372 -0.04522459
0.08843368 -0.08830939 0.062484905 -0.079549804 0.18784006 -0.04588281 -0.17542718 0.14497459
0.040719297 -0.221993 0.18366416 -0.008604713 -0.104652114 0.097239815 0.04677344 -0.16908251
0.14943136 -0.2523383 -0.18026789 -0.23416446 -0.1378283 -0.09146319 -0.25501126 -0.008241378
-0.13492864 -0.14607522 -0.13379331 -0.03407227 -0.041043516 0.23564525 -0.21414523 -0.22071868
0.19944741 0.20472917 0.19753927 0.19448256 0.16273345 0.07555981 0.081494026 -0.038527224
-0.24432132 -0.035150275 0.09650687 -0.22806844 0.095223986 -0.022579715 0.08887657 0.08257206
-0.07352955 -0.03678092 -0.053434137 0.23555762 0.1186847 0.042303424 0.1469994 0.032935053
-0.17228372 -0.17294607 -0.12861393 0.16360137 -0.07802121 0.1891843 -0.13617004 0.15369473
-0.1459207 0.1238472 -0.071827814 0.23492008 -0.0563875 -0.21726903 0.23436014 -0.08767681
0.1201846 0.029068103 -0.060266335 0.024251956 -0.05498457 -0.019595828 -0.056595456 0.0006409076
0.060380854 0.02806696 0.049037844 0.15633367 0.056447834 0.15544881 0.17202742 0.03627485
0.06742054 0.123803005 0.03589722 0.0512422 0.111166626 -0.08183548 -0.02042856 0.110630855
-0.1329375 -0.07014419 -0.014547643 -0.10401756 0.0337945 0.03917079 0.048035514 -0.031011045
0.09207246 -0.042348873 -0.064354904 0.12166565 -0.15649337 0.018701332 -0.01808457 0.01766908
0.15399535 0.011504065 -0.03347372 -0.1927476 -0.029554263 -0.058691967 0.012695779 -0.04491632
-0.061538886 0.013110716 -0.0295179 -0.1455201 0.07110758 -0.046588056 -0.059782717 0.024189062
0.11417652 -0.12059241 -0.014138291 -0.09125525 -0.023456747 -0.032990944 -0.055467512 0.1609265

fc_net.2.bias f4 [64]
00000000: dddb bdbd d509 583e eea5 2abe 84aa ed3d
00000010: c67b 583e faad d6bd 5a9e 243e 0e25 a7bb
00000020: 4583 5abe 00da 663e a6fd 913c e74e 443e
00000030: 11d0 07be 170b 6c3e 5c69 22bc 6a78 9ebb
00000040: 903d 64be 71d9 27be 8ecb 1cbe 6899 0dbe
00000050: 4f82 b3bd ea12 283e 9910 e23d 9e21 8ebc
00000060: 6e4b f93d 4706 193e 7ef7 383e 0181 fd3c
00000070: 920e 903d f698 cd3d b576 c4bd bad6 083e
00000080: b7f0 92be ae66 c1bd 45c5 a53d d670 aebd
00000090: 68b5 263e a06f 363e 9c8c 2bbe 5e75 6d3e
000000a0: 4d27 673e d2ec fcbc b320 0abe 4634 94bd
000000b0: d0d7 d63d 1be9 233d e8f0 8cbd ea98 2d3e
000000c0: 73f9 d53d 6271 7abe ae81 afbd 6e98 f63c
000000d0: a80a 5c3e 9a3c 4f3c 8b05 db3d 0767 7f3d
000000e0: 400e d4bd 3abb 32be 253b 7d3a 5008 40be
000000f0: 9143 19be a702 493e 3ef1 19be b03c 8e3d
-0.09270451 0.210975 -0.1666486 0.11604789 0.21140966 -0.10482402 0.16076031 -0.005100853
-0.21339138 0.22544098 0.017821144 0.19170724 -0.13262965 0.23051105 -0.009912815 -0.004836132
-0.22289109 -0.16391541 -0.15312025 -0.13828051 -0.08765089 0.16413465 0.11038322 -0.017350014
0.1217259 0.14943801 0.18063161 0.030945303 0.07034029 0.100389406 -0.09592954 0.13363162
-0.28699276 -0.09443413 0.08094267 -0.085176155 0.16280138 0.17816019 -0.16752857 0.23189303
0.22573586 -0.030874643 -0.13489036 -0.07236533 0.10490382 0.04001723 -0.06881887 0.16952863
0.10447969 -0.24457315 -0.08569656 0.030101981 0.2148844 0.012648726 0.106944166 0.062354114
-0.103542805 -0.17454234 0.00096599973 -0.18753171 -0.14967181 0.19629918 -0.15033433 0.06945169

value_head.weight f4 [1, 64]
00000000: 56a2 49be 0754 ff3d 4c2e 41be 3970 6a3d
00000010: e465 f33d dee0 27be f186 2b3e 9596 eb3d
00000020: d7d8 5dbe 90a9 043e 742c 773a dbb8 043e
00000030: e241 46be 6a3a 2c3e 22ea 3ebe 72ef bb3d
00000040: 3eeb 27be 28e9 59be 4bed 81be 4e1b 46be
00000050: f174 4fbe 6cdf 543d 4718 ec3d fac4 833d
00000060: de73 f539 43b5 dd3d 0e70 ca3d 95b5 113e
00000070: e382 bd3d 4f84 663d 48e9 fabd 069a 0b3e
00000080: cac9 00be d71f 05be 47db b23d 44ee 66be
00000090: cfd6 ab3d ef84 1a3e fd1c 70be 1766 e73d
000000a0: a4f6 fc3d 048e 29be ed6a e0bd 8a79 74be
000000b0: a319 613d 36c6 cbbc c242 33be be6c 453d
000000c0: 7cd1 323d c63b 1bbe 1df0 6ebe c685 ff3d
000000d0: 2216 3f3e 3d66 cf3d 06c6 013e c799 d93d
000000e0: cfac 3fbe 1d9d 66be 594c 13be 95fa 54be
000000f0: 5850 64be 01e0 d03d 904d 24be 8ac4 2d3e
-0.19690832 0.12467199 -0.18865317 0.05723593 0.118846685 -0.16394374 0.16750695 0.115033306
-0.21664749 0.12955308 0.0009428926 0.12961142 -0.1936107 0.16819158 -0.18644002 0.0917653
-0.16398332 -0.21280348 -0.25376353 -0.19346353 -0.20259453 0.051970884 0.11528068 0.06434055
0.0004681637 0.108255886 0.09884654 0.14229424 0.0925348 0.056278523 -0.12251526 0.13632974
-0.12576976 -0.13000427 0.0873323 -0.22551829 0.08390581 0.15089773 -0.23448558 0.11298769
0.123517305 -0.16558081 -0.109578945 -0.23874488 0.05495609 -0.024874788 -0.17505935 0.048199408
0.04365681 -0.1515952 -0.23333783 0.12476687 0.18660787 0.10126922 0.12673196 0.10625034
-0.18718265 -0.22520871 -0.14384593 -0.20798714 -0.22296274 0.10198975 -0.16045213 0.16969505
