output/4-agents_domain-CoinGame-4_MATE-TD-T2_2022-08-08-21-19-57/actor_net_2.pth (torch, 45463 bytes, 6 tensors)

fc_net.0.weight f4 [64, 100]
000000 40 13 c8 3d 8e b1 75 3d f6 a2 42 be 33 06 0a 3c
       0.09769297 0.059983782 -0.19007477 0.00842433
000010 25 00 ee bd 26 d9 d0 3d 8a 02 e2 3d 78 66 e0 bd
       -0.11621121 0.10197668 0.110356405 -0.10957044
000020 23 ff 62 be 96 16 3a be 8b d2 89 3e ea a0 05 3e
       -0.2216764 -0.18172678 0.26918444 0.13049665
000030 06 5c f2 bd 41 03 ea bd 98 8f 82 be 78 80 8a 3e
       -0.11833958 -0.11426402 -0.25500178 0.2705114
000040 7b 19 d1 3d 63 4f a6 3d 43 65 04 be 64 4b 84 be
       0.10209938 0.081206106 -0.12929253 -0.25838768
000050 c0 c4 0f 3e 7a 70 41 3e be 41 95 3d dc 6d 49 3d
       0.14039898 0.18890563 0.0728793 0.049177036
000060 f5 99 ea bc b4 b1 07 bc 06 2f a0 bd eb ca 49 bd
       -0.028637866 -0.008282114 -0.07821469 -0.049265783
000070 99 04 8f bd e5 30 46 bd be 73 ce 3c 74 39 c2 bd
       -0.06983299 -0.048386473 0.025201675 -0.094836146
000080 4e 66 04 3e 99 6d ad 3c 84 1a 5e 3d 30 e8 1b bd
       0.12929651 0.021170424 0.054224506 -0.038063228
000090 74 3d 1c 3d bc eb 44 bd 33 51 9d bb 80 a3 b9 3d
       0.038144544 -0.048076376 -0.0048009395 0.09064388
0000a0 c0 ee 9c 3b cb a7 c2 ba 6c 63 86 bd f4 cb 6e 3d
       0.0047892034 -0.0014851032 -0.06561932 0.058299974
0000b0 06 bd 80 3d ad bc e7 bd 7d c5 bb 3d 6e 0c c0 bc
       0.06286053 -0.11315284 0.09168527 -0.023443427
0000c0 bf 4f e4 3c 15 64 be bd 71 79 10 be 5e dc 83 bd
       0.027870057 -0.09296433 -0.14108826 -0.06438516
0000d0 fd fa 33 3e 56 a9 85 3e af 57 29 3e 3a ce 59 be
       0.17576213 0.26105756 0.16537355 -0.21270075
0000e0 87 23 02 be 8b 19 7e 3d 68 63 63 3e 1c a4 73 3e
       -0.12708865 0.06203608 0.22205889 0.23793072
0000f0 7e d5 9f be ff 33 70 be 6a 7e 83 3d 02 1c a4 3d
       -0.3121757 -0.23457335 0.06420596 0.080131546
000100 a4 a2 8b 3e cd 50 ec be 36 46 85 be 5b 48 18 be
       0.27272522 -0.46155396 -0.2603013 -0.14871351
000110 e0 ad 66 3e 80 77 97 3e ab f0 c0 be 6f 13 af be
       0.22527266 0.2958336 -0.37683615 -0.34194514
000120 90 a1 e7 bb 69 b7 94 3d 69 e5 2c 3d 89 e3 97 3d
       -0.0070688203 0.07261545 0.04221097 0.07416446
000130 79 eb d7 bc 76 c0 d3 3d 15 38 d9 3d c0 06 52 bd
       -0.0263574 0.103394434 0.106064 -0.05127597
000140 d8 5c fe bc a7 85 8a bc 4a cf b0 3d 3d bb 76 bd
       -0.03105013 -0.016909434 0.08633287 -0.060237158
000150 8f 2a f5 3d ac 5b b7 bd 84 01 c4 bd f8 53 9e bd
       0.11971008 -0.08953032 -0.095706016 -0.077308595
000160 dd b9 47 bc 0d fb 9f 3d b6 45 40 bd e8 b7 c7 3d
       -0.012190309 0.07811556 -0.04694148 0.09751874
000170 f5 22 17 3e e8 e3 db 3d 6e 3c 1c 3c 2f da 1d bc
       0.14759429 0.10736829 0.009535892 -0.009634539
000180 12 70 d5 bd f3 d6 04 3e e7 73 a4 bd 3f 8e 19 bc
       -0.10421766 0.12972622 -0.08029919 -0.009372293
000190 71 a1 b1 bb e0 7e 20 3d ff 40 fb bb 4e 8e 09 3e
       -0.0054208566 0.039183497 -0.0076676602 0.13433191
0001a0 93 0b 3c 3e 56 4d ef bd e3 d8 49 bc 83 1c 43 3e
       0.1836379 -0.116846725 -0.012319776 0.19053845
0001b0 57 79 31 3e 49 fe bf 3d 17 cd 55 be 53 d1 4c 3b
       0.17331444 0.09374673 -0.20879017 0.0031252697
0001c0 c7 a6 a4 3d 18 3e 17 3e 50 9e ed 3d a9 40 89 be
       0.08039623 0.1476978 0.11602461 -0.26807144
0001d0 f4 54 6f bd 55 dc c5 bd 64 0d 87 3d fe 1d 5e 3d
       -0.058430627 -0.096611656 0.06594351 0.05422782
0001e0 09 9c de bd 12 6d 6b bd 67 5c 3f bd 04 37 52 39
       -0.10869605 -0.057477064 -0.04671898 0.00020047656
0001f0 f6 91 da bd 1f bb b5 bc 1f af b4 3d bd 0d 79 3c
       -0.10672371 -0.022183953 0.08822464 0.015201029
000200 de 72 c8 3c 2c 89 08 3d 0c 3e 56 3d 2a ff bd 39
       0.024468835 0.033333942 0.052305266 0.00036239
000210 67 d6 62 bd f6 50 21 3d 49 fe 0e bd 89 a2 a7 3c
       -0.05538025 0.03938385 -0.034910474 0.020463245
000220 49 36 15 3d 46 12 82 bd 96 30 ba bd 8e 93 d9 bc
       0.036428723 -0.06351142 -0.09091298 -0.026559617
000230 6b 24 b9 bd bd f1 bb bc 0c c0 f2 bc df 98 30 bc
       -0.09040149 -0.022942418 -0.02963259 -0.010778635
000240 fe 6b af bd b2 0d 51 3c f0 95 4a bc ed 83 fb 3c
       -0.0856552 0.012759613 -0.012364849 0.030702556
000250 9f 3d d9 bb 5e 02 0c be fa e8 83 bc 4b b9 2c 3b
       -0.0066296603 -0.13672778 -0.016102303 0.002635556
000260 57 74 10 be 42 49 91 be 57 23 1b be 1d dd 3b 3e
       -0.1410688 -0.28376204 -0.151502 0.18346067
000270 bf ad da 3d a3 59 ea bd 61 be be bd fa a3 20 be
       0.10677671 -0.11442878 -0.09313656 -0.15687552
000280 0a 3b ee 3d 90 8d e5 bb d4 06 fd bb 6f ee 40 be
       0.116323546 -0.007005401 -0.0077217612 -0.18840955
000290 90 ed cd bd 7b 86 79 3e fb 63 35 3e 2a 21 3e bc
       -0.10055077 0.24367706 0.17713921 -0.011604587
0002a0 a1 4d b4 bc 13 bd 94 bd bc 22 d4 3d f2 53 96 3d
       -0.022009673 -0.072626255 0.103581876 0.0734023
0002b0 08 df 39 3d 46 b8 34 3c 32 a1 94 bd 29 c6 fc 3b
       0.045378715 0.011030262 -0.07257308 0.007714052
0002c0 86 df 36 3d 99 75 c7 bd 25 2d 8a bb a9 76 09 3e
       0.044646762 -0.09739227 -0.0042168074 0.13424172
0002d0 12 d3 cc bd 09 4a 83 3c 06 bf 93 bd f0 8a 8a 3d
       -0.10001196 0.016026514 -0.07214169 0.067647815
0002e0 3f 52 c0 bd df ab f6 bc 47 2a be bd f3 73 72 3d
       -0.09390687 -0.030111251 -0.092854075 0.05919261
0002f0 6e dd e4 bc 30 66 89 3d b2 22 50 bc 01 c0 49 3d
       -0.027937617 0.06708944 -0.0127035845 0.049255375
000300 81 df d8 bc da 38 4b bd a7 36 9d 3d 93 bc 34 3c
       -0.026473762 -0.049614765 0.0767644 0.011031288
000310 c6 28 59 3e 87 e8 13 be 33 d6 4e bd 42 1d fb bc
       0.2120696 -0.14444171 -0.050497245 -0.0306536
000320 6d 91 df bc 6d 9f 84 be 4f 41 87 be 85 f8 82 be
       -0.027291024 -0.25902882 -0.26417014 -0.2558023
000330 90 d5 46 be 66 c4 b5 3d 3c 4b 98 bd 24 7b 3d be
       -0.19417405 0.08875351 -0.07436225 -0.18504006
000340 d8 c8 7c be 7f fb 3a bd 60 3f 3d 3e 75 69 21 3e
       -0.24685991 -0.04565 0.18481207 0.15762885
000350 45 3d 76 bd 73 c5 38 bd 66 07 c0 bd 21 68 bc 3e
       -0.060117025 -0.045110177 -0.09376411 0.36798194
000360 0e dc 76 3e a8 c6 07 3e 71 07 f9 bc ea 27 29 be
       0.24107382 0.13259375 -0.030399056 -0.16519132
000370 23 b0 69 3e fe 85 37 3e e3 2b 58 3d 6f 1c 0e 3e
       0.22821097 0.17922208 0.05277623 0.13878034
000380 75 00 bd 3d 63 48 f3 3b eb d7 d9 bd 6d e3 54 3c
       0.09228603 0.0074244007 -0.10636886 0.012993676
000390 e7 27 5f bd 2a 4a bd bd 60 3b 08 3d 95 6f 3c 3d
       -0.054481413 -0.09242661 0.03325975 0.04600485
0003a0 3b 31 a7 3c d6 cc 17 3d 6d 2d 40 3c 38 40 90 3c
       0.020409217 0.03706058 0.01172958 0.017608747
0003b0 7b b4 d7 bd 22 75 02 bd 68 1b 96 bd 83 bc c9 3d
       -0.10532471 -0.031849988 -0.07329446 0.09850409
0003c0 ea e3 0d bc ff 9b cd bc cc 29 71 3d 28 e0 22 bc
       -0.008660296 -0.025098799 0.05887775 -0.009941138
0003d0 f3 59 6d 3d 1e ad 11 3d da bd 6c 3c 78 17 55 bd
       0.05794711 0.035565488 0.014449561 -0.052024335
0003e0 9c 16 fe 3b c1 09 e2 3d dd af 93 3c b9 a9 f3 3d
       0.00775416 0.11037017 0.018028194 0.118976064
0003f0 7c 75 bd 3e d8 96 95 3e 10 eb c3 3e e9 a1 d2 bd
       0.37003696 0.29216647 0.38265276 -0.10284788

fc_net.0.bias f4 [64]
000000 62 8e d1 3d a8 65 71 bd a3 90 d2 3d 5c fd dc 3c
       0.102322355 -0.058934838 0.102814935 0.02697628
000010 4b 24 ca bb e1 4f 7c bd 7a c3 f8 3c a9 9d a8 3c
       -0.0061688772 -0.061599616 0.030366648 0.02058299
000020 37 05 a0 bc 2c 97 9c 3d da 40 7a bd 68 e6 84 3c
       -0.019533737 0.07646021 -0.061097004 0.016223148
000030 1d 48 81 3a fe 35 51 3d f1 68 93 3d 47 42 ea 3c
       0.000986341 0.05107688 0.0719775 0.028596057
000040 c1 55 8b 3d 93 07 c8 3d 9f eb 1a bd 79 45 e3 3c
       0.06803466 0.0976707 -0.037822362 0.027743088
000050 5d 9c b4 3c 89 ec ac 3d 13 53 5e bd 5d 65 07 bd
       0.022047216 0.08443553 -0.054278444 -0.033055652
000060 28 79 b2 bc b0 c6 42 3d 01 99 4e 3c 12 81 d6 3c
       -0.021786287 0.047552764 0.012609721 0.026184592
000070 f1 85 a3 bd e7 0d 3e 3d 28 75 22 3d 77 02 e1 3c
       -0.07984532 0.046399977 0.03966251 0.027466996
000080 2a 2e 87 3d d5 25 19 3c cf 25 e6 3d e2 06 45 bd
       0.06600602 0.009347399 0.1123768 -0.048102267
000090 fc 0d 09 3e b5 88 56 3d 87 ee 99 3c 47 5b 0b 3d
       0.13384241 0.052376468 0.018790497 0.034022596
0000a0 e6 89 e6 bb 92 58 52 3d db 55 3d bc 6e dc 74 3c
       -0.0070354817 0.051354 -0.011556114 0.014945133
0000b0 61 4b 47 3d d4 40 42 3d 84 7e 5e 3c 76 e6 7f bd
       0.04865587 0.047425106 0.013579968 -0.062475644
0000c0 69 ba 75 bc e0 b7 93 3d 3e 36 88 3d 13 97 8b 3d
       -0.014998057 0.07212806 0.06650971 0.068159245
0000d0 16 3b c9 3c 1b 9e f8 3d c7 81 c8 3d 10 78 34 bd
       0.024564307 0.12139531 0.09790378 -0.044059813
0000e0 1e 5b 9c 3c 23 1a 42 3d c4 4c 9f 3d ec dc d9 bc
       0.019086417 0.047388207 0.07778314 -0.026594602
0000f0 a4 79 dd 3c 54 0b 33 bd cf de 02 bd 71 95 c0 3d
       0.027035542 -0.043711975 -0.031950768 0.09403504

fc_net.2.weight f4 [64, 64]
000000 3e 17 0f 3e ef 80 72 bd d5 dc 20 3e 6a ac 74 bc
       0.1397371 -0.059204992 0.1570924 -0.014933685
000010 dd 6d 46 3e f4 ed bc 3e 7f da 05 3e d7 29 93 3e
       0.19377847 0.36900294 0.13071631 0.2874286
000020 ea 24 92 bd cd 00 6c 3e bf 35 3a 3d 48 eb 23 bd
       -0.07135947 0.2304718 0.045461413 -0.040019304
000030 0b d3 a9 3c 17 3c 50 3e ba c4 bc 3d 85 33 b6 3d
       0.020730516 0.20335422 0.0921721 0.08896545
000040 52 e5 58 bc 78 e1 d7 3d 0a 1e 8f 3d e5 0a 32 be
       -0.013238268 0.105410516 0.06988151 -0.17386968
000050 45 62 47 3e 0a a0 b1 bd 59 72 80 3e d6 22 97 bd
       0.1947108 -0.08673103 0.2508724 -0.07379691
000060 df 69 53 3e 4b 9f cc 3d 12 c3 91 3a 2f 92 16 be
       0.20645855 0.0999132 0.0011120758 -0.14704202
000070 e4 17 20 3e ea 80 6d be 41 04 2d 3e 6c cb 14 bd
       0.15634114 -0.23193708 0.16896154 -0.03632681
000080 f8 49 3f bd 42 ca a2 be 2a 98 40 3e 99 3c cd bd
       -0.0467014 -0.31794935 0.18808046 -0.10021324
000090 a6 61 c9 3d 68 4f 33 bd 51 cc 73 3e c5 64 ba be
       0.09833078 -0.0437769 0.2380841 -0.36405006
0000a0 fc c1 67 3e c1 3d b5 3d a9 7e a6 bc dd 20 fc bd
       0.22632593 0.08849669 -0.020324068 -0.12310956
0000b0 7c b1 35 be 5c ce a7 3e 14 4a ae be ba ed 24 3e
       -0.17743486 0.32774627 -0.34040892 0.1610631
0000c0 5b 42 a4 be ed 5b 35 be 45 86 65 3c e6 62 75 be
       -0.32081875 -0.17710848 0.014009063 -0.23963508
0000d0 a6 69 9f 3c 91 2b 91 3e 34 9b 3f be ea 59 00 be
       0.019459557 0.2835355 -0.18711549 -0.125343
0000e0 e2 09 0e be a3 0c b7 be 00 b6 85 be 26 0b b8 bb
       -0.13870957 -0.3575183 -0.26115417 -0.0056165634
0000f0 1c 3e 53 3d 1d 50 8a 3e 50 6a 56 3d 67 4f 26 3c
       0.051572904 0.27014247 0.05234748 0.010150767
000100 61 76 3f 3e b3 7e f9 bd f6 2e 9b 3e e6 a5 a2 bd
       0.18697502 -0.12182369 0.30309266 -0.07941799
000110 ea cb 3e 3e c3 28 a0 3e 9d 1a 01 bc ba 31 50 3e
       0.18632475 0.312811 -0.00787988 0.20331469
000120 32 d0 7c bd 1d 19 00 3e b3 a2 58 3d 00 c3 10 be
       -0.061721988 0.1250958 0.052889537 -0.14136887
000130 00 d0 34 bd 1e e8 63 3e fa f0 b8 3d fe 8a a3 3d
       -0.044143677 0.22256514 0.09030338 0.07985495
000140 4b ad c0 bb 04 2d ae 3e 2a 0a 7e bd 3c 10 c0 bd
       -0.005880033 0.3401872 -0.062021412 -0.093780965
000150 9e b4 3c 3d 39 6c 9b bd 49 99 14 3e 74 cb aa 3d
       0.046070687 -0.07589001 0.14511599 0.08339587
000160 ee 9f 63 3d 1d 06 28 bd 77 40 92 3d ae ee 70 3d
       0.055572443 -0.041021455 0.07141202 0.058821373
000170 a9 98 9d 3e 10 1b 5a be 36 9e 6f 3e b2 b1 84 bc
       0.30780533 -0.21299386 0.23400196 -0.016198013
000180 b6 6c 6c 3d 65 9e 83 be 7e a1 87 3e 58 f5 fa bd
       0.057720862 -0.25706783 0.26490396 -0.12253827
000190 bb d0 9d bc c4 db 1b 3e 29 e8 5d 3e 72 24 1c be
       -0.01926457 0.15220553 0.21670593 -0.15248278
0001a0 f6 8b b9 3e 9e 6f 7f 3e 59 da 89 bd bb 4b 1a 3d
       0.36239594 0.24944922 -0.067311 0.03766988
0001b0 54 7e 33 be 1a 62 9d 3e 3d 6d a0 be ac 58 80 3c
       -0.17528659 0.30738908 -0.31333342 0.015667282
0001c0 7c 05 97 be ba cd 83 bd 51 7e 6f 3a 07 cc 5f be
       -0.29496372 -0.064357236 0.0009135949 -0.21855174
0001d0 3c 18 e9 bd 62 4c a6 3e e8 4b 7b bd d3 d9 40 be
       -0.113815755 0.3248015 -0.061351687 -0.18833093
0001e0 2a f4 a3 bd 6e fb 95 be a5 dc 8a be c4 3e ae bc
       -0.08005555 -0.29293388 -0.27121463 -0.021270163
0001f0 8b cd b7 3d 86 66 73 3e b4 2a 8f bd f9 ca 1f 3e
       0.08974751 0.23769578 -0.06990567 0.15604772
000200 04 cd 33 bb 71 4c e6 3d de 31 5f 3d 91 03 45 3d
       -0.0027435431 0.11245049 0.054490916 0.048099104
000210 a6 60 c0 3d 20 64 2e 3e 18 68 2a bd 64 65 f6 3c
       0.09393434 0.17030382 -0.041603178 0.030077644
000220 1c 69 04 3e 62 25 46 3d 3a 6f 04 bd a6 6f 54 bd
       0.12930721 0.048375495 -0.032332636 -0.05186429
000230 12 f5 af 3d e8 37 1b 3a 1f 9f 37 bd a9 7f f5 3d
       0.08591665 0.00059211114 -0.044829484 0.1198724
000240 38 36 c5 bd 4a 93 4b 3e 4f 04 8d bc 98 6d d5 bc
       -0.09629482 0.19880405 -0.017213969 -0.026053235
000250 a3 c3 c5 bd ba 79 06 3d e5 ba e9 3d 74 e8 21 3d
       -0.09656455 0.03283093 0.114126004 0.039528325
000260 77 c5 83 3c ce c7 07 3e fe 4b 0f 3e 84 83 38 3d
       0.01608537 0.13259813 0.13993832 0.045047298
000270 59 ed 31 bd 6c 4b 72 be a5 72 90 3e 52 4e 72 3d
       -0.043439243 -0.23661584 0.28212467 0.059156723
000280 05 9a a1 bd 0f 04 31 be c9 6c 4f 3e 84 35 8a 3d
       -0.07890705 -0.17286704 0.20256342 0.067484885
000290 8a 01 72 bc 62 8a d3 3d 3a 82 84 3d 7f d9 8a bd
       -0.014770875 0.10329129 0.06470151 -0.06779765
0002a0 64 55 0a 3e 2d 76 88 3d 98 55 d5 3d 73 fd 1c 3c
       0.13509136 0.06663165 0.10416716 0.009581911
0002b0 7e eb 05 bd 61 d0 1f bc d9 bc 25 be 43 6c 87 3d
       -0.032695286 -0.009754271 -0.16185321 0.06612446
0002c0 f1 ce a4 bd ff 71 42 bb 20 22 36 bc 77 25 bd bd
       -0.080472834 -0.0029669998 -0.0111165345 -0.092356615
0002d0 5a dd 69 bb 5c be 95 3c 4c 70 c8 3d ae 10 29 bd
       -0.0035684914 0.018279247 0.09787044 -0.041275673
0002e0 dd b2 1e be 5a f9 63 be c2 7e be bc 99 9e 8f bd
       -0.15497918 -0.22263089 -0.023253802 -0.07012672
0002f0 4e 99 84 3d 3f 03 ff 3c b7 aa 98 bc 00 e1 a0 3d
       0.06474553 0.031129478 -0.01863609 0.07855415
000300 e0 23 aa 3c 21 e7 ed bd d0 42 2c 3e 90 5a 47 3d
       0.02076906 -0.1161635 0.16822362 0.04867035
000310 cd e3 a8 3d 1f 1f ca 3d 30 1d a6 bd be 25 e2 3b
       0.082465746 0.09869217 -0.08111036 0.006901472
000320 7d d0 8b bd f0 f2 46 3e 3c b8 3f 3d e5 51 80 bd
       -0.06826875 0.19428611 0.04680656 -0.0626562
000330 a2 59 7b bb 7d 6a 0f 3d ac fa 32 3e 7f 41 b7 3d
       -0.0038352986 0.035013665 0.17478436 0.08948039
000340 cc f7 c8 bc 75 33 22 bd a4 b4 a6 3d 6a 36 ef bd
       -0.024532221 -0.039599854 0.08139923 -0.116803005
000350 ba 11 06 3e ae 27 14 be 1b f9 d9 3d 8a 2b 8f 3d
       0.130927 -0.14468262 0.10643216 0.06990726
000360 1c 9d 06 3e 0d 3b 00 bd 2a 71 bd 3c 51 c4 fb bd
       0.1314587 -0.031306315 0.02312525 -0.12293304
000370 07 cb 32 bd 18 31 ac 3c d3 77 1d 3d 05 78 11 be
       -0.043650653 0.021019503 0.03844435 -0.1420594
000380 4c f2 b0 bd 25 fa d5 bd 6a e1 dd bd b1 85 30 bd
       -0.086399645 -0.10448102 -0.1083401 -0.043096248
000390 ad 7e 49 3d 6c d2 6d bd e4 36 34 3e 87 28 82 bd
       0.049193073 -0.058062002 0.17599064 -0.06355386
0003a0 85 e4 ba 3c 4c 2b cf 3c 67 5c 02 3d 36 98 0b be
       0.022814045 0.0252892 0.031826403 -0.13632283
0003b0 94 c7 d2 bd 54 34 8f bd a3 a1 14 be 5c 80 03 3d
       -0.10291973 -0.06992403 -0.14514785 0.032104835
0003c0 ea e9 d2 bc cc 44 6b bd 3a 3a 28 bd c5 ad f1 bd
       -0.025746305 -0.057438657 -0.041071154 -0.11800722
0003d0 93 fc f8 bc a2 a1 29 3e 15 c0 72 3d 16 61 03 be
       -0.030393874 0.16565564 0.059265215 -0.12830004
0003e0 34 0c 56 3c df 72 9d bc 6e d9 fb 3c 95 c6 93 3d
       0.013064433 -0.019219814 0.030743327 0.07215611
0003f0 55 54 b2 bd b4 be 19 3d a9 41 61 3d f2 fd 10 3c
       -0.08707491 0.037535384 0.05499426 0.008849608

fc_net.2.bias f4 [64]
000000 65 69 09 3e 10 15 2d bc 21 68 5f bd 26 e5 a3 3d
       0.13419111 -0.010564104 -0.054542664 0.08002691
000010 07 47 61 bd fa b6 cf bc d5 65 eb bc f5 52 49 3c
       -0.054999378 -0.025355805 -0.02873508 0.012287845
000020 da 80 70 3c a8 e4 0f 3e 1e 50 32 3e b3 f0 3c bd
       0.014679158 0.14052069 0.17413375 -0.046127986
000030 3f df 26 bc 20 74 d5 bc 12 64 0c 3e 25 e3 03 3e
       -0.010185062 -0.02605635 0.13710049 0.12879618
000040 0b 39 89 3d a5 6a f0 bd 48 e2 05 bd 18 2b a1 bb
       0.06700333 -0.11739091 -0.0326865 -0.0049184673
000050 99 25 1a 3e 22 5b 0e 3e 07 f7 b4 ba 0b b6 6f bd
       0.15053405 0.13901952 -0.001380653 -0.05852322
000060 47 d1 cc bc c8 00 60 bc 88 9d cb bc f1 73 81 bd
       -0.025002135 -0.013672061 -0.02485539 -0.06320942
000070 dd 5a d7 3d 98 81 80 3d d9 64 ac 3d 37 16 29 3b
       0.10515378 0.06274718 0.08417673 0.0025800595
000080 35 3e 1a 3d 88 6b 86 bd 30 43 da 3d 26 45 11 3e
       0.03765698 -0.06563479 0.10657346 0.14186534
000090 ee 10 cf 3d 70 c4 1f 3e 2b 19 df 3c 7c 05 a7 3c
       0.10110651 0.15602279 0.02723368 0.020388357
0000a0 9a 5f 54 bd 24 6d 15 3c c9 de 33 3d d9 cc 9e 3d
       -0.051848985 0.009120259 0.043913636 0.07753915
0000b0 97 a3 e7 3c a1 97 5f 3d 83 b3 f1 3c 61 b9 a8 3d
       0.028276248 0.054587964 0.029504543 0.08238483
0000c0 f2 73 20 bd 86 42 e9 bd 36 30 e9 3d 98 d3 0b 3e
       -0.039173074 -0.113896415 0.11386149 0.13654935
0000d0 c7 39 a9 bd d4 fd 32 3d 50 73 f8 3d 95 14 78 bc
       -0.08262973 0.0436991 0.12131369 -0.015141626
0000e0 38 cf b7 3d 58 35 19 3d b9 50 59 bd fe 05 23 3d
       0.08975071 0.03740439 -0.0530555 0.039800636
0000f0 2c c7 73 3d 39 d6 ad 3c 92 80 c4 bc 4a 3a c3 bc
       0.059516117 0.021220313 -0.023987088 -0.023831505

action_head.weight f4 [4, 64]
000000 7b f4 93 3e 4d 83 1c 3e 3b 7a 98 bd 2b 58 9a 3d
       0.2889746 0.15284462 -0.074451886 0.07536348
000010 ae 9f af 3e 1c e2 c4 3e 43 7d 86 3e 89 49 84 bd
       0.34301513 0.38453758 0.26267442 -0.06459338
000020 d4 4c 5b 3e 2c ec 54 be 5e ce 5c 3e 2e 3a bd 3e
       0.21416026 -0.20793217 0.21563098 0.3695845
000030 8c 32 90 bd fc 31 cd bc 33 0c 3c bd a2 57 1a 3e
       -0.07040891 -0.025048248 -0.04591007 0.15072492
000040 74 9b 8c be a8 b8 ff 3b 63 23 1c 3d 25 af c6 be
       -0.2746235 0.007803995 0.038119685 -0.388055
000050 36 22 c0 be 98 d1 4a 3e 47 21 4b be 48 a1 a2 be
       -0.375261 0.19806516 -0.19836913 -0.31763673
000060 c9 31 af bd f7 c6 c4 be c2 b0 06 3e 6a 15 51 bd
       -0.08554418 -0.38433048 0.13153365 -0.051045813
000070 3b 3e eb bb 5d 10 c4 3d 5a ab f4 3d e6 d1 a4 be
       -0.0071790493 0.095734335 0.11946745 -0.3219139
000080 88 8b 76 3e 44 85 e1 bd 18 17 b2 3d 4c cb bc be
       0.24076664 -0.110117465 0.08695811 -0.36873853
000090 73 f6 a3 3e 82 23 ad be 79 c6 ab bd 79 00 a9 3e
       0.32023963 -0.33816153 -0.08387465 0.33008173
0000a0 0d 3c a7 be 54 d0 72 be 38 6e 98 3e ac 53 b5 be
       -0.32663003 -0.23712283 0.2977159 -0.354154
0000b0 dc 63 98 bd ff b4 49 3e 12 1f 65 be 24 62 50 3e
       -0.07440922 0.19697951 -0.22375134 0.20349938
0000c0 7a 4f 4b 3e 67 8f 86 be f1 08 50 be 19 01 64 3e
       0.19854537 -0.26281282 -0.20315911 0.22266044
0000d0 03 e5 81 be 74 6f 53 be 0c 1e ba bc a8 e4 aa be
       -0.25370035 -0.20647985 -0.022719406 -0.33377576
0000e0 55 a6 bb 3e 7b 49 d1 3e d7 58 bc 3e d8 00 21 3e
       0.3665034 0.40876374 0.3678653 0.15722978
0000f0 2c c5 54 3e 89 83 93 3e 55 6f 6f be 64 58 d2 be
       0.2077834 0.2881129 -0.23382314 -0.41083062
000100 d2 6f 84 be 40 07 93 be c4 1c c9 bd fd 10 01 be
       -0.25866562 -0.2871647 -0.0981994 -0.12604137
000110 18 d9 68 be 2e f4 33 be ac 4d 5e be ff d6 65 3e
       -0.22739065 -0.17573616 -0.21709317 0.22445296
000120 8e 3f f8 bd 2f cc b1 bd 7f 0b 67 be 44 dd 98 be
       -0.12121497 -0.08681523 -0.22562979 -0.29856312
000130 4c d3 eb bd 7a 21 7b bd 3b 83 fa bd 25 ec 91 be
       -0.11514911 -0.061311223 -0.122320615 -0.28500476
000140 53 e1 c0 3c 63 24 d7 3d 00 cc 14 be 08 ad 9a 3e
       0.023544943 0.10504987 -0.14530945 0.30210137
000150 2b 19 7e 3e c7 17 86 be 3e 40 94 3e 06 84 8e 3e
       0.24814288 -0.26190016 0.28955263 0.278351
000160 ec 49 d2 3d 51 12 78 3e 7c ed 6e be e0 dc 7a 3c
       0.10268006 0.24225737 -0.2333278 0.01531145
000170 a8 43 75 be 2a 2b c1 bd 9e c3 95 bd 6a 21 83 3e
       -0.2395159 -0.09432061 -0.07312702 0.2561143
000180 e2 18 47 be 5a c3 6e bc 71 eb 49 bd 02 99 2f 3e
       -0.19443086 -0.014572943 -0.0492968 0.17148212
000190 6c 78 92 be 7f 08 eb 3d cb 50 61 3e 9c 33 b1 be
       -0.286075 0.1147623 0.22003476 -0.34609687
0001a0 ac fc b3 3e 19 d4 09 3e 7f e8 07 be 9e 3b 3a 3e
       0.3515371 0.13459815 -0.13272284 0.18186805
0001b0 99 90 10 bd 24 9f 37 3c 62 07 63 3c c7 c1 5d be
       -0.03529415 0.011207376 0.013856741 -0.21655951
0001c0 0b 47 3f be 19 2f 54 3e 78 bc dc 3d df 14 a4 be
       -0.18679444 0.20721091 0.10778135 -0.32047173
0001d0 30 d3 1b 3e 70 0f 01 3e e4 d0 02 be 2f 41 bb 3e
       0.1521728 0.12603545 -0.12774998 0.3657317
0001e0 ab 17 c1 be db 97 9a be 2f cd 99 be 44 3f 4b be
       -0.3771337 -0.30193982 -0.30039355 -0.19848353
0001f0 fc e7 50 be de 10 a3 be 40 bf a3 3e 9d 7b 90 3e
       -0.20400995 -0.31848806 0.3198185 0.2821931
000200 69 56 c5 3e 4d 24 be 3e 65 5a 24 3e bf f4 c5 3d
       0.38542488 0.3713707 0.16050108 0.09665822
000210 a8 c4 7d 3e 4b 37 16 be 5c 4f 31 3e 89 49 a7 be
       0.2478205 -0.1466953 0.1731543 -0.3267329
000220 18 ed 71 3e 76 7e 98 be 27 9e a7 be 55 94 82 be
       0.236256 -0.29783982 -0.32737848 -0.25503793
000230 65 ae d8 3e 30 4c 1c 3e aa 5a 9a be 97 5a fe bd
       0.42320552 0.15263438 -0.30147296 -0.124196224
000240 93 bb 32 3e 67 08 8f 3e c6 c5 cb 3e 6a af 12 3e
       0.17454366 0.27936098 0.39799327 0.14324728
000250 81 61 4a be ce 2d a5 be 66 fa 9b 3e f8 f6 61 be
       -0.19763757 -0.3226151 0.30464476 -0.22066867
000260 c6 aa d8 3e dc 07 58 3e 97 70 5d 3e 78 3e fb bd
       0.4231779 0.21096748 0.21624981 -0.12267774
000270 bf 06 1d be 4b 56 34 3e e7 8c bb be cf d9 53 be
       -0.15334605 0.17611043 -0.36630937 -0.20688556
000280 bf c4 d9 3c 20 98 42 3e 8a 9f 9a 3e 8e 4d 4d be
       0.026583074 0.19003344 0.30199844 -0.20049116
000290 b3 9c 4b be dc 4f 91 be 99 36 bb be bd 84 88 bd
       -0.19883995 -0.2838124 -0.36565092 -0.06665943
0002a0 f5 41 21 bd 7a b0 9e 3e 44 8e 10 be 07 cc 0c 3e
       -0.039369542 0.30994016 -0.1411677 0.13749705
0002b0 60 39 aa be e6 73 2d be 85 55 ae be 3f d6 6f be
       -0.332469 -0.16938743 -0.3404962 -0.23421572
0002c0 f2 df 8b 3e 51 e6 da bc 42 97 ce 3e 60 27 a9 be
       0.27319294 -0.026721152 0.40349776 -0.33037853
0002d0 f7 39 1b 3e 43 60 86 3e c5 a7 84 3e 02 58 6e 3d
       0.1515883 0.26245317 0.25909248 0.0581894
0002e0 9e 55 9c 3e a7 75 2c bd c9 76 1c be 58 9a ae be
       0.3053407 -0.04210439 -0.15279688 -0.3410213
0002f0 a2 9b ae be 14 8e d9 bd 0f ca 2b bd e1 2e 41 bd
       -0.34103113 -0.106228024 -0.041940745 -0.047163848
000300 03 b9 db be 12 97 fa be d2 79 28 be fc df ac bc
       -0.4291459 -0.48943383 -0.16452721 -0.021102898
000310 a0 16 85 be fa 80 20 3e cb b1 97 be 78 99 c4 3e
       -0.25993824 0.156742 -0.29627833 0.38398337
000320 a0 b4 6c be 8d e1 2a 3e ee 52 89 3e 81 48 81 3d
       -0.23115778 0.16687603 0.26821083 0.06312657
000330 ed 74 e8 be bd 39 ae bd 94 ce 0a 3e e5 5b 81 3d
       -0.45401707 -0.085071065 0.13555366 0.063163556
000340 98 16 08 3e b8 c1 c3 be 5b 46 ce be 5b 23 83 bd
       0.13289869 -0.38233733 -0.40288052 -0.06403228
000350 22 aa 8c 3e 5b ba 68 3e ec f3 bc bd 40 92 5d 3e
       0.2747355 0.22727339 -0.09226212 0.21637821
000360 7c 3e 8f be 15 1d 60 be ee b7 38 be bc 8f 81 3e
       -0.2797736 -0.21886094 -0.18038914 0.25304973
000370 01 e4 cd 3d 87 2e 9e be c1 a0 6c 3e b5 66 48 3e
       0.10053254 -0.30894873 0.23108198 0.1957043
000380 77 8d d0 3d 34 cb 70 bd 4f bc 2c be 9d eb fe 3d
       0.10183232 -0.05878754 -0.16868709 0.124472834
000390 58 bd 05 3e 11 1f 57 3e c2 4f cb 3e 7d f5 d5 3d
       0.1306051 0.21007945 0.39709288 0.10447214
0003a0 6e bc 88 3d a0 3f c0 be 0a 83 42 3e 28 1a 81 be
       0.06676565 -0.37548542 0.189953 -0.25215268
0003b0 54 3a ab 3e af e0 cc 3d ae 3e 9e 3e 18 e7 2a 3e
       0.33442938 0.100037925 0.30907196 0.16689718
0003c0 1a 7b 93 be 94 6d 23 be 9f 9d d7 be 9d a6 20 3e
       -0.28804857 -0.1595977 -0.42112443 0.15688558
0003d0 9f d5 85 bd 15 7a 09 be 72 06 4b be 00 19 ee bc
       -0.065348856 -0.13425477 -0.19826677 -0.029064655
0003e0 54 9a ba be 80 21 07 3d a8 89 9f 3b 40 d3 2e 3e
       -0.36445868 0.032990932 0.004868705 0.17072773
0003f0 cc 7e 2f 3e 5d 62 16 3e 9a fa 00 3e f2 3e 1b 3e
       0.17138213 0.1468596 0.12595597 0.1516073

action_head.bias f4 [4]
000000 7d cf 8e 3d 21 48 05 be dd 3b ec 3d aa 2f 23 bd
       0.06973169 -0.13015796 0.115348555 -0.039840378
