output/4-agents_domain-CoinGame-4_MATE-TD-T2_2022-08-08-21-19-57/critic_net_1.pth (torch, 44695 bytes, 5 tensors)

fc_net.0.weight f4 [64, 100]
0	0xbdce866b	-0.10084232
1	0x3c8b0a02	0.016972546
2	0xbe0ca274	-0.13733846
3	0xbe22d9a9	-0.15903343
4	0xbde4b7d6	-0.111678764
5	0xbe1724e2	-0.14760163
6	0xbd2c04ae	-0.04199665
7	0xbdb4dd33	-0.08831253
8	0xbda8a31a	-0.08234234
9	0x3a395837	0.0007070335
10	0x3cc7ae4b	0.024375102
11	0xbe0b4373	-0.13599949
12	0xbcd5006d	-0.02600118
13	0xbd0a4b84	-0.033763424
14	0xbe1e33e3	-0.1544948
15	0xbdb5aa30	-0.08870351
16	0x3b2170d1	0.0024633894
17	0xbd97bcb9	-0.07409043
18	0xbddbf4d4	-0.10740057
19	0xbdf1b51f	-0.11802124
20	0x3c3afb94	0.01141252
21	0xbbdba2ce	-0.0067027574
22	0x3cf3d5b4	0.029764988
23	0xbd8d637c	-0.06903741
24	0xbc826b93	-0.015920436
25	0xbe2af231	-0.16693951
26	0xbcd8a098	-0.026443765
27	0xbe11c1e5	-0.14234121
28	0xbd837672	-0.06419076
29	0xbdce51c5	-0.1007419
30	0xbc899435	-0.016794303
31	0xbe21087c	-0.15725893
32	0xbd38197f	-0.04494619
33	0xbdff28aa	-0.12458928
34	0xbe89d5eb	-0.2692102
35	0xbb717042	-0.0036840593
36	0xbe1969c7	-0.14981757
37	0xbc889ed0	-0.01667729
38	0x3d1e1c7a	0.038601376
39	0xbdf1623d	-0.117863156
40	0xbde59089	-0.112092085
41	0x3c092801	0.008371354
42	0xbdde50b3	-0.10855236
43	0x3c57e356	0.01317676
44	0xbdc8652f	-0.09784924
45	0xbdf45bde	-0.11931585
46	0xbd48d150	-0.04902774
47	0xbdc79ae7	-0.09746342
48	0x3e0529bc	0.13004202
49	0xbdcb3e00	-0.09923935
50	0x3d6e3e09	0.05816463
51	0x3dd07119	0.10177822
52	0xbc979da5	-0.018507788
53	0x3e2e8601	0.17043306
54	0x3e1b2bda	0.15153447
55	0x3cf1ffbf	0.029540895
56	0x3e01770d	0.1264307
57	0x3e173ba7	0.1476885
58	0xbc6dce60	-0.014514536
59	0x3d4ed18d	0.050492812
60	0xbda08d78	-0.07839483
61	0xbe0648ac	-0.1311366
62	0xbc90f3d0	-0.017694384
63	0xbcbf53bf	-0.023355363
64	0xbca5d7f3	-0.020244574
65	0xbe0892a4	-0.13337189
66	0x3b03684e	0.0020051184
67	0x3cbe0b55	0.023198763
68	0x3d33e6f6	0.043921433
69	0x3d91ec79	0.07125182
70	0xbe3a12d9	-0.18171252
71	0xbdeeff5e	-0.11669801
72	0xbe2848b1	-0.1643398
73	0xbd4e7985	-0.05040886
74	0x3de52530	0.111887336
75	0xbddfc374	-0.109259516
76	0x3d194ef8	0.037428826
77	0xbe7a81ac	-0.24463528
78	0xbdba823c	-0.091068715
79	0x3d8d5f63	0.06902959
80	0xbd303ddd	-0.043027747
81	0xbd94cc4f	-0.07265531
82	0xbe4efb74	-0.20213109
83	0xbe57ad2c	-0.21062154
84	0x3cbd1a30	0.023083776
85	0xbdba1be3	-0.0908735
86	0xbe14bb1f	-0.14524506
87	0x3d6eb0bb	0.058274012
88	0xbe13ef75	-0.14446814
89	0xbdbe287a	-0.09285064
90	0xbe7337ee	-0.23751804
91	0xbe169039	-0.14703454
92	0xbdbeee0d	-0.09322748
93	0xbe6c0ecd	-0.23052521
94	0xbc3d0853	-0.011537629
95	0xbe1be1ac	-0.15222806
96	0xbe463ced	-0.19359179
97	0xbe0a40c5	-0.1350127
98	0xbe2b024f	-0.167001
99	0xbe41a729	-0.18911423
100	0xbe05244f	-0.13002132
101	0xbe0f6d80	-0.14006615
102	0xbbd291a7	-0.0064260545
103	0xbe409742	-0.188077
104	0xbd01f479	-0.031727288
105	0xbd085722	-0.03328622
106	0xbe017e6c	-0.12645882
107	0xbacb01b6	-0.0015488181
108	0xbd9d8d0f	-0.076929204
109	0xbd93e55e	-0.07221483
110	0xbd135c6a	-0.035976805
111	0xbe0fd4b7	-0.14045988
112	0xbd7bdf2d	-0.061492134
113	0xbd30a583	-0.043126594
114	0xbe0bbb8a	-0.13645759
115	0x3da0beaf	0.0784887
116	0xbe50e006	-0.20397958
117	0xbde7da79	-0.11320967
118	0xbd4ab8b1	-0.04949254
119	0xbdfc1509	-0.123087
120	0xbdb64cd0	-0.089013696
121	0xbd3665b4	-0.044530585
122	0xbe3eb818	-0.18624914
123	0xbd3779c7	-0.04479387
124	0x3c948ca4	0.018133469
125	0xbe0d6cb5	-0.13811
126	0xbd75b250	-0.059984505
127	0xbe342a66	-0.17594299
128	0xbe34b229	-0.17646088
129	0xbe20b259	-0.15693034
130	0x3d6768bc	0.056496367
131	0xbb7edbdf	-0.0038888378
132	0xbe4ac362	-0.19801095
133	0xbdfa7996	-0.12230222
134	0xbe491d13	-0.19639997
135	0xbda83c15	-0.08214585
136	0xbc6aa46b	-0.014321427
137	0xbdef6a9f	-0.11690258
138	0x3d37c1d6	0.04486259
139	0xbe15cc7d	-0.14628787
140	0xbe06cd6a	-0.13164297
141	0xbe1e9b50	-0.15488935
142	0xbd3d63c5	-0.046237726
143	0xbe3e1450	-0.18562436
144	0xbd9ec7a4	-0.07752922
145	0xbdfb4cc9	-0.12270505
146	0xbe364c50	-0.17802548
147	0xbc9efd24	-0.019407816
148	0xbd07a38e	-0.033114962
149	0xbdbd57c9	-0.09245259
150	0x3c4470cd	0.011989784
151	0xbc8b5659	-0.017008947
152	0x3dc228ec	0.094804615
153	0x3e37801c	0.17919964
154	0x3e05c91e	0.13065001
155	0xbdb954a8	-0.0904935
156	0x3e1215e0	0.14266157
157	0xbd17cdea	-0.03706161
158	0xba1c5ff0	-0.00059652235
159	0x3e34d7b7	0.17660414
160	0xbe10af08	-0.14129269
161	0xbdb7b776	-0.08970539
162	0xbe0ab520	-0.13545656
163	0x3d9d97f8	0.07695001
164	0x3d8ae2ab	0.06781515
165	0xbda1d5c4	-0.07902101
166	0xbe0f7674	-0.1401003
167	0x3ca83877	0.020534737
168	0x3dff0719	0.12452526
169	0x3e4e29e3	0.20133166
170	0xbe1448fa	-0.14480963
171	0xbc888f5b	-0.01666992
172	0xbd97a950	-0.07405341
173	0xbd83af6c	-0.064299434
174	0x3ddc866f	0.10767829
175	0xbe2c9afa	-0.16855994
176	0xbd897a73	-0.067128085
177	0x3c982d1a	0.018576194
178	0x3d56bc95	0.05242594
179	0x3c7c44f1	0.015397296
180	0xbe36b2ea	-0.17841688
181	0xbc57f45d	-0.013180819
182	0xbe0f5cfe	-0.14000317
183	0xbe279e9b	-0.16369097
184	0xbe0b98a5	-0.13632448
185	0xbe1c91b1	-0.15289952
186	0xbdff8dde	-0.12478231
187	0xbe29a2ba	-0.16565982
188	0xbd0a1046	-0.033706926
189	0xbe2617f9	-0.16220082
190	0xbdd07fdd	-0.10180638
191	0xbded7fac	-0.11596617
192	0x3cea5cb6	0.028608661
193	0xbe4ca2f8	-0.19984043
194	0xbd7580cb	-0.05993728
195	0xbe87bfc9	-0.26513508
196	0xbd434717	-0.04767522
197	0xbe0d99d7	-0.13828216
198	0xbc2e0fb3	-0.01062386
199	0x3b81a8a6	0.003956872
200	0x3d812353	0.06305566
201	0x3daf0c59	0.08547277
202	0xbcc3e1c0	-0.023911357
203	0x3de13706	0.10996823
204	0x3d429cf9	0.047512982
205	0x3e001fdb	0.12512152
206	0x3df11e0a	0.117733076
207	0xbd12d529	-0.035847817
208	0x3de32c2a	0.11092408
209	0xbc8ab5eb	-0.016932448
210	0xbce453b6	-0.027871948
211	0x3e0c14a1	0.13679744
212	0xbb2fe0ed	-0.0026836947
213	0x3dffacfb	0.12484165
214	0x3d6404ec	0.055668756
215	0x3c6a0cdd	0.014285293
216	0x3b9cb4b4	0.0047822837
217	0x3d2283c4	0.039676443
218	0x3e059e88	0.13048756
219	0x3e268daf	0.16264986
220	0x3e17e960	0.14835119
221	0xbcd6dc6e	-0.026228156
222	0x3db9f2f8	0.09079546
223	0x3d83a002	0.064270034
224	0xbd5b0baf	-0.05347794
225	0x3dd0a698	0.10188025
226	0x3dc51ed6	0.09625022
227	0x3e0e31de	0.1388621
228	0xbd892fc7	-0.06698566
229	0x3da05533	0.078287505
230	0x3de72ebd	0.112882115
231	0x3ce5001d	0.027954156
232	0x3d997949	0.074938364
233	0x3d39bbaa	0.045344986
234	0xbcf122ea	-0.029435594
235	0x3d3b8118	0.04577741
236	0x3cf3b869	0.02975102
237	0xbce18c70	-0.027532786
238	0x3b44ad64	0.0030010575
239	0x3d9012b0	0.07034814
240	0x3d8a4298	0.06750983
241	0xbb158d6f	-0.0022819897
242	0x3e03d60d	0.12874623
243	0x3d491efa	0.049101807
244	0x3df2f676	0.11863415
245	0x3e344e40	0.17607975
246	0x3e39924e	0.18122217
247	0x3d176015	0.036956865
248	0xbd0eb708	-0.03484252
249	0x3dcf12e0	0.10111022
250	0xbc9e0236	-0.019288164
251	0xbd875b59	-0.0660922
252	0xbe07519a	-0.13214722
253	0xbdddfd08	-0.108392775
254	0xbde905b0	-0.11378038
255	0xbdb014ef	-0.08597743

fc_net.0.bias f4 [64]
0	0xbe13c175	-0.14429267
1	0xbe2275fb	-0.15865318
2	0x3c026800	0.007959366
3	0xbe52ddbb	-0.20592396
4	0x3e23b042	0.15985206
5	0x3dfb409b	0.12268182
6	0xbd789145	-0.060685415
7	0xbe5e3cbd	-0.21702857
8	0x3e11ba7f	0.14231299
9	0x3e0a17d4	0.13485652
10	0x3e40d64b	0.18831746
11	0xbe312f30	-0.17303157
12	0x3e3295cc	0.17439955
13	0x3de760fa	0.11297794
14	0x3e078b13	0.13236646
15	0x3dcde43c	0.10053298
16	0x3e1bf2a3	0.15229277
17	0x3d98563b	0.07438322
18	0xbddf9594	-0.10917202
19	0x3dab053d	0.083506085
20	0xbe014146	-0.12622556
21	0xbe0148c6	-0.12625417
22	0xbe1d4808	-0.15359509
23	0xbe2317c7	-0.15927039
24	0x3d80e7a3	0.06294181
25	0x3e30fc2a	0.17283693
26	0x3ddbab1d	0.10725997
27	0x3e4e6ffb	0.20159905
28	0xbe59568c	-0.21224421
29	0x3e3092f1	0.17243554
30	0x3e279656	0.16365942
31	0x3e1a550e	0.15071508
32	0xbe04c4ff	-0.12965773
33	0x3e44c847	0.19217025
34	0xbe3d7020	-0.18499804
35	0x3e255da6	0.16149005
36	0xbe3fa7a6	-0.18716297
37	0x3d10ef2b	0.03538434
38	0xbe501548	-0.20320618
39	0xbe0c8a53	-0.13724642
40	0xbdefac37	-0.11702769
41	0xbdb23186	-0.08700852
42	0x3e25d0a0	0.16192865
43	0x3df00afa	0.117208436
44	0xbe551b38	-0.20811164
45	0xbe130e68	-0.14360964
46	0x3dbe00bd	0.092774846
47	0xbd5de154	-0.054169968
48	0xbde0c06e	-0.10974203
49	0xbe5087df	-0.2036433
50	0xbe4fb94a	-0.20285526
51	0x3e2555a5	0.16145952
52	0x3dab90a5	0.08377198
53	0xbe4bc94e	-0.1990101
54	0x3dc88943	0.097918056
55	0xbe58f521	-0.2118726
56	0xbd66932a	-0.05629269
57	0xbe402e91	-0.18767764
58	0xbe377ca7	-0.17918645
59	0x3de472e2	0.11154725
60	0xbe43e979	-0.19132032
61	0x3e21ddd7	0.15807281
62	0x3daaa6ca	0.08332594
63	0xbb5c9da6	-0.0033663302

fc_net.2.weight f4 [64, 64]
0	0xbe35e9ff	-0.17765044
1	0xbe4cbe96	-0.19994578
2	0xbd168b2a	-0.03675381
3	0xbe174102	-0.14770892
4	0x3d760988	0.060067683
5	0x3dc447d5	0.095840134
6	0xbe1082d3	-0.14112405
7	0xbb6413c4	-0.003480182
8	0x3e164603	0.14675145
9	0x3df5d056	0.120026276
10	0x3c11e650	0.008905008
11	0xbd00b1ed	-0.031419683
12	0x3e32aa2c	0.17447728
13	0x3ddb73df	0.1071546
14	0x3d3f6778	0.046729535
15	0x3d231e18	0.03982362
16	0x3dcf560f	0.10123836
17	0x3d30a6d9	0.04312787
18	0xbd50be85	-0.050962944
19	0x3d7f6cd6	0.062359653
20	0xbe2cb1e9	-0.16864742
21	0xbe56fbcb	-0.20994489
22	0xbe55c848	-0.20877182
23	0xbe371c92	-0.17881992
24	0x3d75368f	0.059866484
25	0xbcff313a	-0.031151403
26	0xbcf10cb1	-0.029424997
27	0xbd99c3c5	-0.07508043
28	0xbbd53784	-0.006506862
29	0x3dcf7638	0.1012997
30	0x3dc1baef	0.09459483
31	0x3e0aee62	0.13567498
32	0xbe154838	-0.1457833
33	0x3db900e7	0.09033375
34	0xbd6d1089	-0.057877097
35	0x3de95f53	0.11395135
36	0xbdebfa30	-0.11522329
37	0x3d680472	0.056644864
38	0xbdc67185	-0.09689621
39	0xbb8fa32a	-0.0043834643
40	0xbc56f9db	-0.013121094
41	0x3d24ed70	0.0402655
42	0x3e298b13	0.16556959
43	0xbd72497a	-0.059152104
44	0xbda918a7	-0.08256655
45	0xbe02c378	-0.12769878
46	0x3da84dd9	0.08217973
47	0xbddae15d	-0.10687516
48	0xbdf2ba6f	-0.11851966
49	0xbe4bee6d	-0.19915171
50	0xbd555426	-0.052082203
51	0x3dfc8a65	0.12331084
52	0x3d23c8be	0.039986365
53	0xbbcee6a8	-0.0063141175
54	0xbc0d35cf	-0.008618786
55	0xbd38492d	-0.04499166
56	0x3d13731a	0.03599844
57	0xbe1b5edd	-0.15172906
58	0xbd85bd0e	-0.065302
59	0x3bfee466	0.007778692
60	0xbd07d6e6	-0.033163927
61	0x3db1ea00	0.0868721
62	0x3d95496c	0.07289395
63	0xbc9bddc9	-0.019026654
64	0x3e3a5b87	0.18198977
65	0x3e63f457	0.22261177
66	0xbd62c74e	-0.055365853
67	0x3de153ee	0.110023364
68	0xbd9d6ab2	-0.07686366
69	0xbe3327ac	-0.17495602
70	0x3c99fbd3	0.018796837
71	0x3e2750a1	0.16339351
72	0xbe886031	-0.26635888
73	0xbe8c3f55	-0.27392069
74	0xbe3a887e	-0.1821613
75	0x3ea7500d	0.3267826
76	0xbe170efc	-0.1475181
77	0xbe7b7c80	-0.24559212
78	0xbe28fe8a	-0.16503349
79	0xbcd12801	-0.02553177
80	0xbdd9e34d	-0.10639057
81	0xbd6eb89c	-0.058281526
82	0x3e6e0dc1	0.23247434
83	0xbe26a720	-0.1627469
84	0x3d3bbf2e	0.04583662
85	0x3e8ca78d	0.2747158
86	0x3de4ffc1	0.11181594
87	0x3d1be464	0.038059607
88	0xbd348c94	-0.04407938
89	0xbe417b7d	-0.18894763
90	0xbe0ce499	-0.13759078
91	0xbe2f7774	-0.17135412
92	0x3e6e3013	0.23260526
93	0xbe6d5288	-0.23176014
94	0xbe738f24	-0.23785073
95	0xbe846122	-0.25855356
96	0x3d5a519c	0.053300485
97	0xbd3bd65e	-0.045858733
98	0x3e5fad7d	0.21843524
99	0xbe49fa3f	-0.19724368
100	0x3d32ac5e	0.043621413
101	0xbda797b5	-0.08183233
102	0x3e8a03f7	0.2695615
103	0x3e11dd34	0.14244539
104	0x3e544df2	0.20732859
105	0x3e8497d0	0.25897074
106	0xbc26cef7	-0.01018118
107	0xbe411c2e	-0.18858406
108	0x3e696d23	0.22795539
109	0x3d26309b	0.040573698
110	0xbe78560d	-0.24251576
111	0x3d5aac8f	0.05338722
112	0x3e3b6615	0.1830066
113	0x3e3c0a76	0.18363366
114	0x3e7e4260	0.24830008
115	0xbe428393	-0.18995504
116	0xbd063bd9	-0.03277192
117	0x3cda32e8	0.026635602
118	0xbe0447c9	-0.12918009
119	0x3db02db6	0.08602469
120	0x3dd4b00a	0.10385139
121	0x3e88fe40	0.26756477
122	0x3d5c1fb3	0.05374117
123	0xbe7d2c49	-0.24723925
124	0x3e238bbd	0.15971275
125	0xbd9a2c0f	-0.07527935
126	0xbe5581e6	-0.20850334
127	0xbe6f142a	-0.23347536
128	0x3d1a6078	0.037689656
129	0xbe1bd477	-0.15217768
130	0x3dc3ff69	0.095702
131	0x3c0fd272	0.008778201
132	0x3dbcf98a	0.09227283
133	0x3da97363	0.082739614
134	0x3d8d30f2	0.06894101
135	0x3d32e3d4	0.043674305
136	0xbcd7cc4f	-0.02634254
137	0x3d9b0949	0.075701304
138	0x3e247c3f	0.16063021
139	0x3bd0d2a3	0.006372766
140	0x3abfe97a	0.0014641725
141	0x3e39587c	0.1810016
142	0x3e0e1530	0.1387527
143	0x3c0413aa	0.008061329
144	0xbd621a04	-0.05520059
145	0xbcc23e0a	-0.023711223
146	0xbd740e29	-0.059583817
147	0x3dc72497	0.09723776
148	0xbe416542	-0.18886283
149	0xbe5f5e0c	-0.2181322
150	0x3c8618f4	0.01636932
151	0x3d16675f	0.036719676
152	0x3da72476	0.08161251
153	0x3df64db6	0.12026541
154	0x3dbc6618	0.0919916
155	0x3a004938	0.0004893723
156	0xbe1f23fe	-0.15541074
157	0x3db66408	0.08905798
158	0xbce25706	-0.027629387
159	0xbcc22100	-0.023697376
160	0xbd169bf7	-0.036769833
161	0x3d9d7848	0.076889575
162	0xbdba4612	-0.09095396
163	0x3df4bfd1	0.119506486
164	0xbdf3f4a7	-0.11911898
165	0xbd0bd183	-0.034135353
166	0xbd160fc4	-0.03663613
167	0xbd2fc918	-0.042916387
168	0xbccf6a61	-0.02531928
169	0xbde59ac5	-0.112111606
170	0x3d6e462a	0.058172382
171	0x3d0ef0ef	0.03489774
172	0xbd776483	-0.06039859
173	0xbd17345d	-0.036915172
174	0xbd3dfe12	-0.04638488
175	0xbd8de6a0	-0.06928754
176	0xbe50616b	-0.20349662
177	0xbe3fde8c	-0.18737239
178	0xbd4ef380	-0.05052519
179	0x3db939cb	0.09044226
180	0x3c82118f	0.015877513
181	0x3d3ae882	0.045631893
182	0x3e32afe5	0.17449911
183	0xbe062d8c	-0.13103312
184	0xbe089a86	-0.13340196
185	0x3c021960	0.00794062
186	0xbdd6c07f	-0.104859345
187	0x3dd6f7cd	0.10496483
188	0xbcb3330e	-0.02187493
189	0x3d804287	0.06262689
190	0xbdd81057	-0.105499916
191	0x3d2f8c33	0.042858314
192	0x3df293c5	0.11844591
193	0x3d5af968	0.05346051
194	0xbccfad2b	-0.025351128
195	0x3dee1ed1	0.116269715
196	0xbe6f1095	-0.2334617
197	0xbe5f7448	-0.21821702
198	0x3dccf940	0.10008478
199	0x3e584b0b	0.21122377
200	0xbe17aa84	-0.1481114
201	0xbd9c8728	-0.076429665
202	0xbd9d776b	-0.07688793
203	0x3e90a413	0.2825018
204	0xbd99436f	-0.07483565
205	0xbe8a7cf8	-0.2704847
206	0xbd5ea20a	-0.05435375
207	0xbe0578cd	-0.13034363
208	0xbd4e3c6a	-0.050350584
209	0xbe3725da	-0.17885533
210	0x3e2b0118	0.16699636
211	0xbe4f90b5	-0.20270045
212	0x3db7e51d	0.08979247
213	0x3e77903d	0.24176116
214	0x3d7bfb12	0.061518736
215	0x3e71e904	0.23624045
216	0xbdb5428d	-0.08850584
217	0xbe8d97ec	-0.2765497
218	0xbe76ff77	-0.2412089
219	0xbdbe50ec	-0.092927784
220	0x3e2b7259	0.16742839
221	0xbe871ad8	-0.26387668
222	0xbdfcf35c	-0.123511046
223	0xbddd8a90	-0.10817444
224	0x3d81dd87	0.06341081
225	0xbe0a9776	-0.1353434
226	0x3e0351c6	0.12824163
227	0xbe0d5f66	-0.13805923
228	0x3e6e8023	0.23291068
229	0xbd0bfac3	-0.034174692
230	0x3e469f2c	0.19396657
231	0x3da6e1ef	0.08148562
232	0x3d408ebf	0.047011133
233	0x3e1bfa88	0.15232289
234	0xbcec7141	-0.028862597
235	0xbe5ab927	-0.21359693
236	0x3e8a6901	0.27033237
237	0x3e2be315	0.16785844
238	0xbe6c7873	-0.23092823
239	0x3de26321	0.110540636
240	0x3e238c30	0.15971446
241	0x3df4601b	0.11932393
242	0x3dba5697	0.09098547
243	0xbcb5b47b	-0.022180786
244	0xbe13b863	-0.14425807
245	0x3e5e39d8	0.21701753
246	0xbd999e30	-0.07500875
247	0x3d88b370	0.0667485
248	0x3b57aabb	0.003290816
249	0x3d5b8cc0	0.053601027
250	0x3e17e2bb	0.14832585
251	0xbbb615a0	-0.005556777
252	0x3e4a0496	0.19728312
253	0xbd5309d0	-0.05152303
254	0x3c98be1a	0.018645335
255	0xbe39b9b4	-0.18137246

fc_net.2.bias f4 [64]
0	0x3ddc8251	0.107670434
1	0xbe121775	-0.1426676
2	0xbc1979fc	-0.009367462
3	0xbe6cec05	-0.2313691
4	0xbc86b6d3	-0.0164446
5	0x3d53e7a9	0.0517346
6	0x3d948e52	0.07253708
7	0xbe51d8c4	-0.20492846
8	0xbc6748f5	-0.014116515
9	0x3e62fcfd	0.2216682
10	0x3c41fb15	0.011839648
11	0xbd52b204	-0.0514393
12	0xbd5f971a	-0.05458746
13	0xbd71c538	-0.059025973
14	0xbb805db1	-0.003917419
15	0xbe4d8b82	-0.2007275
16	0xbe1e6728	-0.15469038
17	0x3e3b94da	0.18318501
18	0xbe094c91	-0.13408114
19	0xbdd1c922	-0.10243441
20	0x3dbeb648	0.09312111
21	0xbc2e7862	-0.010648819
22	0x3db1b93f	0.08677911
23	0x3e57e8ea	0.21084943
24	0x3d59eb75	0.053203065
25	0x3cb03ed2	0.02151433
26	0x3a5f7ca2	0.00085253466
27	0x3e4117e9	0.18856777
28	0xbdcb887a	-0.0993814
29	0xbd39b9bc	-0.045343146
30	0xbd8c7636	-0.068584844
31	0x3e3d1ba4	0.18467575
32	0xbe5f804d	-0.21826287
33	0x3e033109	0.12811674
34	0x3da7ef02	0.08199884
35	0x3dfb3bd0	0.12267268
36	0x3e2e3b28	0.17014754
37	0xbd9c0df6	-0.0761985
38	0xbc28653f	-0.010278045
39	0x3e100fd8	0.14068544
40	0xbe622325	-0.22083719
41	0x3d9b3df9	0.0758018
42	0xbd35e660	-0.044409156
43	0xbdf0cb03	-0.117574714
44	0xbd7ed063	-0.06221045
45	0xbd34a5dd	-0.044103492
46	0xbe81b88c	-0.2533611
47	0x3e63c558	0.2224325
48	0x3e4f3485	0.20234878
49	0xbe4ddd7c	-0.20104021
50	0xbddacb25	-0.10683278
51	0xbe75b405	-0.23994453
52	0x3e46389e	0.19357535
53	0xbd6a3c9a	-0.0571867
54	0xbca00cbb	-0.01953732
55	0xbe5d0d8b	-0.21587197
56	0xbe03e64b	-0.12880819
57	0xbd783aab	-0.060602825
58	0xbe0e7a5b	-0.13913862
59	0xbd403ebf	-0.04693484
60	0x3d37ca1f	0.044870492
61	0x3dc9193a	0.09819265
62	0x3e0f7608	0.14009869
63	0x3dff533d	0.12467048

value_head.weight f4 [1, 64]
0	0x3dc5f210	0.096653104
1	0xbe0a80b8	-0.13525665
2	0x3dc0c63b	0.094128095
3	0xbe2832f6	-0.1642569
4	0xbd4cbbb3	-0.04998369
5	0x3d6a5b67	0.057216074
6	0x3e1d0fcf	0.15338062
7	0xbe2189b7	-0.1577519
8	0x3e006077	0.12536798
9	0x3dd114ca	0.10209043
10	0xbe30ee2e	-0.17278358
11	0xbd93616c	-0.07196316
12	0xbe1114f6	-0.14168152
13	0xbe01c69c	-0.1267342
14	0x3e324619	0.17409553
15	0xbe750a45	-0.23929699
16	0xbe44ae94	-0.19207221
17	0x3dfcc68c	0.12342557
18	0xbe6205c1	-0.22072507
19	0xbda351fc	-0.07974622
20	0x3d849517	0.06473749
21	0xbdc496c8	-0.09599072
22	0x3c88d316	0.016702216
23	0x3dfa9d81	0.12237073
24	0x3da50e62	0.08059384
25	0xbe4f2838	-0.20230186
26	0x3d85117c	0.064974755
27	0x3ddf31c1	0.10898162
28	0xbe37b8cc	-0.17941588
29	0xbe18634f	-0.14881633
30	0xbe2a1880	-0.16610909
31	0x3e028e34	0.12749559
32	0xbe46d528	-0.1941725
33	0x3df1e444	0.11811116
34	0x3e23f0cd	0.16009827
35	0x3e2f9281	0.1714573
36	0x3e080f17	0.13287006
37	0x3c24cabe	0.010058103
38	0x3cf4a28e	0.029862668
39	0x3e36c32b	0.17847888
40	0xbe4e8927	-0.20169507
41	0x3e2d9441	0.16951086
42	0xbe541854	-0.20712405
43	0xbe15a461	-0.14613487
44	0xbdedd859	-0.11613531
45	0xbe191d1e	-0.14952514
46	0xbe0b9cce	-0.13634035
47	0x3e01d1fe	0.12677762
48	0x3e0f51ba	0.1399602
49	0xbe56a2c1	-0.20960523
50	0xbddadc6d	-0.10686574
51	0xbddb5512	-0.10709585
52	0x3e0710f3	0.1319006
53	0xbe35a5bf	-0.17739008
54	0xbe310d47	-0.17290221
55	0xbe6a8fe2	-0.2290645
56	0xbe0afa0a	-0.13571945
57	0xbe4ca5d8	-0.1998514
58	0xbe06f538	-0.13179481
59	0xb9444484	-0.0001871754
60	0x3df45284	0.11929801
61	0x3dce91dd	0.10086415
62	0x3de74f66	0.11294441
63	0x3e15a8bf	0.14615153
