output/4-agents_domain-CoinGame-4_MATE-TD-T0.25_2022-08-09-12-04-13/actor_net_1.pth (torch, 45463 bytes, 6 tensors)

fc_net.0.weight f4 [64, 100]
000000 5d f5 cc 3d 71 76 9c 3e 7e 16 75 3e 17 f4 85 3e
       0.10007737 0.30559114 0.23934361 0.26162788
000010 13 65 c1 3d 36 0e 7c 3d 34 f8 72 3d 54 0b 87 3e
       0.094431065 0.06153699 0.059318736 0.2637583
000020 fe 7f bb 3c 96 ee 41 3d c8 1b c5 3b ba 83 1e 3d
       0.02288818 0.047346674 0.0060152747 0.038699843
000030 ba 22 1f bd 4d 26 80 3c 11 fa 88 bd d5 fe 88 3d
       -0.038851477 0.015643263 -0.066883214 0.0668923
000040 52 0e 90 bb 28 4b e4 bd 79 c1 f1 bd ab d1 4f be
       -0.0043962384 -0.111471474 -0.1180448 -0.20294826
000050 30 32 9c bd 85 87 8a bd 51 d8 44 be ea 53 a0 be
       -0.0762676 -0.067641295 -0.19223143 -0.3131402
000060 58 20 95 be 3f 0a 49 3d 10 f3 bc 3d 06 5b ee 3d
       -0.2912624 0.049082037 0.09226048 0.11638455
000070 c8 99 00 3e 56 95 e7 3d 57 5a b6 3d 95 5d ad 3d
       0.12558663 0.113077804 0.0890395 0.08465115
000080 eb 30 98 3d 52 18 3a 3b 80 ac 0b 3d fc f1 30 3d
       0.07431205 0.0028395844 0.034100056 0.043199524
000090 81 99 96 3d 61 b0 6f bb 7d 73 a1 3d d8 6d 52 3d
       0.07353497 -0.0036573636 0.07883356 0.051374286
0000a0 da 42 db bd 89 17 ff bc 00 33 0d 3d ca 0e 59 bd
       -0.1070611 -0.031139152 0.034472466 -0.05299262
0000b0 7e f5 55 3d 33 37 ed 3c db e7 08 3d 10 87 54 bd
       0.052236073 0.028956985 0.03342424 -0.05188662
0000c0 91 ca 5f 3d aa 45 dc bd 86 ec 77 3d 83 5c 68 3d
       0.05463654 -0.10755475 0.0605283 0.05672885
0000d0 62 81 b2 be ed cb 92 be 16 3e 2c be cc 25 da bd
       -0.34864336 -0.28671208 -0.16820559 -0.106517404
0000e0 2a e3 5a be 41 4f 46 be 44 b1 14 bd da 04 bf bd
       -0.21375719 -0.1936617 -0.036301866 -0.09327097
0000f0 fe 03 53 3d f1 81 08 be bb a3 de bc 7b 2d 5f bd
       0.05151748 -0.13330819 -0.027177682 -0.054486733
000100 4e d0 0a 3e de 9f 1e be 6d b8 9c 3d 83 d5 7b 3d
       0.13556024 -0.15490672 0.07652364 0.061482918
000110 41 3a 06 3e ee 46 1a 3e fa c7 ac 3d 3c 50 90 bd
       0.1310816 0.1506612 0.0843658 -0.070465535
000120 b6 67 fc 3d a8 c7 a1 3e 57 cc 86 3e 57 c1 4f 3c
       0.12324469 0.31597638 0.26327774 0.012680373
000130 df 57 67 3d 63 6a 6c be 1e 30 27 be a4 9d a8 bd
       0.056480285 -0.23087458 -0.16326949 -0.082331926
000140 d4 1f 06 3e f7 6b ad be 21 a3 f1 bd a9 31 49 be
       0.13098079 -0.33871433 -0.117986925 -0.1964785
000150 32 30 b7 3d 09 8a 02 3e 16 3e 59 3d f1 3e dc bd
       0.089447394 0.12747969 0.053037725 -0.107541926
000160 1b 60 1d bd 8b 4b 19 3e f4 35 89 bd 71 f3 92 3c
       -0.03842173 0.14970224 -0.06699744 0.017938348
000170 2d c9 cf 3d 66 0d 8c 3d 18 e5 89 3e 28 34 a3 bd
       0.10145793 0.06838493 0.26932597 -0.079689324
000180 79 65 e1 3c 84 3f e1 3d 4e a1 4c 3e 6b 99 af 3e
       0.027514206 0.10998443 0.19983408 0.34296736
000190 36 fe 8d 3d 46 0f e5 3d 26 1d fc 3d 80 0f 97 3e
       0.069332525 0.11184554 0.12310247 0.29504013
0001a0 ff 86 cd 3e c6 6e 05 3c f3 7c 11 be 97 31 28 3e
       0.40142056 0.008144086 -0.1420782 0.16425167
0001b0 db a4 ab 3d 51 df a3 3e 1f 89 bf bd d4 a4 98 be
       0.08381053 0.32006314 -0.09352326 -0.29813254
0001c0 a9 4a 00 be 1e bb c9 bd 1d 4e f3 3d d8 67 07 3c
       -0.1252848 -0.09850143 0.11880133 0.008264504
0001d0 62 d8 34 be 62 5b 00 be aa 11 c7 bd 9d 25 1e 3a
       -0.17660668 -0.1253486 -0.09720166 0.00060328265
0001e0 cc 58 2b be a1 7b 7e be b5 3c 79 be 79 61 57 be
       -0.16733092 -0.24851848 -0.24339564 -0.21033277
0001f0 f6 42 8f bc 9e 3e a1 3d 59 50 84 bd 7b 75 2e 3d
       -0.017487984 0.078732714 -0.064606376 0.042592507
000200 7b 3a 94 3d 86 8a 4d 3d 63 b0 3e 3d c8 a7 a2 3d
       0.07237717 0.050180934 0.046554934 0.07942158
000210 d8 4a 72 bd 3b b5 f2 bb b0 38 80 3d b6 87 b7 bd
       -0.059153408 -0.0074068583 0.06260812 -0.08961432
000220 4c aa 8b 3d d3 33 ad ba da b6 cf bb 39 a6 8f 3d
       0.06819591 -0.0013214297 -0.0063389363 0.07014126
000230 6f 86 11 bd fa 73 ac 3c 24 61 c2 bb ca 42 11 bd
       -0.035528596 0.021051396 -0.00593199 -0.035464086
000240 20 68 a6 3d 4a e1 a4 3c 76 09 41 bd cc e3 a6 bc
       0.08125329 0.020126957 -0.047128163 -0.020372294
000250 1a c6 06 3d a7 53 37 bd a0 3a 88 bd 5d 4a 26 3e
       0.032903768 -0.04475751 -0.06651807 0.16239305
000260 f4 c9 74 bd f7 03 93 be 6d 29 b1 be 6f 77 99 bd
       -0.05976291 -0.28713962 -0.34601918 -0.07493483
000270 91 b7 21 bc 55 c4 27 3c d7 30 2c bc 9f 07 cd be
       -0.009870426 0.01023968 -0.010509691 -0.40044877
000280 89 d5 10 3e 67 e5 91 3e 2f a1 1c 3e 24 50 e0 3c
       0.14143957 0.28495333 0.15295862 0.027381964
000290 6d d5 e1 bd 39 ef a7 3d 50 f6 bc 3e cd 63 1a 3e
       -0.11027036 0.08199925 0.36906672 0.15077133
0002a0 94 36 34 3e 86 2a 86 bd c3 e7 87 bb 43 40 87 3e
       0.17598945 -0.065510795 -0.004147501 0.26416215
0002b0 c3 46 8b 3e 67 b4 66 3e b0 66 86 3d 03 76 33 3e
       0.27202424 0.22529756 0.06562555 0.17525487
0002c0 64 00 be 3c 64 e4 e7 bd 3a 89 7a be 87 ed 9b be
       0.023193546 -0.11322859 -0.2446641 -0.30454656
0002d0 34 c9 8e 3c 16 15 76 bc 72 7e 26 3d 78 4c 21 be
       0.017429926 -0.015019676 0.04064793 -0.15751827
0002e0 1f 6e 66 be 7a ca a5 3b 39 21 88 3d 40 40 31 bc
       -0.22502945 0.0050595375 0.06646962 -0.010818541
0002f0 f9 26 24 3c e4 1f 1e bd 31 8f 3b 3d cc bd 23 3d
       0.010019057 -0.038604632 0.045790855 0.039975926
000300 13 2e c7 3d 1e c8 05 3e 3f ba 56 bc dd 5f a3 bc
       0.09725585 0.1306462 -0.013105928 -0.019943172
000310 85 d1 bf bd 6d 1d 97 3e a1 0c fa 3d ac 81 2e bd
       -0.093661346 0.29514638 0.1220944 -0.042604133
000320 1d 87 da bc c7 2c 92 3d e4 c9 b4 3c 06 37 8a bd
       -0.026675755 0.07137447 0.022068925 -0.06748776
000330 3a 31 86 be 45 ba 59 3c cc 7f 69 3e b0 27 7b bd
       -0.26209432 0.013289039 0.22802657 -0.061317146
000340 ee 61 11 3c 3e ab 4d be 7b 92 15 3e 69 20 80 3e
       0.008873446 -0.20084855 0.14606659 0.25024727
000350 dd 63 41 3e aa b8 da bb d4 53 43 be f7 a9 c6 3d
       0.18885751 -0.0066748457 -0.19074947 0.09700387
000360 36 81 b5 3d b9 e3 6e 3d 25 3f 5e bd b2 6d 4f be
       0.08862536 0.058322642 -0.054259438 -0.20256689
000370 79 55 57 3c 5d 01 fa 3d f8 98 8d 3d d9 84 c4 bb
       0.013142937 0.12207291 0.06913942 -0.005997282
000380 ac d6 8d be dd ec c8 3d 63 2c a0 3d 28 8e 46 3d
       -0.27702844 0.09810803 0.07820966 0.048475415
000390 15 ae 6e bd 17 fd 94 bd d2 73 a0 3d e6 55 08 3d
       -0.058271486 -0.072748356 0.07834591 0.033285044
0003a0 44 93 9c 3d 93 28 aa bd 26 8a 8d 3d 63 cb 0d bd
       0.07645276 -0.0830852 0.06911115 -0.034617793
0003b0 b8 d9 ca bb ff d9 c0 3c 95 14 b7 3d 22 a1 a9 bc
       -0.006190505 0.023541449 0.089394726 -0.020706717
0003c0 55 42 63 3d 1b 75 ab bc aa b0 22 3d 6f 2b 4f bd
       0.05548318 -0.020929864 0.03971926 -0.05057853
0003d0 fb 49 46 3d 43 df ac 3a 72 75 10 3d 80 72 d6 3c
       0.048410397 0.0013189096 0.035268255 0.026177645
0003e0 1b c0 9b 3c fd 30 03 bc 52 cc 36 3c 0b 6d c3 bc
       0.019012501 -0.008007285 0.011157112 -0.023855707
0003f0 42 a3 98 bd 6f fe f6 3b 40 f8 12 3e 5c a2 1c bd
       -0.07453014 0.007537655 0.14352512 -0.038240775

fc_net.0.bias f4 [64]
000000 e2 5b c0 bb d4 bd 46 bd 04 3d 2b 3d 1e ab 86 3d
       -0.0058703283 -0.048520878 0.041806236 0.06575607
000010 94 20 99 3d f3 f6 a5 3c 67 66 17 3b 61 0f 48 bd
       0.07476917 0.020259356 0.0023101808 -0.04884279
000020 03 b6 c6 bc 26 9c 53 3c 7d ea 18 3d 7d 7c 58 bc
       -0.024256712 0.012915647 0.037333 -0.013213274
000030 24 af 23 3d 5e 67 c5 3d 04 bc 43 3d 55 69 e5 bc
       0.03996195 0.09638856 0.047786728 -0.028004328
000040 6f d2 4d 3d 69 41 bc 3c cd 9d e1 ba 7d 54 e2 3b
       0.050249513 0.022980409 -0.0017213166 0.0069070444
000050 ef 17 50 3c 88 b7 ce bd d0 d6 bb 3d e2 db be bc
       0.012701019 -0.100935996 0.091718316 -0.023298208
000060 c1 5e 05 bd 0b 18 12 bd d3 ac 8a 3c 7d 4a 1f 3d
       -0.032561067 -0.03566746 0.016928112 0.038889397
000070 bd 89 81 3d 9d 60 6d 3d cb f2 ce 3d e4 e0 b6 bc
       0.063250996 0.057953466 0.10104903 -0.022324033
000080 11 b4 5c 3d a8 8d 8e 3d 26 98 94 3d 2c 39 9e 3d
       0.053882662 0.069606125 0.072555825 0.077257484
000090 be fb 1d 3d 3c c9 6d bc b5 51 09 3d 5f ef a2 3d
       0.03857016 -0.01451331 0.033525188 0.07955813
0000a0 83 c5 38 3d 03 62 b5 bc 84 4a 35 3d a7 0d 07 3d
       0.045110237 -0.022141462 0.044260517 0.032972004
0000b0 d6 50 11 bd 11 c0 b5 bd 2f 23 51 3d d0 5c 5b 3d
       -0.03547748 -0.088745244 0.051058944 0.05355531
0000c0 e9 40 d1 3c d7 ec 16 bc 37 19 d7 3c 4d 51 b9 3c
       0.025543647 -0.00921174 0.02625714 0.022621775
0000d0 a5 1f e8 3d 8d 62 94 ba d9 23 b3 3d 9e 79 a6 3d
       0.11334161 -0.0011320874 0.08747072 0.081286654
0000e0 71 71 a9 3d e8 cf ca 3d db 95 a9 bd e1 18 1e 3d
       0.0827359 0.09902936 -0.08280536 0.038597945
0000f0 4f b2 09 bd 40 9a cb 3c 69 a4 85 3d fc 15 2e 3d
       -0.033617314 0.024853826 0.065254994 0.042501435

fc_net.2.weight f4 [64, 64]
000000 6b 6c a0 3e 47 28 4b 3d 28 17 89 3d 91 f7 dd 3d
       0.31332716 0.04959896 0.0669387 0.10838235
000010 0c f1 be 3b 02 6e f0 3c ff b6 bf 3d db dc 00 be
       0.005827075 0.02934933 0.093610756 -0.1258425
000020 89 e9 9b bd 3f fd 79 3e 1c 1a a6 3e 51 c7 73 3e
       -0.07612903 0.24413012 0.32441795 0.23806502
000030 48 66 66 be da 59 8a bd b2 53 3c 3e 78 cb 4b bb
       -0.22499955 -0.06755419 0.18391302 -0.0031096619
000040 ee 2d 24 3e b8 8e 88 be 46 a4 de 3e b9 2b d8 3e
       0.16033146 -0.26671386 0.43484706 0.42220858
000050 1c f1 4b 3e ba 6e 47 be df 94 05 be 2a 40 20 3e
       0.19916195 -0.19475833 -0.13045071 0.15649477
000060 54 f4 26 be d8 eb 39 3e 50 f3 7f 3e 0c c5 16 be
       -0.16304141 0.18156374 0.2499516 -0.14723605
000070 08 d2 ef 3e 41 ab 45 3e 33 fd 5f 3d 87 c9 3e 3d
       0.4683993 0.1930361 0.05468483 0.04657891
000080 a0 5d f7 3d db 4c cd 3c 63 7f 19 3e 5b da dd be
       0.120784044 0.025061062 0.1499 -0.43330655
000090 f5 ec 76 be ea a6 ed bd 4d 79 d7 3e 7c ac 32 be
       -0.2411383 -0.11604102 0.42084733 -0.1744861
0000a0 84 6c 31 be 3c b6 a7 bd aa 39 a6 3d b2 aa 96 3e
       -0.17326552 -0.08189055 0.08116467 0.29427105
0000b0 2d a9 79 be 7c c0 18 be da 00 2c 3e 23 ba 4e 3c
       -0.24380942 -0.14917177 0.167972 0.012617621
0000c0 b1 ab 3a 3e dd 91 89 bc 11 03 dc 3d 78 ec fa 3d
       0.18229558 -0.016793186 0.10742772 0.12252134
0000d0 c0 13 ca 3e b9 2a 5f be 4d 3b b6 3e 3d 55 48 3e
       0.39468193 -0.21793641 0.35592118 0.19563766
0000e0 ad 7c 12 3b 77 ad b7 3e d8 d3 a3 be fb d3 ac 3e
       0.0022352145 0.3587453 -0.3199756 0.33755478
0000f0 28 cb a8 bd 46 52 8f be aa c4 11 bb 43 31 8b be
       -0.08241874 -0.27992457 -0.0022242465 -0.2718602
000100 db b4 b7 bd 59 e6 1e be 4b ee 51 3e 6c 89 a0 be
       -0.08970042 -0.15517558 0.20501058 -0.31354845
000110 3b 40 9e 3e d8 fd 49 bb fe 82 e7 bc ea 6c 3b be
       0.3090838 -0.0030821469 -0.028260704 -0.18303266
000120 0f 3d 60 3d 8a 5c 47 be 8a f0 81 be 22 c4 c6 be
       0.05474573 -0.19468895 -0.2537883 -0.38821512
000130 4e 05 22 3e 2c 05 8a 3e ce f5 69 3c a0 f0 12 3e
       0.15822336 0.2695707 0.014279796 0.14349604
000140 b8 99 bf 3d 34 e7 8b 3d 86 08 63 be bb 7a 55 be
       0.093554914 0.06831208 -0.2217122 -0.20847599
000150 87 47 32 be 61 13 f8 bd 3e c5 81 3e d2 e1 b9 3e
       -0.17410098 -0.12113071 0.25345796 0.363051
000160 d1 69 9c 3e e0 7a 0d 3d 6b df c4 3d 01 e4 73 3e
       0.30549482 0.03454101 0.09612926 0.23817445
000170 9d bf 16 be 02 83 02 3e 43 b4 0f 3e 82 32 01 3e
       -0.14721532 0.12745288 0.14033608 0.12616923
000180 f7 57 a5 3d 9d eb 14 3e 94 5a 87 3e c5 ec 79 3c
       0.080734186 0.14543004 0.26436293 0.015254204
000190 2b 26 e4 3e ab 33 ab 3e 65 34 a3 be 06 1a 98 3e
       0.4456037 0.33437857 -0.3187591 0.29707354
0001a0 0c 07 bc 3e 36 da cc 3e e4 a5 b3 3e 8d c7 0a 3e
       0.36724126 0.40010232 0.35087502 0.13552685
0001b0 92 13 55 ba 31 38 b3 bd fb 17 f4 bc b4 c2 b7 3d
       -0.00081282214 -0.08750952 -0.029796591 0.089726835
0001c0 97 8f 87 be 69 f5 b9 bc 77 34 7b bd 9a 93 1b be
       -0.26476738 -0.022700028 -0.06132933 -0.15193024
0001d0 88 aa d0 3d 36 5b ab 3e c9 0a 96 3e ba 12 1b bd
       0.10188776 0.33468026 0.29305103 -0.037859656
0001e0 7a 6b 74 3e 13 af fd bd 19 7e 13 be fd c5 00 be
       0.23869124 -0.123869084 -0.14403571 -0.12575527
0001f0 51 aa a2 3c 14 3d 0f 3e 9b 09 d4 3e 6b 4e 51 3d
       0.019856604 0.13988143 0.41413578 0.051100176
000200 dc 7b 9d 3e 1b 60 ec bc 73 f8 13 3d 43 b3 0f 3e
       0.3075856 -0.02885442 0.03612561 0.14033227
000210 3b 8e 1a 3d d1 22 22 3e 72 13 d6 3d 77 40 05 bd
       0.037733298 0.15833594 0.10452928 -0.03253218
000220 2a 9a ac 3d 30 bc 8a 3e 83 c4 02 3e 16 f4 a1 3e
       0.08427842 0.270967 0.12770276 0.31631535
000230 13 4b 90 be 10 4c 11 be e3 20 5d 3d c0 86 a7 bd
       -0.28182277 -0.14189172 0.05398644 -0.081799984
000240 ab 60 08 3e a3 af d6 bd c9 4e a4 3e 99 be c4 3e
       0.13318126 -0.10482719 0.32091358 0.38426664
000250 31 35 45 3d dd 36 22 bd 89 4e 9a bd 43 fa 15 be
       0.04814643 -0.039603103 -0.07534511 -0.14646249
000260 10 0c 69 be 96 2a 28 3c 84 e6 0e 3e 8e a2 76 be
       -0.22758508 0.0102640595 0.13955122 -0.24085447
000270 28 d2 b6 3e a4 8e db 3c 9d 01 0a 3d 0a f1 22 bd
       0.35707211 0.026801415 0.033692945 -0.039780654
000280 4b 01 b7 3c 10 0d ab 3d e1 f1 8e 3d 8c dd 82 be
       0.022339484 0.08352101 0.069797285 -0.25559652
000290 72 c6 b0 be c1 0c 7b be 8b 21 cb 3e 2f eb 8e be
       -0.34526402 -0.24516584 0.3967403 -0.27913806
0002a0 6c ba 10 be 9f 96 7d be c5 c2 61 3d 0d fa 50 3e
       -0.14133614 -0.24764489 0.055117387 0.20407887
0002b0 37 e8 35 bd 13 5d 87 be 0f a5 08 3e d9 eb 58 3d
       -0.04441091 -0.26438197 0.13344215 0.052959297
0002c0 34 f3 81 3e ea 1a b8 bd 0f bf 85 3e 7e dd 83 3d
       0.25380862 -0.089895085 0.2612233 0.06438731
0002d0 68 9f bf 3d 0a 49 ac be ea 62 09 3e b4 1a 88 3e
       0.09356576 -0.33649474 0.13416639 0.26582873
0002e0 85 56 f9 3d a3 ab 22 3e 0f 48 30 be 65 01 cd 3d
       0.121747054 0.15885787 -0.17214988 0.100100316
0002f0 47 b6 e5 3d f8 d0 0c be a7 10 fe bd bf 5d 1b bd
       0.11216407 -0.1375159 -0.1240552 -0.0379312
000300 72 55 74 3e 36 46 1f be af 0e 21 3e 76 37 78 be
       0.2386072 -0.15554127 0.15728258 -0.24239907
000310 06 22 83 3e de b3 6c 3d b2 0a fb bd f5 95 ac be
       0.25611895 0.057788722 -0.12257899 -0.33708158
000320 9c 55 60 3d b5 0b 26 3e 02 05 b1 bd 3c cc f9 bd
       0.054769143 0.16215403 -0.08643533 -0.12197158
000330 fb 05 df 3c 65 1e a9 3e 42 d0 0c 3e d7 91 36 bc
       0.027224531 0.33031002 0.13751319 -0.011143169
000340 c7 16 2c 3e f9 ef 8e be 43 d1 e2 3d 25 2e 6f bd
       0.16805564 -0.2791746 0.1107507 -0.058393616
000350 e6 d3 30 3e 73 e4 e1 bd 58 47 80 3e b9 e0 b7 3e
       0.17268333 -0.11029901 0.2505443 0.35913637
000360 40 02 c0 3d 58 1b 33 3d 22 70 25 3e c2 74 3d 3e
       0.09375429 0.04372725 0.16156057 0.18501571
000370 b8 7e 8d 3e fa a7 a4 3e 24 98 2d bd 14 0f a8 3c
       0.2763574 0.32159406 -0.04238142 0.020515002
000380 2e 28 1a 3e 4f 4e b1 3d 0a 6d 25 3e aa 6e 96 be
       0.1505439 0.08657514 0.16154876 -0.29381305
000390 d4 ea 4d 3e 6f 08 c9 3c 23 00 04 3d a4 ce 19 3d
       0.20109111 0.024540154 0.032226693 0.037550583
0003a0 75 6b 8f 3e b7 d7 94 3e 4d 6c 5f 3e c9 11 79 3e
       0.2801167 0.29070827 0.21818657 0.24323191
0003b0 70 9c 41 be 2b da 94 bd eb 8e 76 3e ed 9a 2d be
       -0.18907332 -0.07268175 0.24077956 -0.16953631
0003c0 a5 e3 23 3e 91 e8 98 3d 8f 40 43 be c1 a1 43 3c
       0.16004808 0.074662335 -0.19067596 0.011940421
0003d0 ff 60 b9 3e 76 15 19 bd 64 ce d8 3e 69 dc 5e 3d
       0.36206815 -0.037373982 0.42344964 0.05440942
0003e0 1f e3 bc 3e 43 6b 0c 3e 31 b8 91 be 72 a5 c2 3d
       0.3689203 0.13712792 -0.2846084 0.095042124
0003f0 ea 39 b7 bd cf bc 1a be 97 f3 5a 3e 6c a5 1f be
       -0.08946593 -0.15111087 0.21381985 -0.15590447

fc_net.2.bias f4 [64]
000000 87 a8 6e 3d ec 96 bd 3c 6d ca 36 bd 54 94 11 3d
       0.05826619 0.023143254 -0.044626642 0.035541847
000010 1e dd 5b bd 81 e7 a0 bd f4 8b 5f 3d 4b 1e 32 3d
       -0.05367767 -0.07856656 0.05457683 0.04348592
000020 f6 64 d3 bd ec 09 0e 3e 36 48 21 bd 1f 1b a1 3d
       -0.10321991 0.13870972 -0.039375506 0.07866501
000030 88 c9 1f 3e bb 42 ed bc 21 dc 8b 3d b4 c2 8c 3d
       0.15604222 -0.028962484 0.06829096 0.06873074
000040 98 22 c1 3d 72 87 82 3d d4 39 50 3a 44 fb f3 3d
       0.09430426 0.063734904 0.00079431874 0.119131595
000050 a6 f4 c5 3d 75 f9 06 3e 87 20 e5 3d 86 7a de 3c
       0.096658036 0.13181098 0.11187845 0.027158033
000060 4c d2 32 3d 5c ac ef 3d e3 b4 d4 3d cb 9a da bb
       0.043657586 0.11702797 0.10386064 -0.006671285
000070 ad 33 12 3c b7 6a 08 3d 8a 27 30 3d fb 62 c5 3d
       0.008923453 0.033304896 0.043006457 0.0963802
000080 4d 5d 97 3d ac 9f 5a 3d 33 f2 32 bd aa a7 72 3d
       0.073908426 0.05337493 -0.04368801 0.05924193
000090 72 49 00 be a4 52 e7 3d b5 0c 22 3e 11 22 a3 3d
       -0.12528017 0.11295059 0.1582516 0.07965482
0000a0 ef 8d e8 3d d4 0c a1 3d 83 02 de 3d 2d a5 df 3c
       0.11355197 0.07863775 0.10840323 0.027300442
0000b0 c5 cc 25 bd d4 61 7b 3c 4e 17 c4 b9 d7 e2 7a bd
       -0.040478487 0.015343148 -0.00037401397 -0.061251488
0000c0 f6 61 c0 bd 39 b9 87 3d 6f 27 02 3e 92 a6 b3 3d
       -0.093936846 0.06627125 0.12710355 0.08772005
0000d0 4f 91 a2 3c 72 fc e0 3d 7d 6c 27 3d 0b 30 b9 3d
       0.01984468 0.1098565 0.040874947 0.090423666
0000e0 41 0a 92 3b 19 49 fa 3d 25 31 98 3d d2 f2 55 bd
       0.0044567888 0.122209735 0.074312486 -0.052233525
0000f0 b5 4b 4f 3c c7 07 9c bc be 74 00 be f0 9c e5 3d
       0.012652327 -0.019046677 -0.12544534 0.11211574

action_head.weight f4 [4, 64]
000000 5a e2 27 3e d3 32 9c 3e fb 65 a1 bb 58 00 d3 3e
       0.1639494 0.30507526 -0.004925487 0.412112
000010 3c a3 95 be ac c4 61 be 5d 01 56 3e e9 54 9a 3e
       -0.292261 -0.2204768 0.20898958 0.30142906
000020 6b 00 c7 3e 0d 35 0f be ac 64 82 be 59 4e 1b 3e
       0.38867506 -0.13985081 -0.25467432 0.15166606
000030 6a d3 b2 be 46 d9 28 be 1a d7 b2 bc d6 7b 7e bd
       -0.3492692 -0.16489133 -0.021831084 -0.062129818
000040 d3 14 98 3d 5e 08 18 3e b7 f2 a0 be fe 63 86 be
       0.07425847 0.14846942 -0.31435177 -0.26248163
000050 d0 99 88 3e 73 4f 5c 3e 49 06 2c 3e 30 35 37 3e
       0.2667985 0.21514682 0.16799273 0.17891383
000060 ed 13 da 3e 0d d4 9e be af 8c 43 3e 8e 1c d3 bd
       0.42593327 -0.31021157 0.19096635 -0.10308181
000070 8e 0c 41 3e 69 79 da bd 1b c1 1b 3e da f9 50 bd
       0.18852445 -0.106676884 0.15210383 -0.051019527
000080 cc 01 a8 3e 8a fe e0 be 24 8e b9 3d 7a 77 b8 bd
       0.3281387 -0.43944198 0.09060314 -0.09007163
000090 5c e5 24 be 58 2c 59 be 4c 78 3d 3e 80 83 8f 3d
       -0.16103119 -0.21208322 0.18502921 0.070075035
0000a0 5b f8 ae 3e f5 4d 81 3e 3c 6d 90 3e 0a 04 99 bc
       0.34173855 0.2525479 0.2820834 -0.018678684
0000b0 c2 e1 39 be 0a 8a 0f 3e 91 6a 86 3e f5 cf d9 3e
       -0.18152526 0.14017501 0.2625318 0.4254147
0000c0 c9 53 7a be 06 48 a7 be 5d 6f 10 be d7 fb cf bd
       -0.24446024 -0.32672137 -0.14104982 -0.101554565
0000d0 74 8d 29 3d 3f 5a 54 3e 43 59 9d be 15 54 aa 3e
       0.041394666 0.20737551 -0.30732164 0.33267274
0000e0 8e 74 7d be 8a a2 84 3e 8f be 8f be 23 cb a1 be
       -0.24751493 0.25905257 -0.28075072 -0.31600294
0000f0 68 f8 93 3e 4c 81 aa be f0 4a 4d 3e 18 86 d0 be
       0.28900456 -0.3330177 0.20048118 -0.40727305
000100 88 e1 94 be 8d dd e3 be a1 09 cf bd 4a 16 c3 be
       -0.29078317 -0.44504967 -0.101092584 -0.38102943
000110 80 cc 6a 3e e9 82 50 3e 8e c1 9b be 61 47 c8 be
       0.22929573 0.20362438 -0.30421108 -0.39116958
000120 d0 34 89 be 44 65 db 3d 22 48 6c 3e 98 69 3c be
       -0.26798105 0.10712674 0.23074391 -0.18399656
000130 5b d7 46 3e ab f1 ab 3e 2c a1 6a be 89 24 51 bb
       0.19418089 0.33582816 -0.22913045 -0.0031912646
000140 b1 df 77 be 22 b5 61 bd a7 ae e4 3d 6e c8 6d 3c
       -0.24206425 -0.055104382 0.11166125 0.014513118
000150 5d 75 aa be ff 09 12 be b1 c5 5a be 14 01 8f be
       -0.33292666 -0.14261626 -0.21364476 -0.2793051
000160 27 c9 d9 be 13 04 6f 3e 3a d0 8a be cc f5 0e 3e
       -0.4253628 0.23341398 -0.2711199 0.13960952
000170 7a e4 c8 be b1 37 bf bd ca 79 0a be bb 2c 17 be
       -0.39236814 -0.09336794 -0.13523021 -0.14763157
000180 d0 50 d7 be 61 32 c5 3e 86 b3 c7 bd b7 d8 04 3e
       -0.42053843 0.38515 -0.09751038 0.12973295
000190 82 57 43 3e c8 c3 57 bb 34 a3 46 bd d9 4b 44 be
       0.1907635 -0.0032923091 -0.048495486 -0.19169559
0001a0 66 db 9a be 5b 07 b1 be a7 93 f7 be e1 ec 96 bd
       -0.30245513 -0.34575924 -0.48354837 -0.073694
0001b0 b9 aa 96 3e b4 11 24 be 3a 81 3b be 08 39 6b be
       0.29427126 -0.16022378 -0.18311015 -0.22970974
0001c0 81 1e a7 3e e2 54 b7 3e d1 bb b0 3d 1b 7a 7a 3e
       0.3264046 0.35806948 0.08629573 0.24460642
0001d0 cb b8 23 be 73 25 5f be d2 6c 9a 3e 3d 74 94 be
       -0.15988462 -0.2179163 0.30161148 -0.28994933
0001e0 9c 56 75 3e 45 18 97 be b7 b3 26 3e 56 35 ea 3d
       0.2395882 -0.29510704 0.16279493 0.11435954
0001f0 3e f4 e5 bd cb f7 78 3e 41 0b 28 bd 96 12 a7 3e
       -0.11228226 0.24313276 -0.041026358 0.32631367
000200 b6 99 e2 be ea 55 bf 3e 58 23 d8 be aa 67 9c bd
       -0.44257897 0.37370235 -0.42214465 -0.0763696
000210 0d 78 e4 3d 58 b5 e3 3d 41 fd 70 be 0d b6 94 be
       0.1115571 0.11118573 -0.23534109 -0.29045144
000220 a3 04 50 be 8e c6 b6 be df 25 45 3e ee 51 be be
       -0.20314269 -0.3569836 0.19252728 -0.37171882
000230 2c ec 47 3e 6a 77 86 be 80 da cb 3e 45 11 d2 bd
       0.19523686 -0.2626298 0.3981514 -0.102572
000240 77 bb 6e 3e 92 47 40 be a3 9c 4f be e9 09 f0 be
       0.233137 -0.18777302 -0.20274596 -0.4688256
000250 8d 4a 2f 3b 7b db 41 be 8e 4a 8f 3e f7 bc 4a bc
       0.0026747317 -0.18931381 0.27986568 -0.012374154
000260 9b 4e 26 3e 07 07 6a 3e 24 25 95 3e 86 5b a8 3e
       0.16240923 0.22854243 0.291299 0.32882327
000270 6f b0 a0 3e 92 39 d0 3e c6 79 b8 3e a4 9d 89 3e
       0.31384608 0.40668923 0.36030406 0.26878083
000280 7c 71 89 be 4f 0d b0 3d fc 37 d5 3e 9c be 9b 3e
       -0.26844394 0.085962884 0.41644275 0.3041886
000290 f1 42 38 bd 26 99 86 be a4 c2 ad be 0a da e7 be
       -0.044985715 -0.26288718 -0.33937562 -0.45283538
0002a0 ba 82 17 be bb 38 54 3e f6 7e 2e bd 44 92 96 be
       -0.14795962 0.20724766 -0.042601548 -0.29408467
0002b0 8a 64 0c be 8c a7 58 be 66 b1 c7 3e 1b a9 82 be
       -0.13710228 -0.21157664 0.39002532 -0.25519642
0002c0 c1 7a 58 3d 54 d0 b7 bd f5 b4 ea bd ac 03 06 3d
       0.052851442 -0.08975282 -0.11460296 0.032718346
0002d0 f9 42 97 3e ce 55 7a 3d 8e 81 b5 3e 5d 3c d5 3d
       0.29543284 0.061116986 0.35450405 0.10411904
0002e0 37 a4 89 be 29 8d 5c 3e 8b 73 9b 3e 93 b3 98 3e
       -0.26883098 0.21538223 0.3036159 0.29824504
0002f0 a9 29 f8 3d 7d 24 91 be b9 28 10 bc 55 5c 9c be
       0.12117321 -0.2834815 -0.008798772 -0.30539194
000300 c5 b6 c2 3e c8 72 e1 be 7b 52 e1 3e 81 b0 0f bd
       0.38030067 -0.44032884 0.4400824 -0.035080437
000310 7a a5 f1 bd 10 b6 10 be f2 a8 75 3e 5e 48 0a 3e
       -0.1179914 -0.14131951 0.23990229 0.13504168
000320 72 46 c3 bd 4d 78 df 3e 3e 07 11 3d c6 19 78 3e
       -0.09534921 0.4364647 0.035407297 0.24228582
000330 94 45 a1 bd b0 f7 a1 3d 3f c0 f9 be 86 5d 6b bd
       -0.07874599 0.07908571 -0.48779485 -0.057462238
000340 94 2f 9d be 03 22 1b bd f3 b6 90 3e 7a 4d 9c 3e
       -0.30700362 -0.037874233 0.2826458 0.3052786
000350 61 55 39 be 8b 5c 93 3e 1b 72 a2 be 9e 6d 5f 3e
       -0.18098976 0.28781542 -0.3172768 0.2181916
000360 56 0f 36 be da 9f 89 be ce de 7a be a9 6c 96 be
       -0.17779288 -0.2687977 -0.24499056 -0.29379776
000370 57 ed 97 be 25 f5 db be f1 b1 d5 be 7f 55 f3 bd
       -0.29673263 -0.42960468 -0.4173732 -0.118815415
000380 86 f3 8f 3e 39 63 0b bd 47 b8 ca be 0b d4 bd be
       0.2811548 -0.034030173 -0.39593717 -0.37075838
000390 77 b8 1a be 69 2d 95 3e 80 a6 ae 3e 31 23 c9 3e
       -0.1510943 0.29136208 0.34111404 0.3928466
0003a0 30 ae 2f 3e 33 25 cb bc 63 b3 91 3c bd 10 d8 3e
       0.17156291 -0.024798011 0.017785734 0.4220027
0003b0 8f ca c6 3d de 5e 99 3e 7f 32 ae be 37 0a 1f 3e
       0.09706604 0.2995519 -0.340229 0.1553124
0003c0 2a 9f dd bd 75 31 12 bd 9e 3b 75 3e 40 99 89 3d
       -0.10821374 -0.035691697 0.23948523 0.06718683
0003d0 b9 56 a4 be 46 a9 d5 bd f4 3f 6d be 62 0e a7 bd
       -0.32097414 -0.10432677 -0.23168927 -0.0815704
0003e0 a8 6c de 3e d7 5f 8d be 70 00 b2 be bf 74 7e be
       0.43442273 -0.27612182 -0.3476596 -0.24849223
0003f0 7c 0c 87 be 7d c9 c4 3d 83 42 67 be 86 ed 21 3e
       -0.26376712 0.09608743 -0.22583966 0.15813264

action_head.bias f4 [4]
000000 2f 6d 28 bd 15 05 89 3d 79 e2 9d bc 17 43 b5 3c
       -0.04111975 0.066904224 -0.01927303 0.022126717
