output/4-agents_domain-CoinGame-4_MATE-TD-T0.25_2022-08-09-12-04-13/actor_net_2.pth (torch, 45463 bytes, 6 tensors)

fc_net.0.weight f4 [64, 100]
000000 ca 96 13 be 95 1c 33 be 2e 3b f6 bd c1 9d d3 bd
       -0.1441299 -0.17491372 -0.120230064 -0.103328235
000010 50 1e db 3d ae 2b 8f be e3 23 c1 bc 12 2b f1 bd
       0.10699141 -0.27963012 -0.023576682 -0.11775793
000020 81 73 04 3e 30 b4 d9 3d 1c bc 28 be 97 91 97 bd
       0.12934686 0.10630071 -0.16478008 -0.07400816
000030 42 50 87 bd fc 26 33 3c 65 6a 89 3e dc 7c 79 be
       -0.06607105 0.010934588 0.26838985 -0.24364036
000040 9e b5 dd bd e8 13 b4 bc ce 25 b2 3d dd 19 4f 3e
       -0.10825656 -0.021982148 0.08698617 0.2022471
000050 f7 fc 1c be 5f 07 36 3d 38 2b 18 bb 7a d2 05 3e
       -0.15330873 0.044440623 -0.002321912 0.13068572
000060 e8 52 dd 3d 09 37 8f bd fc 32 3b 3d 70 95 7f bd
       0.10806829 -0.06992919 0.04570292 -0.062398374
000070 cc df 03 bc 71 74 0f be 41 f6 77 bd 9c ab 88 3d
       -0.008048963 -0.14009263 -0.06053758 0.06673357
000080 39 ee 65 3d a6 ed 2c 3d a2 ba 7c 3d 11 c0 05 3c
       0.05613539 0.042218827 0.061701424 0.008163468
000090 c0 e8 cf 3d 9f d3 e4 3c 01 8c 81 bc c5 e4 cd bb
       0.101518154 0.02793294 -0.01581383 -0.006283375
0000a0 21 02 d6 bc a7 c8 a1 3c 21 74 fc bb 6a 30 3f bd
       -0.026124062 0.019748999 -0.0077042733 -0.04667703
0000b0 81 74 95 bc c0 26 e8 bd a0 62 f2 bd fd d3 24 3d
       -0.01824403 -0.11335516 -0.118352175 0.04024123
0000c0 83 51 7e 3d 6c c4 dc bc c7 35 ce bc 45 31 78 3e
       0.062089454 -0.02694913 -0.025172127 0.24237545
0000d0 8c 82 23 3c 16 5a 90 bd 9a 8d d6 bd 43 4e 05 bd
       0.009979855 -0.070484325 -0.10476227 -0.03254534
0000e0 df 07 18 3e 5d 37 ed 3d 86 8d 8b bd d3 df 4a be
       0.14846753 0.11582825 -0.06814103 -0.19811945
0000f0 58 81 55 3e 33 48 e5 3d ed a2 9e 3d 3e 75 ec 3c
       0.20850122 0.111954115 0.077459194 0.0288645
000100 a8 ef c2 bd 33 b6 1d 3e ef 94 4c 3d b4 77 94 3d
       -0.09518367 0.15401535 0.04994672 0.07249394
000110 4e 02 54 3d 5d e9 3c be f2 7c c3 3c f7 cf a6 3d
       0.05176001 -0.18448396 0.02386329 0.08145135
000120 5f 85 11 be 90 25 03 be bc 95 52 be 86 27 88 bd
       -0.14211033 -0.12807298 -0.20564932 -0.066481635
000130 78 19 82 3c 8f 3b 4b 3d 18 75 8d 3d c3 44 9d bd
       0.015881285 0.049617346 0.069070995 -0.07679131
000140 01 0b 5c 3e 7d 96 fa 3d af eb 8a 3c 4c 5b 8b bd
       0.21488573 0.122357346 0.016958086 -0.06804523
000150 ed 5b e4 bd fa dc 3d bc 6b b1 05 3d 17 f9 58 bd
       -0.11150346 -0.011588329 0.032639902 -0.052971926
000160 22 00 c1 bc 12 33 d8 bd 98 c3 1e 3b b9 85 7c 3d
       -0.023559634 -0.10556616 0.002422547 0.061650965
000170 82 10 a8 3d d8 c8 98 3c 69 6b 04 be 42 59 8c 3d
       0.082062736 0.018650457 -0.12931599 0.06852962
000180 7a 90 d1 3c 55 04 20 be 6a 2c c8 3d 2e 85 89 bd
       0.025581587 -0.15626653 0.09774096 -0.06714855
000190 3a 06 04 bd 9c 4b fc 3c 58 3c 18 3e 10 88 26 3e
       -0.0322325 0.030797772 0.1486677 0.16262841
0001a0 3c d0 a3 3d 1f dc 5a be 22 81 3b 3d 8c 67 49 bd
       0.07998702 -0.21373032 0.045777448 -0.049171016
0001b0 d3 d2 7d 3d 62 6b 5d 3e 75 9f 04 be 09 28 ab bd
       0.061968636 0.21622995 -0.12951453 -0.083572455
0001c0 ed 79 12 be ef cb 5a 3c f9 92 86 3b 16 a3 23 be
       -0.14304323 0.013354286 0.004106876 -0.15980181
0001d0 36 fa fd bd 6b b0 57 3d d2 85 0e bd ac 40 65 bc
       -0.124012396 0.05265848 -0.03479559 -0.01399247
0001e0 ff 4f 96 be 2d 0a 2c bd a0 10 d6 bc 62 d6 96 3d
       -0.29357907 -0.042001892 -0.026130974 0.07365109
0001f0 e0 50 2c bd fc bd 7c bc 5c 37 a3 3d 45 0d 75 bc
       -0.042069316 -0.015426155 0.07969543 -0.014956777
000200 d6 8c c6 bd c4 f8 84 bc df ed 7e bd 2e 82 f8 bc
       -0.09694831 -0.016231902 -0.06223857 -0.030335512
000210 95 bc c5 3d 15 9e a6 bc df bd 28 bd 16 95 ed bc
       0.0965511 -0.020339051 -0.0411967 -0.029001754
000220 48 3d ca 38 5d 4e 68 3d 27 6b 7d bc 56 ed 1d 3d
       9.643525e-05 0.056715358 -0.015467442 0.03855642
000230 54 a5 f4 bd 3d 98 97 bd 54 0b 1a 3d 76 8f 8e 3d
       -0.11945596 -0.07402084 0.03760846 0.06960957
000240 d7 f4 b5 3b 46 eb af bc 2b ff ae 3d f8 a3 38 bd
       0.005552869 -0.021474492 0.08544763 -0.045078248
000250 69 69 84 bc c4 29 94 bd 86 68 0f 3d 24 02 b3 3c
       -0.016163545 -0.07234529 0.03501179 0.021851607
000260 9d e6 ac 3d 20 ed 8d bd 56 12 b0 be 08 49 fc bc
       0.084424235 -0.06929994 -0.3438899 -0.030796543
000270 64 09 73 3d 56 e3 cb bc 04 d5 64 bd 02 9f 20 be
       0.059335127 -0.024888676 -0.05586721 -0.15685657
000280 fd a5 0c 3e f4 df 53 3e 02 36 1c 3e fb ef 5b 3c
       0.13735195 0.206909 0.15254977 0.013423915
000290 09 de 44 be 63 72 48 3e 29 cb aa 3d d8 be 02 3e
       -0.19225325 0.19574885 0.08339531 0.12768114
0002a0 17 ac 73 3c 2c c3 3d be 0a bd 6c 3e 7c 6b 1a 3e
       0.014872572 -0.18531483 0.23118988 0.15080065
0002b0 08 49 88 3d 3e 2e 06 3e 73 03 3f bd fb 41 31 bc
       0.066545546 0.13103577 -0.04663415 -0.010818954
0002c0 14 23 8f bd f1 a8 b0 bd 13 15 bf bd ed 3f 76 be
       -0.069891125 -0.08625973 -0.093301915 -0.24047823
0002d0 00 38 b3 3d 58 c9 39 3e 03 10 3a 3d c3 74 6b 39
       0.087509155 0.18143213 0.045425426 0.00022454844
0002e0 21 07 54 be 02 6f c4 3c 12 7a 21 bd 24 14 78 bc
       -0.20705844 0.023978714 -0.039423056 -0.015141521
0002f0 71 84 05 bc ce 28 22 bd d7 6e 86 3d 01 9d 65 bd
       -0.008149252 -0.039589696 0.0656411 -0.056057934
000300 72 e5 27 3c d6 27 9f bd e0 06 45 be 9b 45 45 3e
       0.010247575 -0.0777127 -0.19240904 0.19264834
000310 87 5b fc 3d 6a ff fc bd 9a 0e 59 3c cb 5f c0 bd
       0.12322145 -0.12353404 0.01324811 -0.09393271
000320 d7 ef 72 bd 71 d2 d7 bd c9 65 2e 3d b4 14 0e 3d
       -0.05931076 -0.105381854 0.04257754 0.034687713
000330 a9 1c 47 bb b3 cc 8d bd 11 7f 99 3c 7d 81 60 3d
       -0.0030382073 -0.06923809 0.018737348 0.05481099
000340 58 7e dc 3c d9 b6 53 3d d9 56 2a be ea c8 1d be
       0.026915714 0.05168805 -0.16634692 -0.15408674
000350 1c 54 da bb 14 cc 97 3d da b0 c9 bc 47 7b 61 be
       -0.0066628587 0.07411972 -0.024620462 -0.22019683
000360 94 ad a4 bd 47 ea 51 3d 76 c8 32 3e 48 1e da 3d
       -0.0804092 0.051248815 0.17459282 0.10650307
000370 5c 09 04 be 8f f9 01 bd 6d ce 29 3c bd a6 e4 3d
       -0.12894195 -0.03173214 0.010364157 0.11164615
000380 ac 4a f1 3d 90 09 56 bd 3d d9 56 3d a3 65 61 bd
       0.11781821 -0.052255213 0.05245327 -0.05502857
000390 5e 2c d9 bd e8 c1 cb 3d 6a 6a cd 3d e3 57 42 3d
       -0.106041655 0.09949094 0.100300625 0.047447097
0003a0 ac 78 52 3c 26 70 da 3d cc e8 99 3d d5 cf 67 bd
       0.012846153 0.10665922 0.075151056 -0.05659469
0003b0 9e d2 80 3d 49 8b 69 3d 3c 0b 99 3d cb ae 04 bc
       0.06290172 0.0570176 0.07472846 -0.0080983145
0003c0 d6 41 e3 ba 94 a8 8c bd f3 e3 be bd 2f 62 bd bc
       -0.0017338346 -0.06868091 -0.093208216 -0.023118107
0003d0 3e 18 ea bd ab bf 89 bd 8d f7 c5 3d 33 5e 28 bd
       -0.11430405 -0.06726011 0.09666357 -0.04110546
0003e0 ca 42 86 bd d2 3b 3c bd fb f5 d4 3d f1 91 59 3e
       -0.06555708 -0.045955487 0.103984796 0.21247078
0003f0 3b be 44 3e a5 05 1d bd 79 44 78 3d c2 61 c9 bd
       0.19213192 -0.03833546 0.060612176 -0.09833099

fc_net.0.bias f4 [64]
000000 e2 7a 70 bd c2 91 6e 3d 75 31 97 bd a6 c7 8d 3d
       -0.05871094 0.058244474 -0.0738248 0.069228455
000010 bd 5b aa bc 1d 67 5c 3d c9 a6 55 3d 62 4b 80 3d
       -0.020795697 0.053809274 0.05216101 0.06264378
000020 f3 a8 b0 bd fb a6 23 3c 58 21 61 3d 7b 54 28 3d
       -0.086259745 0.009988542 0.05496344 0.04109619
000030 69 7c a9 bd 72 12 17 bd 00 c0 eb bd 80 1a 49 3d
       -0.082756825 -0.036882825 -0.115112305 0.049097538
000040 c8 18 85 38 fd 55 13 bc ca 75 85 bd dd dc 18 bc
       6.34655e-05 -0.008992669 -0.06516607 -0.009330002
000050 f0 9e 66 bc 43 6f 23 3a bf b3 60 3d 3b 52 a6 3d
       -0.01407598 0.0006234536 0.05485892 0.08121153
000060 03 44 d4 3b 12 8f 99 bd de 0f 13 3d e0 23 81 bd
       0.006477834 -0.074979916 0.035903804 -0.06305671
000070 38 fd 85 3d 9c 68 54 bc 8b 41 85 3d 0f 2f df 3c
       0.06542438 -0.012964394 0.06506642 0.027244119
000080 cc ae 31 39 e2 78 98 bd 43 73 0e bc 23 bd 87 3d
       0.00016945152 -0.074449316 -0.008694473 0.06627872
000090 f6 4e 64 3d 08 c7 5e 3d c0 9e 01 3e b4 82 a1 3d
       0.055739366 0.05438903 0.12658215 0.07886258
0000a0 57 89 0d bc 57 f8 cb 3c 41 fb 04 3d 3f 69 0f bd
       -0.008638701 0.024898691 0.032466177 -0.03501248
0000b0 9b 57 83 bc 6f 21 d9 3d 4c 3f 96 bd 87 9b d3 bc
       -0.016032984 0.1060208 -0.07336292 -0.025830997
0000c0 1d ab 87 bc f8 56 cb bb 02 5f 8c 3c 7c fb e8 3c
       -0.016561085 -0.006205436 0.017135147 0.02844023
0000d0 e2 76 f1 3c 12 7b 4b ba ee 0f d1 3b f4 dd 6c bd
       0.029475633 -0.00077621744 0.006380073 -0.05782886
0000e0 93 d2 85 bc 71 be e7 3d 6a df a9 3d a6 c5 04 bd
       -0.016335761 0.11315621 0.08294566 -0.032415055
0000f0 42 b9 1f bd 1e 6e 11 bd e9 4a be bb 88 ad 40 3d
       -0.038995035 -0.035505407 -0.00580727 0.047040492

fc_net.2.weight f4 [64, 64]
000000 5d 5c 80 3d 19 be 2b 3e ce 82 de 3d c2 d5 0d bd
       0.06267617 0.16771735 0.10864793 -0.034627683
000010 4f ff d0 3c 3d ba 8d 3e b0 51 12 be 3e c8 a6 bd
       0.025512366 0.2768115 -0.14288974 -0.08143662
000020 9c 34 37 3d 2b d1 d9 3d e1 27 15 3e f4 98 b6 be
       0.044727907 0.10635599 0.14565994 -0.3566357
000030 84 d0 80 3e 9a a3 87 bd 48 e0 98 3c c4 65 a8 3c
       0.25159085 -0.066230014 0.018661633 0.020556338
000040 a0 a9 34 3e 38 75 5a bc 2a b1 84 3e 86 e3 26 3e
       0.17642832 -0.013333611 0.25916415 0.16297731
000050 ea 64 bd be 9f 20 bf 3d cc 56 67 be f2 11 2d 3e
       -0.36991054 0.09332394 -0.22591704 0.16901377
000060 bc 49 86 bd b4 ab c6 bd 6b 55 22 be 2a 62 3f 3e
       -0.065570325 -0.097007185 -0.15852897 0.1868979
000070 9b e4 02 3e 16 c1 15 bd 51 16 55 be 26 fd 84 3e
       0.12782519 -0.036561094 -0.20809294 0.25974387
000080 63 29 02 3e 7a 88 4a be 6c 9e 02 bd 7d 9c f8 bd
       0.127111 -0.19778624 -0.031889364 -0.12139223
000090 58 98 c2 3e 69 b5 f8 bd 89 d7 23 be 8b 82 a0 be
       0.38006854 -0.12143976 -0.16000189 -0.31349596
0000a0 be 20 b6 bc 6c 10 9f 3d 05 80 b5 3d 3a 6d b5 bc
       -0.02223241 0.07766804 0.088623084 -0.02214681
0000b0 b4 8d 97 bd 37 7b 7c be 6a 31 be 3d 39 7a 1c 3e
       -0.074000746 -0.24656378 0.09286769 0.15280999
0000c0 b9 d5 8d be 28 47 8f 3d a9 98 23 be 4f 8d b6 3d
       -0.2770212 0.06995994 -0.15976204 0.08913671
0000d0 60 28 09 3e 90 3a 9f bd 2c 6a 83 be 18 a2 e7 bd
       0.13394308 -0.07774842 -0.2566694 -0.11310214
0000e0 a1 82 66 bc f5 fa 26 3e 4a 3d 34 be f3 65 a5 be
       -0.01406923 0.1630667 -0.17601505 -0.32304344
0000f0 3a d2 a3 be ef c0 80 3e c1 c7 cd 3d a7 5c b7 3d
       -0.31996328 0.25147197 0.10047866 0.08953219
000100 1a db d6 bd ec 8e 0f be c2 cd 1c be 63 58 72 3d
       -0.10491009 -0.14019364 -0.15312865 0.059166323
000110 86 96 a3 be db 63 9d be 2c e8 f7 bd f3 e5 7f 3e
       -0.31950778 -0.30740246 -0.1210483 0.24990062
000120 01 df 14 3d 32 33 40 be ec 94 85 bd 0d 7d 9d 3e
       0.036345486 -0.1876953 -0.06522545 0.3075947
000130 d6 77 36 be b2 bb 39 3e 56 eb 4f bd 8a 81 49 bd
       -0.17819151 0.18138006 -0.050761543 -0.049195804
000140 9e 0a 20 be d3 8b a4 bc 2b fd 79 be e8 5c 12 be
       -0.1562905 -0.020086205 -0.24412982 -0.14293253
000150 6b 7c 28 3e bc 7e d6 3c 91 c0 89 3e 8a 18 1e 3e
       0.16453712 0.026183479 0.2690473 0.15439048
000160 a6 47 17 bd 1e 73 69 bd 9f b6 76 3e 7a d0 8f be
       -0.036933564 -0.05699455 0.24093102 -0.28088742
000170 35 1e 1c 3e f6 18 6c be 7d 20 6a 3e d3 71 95 be
       0.15245898 -0.23056397 0.22863956 -0.29188403
000180 07 86 c4 3d a2 33 ab 3d bb 8a 46 be 03 25 b5 3e
       0.09595876 0.083594576 -0.19388859 0.353798
000190 08 a0 66 be e1 3f a2 3c f1 2f 95 3e 3b 72 a9 3e
       -0.22521985 0.01980585 0.2913814 0.33094963
0001a0 f3 8c e3 3d 43 f4 10 3c 86 e7 81 bd 99 75 eb bd
       0.11110868 0.008847299 -0.06342988 -0.11497039
0001b0 6b 8c 0b 3e 88 cd 22 3e c5 fa 86 be 44 78 d6 3d
       0.13627784 0.15898716 -0.26363197 0.104721576
0001c0 0f bc 59 3e f0 ce 81 be bf 4c 28 3e 19 a4 e0 bd
       0.21263145 -0.25353193 0.16435526 -0.10968799
0001d0 11 59 1b be f8 ce 41 3d 49 02 0b 3e 81 28 8c 3d
       -0.15170695 0.04731652 0.1357509 0.06843663
0001e0 78 e0 01 3e e1 21 1e 3e b1 8f 84 3d 6b fc 30 3e
       0.12683284 0.15442611 0.064727195 0.1728379
0001f0 4e ce 41 3e 4c ae d7 bd 34 4c 33 be 31 6a 39 be
       0.18926355 -0.10531291 -0.17509538 -0.18106915
000200 c8 99 8a bd 27 01 a7 3c c5 61 09 3e 1c cb 75 bc
       -0.06767613 0.020386292 0.13416202 -0.015002038
000210 84 e9 87 3e 07 bc 3f 3e e8 72 88 3d 4c 6d 1a be
       0.26545346 0.1872407 0.06662542 -0.15080756
000220 85 a0 93 3d 14 33 4b 3d 21 78 34 bd bb 0f 9a bd
       0.07208351 0.04960926 -0.044059876 -0.075225316
000230 51 eb 3c bd 5a cb 89 be ab 7d 9e 3d bb f8 13 3e
       -0.046122853 -0.26912957 0.07738813 0.14450352
000240 65 b6 37 bd 6f cf d8 bd e9 db ee 3b fe 2f 29 bd
       -0.04485168 -0.1058644 0.007289399 -0.041305535
000250 9d 8a 4e bd 40 8c 2b bd 5f ed 4b be a8 7f e4 bd
       -0.05042516 -0.0418818 -0.19914769 -0.11157161
000260 9e c3 b0 3e ee 52 c2 bd 5d a8 13 be db e6 13 3e
       0.34524244 -0.09488474 -0.14419694 0.14443533
000270 0a 34 77 3d 84 33 32 3e 18 7e d4 bd e6 2f 9b 3e
       0.060352363 0.17402464 -0.10375613 0.3030998
000280 67 3a e1 3c 1c 9f 16 3d b5 6f 2b 3e 2b 23 de be
       0.027493669 0.036772832 0.16741832 -0.43386206
000290 ab f1 e0 3d ed 0c 97 bc 76 74 2d be 73 d0 da bc
       0.109835945 -0.01843878 -0.16938958 -0.026710724
0002a0 6b c1 0d be ea b5 5d 3e f5 7d c5 3d e6 c1 44 3e
       -0.13843314 0.21651426 0.09643165 0.19214591
0002b0 1d 96 a8 3c 5f 79 5c be 3f 10 48 3e a8 fb 06 bd
       0.020579392 -0.21530674 0.19537447 -0.03295484
0002c0 bf d3 38 be 36 9c 85 3e f6 ec bc bd bf 3d 5f 3d
       -0.18049525 0.26095742 -0.09224884 0.054502245
0002d0 e3 f2 88 3e 0f d6 3c 3d 4a 00 39 be c3 e5 0a be
       0.26747808 0.04610258 -0.18066517 -0.1356421
0002e0 63 6d e7 bd 2e c3 d8 bc 37 bc ed 3d 0f fe 10 be
       -0.11300161 -0.026460256 0.11608165 -0.14159416
0002f0 5a be 58 be 5a 4f 56 3e 36 73 bf 3d b2 61 96 3d
       -0.21166363 0.20928708 0.093481466 0.07342853
000300 52 c3 1e be f8 0a a0 bc b2 1e a5 3a 42 45 1a 3e
       -0.15504196 -0.01953648 0.0012597649 0.15065482
000310 82 b4 72 3c 35 a9 42 be cd 3b 96 3c 13 90 ff 3a
       0.014813544 -0.1900986 0.018339062 0.0019497894
000320 84 b4 a2 3d 2e 1d a6 be 20 aa 93 be 1a 63 af 3e
       0.07944587 -0.32444137 -0.28840733 0.34255296
000330 84 07 81 bc b8 6d db bc 41 a2 05 3e e7 3b fe 3d
       -0.015750654 -0.026785716 0.13050176 0.12413769
000340 38 42 81 be 2d 10 c1 3d ed 9d 51 be 45 fb b6 bd
       -0.25245833 0.094269134 -0.204704 -0.089346446
000350 e6 2e ff 3d b0 fe 13 be 4b 0e e3 3d 0f d6 6d bd
       0.12460117 -0.14452624 0.110867105 -0.05806547
000360 29 44 35 3e 12 cb ff 3c a0 f1 44 3e da 5d a4 bd
       0.17701782 0.031224761 0.19232798 -0.08025713
000370 55 a0 2d 3d 3f af cf 3c cc 30 f6 3d 39 a4 a0 3d
       0.042389233 0.025352119 0.12021026 0.07843823
000380 e2 af 2e be 11 44 6a 3e ee c8 8b 3c 1d be 9d 3d
       -0.17059281 0.22877528 0.017063584 0.07702277
000390 f0 2e 30 be 80 cb be 3d 0b e7 6c bd 95 c0 9d 3e
       -0.17205405 0.09316158 -0.057837527 0.3081099
0003a0 25 98 ad 3c e2 20 d6 3b d5 6c fa 3d c4 97 56 bc
       0.021190712 0.0065346817 0.12227789 -0.013097707
0003b0 d0 a4 9a bd c1 f2 06 3e 21 6f 66 3c 51 83 91 be
       -0.07550967 0.13178541 0.014064581 -0.284205
0003c0 d9 d7 6f 3e a3 20 01 3e 92 0c f2 3d db cd 68 be
       0.23422183 0.12610106 0.11818804 -0.22734778
0003d0 3b 37 a5 3d d0 c3 ad 3d f7 af 66 3e d0 c0 03 be
       0.08067175 0.08484614 0.22528063 -0.12866521
0003e0 b7 63 1c 3d 48 eb c1 3c 9f 8f 4d 3e 0b 90 98 3e
       0.038181033 0.023671761 0.20074318 0.29797396
0003f0 1f 6c 72 3e 34 b8 93 be 57 11 b1 bd 29 ae 33 be
       0.23674057 -0.28851473 -0.086458854 -0.17546906

fc_net.2.bias f4 [64]
000000 ee a6 1a bd bf bc 11 3d 0e 48 20 bd 95 d1 e0 3d
       -0.037756853 0.035580393 -0.039131217 0.109774746
000010 59 f7 fd 3d 9b 20 35 3d 7b 3b 46 3d 6f 46 68 bd
       0.124006934 0.044220548 0.04839657 -0.056707796
000020 a0 c1 90 3d 17 c4 cf 3d 2e 82 70 3b c3 f0 6a 3d
       0.07068181 0.10144823 0.0036698687 0.057358515
000030 0c ae 9f ba bb b0 be 3d f8 03 86 3d 21 47 ad 3c
       -0.0012182607 0.093110524 0.06543726 0.021152081
000040 46 c0 04 3d c9 90 eb bd f1 26 68 bd 7a 77 91 3d
       0.03240993 -0.11502225 -0.056677762 0.071028665
000050 54 3d 21 bc e1 7f 32 3d 8a 7d e1 3c eb 76 ca 3d
       -0.009841282 0.043578986 0.027525682 0.09885963
000060 50 d0 15 3c 47 de 36 3d f8 cf 66 bc 4a 57 d7 3d
       0.009143904 0.044645574 -0.01408767 0.10514696
000070 ab f5 bb 3d e3 d1 da bc ce c7 37 3d ac 08 1f bc
       0.09177717 -0.02671141 0.044868283 -0.009706657
000080 31 93 14 3e ea 36 83 3c 3f a9 a2 3d 30 dd 83 3d
       0.14509274 0.016017396 0.079424374 0.064386725
000090 b9 86 68 3d 85 7a 6a bd 65 70 f5 3d a5 20 d7 bd
       0.056769107 -0.05724575 0.11984328 -0.10504273
0000a0 81 50 ed 3d b3 2a ab 3d c0 7b 7e bd 98 a3 f9 3c
       0.115876205 0.083577536 -0.062129736 0.030473515
0000b0 fa b8 fe 3d aa 52 14 bd 55 5f 03 3e 97 ed c9 3c
       0.12437625 -0.036211647 0.12829335 0.024649424
0000c0 ec 88 ed 3d e3 74 2e bc 79 51 e0 bc 1a 35 e4 3d
       0.115983814 -0.010647985 -0.0273826 0.11142941
0000d0 31 64 e6 3d 65 48 20 3c a1 c7 78 bd 4e 71 36 3d
       0.11249579 0.009782885 -0.060737256 0.04454165
0000e0 47 47 fd 3c ca 71 81 3d 18 66 81 bd c9 f3 c1 3d
       0.030917777 0.06320532 -0.06318301 0.094703265
0000f0 6e fa 0f 3e 7d 7f e7 3c a7 a9 66 3d 95 71 9c 3d
       0.14060375 0.028259033 0.056314137 0.076388516

action_head.weight f4 [4, 64]
000000 63 6b b8 be cf b7 a0 3e ae bd 8e be 07 10 1c 3e
       -0.3601943 0.31390235 -0.2787909 0.15240489
000010 48 0a df bd b1 08 a3 be a0 c8 a6 be 6e 5e 96 be
       -0.10890633 -0.3184257 -0.3257494 -0.2936892
000020 ab ad 62 be 27 87 58 3c 93 99 a1 3e 25 16 8b 3d
       -0.22136562 0.013215817 0.3156248 0.06791333
000030 1c cf af 3e 11 74 ac 3e 27 e9 ac 3d 3f ab d8 be
       0.343377 0.33682302 0.08442908 -0.4231815
000040 4f 22 a2 be ba 84 36 be 4a 4f a9 be 96 9a 76 3c
       -0.316668 -0.17824069 -0.33068305 0.015051505
000050 45 23 77 bc 17 4c 97 be c1 c8 8f be 31 bd 7e 3e
       -0.0150840925 -0.2955024 -0.2808285 0.24876858
000060 13 18 7f 3e cd a2 5d be 29 39 9f 3e 75 3a 9f 3e
       0.24911527 -0.21644135 0.31098297 0.31099287
000070 46 a7 99 3e 7b 10 ba be 97 ef 56 bc 3e 7b 31 be
       0.30010432 -0.363407 -0.013118646 -0.1733217
000080 14 f3 9e 3e 92 97 b7 bd a6 18 b6 be f9 6d 90 3b
       0.3104483 -0.089644566 -0.3556568 0.004407641
000090 53 58 90 be 99 68 6f be 62 a3 43 3e 01 a4 1b be
       -0.28192386 -0.23379745 0.19105294 -0.15199281
0000a0 9c 15 18 be 67 bf 92 3e e9 aa 30 be 0e ef 7d 3e
       -0.14851993 0.28661653 -0.17252697 0.24798223
0000b0 bf bf a3 3d 52 da 5b 3d f6 59 d4 be c2 c8 9a be
       0.07995557 0.053675003 -0.41474885 -0.3023129
0000c0 38 07 19 be 8c d7 0a 3e 96 55 92 3e b6 01 d2 3e
       -0.1494416 0.13558787 0.28580922 0.4101693
0000d0 ac a4 7e be d1 df 96 be 75 a3 f1 3d 1d 51 00 3f
       -0.24867505 -0.29467633 0.11798755 0.5012377
0000e0 56 35 43 be a3 4f cc be dc 79 84 3e 66 1b 67 be
       -0.19063315 -0.39904508 0.2587422 -0.22569045
0000f0 69 d2 4c 3e 8e 5c c3 be 4f 0e ad bd 3d f4 3c 3e
       0.2000214 -0.3815655 -0.08449995 0.18452545
000100 1a c0 88 3e 15 68 e0 be 76 33 b9 3e fa 56 6f be
       0.26709062 -0.43829408 0.36172074 -0.23373023
000110 af 30 45 3e b5 3d a3 3e 93 96 8a 3e be 40 ba 3e
       0.19256853 0.31883016 0.27068004 0.3637752
000120 c9 64 3b 3e 48 a7 4b be b1 ad 13 be e1 b9 82 be
       0.18300165 -0.19888031 -0.14421727 -0.2553244
000130 c7 e7 59 be bd a9 90 be 00 0c 78 be 22 f9 aa 3e
       -0.21279822 -0.282545 -0.24223328 0.33393198
000140 de 6b a8 3e a2 ee 7e 3e 98 7c 87 3e a0 79 03 3e
       0.32894796 0.24895719 0.26462245 0.12839365
000150 c3 a9 34 bd 52 d3 c2 3d 72 a5 55 3e bc 74 9e be
       -0.04410721 0.095129624 0.20863894 -0.30948436
000160 2c c4 80 be b4 7a 5d 3e 5f b2 eb be 3d 5d b5 be
       -0.25149667 0.21628839 -0.46034524 -0.35422698
000170 2c e9 c2 be 62 b1 ab 3e 42 82 6b 3d 8f b9 e8 3a
       -0.3806852 0.3353377 0.05749727 0.0017755496
000180 f0 0f 9f be bf f1 86 bd b6 bf 0d 3e 09 97 da 3d
       -0.31066847 -0.06589078 0.13842663 0.10673339
000190 ca e0 8b 3e 62 9b 74 3e 45 f5 c6 be f2 3e 34 bd
       0.27319938 0.23887399 -0.38859 -0.04400534
0001a0 a4 5e 66 3d d3 b2 9b be b8 0e 99 bc 68 80 9f be
       0.0562426 -0.3040987 -0.018683776 -0.31152654
0001b0 6b 11 9d 3d a6 0e 82 be bd b7 3c 3e 78 62 bb 3e
       0.07669338 -0.254018 0.18429466 0.36598563
0001c0 c7 bd 2b 3e 41 74 43 be 82 78 bd be 0a 7c d6 be
       0.16771613 -0.19087316 -0.37006003 -0.4189151
0001d0 ad 4b 19 3e 8b 8b e1 3d 29 19 a3 bc 9f 2f 95 be
       0.14970274 0.11012944 -0.019909458 -0.29137895
0001e0 2f 90 a6 3e a3 43 86 3e ac 0e 62 3d d8 5f 4a 3e
       0.32531878 0.26223478 0.055189773 0.19763124
0001f0 94 83 a2 be f6 f3 5a 3e 94 84 f4 3d 0a 29 8e be
       -0.3174101 0.21382126 0.1193935 -0.27765685
000200 d7 e8 08 3e 62 3f 0a bd a3 17 20 be 90 bf 65 be
       0.13370071 -0.033751853 -0.15634017 -0.22436357
000210 f9 d5 5a 3e ec 97 2b 3e 80 3f 96 3d 6c b3 7d be
       0.21370687 0.16757172 0.073363304 -0.24775475
000220 e3 a8 5c be d9 7a 6c 3e 70 6b 96 3e 07 64 44 be
       -0.215488 0.23093738 0.29378843 -0.19178782
000230 6f ad 02 be 96 01 0a 3e d7 5f 89 3e c5 ea 3f 3d
       -0.12761472 0.13477167 0.26830932 0.046854753
000240 c7 f9 96 be a0 37 04 be 1b 31 63 3d 20 b1 bf 3e
       -0.2948744 -0.12911844 0.055466752 0.37439823
000250 66 57 a8 be 9f 94 e6 3d cb 0e ce be db 1e af 3d
       -0.3287918 0.11258816 -0.4024566 0.08550807
000260 70 fb 8f 3e 2c 76 8a 3e 51 e4 63 be 79 3f 1e be
       0.2812152 0.27043283 -0.22255065 -0.154539
000270 ba a9 3f 3d b0 d4 71 be 1c 67 e4 3e 6f d4 b8 3e
       0.046792723 -0.2361629 0.44609916 0.36099574
000280 6d c6 55 bd 65 46 e3 be 58 be b6 be 5e 35 c0 be
       -0.052191187 -0.44389644 -0.35692096 -0.37540716
000290 e8 97 a3 3e fc 1f 05 bf 94 21 27 be 8f 3a 68 be
       0.31951833 -0.5200193 -0.16321403 -0.22678588
0002a0 7e 5d d2 3e 2c c1 d4 3e de 57 23 be 1b 90 35 be
       0.41086954 0.41553628 -0.15951487 -0.17730753
0002b0 ff c1 e4 3e e9 5d 46 be 08 97 b9 bd 55 0a af 3d
       0.44679257 -0.19371761 -0.0906201 0.085468926
0002c0 f3 6a cd 3e 8d 7a 6b be c3 16 9b be 37 b4 1c be
       0.40120658 -0.22995968 -0.30290803 -0.15303122
0002d0 d3 5b 92 be db ee 57 3e 19 0b e7 bd f3 db b0 3d
       -0.2858568 0.2108721 -0.112814136 0.08635702
0002e0 c3 03 bb bd c8 a4 5e 3e 45 16 21 3e 6b 72 f0 3e
       -0.09131577 0.21742547 0.15731151 0.46962294
0002f0 ff ea 34 be 77 5e 15 3e 76 1b d5 be 59 93 9e be
       -0.17667769 0.14586817 -0.41622514 -0.30971792
000300 7b 5a 3d be df 68 d8 bb 45 41 9b 3d cb cd 85 3e
       -0.18491547 -0.0066042985 0.075808086 0.2613357
000310 55 10 9b be a8 fb 4b be 08 7e 02 3c 53 0d 75 3e
       -0.30285898 -0.19920218 0.0079646185 0.23930864
000320 d2 c3 d3 3d 98 92 bd be a7 5b c0 be 3c 94 38 3e
       0.10340084 -0.37025905 -0.37569925 0.18025297
000330 e6 60 af 3d cb 4a ba be ee 43 c8 bd 4f 4b fc 3d
       0.08563404 -0.36385188 -0.097785816 0.123190515
000340 d5 2f c7 3e f8 5e 9b bc 6d e1 25 3e 4b cd 81 be
       0.3890368 -0.018966183 0.16199274 -0.2535194
000350 f6 bf be 3e 9a 55 3e 3d de a0 cb 3e 52 ff bb 3d
       0.3725583 0.046468355 0.3977117 0.09179558
000360 ad 37 08 be 8b d6 9c be a1 cc 92 3d 95 ea ab 3d
       -0.13302489 -0.30632433 0.07167936 0.08394352
000370 74 a9 b1 bb 58 6f 8d 3e af 9d ce be ac 9b 80 be
       -0.0054218117 0.2762401 -0.40354678 -0.25118768
000380 7c c3 23 be f3 5a cc 3e 18 f8 af 3e ed 9c a1 3e
       -0.1599254 0.3991314 0.34368968 0.31565037
000390 e5 63 8e be ec 8a f5 3e 61 ae 63 3c 13 c6 6d 3e
       -0.27810588 0.4795755 0.013896556 0.2322009
0003a0 ad 19 b1 be 3e ec f6 be f6 6b 9b 3e 85 c8 31 3e
       -0.34589902 -0.48227113 0.30355805 0.17361648
0003b0 1f 54 07 bf 88 b5 73 3e d5 0c 55 3d 89 35 02 3e
       -0.52862734 0.23799717 0.05201419 0.12715735
0003c0 8c 0d de be 8f d7 a5 3e bd 19 31 3e 6d a8 e1 3d
       -0.4336971 0.3239102 0.17294975 0.11018453
0003d0 61 85 96 3e 94 50 5d bd b0 3a 9a bd 0c 78 9c be
       0.29398635 -0.054031923 -0.07530725 -0.30560338
0003e0 78 1f 15 3e 02 09 42 bd 0b 9d 37 be 35 28 dc be
       0.14562786 -0.04737187 -0.17931001 -0.42999426
0003f0 f0 5c 3a 3e 7b 95 1e be ef d3 e4 3e 8b 52 87 3e
       0.18199515 -0.1548671 0.44692943 0.26430163

action_head.bias f4 [4]
000000 d2 db 07 bd a8 4f 31 3c 3c 29 bd 3d 6b be 6d 3d
       -0.03316862 0.010822214 0.092363805 0.058042925
