output/4-agents_domain-CoinGame-4_MATE-TD-T0.25_2022-08-09-12-04-13/critic_net_2.pth (torch, 44695 bytes, 5 tensors)

fc_net.0.weight f4 [64, 100]
-0.035924222 -0.13262573 -0.14114486 -0.1055536 -0.01617718 -0.041550662 -0.19512379 0.0231267
-0.017207352 -0.0072576283 -0.19162945 -0.031469245 -0.15014452 -0.084953934 -0.05985275 -0.060290426
-0.14701636 -0.16297457 -0.08592615 -0.13665971 -0.11751525 -0.12772024 -0.04936452 -0.077235654
0.054495852 -0.04639794 -0.22785033 -0.0185826 -0.20518707 0.053825624 -0.033883862 -0.099781685
-0.23391803 -0.005595397 -0.024020065 -0.050550103 -0.027104426 0.03006475 -0.1820008 -0.07617149
-0.06383216 0.02420838 -0.21463013 -0.050672915 0.0016582155 -0.109687075 -0.16107154 -0.16390716
-0.015116874 -0.046918873 0.07339554 -0.00026902725 0.026580583 -0.041203603 -0.0823952 0.042038
0.055689353 0.03646884 0.0070791813 -0.0117912395 -0.03135111 -0.0064403717 -0.013858533 0.03975914
0.029512277 0.058185738 0.058426667 -0.051820662 0.12118115 0.046403605 0.10378774 0.032132413
-0.00759565 0.015338878 0.037751354 -0.044365898 -0.0068028513 -0.03102822 -0.25694937 -0.09668352
0.007697604 -0.16239715 -0.12629275 -0.041375715 -0.22361863 -0.13040836 -0.0564755 -0.017660815
-0.16110349 -0.20826192 -0.19765706 -0.122125104 -0.12208749 -0.106844366 -0.14725326 -0.08452308
-0.0015113825 -0.11552447 -0.12845504 -0.15333389 -0.0034144572 0.054527257 -0.20298056 -0.10006736
-0.08140267 -0.024684265 -0.05571345 0.072167374 -0.10119596 -0.11311147 -0.10687835 -0.006105771
-0.10416212 -0.02375907 -0.107937776 -0.12963751 -0.10483758 0.024007386 -0.040686738 -0.12421202
-0.11110054 -0.0119373035 -0.13960867 -0.1118749 0.06577284 -0.07110743 -0.10977737 -0.15141699
-0.16340989 -0.18409142 -0.08286254 0.013024252 -0.21140903 -0.16845386 -0.20379226 0.036739245
-0.12700543 0.053950883 -0.12891468 -0.039365053 -0.25357378 0.07387808 -0.15705092 0.06228917
0.030224606 -0.010723655 -0.16903065 -0.1264204 -0.016207905 -0.10789011 -0.016576521 -0.0040987446
-0.06472305 -0.04102659 0.06044315 0.056939866 -0.031229727 0.03346262 -0.017149393 -0.07058994
-0.008387906 0.13359274 -0.18389101 0.049514506 0.114055395 0.09521664 0.045425992 0.09122781
0.012882529 -0.07056112 0.049465485 0.112126425 0.021111203 -0.04335487 0.16314873 -0.058145262
0.0004463767 0.0013427704 -0.0028497616 0.06471339 -0.11822784 -0.024856709 -0.16346255 -0.08749873
0.014742121 -0.19935563 -0.24700058 -0.048981495 -0.0477524 -0.046325892 -0.13551049 -0.18458423
-0.22278303 -0.17342305 -0.20958047 0.0073725814 -0.09105569 -0.08767348 -0.081027955 -0.24872059
0.023989294 0.06601191 0.07075439 0.037818145 0.015013651 -0.0024790296 -0.004503087 0.04660938
0.15195954 0.059233364 0.06310182 0.07323038 0.10170848 0.1066527 0.08125238 0.043609217
-0.029050006 0.034634665 0.15907948 0.16503458 0.079039395 0.16276522 0.004326386 0.012369145
0.07061963 0.08421729 0.1534358 0.18643183 0.18268758 0.01979862 0.14875318 0.070462316
0.15794857 0.026735222 0.109931126 0.042732242 0.13026538 -0.004184406 0.010854927 0.13354996
0.09795053 0.035464663 0.028896507 0.18512382 0.06984493 0.07073314 0.036445364 -6.053112e-05
0.13577385 -0.012791723 -0.060315326 0.0094999205 -0.019566283 -0.07442461 0.009164125 -0.10707013
00000000: 4725 13bd 0acf 07be 4788 10be 7c2c d8bd
00000010: 0186 84bc 0731 2abd 88ce 47be 3574 bd3c
00000020: 6ff6 8cbc 66d1 edbb 833a 44be e5e5 00bd
00000030: 7cbf 19be 54fc adbd 2828 75bd 18f3 76bd
00000040: 758b 16be cee2 26be 0dfa afbd 86f0 0bbe
00000050: d6ab f0bd 18c9 02be 7332 4abd ba2d 9ebd
00000060: 0b37 5f3d c40b 3ebd 9951 69be 893a 98bc
00000070: 8f1c 52be 4278 5c3d cec9 0abd 575a ccbd
00000080: 3588 6fbe 9859 b7bb bac5 c4bc a00d 4fbd
00000090: 1a0a debc 5a4a f63c 6b5e 3abe ccff 9bbd
000000a0: 6fba 82bd a750 c63c 00c8 5bbe 678e 4fbd
000000b0: 7b58 d93a 9ea3 e0bd f0ef 24be 47d7 27be
000000c0: c4ac 77bc 012e 40bd 6750 963d 3a0c 8db9
000000d0: 86bf d93c 1cc5 28bd d1be a8bd 0a30 2c3d
000000e0: 851a 643d 5a60 153d 7af8 e73b 0b30 41bc
000000f0: 066a 00bd c109 d3bb e70e 63bc 7bda 223d
00000100: bbc3 f13c 2b54 6e3d cd50 6f3d e741 54bd
00000110: d32d f83d b511 3e3d ab8e d43d 479d 033d
00000120: eee4 f8bb eb4f 7b3c 2aa1 1a3d 04b9 35bd
00000130: 74ea debb e52e febc de8e 83be 0202 c6bd
00000140: 2f3c fc3b 704b 26be e352 01be 9579 29bd
00000150: 48fc 64be c589 05be db52 67bd 6aad 90bc
00000160: 50f8 24be 9d42 55be 9d66 4abe ba1c fabd
00000170: 0209 fabd 38d1 dabd 8fc9 16be 701a adbd
00000180: 9519 c6ba 1898 ecbd b889 03be 8f03 1dbe
00000190: 16c5 5fbb f957 5f3d 23da 4fbe 1ef0 ccbd
000001a0: 71b6 a6bd a836 cabc c933 64bd 7dcc 933d
000001b0: d43f cfbd fda6 e7bd 09e3 dabd eb12 c8bb
000001c0: f352 d5bd 62a2 c2bc 7b0e ddbd b2bf 04be
000001d0: 16b5 d6bd 23ab c43c 23a7 26bd df62 febd
000001e0: ae88 e3bd ae94 43bc 93f5 0ebe ab1e e5bd
000001f0: e9b3 863d c6a0 91bd f5d2 e0bd 0e0d 1bbe
00000200: ec54 27be 7682 3cbe d6b3 a9bd ac63 553c
00000210: 9c7b 58be 2b7f 2cbe ebae 50be e47b 163d
00000220: b60d 02be 9afb 5c3d 3602 04be 403d 21bd
00000230: 6cd4 81be 644d 973d f5d1 20be ee22 7f3d
00000240: 9899 f73c 45b2 2fbc 5f16 2dbe 5974 01be
00000250: 71c6 84bc 7df5 dcbd 7ccb 87bc c34e 86bb
00000260: 858d 84bd 7f0b 28bd 3d93 773d c739 693d
00000270: 7cd5 ffbc 1a10 093d e27c 8cbc 7591 90bd
00000280: 6d6d 09bc 89cc 083e ed4d 3cbe b9cf 4a3d
00000290: e095 e93d f100 c33d 9b10 3a3d a5d5 ba3d
000002a0: 3e11 533c 5982 90bd 529c 4a3d 8aa2 e53d
000002b0: 67f1 ac3c e094 31bd 7610 273e ba29 6ebd
000002c0: ab07 ea39 e6ff af3a 11c3 3abb 7488 843d
000002d0: 7021 f2bd 4ca0 cbbc ba62 27be 8932 b3bd
000002e0: f088 713c e223 4cbe b8ed 7cbe d2a0 48bd
000002f0: 0598 43bd 38c0 3dbd 43c3 0abe a603 3dbe
00000300: 3c21 64be d095 31be 439c 56be b295 f13b
00000310: 687b babd 278e b3bd fcf1 a5bd 9cb0 7ebe
00000320: 3285 c43c 4131 873d ade7 903d 33e7 1a3d
00000330: d1fb 753c 3777 22bb a28e 93bb 7ae9 3e3d
00000340: 489b 1b3e af9e 723d 873b 813d cff9 953d
00000350: 894c d03d bb6c da3d a667 a63d 949f 323d
00000360: 47fa edbc 14dd 0d3d bbe5 223e d3fe 283e
00000370: 68df a13d edab 263e 5bc4 8d3b f4a7 4a3c
00000380: 06a1 903d 1d7a ac3d 461e 1d3e fce7 3e3e
00000390: 7412 3b3e b730 a23c c152 183e 8c4e 903d
000003a0: 45bd 213e d303 db3c 9223 e13d 0108 2f3d
000003b0: 4a64 053e 571d 89bb ddd8 313c 52c1 083e
000003c0: 4a9a c83d 6543 113d 5eb8 ec3c 1991 3d3e
000003d0: dc0a 8f3d 89dc 903d bc47 153d cce2 7db8
000003e0: 4d08 0b3e 6094 51bc 340d 77bd 8ea5 1b3c
000003f0: 7849 a0bc ee6b 98bd 2025 163c 9647 dbbd

fc_net.0.bias f4 [64]
-0.17954183 -0.20163722 0.055042412 -0.09781688 -0.18495888 -0.16482349 0.14218108 -0.06145811
0.03571653 0.045269236 -0.079761654 -0.08490795 0.13231 -0.19834098 -0.043065473 -0.18315595
0.17779379 0.045837894 -0.2097841 0.15397574 -0.2071712 0.08995755 -0.071546756 0.19555934
-0.052783508 0.050243862 0.18563837 0.19541219 -0.062343415 0.052714765 0.10509902 0.13833556
0.16783302 -0.051835775 0.061558902 0.14107202 0.123513035 -0.059099313 0.1565532 -0.15467037
0.19549459 -0.14251262 -0.16902435 0.12895142 0.06438199 -0.21588528 0.08230518 -0.10557602
-0.1978588 -0.1461552 0.14384633 0.17882486 0.1897235 0.13375223 0.07630629 -0.21562366
-0.14661361 0.18205287 -0.16519126 -0.019943992 -0.17431179 0.12411241 0.026674023 -0.14958522
00000000: d0d9 37be fd79 4ebe 2774 613d 3754 c8bd
00000010: dc65 3dbe 7dc7 28be eb97 113e 80bb 7bbd
00000020: 7f4b 123d 3c6c 393d 145a a3bd 38e4 adbd
00000030: 467c 073e e619 4bbe 6c65 30bd 3c8d 3bbe
00000040: 930f 363e 84c0 3b3d a5d1 56be d1ab 1d3e
00000050: b024 54be aa3b b83d 1b87 92bd b540 483e
00000060: 8533 58bd 82cc 4d3d fc17 3e3e 221a 483e
00000070: cf5b 7fbd 70eb 573d 283e d73d d6a7 0d3e
00000080: 6bdc 2b3e c051 54bd 3025 7c3d 2f75 103e
00000090: 67f4 fc3d 1f12 72bd 7b4f 203e e961 1ebe
000000a0: bc2f 483e d4ee 11be b814 2dbe d70b 043e
000000b0: b4da 833d 0811 5dbe 9e8f a83d 3e38 d8bd
000000c0: 7f9b 4abe b5a9 15be 744c 133e dd1d 373e
000000d0: e146 423e 58f6 083e 7946 9c3d 73cc 5cbe
000000e0: e121 16be 116c 3a3e e627 29be 9561 a3bc
000000f0: ca7e 32be a62e fe3d 7b83 da3c de2c 19be

fc_net.2.weight f4 [64, 64]
0.011316474 0.0072374563 -0.16805932 0.103071116 0.18281177 0.21316026 -0.038386595 0.075891815
-0.1050867 -0.060029164 0.15389606 0.079280436 -0.069155954 0.23637533 0.04704184 0.16616815
-0.07834263 -0.09216434 0.072078764 -0.033567034 0.260612 -0.108163714 0.25471607 -0.08029706
0.08141816 -0.018257665 -0.19318022 -0.012648813 -0.13329194 0.032249276 -0.14266652 0.026259057
-0.14173874 -0.07358624 -0.16144308 -0.22081648 -0.11986649 -0.08484045 -0.053787347 0.055811726
-0.04069254 0.09642643 0.2785902 -0.17085801 0.082295336 0.108843066 -0.1627486 0.013315965
0.21561822 0.04504342 -0.20418231 0.013985494 -0.025982475 -0.004335694 -0.089506656 0.14162534
0.17067838 -0.16235164 0.17856817 0.1822742 0.10491766 -0.21436003 0.03388546 0.2229683
0.04601861 0.15033272 -0.17636257 0.089583814 0.031510353 0.24628204 -0.011276329 0.16243416
-0.086451516 -0.08965518 0.2329576 0.27865648 -0.13722539 0.21523122 -0.068429016 0.06941974
-0.11703735 -0.007284302 0.039574735 0.0027561113 0.05675386 -0.20946921 0.17034678 -0.074737586
0.105413616 -0.21487263 -0.25307983 -0.03992925 -0.12013887 -0.068586424 -0.21966012 -0.1175905
-0.041784517 -0.114702426 -0.14425583 -0.04571669 -0.2096227 -0.044586312 -0.07620266 0.1934563
-0.25294465 0.26723552 0.10579629 -0.0041133915 -0.025438003 0.05102688 -0.11512686 0.03709958
0.13938633 0.23167227 -0.16760491 -0.21306767 -0.19159478 -0.055291723 -0.25707456 0.1455104
0.06321725 -0.21620534 0.08354296 0.08642899 0.101483054 -0.24265851 0.022214957 0.14308934
0.19926023 0.15368398 -0.13832852 0.12428657 0.027853576 0.082559854 -0.11050765 0.24468605
-0.14117219 -0.055446733 0.16058753 0.19509867 -0.2023448 0.1575706 0.11052513 0.24785766
-0.18930365 -0.17218553 0.2285488 -0.24738514 0.094113395 -0.099256806 0.05711477 -0.11607778
0.13278684 -0.06170401 -0.08800536 -0.1069127 -0.13159549 -0.06044111 -0.22087678 -0.0135394
-0.09728387 0.07260227 -0.10321615 -0.09819927 -0.02811418 -0.08481454 -0.20950997 0.263809
-0.16524512 0.2693177 0.097558066 -0.24546257 0.097403824 0.2344013 -0.11167583 0.122303
0.26992965 0.26616153 -0.09840388 -0.09254878 -0.23759267 -0.19281936 -0.23024097 0.19474822
0.16140056 -0.1259463 0.22757867 0.012057099 0.22296107 -0.13088264 0.1099921 0.120309
-0.03520174 -0.038957663 -0.023389783 -0.053677388 -0.063092515 -0.04600046 0.013781292 -0.11079901
0.11100638 0.08116415 -0.11044221 -0.18929529 -0.07952862 -0.044413 -0.13480169 -0.19447535
0.10779884 0.010374994 -0.13784374 0.09537832 -0.06783732 0.030108701 -0.034823164 0.16882603
0.12322567 0.17349137 -0.06104804 -0.029104996 -0.11261281 -0.05410727 0.121329285 -0.0217162
0.115671314 -0.03622099 0.13192967 0.092201464 0.064355716 -0.05670269 0.030042682 -0.16278727
-0.030112037 -0.19439389 0.022082394 0.16577822 -0.07116908 -0.12814493 0.13876094 -0.1402611
-0.12360612 -0.035874333 0.022545906 0.0200853 0.034049176 0.016006272 0.03651306 0.026462698
-0.09795814 -0.01251149 -0.13688424 0.05706842 -0.09736127 0.054080892 0.06842774 -0.12405647
00000000: bb68 393c 2f28 ed3b be17 2cbe f316 d33d
00000010: 0233 3b3e af46 5a3e 433b 1dbd 2b6d 9b3d
00000020: b237 d7bd 24e1 75bd ee96 1d3e c85d a23d
00000030: a3a1 8dbd 600c 723e f2ae 403d fc27 2a3e
00000040: 1a72 a0bd a8c0 bcbd 089e 933d 967d 09bd
00000050: f06e 853e f084 ddbd 256a 823e c972 a4bd
00000060: 90be a63d 1991 95bc 09d1 45be f83c 4fbc
00000070: af7d 08be d117 043d 2c17 12be 3c1d d73c
00000080: f623 11be 62b4 96bd 5651 25be b71d 62be
00000090: 907c f5bd d4c0 adbd 1f50 5cbd d69a 643d
000000a0: 39ad 26bd 387b c53d 60a3 8e3e 67f5 2ebe
000000b0: 758a a83d 1de9 de3d 92a7 26be 352b 5a3c
000000c0: 06cb 5c3e 737f 383d 2b15 51be 6a23 653c
000000d0: 33d9 d4bc 7012 8ebb 444f b7bd 3c06 113e
000000e0: 50c6 2e3e 823f 26be 93da 363e 16a6 3a3e
000000f0: 12df d63d 3281 5bbe 7bcb 0a3d cd51 643e
00000100: 037e 3c3d d2f0 193e 6498 34be b877 b73d
00000110: 0011 013d 5c31 7c3e 5ac0 38bc 2455 263e
00000120: 7e0d b1bd 239d b7bd 708c 6e3e 10ac 8e3e
00000130: d084 0cbe 9365 5c3e 8324 8cbd f02b 8e3d
00000140: 47b1 efbd 27b1 eebb 1e19 223d e09f 343b
00000150: bc76 683d 197f 56be 636f 2e3e 0510 99bd
00000160: 18e3 d73d 9207 5cbe ae93 81be da8c 23bd
00000170: 5e0b f6bd 0a77 8cbd 95ee 60be 4ad3 f0bd
00000180: 3e26 2bbd 1be9 eabd cdb7 13be 6d41 3bbd
00000190: 55a7 56be 23a0 36bd 2410 9cbd 6919 463e
000001a0: f681 81be 18d3 883e baab d83d a1c9 86bb
000001b0: 5c63 d0bc 9001 513d a2c7 ebbd bbf5 173d
000001c0: 4abb 0e3e 7f3b 6d3e 9fa0 2bbe 692e 5abe
000001d0: 6c31 44be 9379 62bd 479f 83be ae00 153e
000001e0: 0c78 813d ef64 5dbe 9218 ab3d af01 b13d
000001f0: 59d6 cf3d 797b 78be 24fc b53c 0386 123e
00000200: e00a 4c3e 555f 1d3e fea5 0dbe f589 fe3d
00000210: 2f2d e43c 2415 a93d d651 e2bd fb8e 7a3e
00000220: 718f 10be 1d1c 63bd 0f71 243e f2c7 473e
00000230: 7a33 4fbe 305a 213e 005b e23d 66ce 7d3e
00000240: d1d8 41be 6751 30be b208 6a3e 8852 7dbe
00000250: 86be c03d 2747 cbbd 2df1 693d 30ba edbd
00000260: 46f9 073e 58bd 7cbd 273c b4bd 0cf5 dabd
00000270: f8c0 06be 1991 77bd 862d 62be 5cd4 5dbc
00000280: c43c c7bd 80b0 943d fd62 d3bd b31c c9bd
00000290: b54f e6bc 3fb3 adbd c889 56be f911 873e
000002a0: 0436 29be 02e4 893e 86cc c73d 8a5a 7bbe
000002b0: a87b c73d e506 703e 4cb6 e4bd ff79 fa3d
000002c0: 3834 8a3e 5346 883e f987 c9bd 378a bdbd
000002d0: 7e4b 73be 7072 45be 4ac4 6bbe 146c 473e
000002e0: 3046 253e 11f8 00be 620a 693e 238b 453c
000002f0: e84f 643e 1906 06be 8a43 e13d 9164 f63d
00000300: b32f 10bd 1292 1fbd ee9b bfbc d2dc 5bbd
00000310: a636 81bd fa6a 3cbd eeca 613c 97ea e2bd
00000320: 5057 e33d 6439 a63d 872f e2bd a0d6 41be
00000330: e7df a2bd 68ea 35bd 7409 0abe 8c24 47be
00000340: a3c5 dc3d e1fb 293c e926 0dbe b555 c33d
00000350: 4bee 8abd 86a6 f63c bca2 0ebd bbe0 2c3e
00000360: bd5d fc3d b9a7 313e 820d 7abd 9a6d eebc
00000370: 8ca1 e6bd 969f 5dbd 7d7b f83d 2ce6 b1bc
00000380: 15e5 ec3d 765c 14bd 9218 073e 1fd4 bc3d
00000390: eecc 833d 1441 68bd 121c f63c b5b1 26be
000003a0: 85ad f6bc 310f 47be 23e6 b43c c4c1 293e
000003b0: 18c1 91bd 6d38 03be 5917 0e3e 9ba0 0fbe
000003c0: 3525 fdbd f7f0 12bd 31b2 b83c ed89 a43c
000003d0: 2677 0b3d 961f 833c b88e 153d 4dc8 d83c
000003e0: 479e c8bd fefc 4cbc 622b 0cbe 93c0 693d
000003f0: 5865 c7bd ed83 5d3d d823 8c3d 5211 febd

fc_net.2.bias f4 [64]
0.006674384 -0.08584973 -0.042202417 0.00042407674 0.06907885 -0.03393931 -0.26724505 -0.20398062
0.084174424 -0.042287372 0.20491485 0.0032149632 0.13328396 -0.13677937 -0.072171144 0.21504368
0.11733872 0.18391371 0.21937495 0.1967803 -0.13122644 -0.22688273 0.026417904 -0.049890097
-0.08654574 -0.17065634 0.17494637 -0.0044264677 -0.14516562 -0.23761792 0.19748965 0.11315354
-0.19838518 -0.025178783 -0.19494759 0.0010913283 -0.1135316 0.18992998 -0.17274891 0.10035392
0.10232145 -0.18313323 -0.19133292 -0.08814452 0.103904724 0.039544135 0.047391377 -0.16703789
-0.21131758 -0.14501846 0.055871736 -0.23385571 -0.2288402 -0.15993978 -0.06063865 -0.050372273
0.20114411 0.026797168 0.21021338 -0.0009383316 -0.21509224 0.08753001 -0.077689365 -0.005992229
00000000: cbb4 da3b fcd1 afbd 71dc 2cbd 9e56 de39
00000010: 3679 8d3d f203 0bbd 58d4 88be 4ce0 50be
00000020: a463 ac3d 8635 2dbd 33d5 513e 22b2 523b
00000030: 977b 083e e40f 0cbe 77ce 93bd 6934 5c3e
00000040: 484f f03d e053 3c3e d4a3 603e c680 493e
00000050: 3960 06be f253 68be 5c6a d83c 8f59 4cbd
00000060: e53e b1bd 89c0 2ebe 2425 333e e70b 91bb
00000070: 4ca6 14be 1d52 73be ba3a 4a3e 0bbd e73d
00000080: 7c25 4bbe bc43 cebc 57a0 47be e70a 8f3a
00000090: 4183 e8bd 017d 423e 17e5 30be 5b86 cd3d
000000a0: e98d d13d 4787 3bbe c7ec 43be 1d85 b4bd
000000b0: 00cc d43d 08f9 213d 761d 423d fb0b 2bbe
000000c0: a363 58be b87f 14be c3d9 643d df77 6fbe
000000d0: 1655 6abe 41c7 23be 3c60 78bd 2853 4ebd
000000e0: b9f8 4d3e bc85 db3c 2d42 573e 5efa 75ba
000000f0: 2441 5cbe ef42 b33d 9a1b 9fbd 765a c4bb

value_head.weight f4 [1, 64]
-0.06863947 -0.11280441 -0.19681394 0.060504623 0.115935415 0.1183985 -0.12301096 -0.18213502
0.149046 -0.1799358 0.089729585 -0.14268686 0.15888979 -0.24020606 -0.23814465 0.13148932
0.14218883 0.1597053 0.167312 0.17988491 -0.18006779 -0.18206286 0.15639547 -0.10719741
-0.22320783 -0.1532167 0.1214948 -0.14661765 -0.14161165 -0.13326181 0.15828735 0.17356038
-0.1520359 0.1413311 -0.2017432 -0.16982223 -0.13194922 0.14800292 -0.2172097 0.16929692
0.16729067 -0.1655212 -0.22369373 -0.17266822 0.14971069 0.12801439 0.09319233 -0.18745817
-0.09848047 -0.19024721 0.17382471 -0.15375073 -0.1119681 -0.122617885 -0.0008905431 -0.12614204
0.11874505 -0.20503695 0.09684777 -0.17596821 -0.19946076 0.05881725 -0.16319272 -0.12633848
00000000: da92 8cbd 0006 e7bd 9889 49be b2d3 773d
00000010: 8c6f ed3d ea7a f23d 2ced fbbd 9a81 3abe
00000020: 849f 183e 1741 38be 25c4 b73d 811c 12be
00000030: 01b4 223e 94f8 75be 31dc 73be 23a5 063e
00000040: f399 113e c989 233e d653 2b3e c033 383e
00000050: b163 38be b06e 3abe 2226 203e 518a dbbd
00000060: 9890 64be d7e4 1cbe 44d2 f83d f022 16be
00000070: a502 11be c975 08be 1416 223e d0b9 313e
00000080: 4daf 1bbe 1ab9 103e c595 4ebe e1e5 2dbe
00000090: b21d 07be 148e 173e 386c 5ebe 2c5c 2d3e
000000a0: 3f4e 2b3e 647e 29be f80f 65be f0cf 30be
000000b0: c24d 193e 3416 033e 9fdb be3d 09f5 3fbe
000000c0: 21b0 c9bd 2ad0 42be 1bff 313e d570 1dbe
000000d0: 884f e5bd 161f fbbd 5673 69ba 612b 01be
000000e0: 9b30 f33d 35f5 51be 2058 c63d 0331 34be
000000f0: 713f 4cbe 5bea 703d fe1b 27be e05e 01be
