output/4-agents_domain-CoinGame-4_MATE-TD-T0.25_2022-08-09-12-04-13/critic_net_3.pth (torch, 44695 bytes, 5 tensors)

fc_net.0.weight f4 [64, 100]
000000 c5 2b 2b 3b dd 81 b3 bd 3f 78 f8 bc e1 6a f8 bd
       0.0026118618 -0.08765004 -0.030330775 -0.121297605
000010 bf 0c 20 be b8 9d ec bd 18 37 b4 bd 3d 88 63 bd
       -0.15629862 -0.1155352 -0.08799571 -0.05554985
000020 79 cb 8b bd 24 98 50 be 1d 78 23 be 77 4d 07 be
       -0.06825919 -0.20370537 -0.15963788 -0.13213144
000030 89 89 26 3c 4f ab 47 bd a4 75 a9 3c 04 b5 0f be
       0.010164627 -0.048747357 0.020685978 -0.14033896
000040 66 5f e2 bd 0d 6c 90 3c 15 78 c1 bd ac 93 55 bc
       -0.11053352 0.017629648 -0.09446732 -0.013035696
000050 42 fc 13 be 18 92 9d bd 81 69 2a bd 60 8e a7 bd
       -0.14451697 -0.07693881 -0.041604523 -0.08181453
000060 f6 8f eb bd df a4 79 bd 09 5d 69 be 08 06 d5 bd
       -0.11502068 -0.06094825 -0.22789396 -0.10401541
000070 f6 64 98 be bb 3d f2 bd 2c b5 07 be e3 ec 81 3d
       -0.29764527 -0.118281804 -0.13252705 0.06344011
000080 b1 a8 b2 be d6 4d b1 3d e8 54 0e be d8 0b 6b bd
       -0.34894326 0.08657424 -0.13899577 -0.057384342
000090 41 c7 07 be 3e bd fa 3d fb f7 84 be 32 ae a5 3d
       -0.13259603 0.12243126 -0.25970444 0.08089866
0000a0 2f 0f 2b be ec 0b 0e be ab 55 06 be a1 72 b2 3d
       -0.16705011 -0.13871735 -0.13118617 0.0871327
0000b0 8c 94 84 bd db f1 10 be 07 5b e5 bd 8a 6c 12 be
       -0.064736456 -0.1415476 -0.11199003 -0.14299217
0000c0 cb 5d 3f be a5 fd 55 3d 3b ed 10 bd b8 75 04 3d
       -0.18688123 0.052243847 -0.03538249 0.032338828
0000d0 37 9a e2 3d 1d 6b 8e 3d 11 8a b5 3d 2e f3 a3 bd
       0.110645704 0.06954024 0.08864225 -0.08005367
0000e0 0e 78 b8 3d f3 d9 1e 3e f4 86 03 3e 14 84 7a bc
       0.090072736 0.15512829 0.1284445 -0.015290279
0000f0 03 45 1c 3e 0f da ce 3b f3 5a 12 be 00 61 70 bd
       0.15260701 0.0063126157 -0.14292507 -0.058686256
000100 2b 95 d4 3d 60 55 42 3d 30 b5 17 bd 2e b3 37 be
       0.10380014 0.0474447 -0.03703803 -0.17939445
000110 97 73 e8 bd df f9 30 3c 2d fe bf bc 86 6b 68 bd
       -0.11350172 0.010801761 -0.02343663 -0.056743167
000120 9d 91 15 be de 52 05 bd 3b ab db 3c 06 2f 63 bd
       -0.14606328 -0.03254973 0.026815047 -0.055464767
000130 6d 5c 0c be 3f 7f ab 3d 1a 61 66 bd 6d 92 59 bd
       -0.13707133 0.0837388 -0.056244947 -0.053118158
000140 20 7f 2c be d3 13 62 bd 8c f3 4b be 14 bb ae 3d
       -0.1684537 -0.055194687 -0.19917125 0.08531776
000150 17 4e 1f bd c9 5d f2 bc 9e 3f b9 bd d4 4c 9d bd
       -0.03889283 -0.029585736 -0.09045337 -0.076806694
000160 67 f0 25 be d7 31 26 be 75 51 ee 3a b2 ea 29 be
       -0.16204987 -0.1622995 0.0018182235 -0.16593435
000170 bc 38 0d be ce 70 97 bd 6e 15 7c be 30 e8 b0 bd
       -0.13791174 -0.07394563 -0.2461755 -0.08638036
000180 72 a8 20 bc 97 a4 32 be 3e 75 2b be 97 0b be bd
       -0.0098057855 -0.17445599 -0.16743943 -0.09279554
000190 34 94 c8 3d fb 96 c5 bc 72 8d 8d 3d 60 9b 24 3e
       0.097938925 -0.024119845 0.06911744 0.16074896
0001a0 7c fe 57 3d 67 56 b9 3c 79 03 f5 3d 4f 9e b7 3d
       0.05273293 0.022624208 0.11963553 0.08965742
0001b0 01 be 49 3e 2f cd 88 3d 88 cb fc 3d 37 1d c2 3c
       0.19701387 0.06679761 0.12343508 0.023695571
0001c0 0b a0 2d 3c 2b 17 19 3e d9 c1 89 3d b3 31 dc 3d
       0.010597239 0.14950244 0.06726427 0.10751667
0001d0 8e b6 15 3b 0c 5a 8b 3d 6e 19 b3 3d 4c 00 a5 3d
       0.0022844407 0.068042845 0.08745085 0.08056697
0001e0 16 59 e8 3d f9 d2 30 3e 94 67 87 3d 69 53 0c 3e
       0.11345117 0.1726798 0.06611553 0.13703693
0001f0 97 42 14 3d ce a9 11 3e ac 92 83 3d 21 a2 0c 3e
       0.036196318 0.14224932 0.0642446 0.13733722
000200 7a b3 f7 bb 86 d8 a8 ba f6 5f 96 3d e0 78 d7 ba
       -0.007559237 -0.0012881912 0.07342522 -0.0016439222
000210 32 3c 87 3d 13 c8 24 3d f1 cb 2a 3e 95 68 1f 3e
       0.06603278 0.04022987 0.1667936 0.15567239
000220 3f 4f 02 3e f7 17 ef 3c bf cd 32 3e 1a ff ff 3c
       0.12725542 0.029186232 0.17461298 0.031249572
000230 a1 e0 d1 3d 5c 26 13 3d ce 7d 0f 3e d8 81 28 3e
       0.10247923 0.035925254 0.14012834 0.16455781
000240 a2 76 30 3e db 60 1b 3d d3 40 f3 3c 62 63 7d 3d
       0.17232755 0.037934165 0.029693997 0.061862357
000250 b5 11 7d 3d 0a 99 b6 3c 9c f6 aa bd 1a bd b9 bd
       0.061784465 0.022289772 -0.08347818 -0.090692714
000260 4d 57 1a 3c 13 c8 3b bd 9a 7f e0 bd 50 80 0b bd
       0.009420228 -0.045845103 -0.10961838 -0.034057915
000270 02 63 e7 bd 02 1f f2 3b 04 4e 2d bd 2d 22 c6 3c
       -0.11298181 0.0073889503 -0.04231073 0.024186218
000280 f6 3a 75 3d bc 65 99 3d fb dd 46 3d 74 93 d6 bd
       0.059870683 0.074901074 0.04855154 -0.10477343
000290 5b 85 82 bd 00 9d de 3d ff 1c 10 3e df 5a 20 3e
       -0.06373092 0.10869789 0.14073561 0.15659665
0002a0 e6 ca 06 3d 2a d6 d0 3c 51 5a 7c 3c 06 c8 2f 3d
       0.032908343 0.025492746 0.0154023925 0.042915367
0002b0 91 b4 27 3e 1e 3a 8e bd a0 f8 8e 3d f4 6c 04 3e
       0.16377474 -0.06944679 0.06981015 0.12932187
0002c0 f9 e2 db 3d 3a 4e 9a 3d c2 58 fe 3d 16 9c b3 3d
       0.10736651 0.07534452 0.12419273 0.087700054
0002d0 bb 96 bf 3d ac f6 a5 3d 22 6f 29 3e 80 d2 a1 bb
       0.093549214 0.081036896 0.165463 -0.0049384236
0002e0 13 f4 48 3c 06 6c ac bc fc 1c 23 3e 6f 58 09 3d
       0.012265223 -0.021047603 0.15929025 0.033531602
0002f0 7b 1f 24 3e 66 ca 18 3e 0f 7b 4c 3e c5 ea 1b 3e
       0.16027634 0.14920959 0.19968818 0.15226276
000300 1d 81 18 3e 3b 61 41 3e 18 9b 19 3c bf b6 16 3e
       0.14893003 0.18884747 0.009375356 0.1471815
000310 54 73 12 3e 0e 5e de 3d 65 85 51 3d 07 e8 be 3d
       0.14301807 0.10857783 0.051152606 0.093215995
000320 e2 ec 41 3d 97 29 c1 3d 4b 12 95 3d e4 6d f9 3c
       0.04734505 0.09431761 0.0727888 0.030447908
000330 5d 0e 3c bc 59 3b eb 3d e3 86 c5 3d de ac 86 3d
       -0.011478034 0.11485929 0.09644868 0.065759405
000340 42 4c 3b 3e 04 13 6a 3d c3 8f 76 3d aa 1d ca 3d
       0.18290809 0.05714704 0.060195696 0.09868939
000350 99 cb ec 3d 12 f1 c1 bc ab 49 9a 3c bc 4e 00 3d
       0.11562271 -0.023674522 0.018833956 0.031325087
000360 f6 eb c9 3d 1b 00 5c 3d 96 cb b0 3d 18 52 ae 3d
       0.09859459 0.053711038 0.08632581 0.08511752
000370 b8 3b 8a 3d 14 66 bd 3d 89 86 ee 3d c6 0f 06 3c
       0.06749672 0.092479855 0.11646754 0.008182472
000380 52 40 4a 3d a1 82 af 3d 1d 87 0e 3e 8b 98 6c bc
       0.049377747 0.08569837 0.13918729 -0.014440666
000390 37 54 c6 3d 50 c6 d3 3c 0f b6 83 3d a1 d8 06 3e
       0.096840315 0.025851399 0.06431209 0.13168575
0003a0 fb 79 08 3e 52 a4 b8 3d 7e 47 0a bd 4d e1 80 3d
       0.13327782 0.090157166 -0.033759587 0.06292973
0003b0 e0 a6 20 3e 23 56 bb 3c 24 5f 37 3d 86 e2 dc b9
       0.15688658 0.022868222 0.044768468 -0.00042130443
0003c0 97 26 eb bc b7 a1 99 3d 6e a1 f6 3d f4 2f cc 3c
       -0.028704925 0.07501548 0.12042509 0.02492521
0003d0 01 06 b9 bc 2d 3b 8b 3d cd d2 d2 3a c9 d7 0b 3d
       -0.02258587 0.06798396 0.0016084552 0.034141336
0003e0 af b3 0b 3e 82 70 1d 3e ea a9 a2 bd c6 8c 92 3c
       0.13642763 0.1537495 -0.07942565 0.017889392
0003f0 23 bc 2d bd f6 78 ab bc f5 4c 39 3d d0 6b cd bd
       -0.04241575 -0.020931702 0.045239408 -0.10030329

fc_net.0.bias f4 [64]
000000 95 fb dd bd 55 af a5 3d 0b 58 88 3d 7c 8a 49 3e
       -0.10839001 0.080900826 0.06657418 0.19681734
000010 e3 c7 10 be 1d 96 d3 3d cf 9a 51 be a4 a1 17 be
       -0.1413875 0.10331366 -0.20469211 -0.14807755
000020 ef f9 2a 3e cc 4a 14 be 4f c7 df 3d 6f 02 19 3e
       0.16696905 -0.14481658 0.10926687 0.14942335
000030 b8 df 3a 3e 5e 35 4b 3e d7 0c ec 3d c4 20 00 3e
       0.18249404 0.19844577 0.115258865 0.12512499
000040 6d 17 d9 bc f2 86 20 3d 86 36 03 be e5 73 29 be
       -0.026500428 0.039191194 -0.12813768 -0.16548117
000050 eb 43 2c 3e 83 e5 3b be 50 e9 59 be de 37 d8 bd
       0.16822784 -0.1834927 -0.21280408 -0.10557531
000060 6d 89 0a be 6e 3c a8 bc a2 40 06 3e 85 56 76 bd
       -0.13528986 -0.020536628 0.13110593 -0.060141105
000070 41 89 21 be 42 9e 55 3d 0c 68 cd 3d d6 32 35 3e
       -0.15775014 0.05215288 0.10029611 0.17695174
000080 25 73 ca 3d f7 83 13 3e 2d 05 d9 3d c1 92 bf bb
       0.09885243 0.1440581 0.1059669 -0.005846352
000090 9b e5 3b 3e b0 cf ab bd 18 9f d4 bd c7 64 5d be
       0.18349306 -0.083892226 -0.10381907 -0.21620475
0000a0 8b 7b c3 bd ff f7 4a bd 47 73 28 3e ab 0d f8 bd
       -0.09545048 -0.049552914 0.16450225 -0.12111982
0000b0 1a 24 30 be 2c 97 a0 3d 2d c6 05 be e6 a1 dc bd
       -0.17201272 0.07841334 -0.1306388 -0.10773067
0000c0 db 89 aa 3c 65 ae 45 be 43 6b db bd b8 ff b0 bd
       0.020817688 -0.19304807 -0.10713818 -0.086425245
0000d0 86 d6 41 bb 51 18 08 be 32 c0 b8 3d 3c 9d 08 3e
       -0.0029577329 -0.13290526 0.09021033 0.1334123
0000e0 96 bf 1c be 60 07 42 be e2 f0 26 be 06 08 0f be
       -0.15307459 -0.18948126 -0.16302827 -0.13967904
0000f0 45 7c 12 3e 43 9a a8 bd 08 6b 21 be 71 8d 48 3e
       0.14305218 -0.08232548 -0.15763485 0.19585206

fc_net.2.weight f4 [64, 64]
000000 a7 3c 97 3e 38 5a 0f bc 55 66 27 be e1 13 84 bd
       0.29538462 -0.008749537 -0.1634763 -0.06449104
000010 f0 94 2c 3e 82 02 49 be 06 ad 09 3e 0b 04 77 3e
       0.1685369 -0.19629863 0.1344491 0.24122636
000020 1e 63 f6 bd 76 a2 be 3d d9 00 13 be c8 ac 73 be
       -0.12030624 0.09308331 -0.14355792 -0.2379638
000030 a1 28 32 be bc aa 83 bd 03 95 47 be db 30 c6 bd
       -0.17398311 -0.064290494 -0.19490437 -0.09677287
000040 ee ea 90 3b 94 85 61 be 44 1d b2 3d bf bc 69 3e
       0.004422537 -0.22023612 0.08696988 0.22825907
000050 dd d4 17 bd 21 00 88 3e cf 46 06 3e 35 ce 02 3e
       -0.037068237 0.26562598 0.13112949 0.12773974
000060 0e 39 63 3e 24 b7 4d bd 9b f7 4d be 0d 00 5a 3e
       0.22189733 -0.050223485 -0.20113985 0.21289082
000070 bd fa 0f 3e a6 c9 80 bc e2 93 7f bd bf 1d 99 bd
       0.14060493 -0.015721153 -0.06239689 -0.07476377
000080 11 d3 20 be 91 77 8d bd 65 cf 45 be 69 35 01 bc
       -0.15705515 -0.06907571 -0.19317396 -0.007886269
000090 17 43 b6 bd a0 0b 72 3e d1 c7 1c 3e ca 03 e0 3d
       -0.08899515 0.23637247 0.15310599 0.10938223
0000a0 0d c2 0f 3e e0 d6 5d 3e 6d 56 20 be f2 03 09 3e
       0.14038868 0.21664 -0.15657969 0.13380411
0000b0 cd 0c 5f 3e f0 35 02 bd 5e 93 0c 3e 92 c9 43 3e
       0.21782227 -0.03178972 0.13728091 0.19119862
0000c0 2f 50 95 bd a5 0c 2d 3e 56 63 80 3e d3 63 ac 3d
       -0.072906844 0.16899355 0.25075787 0.084174775
0000d0 f0 e8 39 be 19 a0 8d 3e 7e 2b 06 be d2 71 33 be
       -0.18155265 0.27661207 -0.13102528 -0.17523888
0000e0 36 6f 58 3e bd aa cf 3d a8 ac 59 3e ff 6b 2c 3e
       0.21136174 0.101399876 0.2125727 0.16838072
0000f0 a2 6d 67 be d3 c1 68 3d 09 86 6e 3e 83 8c 1b bc
       -0.22600415 0.05682547 0.23293318 -0.00949395
000100 e7 0a 59 be 88 f2 71 3d db 71 e4 3d 7d 39 96 3c
       -0.21195565 0.059069186 0.11154529 0.01833796
000110 1e 60 ff bd 38 5e 9b bd 46 52 6a bd 31 d4 49 be
       -0.12469505 -0.0758633 -0.05720737 -0.19709851
000120 4c e2 c5 3c d7 f0 d3 bd e9 d5 2e 3e 5d cc 98 3d
       0.024155758 -0.10348671 0.17073788 0.07460854
000130 ed 98 0f 3e 84 cb 29 3e 2e f0 2c bc fd 6a 90 3d
       0.1402318 0.16581541 -0.01055531 0.070516564
000140 a9 cd 18 be dc 5f 53 bd 6f 96 42 bd 9b 87 4b be
       -0.14922203 -0.05160509 -0.047506746 -0.19875948
000150 d5 25 16 3e ef bb ed bd 5a f1 d0 bc 93 c0 2e be
       0.1466287 -0.11608111 -0.02550571 -0.17065649
000160 d5 55 4e be 38 ef 94 3d 00 54 85 3d 73 42 74 bd
       -0.2014993 0.0727219 0.06510162 -0.059633683
000170 57 bf c9 3b 80 35 06 be 85 ab ad 3c 93 2d a5 bd
       0.0061568427 -0.13106346 0.021199951 -0.08065333
000180 3e fb c5 3d 62 c3 2f 3d 6a 22 9e bc d7 2a 82 3d
       0.09667061 0.04291094 -0.01930352 0.06355827
000190 52 24 f8 3c 5a 57 48 be cd 8f be bd d7 5a 8e 3b
       0.030290756 -0.19564572 -0.093047716 0.004344325
0001a0 74 13 48 bd da dd 32 bd f6 73 05 3d 38 87 02 be
       -0.048846677 -0.043668605 0.032581292 -0.12746894
0001b0 09 df b8 b9 3d 9e ad 3d 59 e5 c3 bc 5a 3a 08 be
       -0.0003526139 0.08477447 -0.023913072 -0.1330351
0001c0 76 ba b3 bd d1 80 cc bb 23 25 52 be 4d 18 04 3b
       -0.08775799 -0.006240942 -0.20521979 0.0020156086
0001d0 b9 b5 c8 3d cd 97 40 be 93 d6 33 3c fd 9c 01 bd
       0.09800286 -0.18807907 0.010976451 -0.031643856
0001e0 95 93 36 be 53 b8 48 be 88 59 03 be b5 62 c2 bd
       -0.17829736 -0.19601564 -0.12827122 -0.09491483
0001f0 82 b3 57 bc 32 82 fa bd 78 07 41 bd 78 07 19 3e
       -0.013165357 -0.12231864 -0.047126263 0.14944255
000200 85 45 66 be 4e be 67 3c ea 8f 23 3d 82 18 9c 3d
       -0.22487457 0.014144493 0.03993217 0.07621862
000210 fe 29 37 be eb ed b8 3d b3 3e 2b be 71 6c 77 be
       -0.17887112 0.09029754 -0.16723137 -0.24162461
000220 9a 7f 58 3d 10 f5 6f be e6 cf 25 3b a9 e9 91 3d
       0.052856065 -0.23433328 0.002530092 0.07124645
000230 bf 9d 4e bb d1 f7 12 bd c4 4f 18 3e 77 d0 58 3d
       -0.003152713 -0.035880867 0.14874178 0.052933183
000240 e5 fa 31 be 3e c9 64 bd c0 9d 79 be 8b 45 9f bd
       -0.17380865 -0.055855982 -0.24376583 -0.07776936
000250 df 35 71 3d cc 53 1d be e3 05 44 be f8 65 c4 bd
       0.058889266 -0.15363997 -0.1914287 -0.095897615
000260 8b 26 98 bd 74 ed 16 3b 51 04 1e 3d 8b 3e 65 bd
       -0.074292265 0.0023029717 0.038578335 -0.05596785
000270 61 64 58 bd 58 ce 89 bd 77 f1 82 3d f3 10 23 3e
       -0.052830104 -0.0672881 0.06393712 0.15924434
000280 2d c9 41 3c f1 ee bd 3d b7 5a 16 3e 60 9f 60 bd
       0.011827749 0.0927409 0.14683042 -0.05483949
000290 c1 c8 90 3d fa c2 75 be dd c1 a3 bd 10 80 48 be
       0.07069541 -0.24000159 -0.07995961 -0.19580102
0002a0 3d 38 35 3b fc fe 8e bd 7f c3 47 3e 29 90 67 be
       0.0027651929 -0.06982228 0.1950817 -0.22613586
0002b0 06 45 0b be ec dc 17 3e 65 58 6c be 35 04 ee bd
       -0.13600549 0.14830369 -0.23080595 -0.11621896
0002c0 06 64 f9 3c 13 eb 7b be 12 81 77 bd 61 bb 0e be
       0.030443203 -0.24601392 -0.060425825 -0.13938667
0002d0 12 37 4a bc a9 a8 6a bd d2 ef 27 3d 98 f7 07 3e
       -0.012342231 -0.057289753 0.041000195 0.13278043
0002e0 0d 78 03 be c9 12 9c bd 7f 79 47 be c2 cb 2f be
       -0.12838764 -0.076207705 -0.19479941 -0.17167571
0002f0 7f 55 61 3d 68 b3 de bd bb 1c d7 bd b5 fb c9 3d
       0.055013176 -0.10874063 -0.10503527 0.098624624
000300 b3 50 30 3e c4 4e 71 be 02 2a 33 be 9e 64 b1 bd
       0.17218284 -0.23565203 -0.17496493 -0.08661769
000310 f0 48 44 3e 0b 9a e8 bd d0 f0 5c 3d 52 50 45 3e
       0.19168448 -0.11357506 0.053940594 0.19268921
000320 63 27 36 be 07 b1 a6 3d 6d ad 83 be 61 ac 44 be
       -0.17788462 0.08139234 -0.2571825 -0.19206382
000330 8d 33 73 bd d3 7e 58 be 29 4f 52 be f9 a2 30 be
       -0.059375335 -0.2114213 -0.2053801 -0.17249669
000340 52 3a 45 3e e5 ac bd bc 43 64 1f 3e ac 8c 7a 3e
       0.19260529 -0.023153732 0.1556559 0.24467725
000350 af 5d 32 be c4 96 3a 3e e0 d7 91 3e d0 28 fe 3d
       -0.1741855 0.18221575 0.28485012 0.12410128
000360 e0 13 b3 3d 40 25 02 be 80 39 ae bd 4c 9f 5a 3e
       0.08744025 -0.12709522 -0.08507061 0.2134983
000370 5a 80 82 3e 7b b2 5f bb 35 8f 54 be 7e 4b 5d be
       0.2548855 -0.0034133482 -0.20757754 -0.21610829
000380 f9 f2 46 bd 12 75 61 bd 5f ba 59 bd 5e 5f 3b be
       -0.04857156 -0.055043288 -0.053156253 -0.18298098
000390 cb 63 91 bd 6a ed 62 3e c7 1e 8b 3e cd 8f 6c 3e
       -0.07099112 0.22160879 0.2717192 0.2310173
0003a0 8a 7a 50 3e 9c f8 32 3e fc ab 86 be 09 03 7d 3e
       0.20359245 0.1747765 -0.2630309 0.24708189
0003b0 b5 dc 1e 3e 68 c8 5b be a1 10 57 3e eb e4 2e 3e
       0.1551388 -0.21463168 0.21002437 0.17079513
0003c0 11 b1 05 3e 7c d5 95 3d 8d 6c 74 3e be 5b fc 3d
       0.13055827 0.073161095 0.23869534 0.12322186
0003d0 f2 b7 2b be a9 b6 1a 3e 70 f0 66 be 3e cc eb bd
       -0.16769388 0.15108742 -0.22552657 -0.115135655
0003e0 d9 c9 f5 3d 34 31 88 3e 68 bc a9 3d 9b 43 60 3e
       0.1200139 0.2660004 0.08287889 0.2190079
0003f0 03 c6 35 be 11 36 1b 3e b0 a4 ef 3d 36 94 00 be
       -0.17751317 0.15157343 0.117013335 -0.12556538

fc_net.2.bias f4 [64]
000000 0e 00 bb 3b 60 55 38 bc d3 dc 76 3d d0 23 5f be
       0.0057067936 -0.011250824 0.060269188 -0.21791005
000010 75 fe 0b 3e 86 70 41 3e fe 31 84 3d ad 28 61 be
       0.13671286 0.1889058 0.06454848 -0.21988173
000020 a9 1b 2b be 0f ce 8e 3d aa 2f 4a 3c 3e fe 55 3e
       -0.1670977 0.06972896 0.012340466 0.20897767
000030 f2 ac 49 3e 8c a2 c3 bd 11 e9 67 3e 48 b9 1c 3d
       0.1969488 -0.09552488 0.22647502 0.038262635
000040 22 64 83 3d aa 61 3d be 71 87 4c 3e 3f 93 ea 3d
       0.06415583 -0.18494287 0.19973542 0.11453866
000050 2a 8c 6a 3c bc f7 5a be 35 2c fb bc 46 82 0e 3e
       0.014315644 -0.21383566 -0.030660728 0.13916883
000060 7d 75 f3 bc be 97 50 3e 50 2a 38 3e 73 14 65 be
       -0.029719109 0.20370385 0.17984891 -0.22371082
000070 3e 0b 2a 3e 2e 06 17 3e 15 44 a3 bd 61 f9 33 3e
       0.16605851 0.14748451 -0.0797197 0.17575599
000080 e4 e1 fb 3d 1b 0a 10 bd 60 74 91 bb 27 c0 4a 3e
       0.122989446 -0.035165887 -0.004438922 0.19799863
000090 dd 84 ac 3c 33 95 f9 bd 94 c6 66 3e 51 70 b3 3d
       0.021059448 -0.121866606 0.22536689 0.08761657
0000a0 58 8a 35 be 7c 67 2b 3d 7f 4d ba 3d 6f 01 db bd
       -0.17728555 0.041846737 0.090968125 -0.10693633
0000b0 60 42 62 3e ab bd 0b 3e 6e 89 07 bd 8c f3 9d 3d
       0.22095633 0.13646571 -0.033090048 0.077124685
0000c0 97 ce 64 3e a2 c8 f6 3d a7 62 4a be d2 83 cc 3d
       0.22344433 0.120499864 -0.19764195 0.0998608
0000d0 22 6b 03 3e 1c c1 80 bd 5f 66 67 bd 2a 31 85 bd
       0.12833837 -0.06286833 -0.056494113 -0.06503518
0000e0 7d 11 66 3e 23 66 ab 3c 66 df 7b 3d b7 96 31 be
       0.22467609 0.020922726 0.061492346 -0.1734265
0000f0 99 69 65 be 2e 21 d8 3d 30 1f 0b be 7b 9f 2f 3e
       -0.22403564 0.105532035 -0.13586116 0.1715068

value_head.weight f4 [1, 64]
000000 e2 f6 4a be 75 a4 d3 3d df 78 49 3e 56 c2 0c be
       -0.19820741 0.10334102 0.19675015 -0.13746008
000010 96 21 50 3e 17 12 b5 3d 8b 59 cb 3d 2a 1a 15 be
       0.20325312 0.08841341 0.09929188 -0.14560762
000020 22 28 3e be 86 4f f7 3d b7 ee 03 3e a0 ac 16 3e
       -0.18569997 0.12075715 0.12884031 0.14714289
000030 8c 6c 0d 3e b5 ea 0e be 3a 92 01 3e 4d 20 f0 3d
       0.13810939 -0.13956721 0.12653437 0.11724911
000040 42 b4 e2 3d 35 23 75 be 11 c8 cb 3d 60 ca 98 3d
       0.11069538 -0.23939212 0.09950269 0.07460475
000050 6f d9 25 be bd a4 27 be f5 7f 73 3d 5e c2 c1 3d
       -0.16196226 -0.16371436 0.0594482 0.09460901
000060 d8 d9 5f be 68 bd 48 3e a4 e0 45 3e d2 a5 2c be
       -0.21860445 0.19603503 0.19323975 -0.1686013
000070 0f 55 bb 3d 3e 38 38 3e a8 b1 14 3a 79 44 50 3e
       0.09147083 0.17990205 0.0005672225 0.2033862
000080 fe 0b 27 3e 16 ee 17 3d a7 1d 5d 3d 05 28 fb 3d
       0.16313168 0.03709229 0.053983357 0.122634925
000090 00 89 13 3e 83 9c 15 be cb a6 05 3e f7 66 4e 3e
       0.1440773 -0.14610486 0.13051908 0.20156465
0000a0 47 61 70 be 2e 83 67 be 17 bb 9f 3c 4e 91 70 be
       -0.23474608 -0.22608635 0.019498391 -0.2349293
0000b0 dc 02 b2 3d 16 0b e4 3d ca c2 0c be a0 ab bc 3d
       0.08691952 0.11134927 -0.13746181 0.09212422
0000c0 3b e8 24 3e 20 a6 40 3e 4b 83 15 be 06 33 de 3d
       0.16104214 0.18813372 -0.14600866 0.10849576
0000d0 f0 63 ba 3d 96 86 28 be b8 b6 63 be 68 5f 8c 3c
       0.09101093 -0.1645759 -0.2223767 0.017135337
0000e0 e4 55 ac 3d f2 cb 0e 3e 86 bb ac 3d cd d4 5d be
       0.0841482 0.13944986 0.08434205 -0.21663208
0000f0 dd 8a 05 be 22 58 e9 3d eb 20 1a be 6b 95 f7 3d
       -0.13041253 0.11393763 -0.1505162 0.12089046
