output/4-agents_domain-CoinGame-4_MATE-TD-T0.25_2022-08-09-12-04-13/critic_net_0.pth (torch, 44695 bytes, 5 tensors)

fc_net.0.weight f4 [64, 100]
00000000: 678c fe3d 5b4f bc3d a016 993d 87ce d7bc
00000010: 90af 733d 5e1d 883d a87d b03d 31fd 2cbc
00000020: ca00 e03d 8e02 133e cd96 02bb 0478 b93d
00000030: b58c 41bc 95e9 1b3e 181a ae3d 6137 0e3e
00000040: 7f2d c0bd b248 c53d 4c5d 563d 2607 de3d
00000050: ab39 7cbd 8026 b33d b608 963c 102f bdbc
00000060: c6f4 ad3d 247a c8bc 6753 843c 3d06 4e3d
00000070: c8ac d33c eed3 24bd 4cc0 d93d 1dfd 6b3d
00000080: 9969 dbba b9ac 823c 4360 8aba d484 513d
00000090: f801 f13b cf60 fb3c 7be1 33bd 4c28 36bc
000000a0: f9c0 12b9 cf5e 7a3c 952c c63c 6be4 4bbd
000000b0: f19c 41bd bf43 f43c 7a6f bbbb 1378 943b
000000c0: f744 803d e244 8cbd 3e6e 4b3d c15d 703d
000000d0: 5611 e1bd 9ef8 91bc 0f6e 11bd 3258 f73d
000000e0: db9c ca3a 32d6 933d a8d9 35bd d24c d1ba
000000f0: 0bdd a1bd a3d9 85bd 629d 38bc e1ae 123c
00000100: 6842 11bc 20d3 98bd f693 36bb d5ab 05be
00000110: 249f 503d 73f4 393d 91cf b9bd 0930 1fbd
00000120: 063c 133d 0f28 e03b fd41 65bc ba79 3b3c
00000130: 660b b53c df01 b73d f684 fe3c 070e febc
00000140: 90b4 213c 40f5 f5bc 9835 bf3d 5aab d23d
00000150: 1e2f 6dbd 398e 183d 3f92 583c 048a 1f3d
00000160: 1496 89bd 7496 103e c879 313d 7944 113e
00000170: ff60 b3bb 7cf6 d53d 767d cfbc 7f2c 433d
00000180: 7cef 03bd 737f bb3d 710a 073e b8a6 553d
00000190: 1e73 9ebd f2dd fc3c 8d77 883c ff6d a43c
000001a0: ada9 eabd f7c2 df3c 4f60 f9bd d7be 10bc
000001b0: 5db5 03bd e8b1 30bd 6963 d6bd 661e 2ebe
000001c0: 6489 e2bd 8d20 f8bd 9cd3 bfbd 72ee 6abd
000001d0: 8e44 44be d575 10be 2836 2fbe 7c28 0abd
000001e0: dd8d fabd 5d4b 5cbe b071 6ebc 8875 55be
000001f0: 2072 efbd b85f 02be 7677 43bd e453 0bbe
00000200: 8bd3 2c3c 6990 8dbb 13a1 3fbe 33c1 a8bc
00000210: dc60 15be 33e1 9cbd 76de 243d f9ea a0bc
00000220: 70c7 7dbd b9fd 2dbe 2118 28be 06a4 283d
00000230: cf8e c2bd ec6d 90bd 809d 88bd 22d7 37bd
00000240: 723f 84bc 3529 4ebe 7c19 7bbd a3f9 0c3c
00000250: 350e 073d d076 a03c 439e fdbd 5219 14be
00000260: b94c 2cbe 4311 9bbc a9eb 8abc 3030 42bc
00000270: 100b 47bb a154 cbbd 3810 013d 3447 3a3d
00000280: aa1a d53b 9f77 f4bd 0eb1 f9bd 15ed 32bd
00000290: c217 ed3d 2258 193e 5d20 66bc 2490 853d
000002a0: 19d9 c73d f6c6 653a 950b 923d 060c fd3d
000002b0: d25e b13c c10e 473c 2a25 1bbc 0b57 c0bd
000002c0: d489 fdbb 2292 83bd c531 8ebd 9ff4 5cbe
000002d0: 8023 fdbc b30b b2bd ed28 a4bd e59d ddbd
000002e0: 0e63 33bc 6c2b dbbd 3f13 333d d951 d3bb
000002f0: b2f5 99bd d05d babc 3b50 3d3a 956f aebc
00000300: 1f21 b0bd 40d6 ddbc fbb8 4abe 17d7 49bd
00000310: 8a2e fd3b caff d0bd 3a1e 68be 0075 dcbd
00000320: 3764 7fbd a978 0ebd 4ac4 33be a308 bfbd
00000330: 6300 36bd 6157 a03d b130 40bd 01f7 a6bb
00000340: 9728 81be 368f c9bd 883d fcbd baea e53b
00000350: 5a58 90bd d9d3 13be f10d 49be c9cc 8ebd
00000360: e290 32be d519 83bb 30ea 1dbe a957 27be
00000370: 98eb a5bd ef55 8fbd 03d7 a9bd b204 81bd
00000380: f2f9 e2bd 9b2b 3bbe 7716 1abd e5dc 25be
00000390: 8390 3dbe 6a0f 39be b2f0 0c3c 22c5 c1bc
000003a0: 82a3 7dbd 4d4b 89be 1ff0 32bd be0f 37be
000003b0: 53ea 063d 753c 00bd 5942 a4bd 795e 6dbe
000003c0: c5c3 c9bd 7daf 42be ae3e c5bd 1d87 c0bb
000003d0: 7a54 9bbd 3d80 dfbd fd62 74be 5eba f9bd
000003e0: a5cd b73d ace0 adbc afcc 45be ab89 da3c
000003f0: c1e2 1bbe d8a2 eb3c 3174 1c3e 4840 0ebe
0.12429123 0.09194823 0.074750185 -0.026343597 0.0594936 0.06646226 0.08617717 -0.010558412
0.109376505 0.14356443 -0.001992631 0.09056094 -0.011813332 0.15225823 0.08501071 0.13888313
-0.09383678 0.09633006 0.05233507 0.10841207 -0.061578434 0.08747578 0.0183147 -0.02309373
0.084939525 -0.024472304 0.01615305 0.050298918 0.025839224 -0.040241174 0.10632381 0.057614435
-0.0016739845 0.015951501 -0.0010557253 0.051152065 0.007354971 0.03068581 -0.043916207 -0.011118006
-0.00013995533 0.015281393 0.02419118 -0.049778383 -0.04726881 0.02981746 -0.005720076 0.0045309155
0.06263154 -0.06849076 0.049665682 0.05868316 -0.10989635 -0.017818745 -0.03550535 0.12077369
0.0015458124 0.07218589 -0.044397026 -0.0015968329 -0.07903489 -0.065356515 -0.011267992 0.008952827
-0.00886593 -0.07462144 -0.0027859188 -0.1305383 0.05093302 0.04539914 -0.09072793 -0.03886417
0.035945915 0.006840713 -0.013992784 0.011442596 0.022100162 0.08935904 0.03106926 -0.031012548
0.00986971 -0.03002417 0.09336394 0.10286589 -0.057906263 0.03724501 0.013218462 0.03894998
-0.06718078 0.14119893 0.04332903 0.14186276 -0.0054742093 0.10447404 -0.02532838 0.047649857
-0.032210812 0.091551684 0.13187577 0.05216095 -0.077368006 0.03086755 0.016658569 0.020071981
-0.11458144 0.027314646 -0.121765725 -0.008834562 -0.032155383 -0.043138415 -0.1046818 -0.17003784
-0.110613614 -0.121155836 -0.09366533 -0.057356305 -0.19166777 -0.1410745 -0.17110503 -0.033730015
-0.122340895 -0.21513124 -0.014553472 -0.20845616 -0.116916895 -0.12731826 -0.04772135 -0.1360622
0.010548483 -0.0043201935 -0.18713789 -0.020599937 -0.1458773 -0.07660141 0.040251218 -0.019643294
-0.061957777 -0.16991319 -0.16415454 0.04117205 -0.09499895 -0.07052216 -0.06670666 -0.0448829
-0.016143534 -0.20132907 -0.0613036 0.00860444 0.032972533 0.019587904 -0.12383702 -0.14462784
-0.16826142 -0.01892913 -0.016958075 -0.011852309 -0.0030371584 -0.09928251 0.031509608 0.04547806
0.0065034227 -0.119368784 -0.121919736 -0.04368313 0.11576797 0.14975026 -0.014045802 0.06521633
0.09758205 0.0008765304 0.07131115 0.12355809 0.02165166 0.012149514 -0.00946931 -0.09391602
-0.0077373777 -0.06424357 -0.069430865 -0.2157769 -0.030900717 -0.08693638 -0.080156185 -0.108211316
-0.010948909 -0.107016414 0.043719526 -0.006448966 -0.07517566 -0.022749811 0.0007221733 -0.02129344
-0.08600067 -0.027079701 -0.19797127 -0.04927739 0.007726495 -0.10205038 -0.2266778 -0.107645035
-0.06235143 -0.03478304 -0.17555347 -0.09327819 -0.044433963 0.07829166 -0.046921436 -0.005095363
-0.2522628 -0.098417684 -0.12316424 0.007016507 -0.07048102 -0.14436282 -0.19634224 -0.069726534
-0.17438081 -0.004000882 -0.15421367 -0.16342033 -0.081015766 -0.069988124 -0.08292963 -0.06299724
-0.110828295 -0.18278353 -0.03761908 -0.16197546 -0.18512158 -0.18072286 0.008602308 -0.02365357
-0.06192351 -0.26815262 -0.04368603 -0.17877099 0.032938313 -0.031307656 -0.08020467 -0.2318057
-0.09851793 -0.19012256 -0.09631096 -0.0058754818 -0.07584472 -0.109131314 -0.23865886 -0.1219375
0.089747705 -0.021225296 -0.19316362 0.026676973 -0.15223219 0.028764173 0.15278699 -0.13891709

fc_net.0.bias f4 [64]
00000000: ab35 9abd f44d 5bbe 21f1 32be ac39 323e
00000010: dfaf 4d3e 7008 c63d 340a 0fbe f05b d23d
00000020: 7ce2 0d3e 42b6 243e 6c59 543e 3586 dbbd
00000030: da8f 1bbe a865 013e 9dda bf3d 2982 223e
00000040: 1da2 f7bd 5804 913d 4313 413e 4866 b83d
00000050: 44ea 2f3e 2a85 103e f591 53be 6523 e13c
00000060: b8af 603d 2ef7 3fbe 5152 e2bd dbd9 093e
00000070: 6713 623d 241d 093e 2baf 273d c693 173e
00000080: 0956 c33d 44ce e9bb b931 873d 9e70 0d3e
00000090: d99f 113e 68d5 163e d40d 4b3e a085 1bbe
000000a0: a9ca d43d 6815 4b3e fe95 383e b787 163e
000000b0: 771f 30be 2719 d63d 5fbc 1e3e f609 40be
000000c0: 2910 33be 8dda fbbd 06b2 f83d 998a 753d
000000d0: 020d 27be 9467 3a3e 4be6 00be 052d 4bbe
000000e0: 4017 53be 1fa1 73bd f836 3e3e 6ac3 093e
000000f0: 49a7 b43d ff27 1b3e 1b47 043e ff47 31be
-0.075297676 -0.21416456 -0.17474796 0.17404813 0.20086621 0.09669578 -0.13968736 0.10271442
0.13855928 0.16085151 0.20737237 -0.10718957 -0.15191594 0.12636435 0.09367869 0.15869965
-0.120914675 0.07080907 0.18855004 0.090038836 0.17179209 0.14113298 -0.20661147 0.027482698
0.05485508 -0.18746635 -0.11050857 0.13462012 0.055194285 0.13390023 0.040938538 0.14802465
0.09537894 -0.0071351845 0.06601281 0.13812491 0.14221133 0.14729846 0.19829494 -0.15187693
0.10390217 0.19832385 0.18025967 0.14700209 -0.17199503 0.10454016 0.15501545 -0.187538
-0.17486633 -0.12297545 0.1214333 0.05994663 -0.16313556 0.18203574 -0.1258785 -0.19841392
-0.20614338 -0.05947983 0.18575656 0.13453451 0.088209696 0.15151976 0.1291775 -0.1731262

fc_net.2.weight f4 [64, 64]
00000000: d827 b13d 40ca 493e 1d6c 603e 51a4 4ebe
00000010: 3f19 d7bd 7720 8dbe 1e0a 593e 855d 9cbd
00000020: 9175 2dbd d886 e7bd 9c07 4fbe db67 5b3e
00000030: 4ecd c83d 292f 45be e17e d4bd 788c ebbd
00000040: f889 f33d ae01 33be ba8c 00be 969e 87be
00000050: 46a6 babd de9f 83be 6677 993d b518 9ebd
00000060: b102 543e c52e 623e 925a 493e 5b61 8abe
00000070: 288a 5ebd c64d 5fbd 6a40 88bc 0e6f 8abe
00000080: 7d9f 68bd 475f 37be e67c 3dbd 87e2 2fbe
00000090: 3479 73be c19a 3bbd ba5e 7dbe 301e 453e
000000a0: caef e4bd f6ad 45be 8c74 2abd c086 62be
000000b0: 0a8a 0c3e 443b 03be 7456 12be 7b80 913e
000000c0: 3dc6 083e 2774 cc3d 8d83 b2bd 17a0 013d
000000d0: 2cea 853e abb1 5fbe 95fc 583e ee6e e53d
000000e0: 7e33 493e d4fe 913e b862 33bd dc40 71be
000000f0: 0745 6abe b24a f1bd d9fb 99bd 7e4b f03d
00000100: 3737 66bd 29c1 103e 15b4 483e 7d6b e7bd
00000110: 9b7a 27be dcfb 7dbe 61a6 3d3e 6df7 69be
00000120: dc42 2fbe 6124 35be 0141 29bd ed68 2a3e
00000130: 6fb0 613d 544a 2dbe 0046 29be 6c88 22be
00000140: 7ba8 473d 2526 31bd 9b72 65be 3ff1 10be
00000150: 9cfd 84be b001 83be 280b ea3d 3793 66be
00000160: 2c32 3c3e 585c 0d3e c828 a03e f974 73be
00000170: 01d4 00be 2292 4bbe 71fe 5a3c bf53 51be
00000180: 268c 80be 4fff 51be 022c 3abe 5a87 84bd
00000190: 6ae2 d0bd c707 c5bd d818 6cbd 54ac 873e
000001a0: cd45 86be ec92 a1bd 26d1 19bd afab 5abe
000001b0: 989a 703e 4c10 13be 3beb c2bd 41b5 203d
000001c0: d5b6 1f3e dc0d 453d 0d87 7cbe 6e07 01be
000001d0: 5a47 943e fd64 8cbd 3b4b 313e 50cb 9c3d
000001e0: 7cd5 463e ae09 f63d 398b 82be 19e5 55be
000001f0: 7f69 8cbe f595 82be aed3 ecbd bf57 583e
00000200: 55a1 a4bd 6ff1 1cbe 8ae2 48be 8fa3 9b3c
00000210: 8783 f93d 4ed6 b03d 8103 28be 6805 0d3e
00000220: 4666 53bd a935 fa3b cb92 823d 08d0 35be
00000230: 325e 9cbc 1747 203e b2af 36bd 854e df3d
00000240: a990 45be 3b85 0dbc 4998 0d3d d39f e03d
00000250: 0c3c 1c3e 45ea 69bd 7460 07be 9fc7 cc3d
00000260: 9e95 58bd 4a94 18be 11d4 e9bd c348 483e
00000270: 2f4b ca3c 244d 073d 0400 60bd 85d5 5f3d
00000280: 2263 e83c c6f5 743d 8b11 2a3e f1f9 223e
00000290: e9b8 9d3d 078d 583d 0ed7 c63d 19cd e0bd
000002a0: 66c5 25bd 85bb 6b3d c679 413d ade3 203e
000002b0: 126d 00bd 9ea4 383e 4efb 563d a90f 93bd
000002c0: cf8a 66be 7720 0cbe 1874 193e 27c4 ec3d
000002d0: ab20 88bc 260d febc e873 5cbe 089c 33be
000002e0: 323c a7bd 0279 ebbd f80c cd3d 03e6 bcbc
000002f0: fc2f 443e 8483 ef3d e140 c53d 9e6b 62be
00000300: 5368 f6bc 587a f73d cde4 993d 255b 0dbe
00000310: 6c8d a9bd 93ab 44be 6bf2 9b3e 2f2c 4cbe
00000320: 4ae9 16be e7af 6dbe 8a8e 47be 5df8 883d
00000330: aeed 283e 2be1 8cbd 9df1 1bbe 3228 3abe
00000340: 31a3 703e 09f4 77bd c22e 21be 8d5f cabd
00000350: a02e 8ebd 3098 0dbe 3265 5f3d fb96 21be
00000360: 386f 803e ee11 ea3d 17fb 883e f626 5dbe
00000370: a764 e43c db94 13bc d1c4 1bbe 71f8 5ebe
00000380: 39ca 95bd 69b8 debd 00bc 0dbe 4b51 8ebe
00000390: 8761 a8bd f04a 64be 8734 7dbe 5365 953e
000003a0: 28a6 3ebd ad65 3cbe b76b 64be 26d8 e7bd
000003b0: 12e5 d83d 22b5 6bbd 29c8 13be e19e 973d
000003c0: 5685 d33d c7ad 243e 8428 50be f411 9e3d
000003d0: 0449 4a3e 28ca 39be 84ed 223e b05b 163d
000003e0: 3c2d 273e b187 113d d3f5 16be 4ad5 7ebd
000003f0: afef 2cbe 9037 5bbe 8511 86be f25a 443e
0.08650178 0.19706059 0.21916242 -0.20179869 -0.10502862 -0.2756383 0.21195266 -0.07635025
-0.04234845 -0.11305016 -0.20217746 0.21426336 0.09804784 -0.19256271 -0.10375763 -0.11501402
0.1189155 -0.1748111 -0.12553683 -0.2648818 -0.091137454 -0.25707906 0.074934766 -0.07719556
0.20704152 0.22088154 0.19663456 -0.270274 -0.054330975 -0.05451753 -0.016632278 -0.27037853
-0.056792725 -0.17907439 -0.04626169 -0.17176257 -0.23776704 -0.04580188 -0.24743167 0.19249797
-0.11178549 -0.19304642 -0.041615054 -0.22121716 0.13724533 -0.12815577 -0.14290792 0.28418335
0.13356872 0.09983092 -0.087164976 0.031646814 0.2615522 -0.21845119 0.21190102 0.11202799
0.19648549 0.2851473 -0.043795317 -0.23559898 -0.22877894 -0.11781825 -0.07518739 0.11733149
-0.056205 0.14136185 0.19599946 -0.11299799 -0.16355364 -0.24803108 0.185205 -0.22848292
-0.17115349 -0.17689659 -0.04132176 0.16641589 0.0550999 -0.16922885 -0.16530609 -0.15872353
0.04874466 -0.043249268 -0.22407 -0.14154528 -0.2597474 -0.25587225 0.11427909 -0.22517096
0.18378514 0.13804758 0.31281114 -0.2377509 -0.12580873 -0.19879964 0.013366328 -0.20442103
-0.25106925 -0.20507549 -0.1818085 -0.06471129 -0.10199435 -0.09620624 -0.05764088 0.26498663
-0.2622513 -0.07889351 -0.037552975 -0.21354555 0.23496473 -0.14361686 -0.09517523 0.039235357
0.15597089 0.04810892 -0.24660893 -0.1260049 0.28960687 -0.068551995 0.17313854 0.07655966
0.19417375 0.12013565 -0.25496843 -0.20888175 -0.27424237 -0.25505033 -0.11563812 0.21127222
-0.08038584 -0.15326475 -0.19617668 0.01899889 0.1218329 0.086346254 -0.16407587 0.13771594
-0.051611207 0.0076357913 0.06375655 -0.17755139 -0.019087885 0.15652119 -0.04460115 0.10903648
-0.19293465 -0.008637722 0.03456906 0.10967984 0.15257281 -0.057108182 -0.13220388 0.09999012
-0.05287706 -0.14900318 -0.114174016 0.19559006 0.024694053 0.03303255 -0.054687515 0.054646987
0.028367583 0.0598047 0.16608255 0.15915658 0.077012844 0.05286887 0.09708987 -0.10976619
-0.040471457 0.05755188 0.047235273 0.15711851 -0.031354018 0.18031546 0.052485757 -0.07180721
-0.22513889 -0.1368426 0.14985693 0.115608506 -0.01661714 -0.031012129 -0.2152859 -0.1753999
-0.08165778 -0.1149769 0.10012239 -0.023058897 0.1915893 0.116950065 0.09631515 -0.22111365
-0.030079043 0.12083882 0.075143434 -0.138043 -0.08278927 -0.19206075 0.30458388 -0.1993873
-0.1473743 -0.23211633 -0.19487968 0.066879965 0.16496918 -0.06878885 -0.15228887 -0.18179396
0.23499753 -0.060535464 -0.15740493 -0.09881506 -0.06942487 -0.13827586 0.054539867 -0.1578025
0.25084853 0.11429201 0.26754066 -0.21596894 0.027880026 -0.009007658 -0.15211798 -0.2177446
-0.073139615 -0.10875017 -0.13841248 -0.27796397 -0.08221727 -0.22294211 -0.24727069 0.29178867
-0.046545178 -0.18398161 -0.22306715 -0.11320524 0.10590567 -0.05754579 -0.14431824 0.074033506
0.10328166 0.16081916 -0.20327955 0.07718268 0.19754416 -0.18143523 0.15910918 0.036708534
0.1632585 0.035529796 -0.14742212 -0.062215127 -0.16888307 -0.21407914 -0.2618524 0.19175318

fc_net.2.bias f4 [64]
00000000: 2bbb fbbc 2c7b 03be 56e9 5c3e 516d aebd
00000010: e3b6 d13d b830 b63d b4fe f5bd 3e65 afbd
00000020: b006 02bd 1ec6 74be cbfb 6e3d da21 103e
00000030: 547e 383e 1f3f ef3d 3b2c d0bd 1855 1a3d
00000040: 79a7 b73d e7d7 47bd fc2a df3d fb77 11be
00000050: 38f9 7ebe 44e3 6b3d d11e f3bd c2e3 4bbc
00000060: fe64 8e3d f050 8b3d 8404 113d 727a 00be
00000070: bf67 5c3c 84ac 953d 3fac 75bc 1f44 57be
00000080: 3572 5dbe 7bcc 653c 8a87 4a3e 937b 8bbd
00000090: c11c 663e bbe9 eb3d 417e 1a3d 1dec fa3c
000000a0: 0358 153e 95a1 1abe a305 403e 52a6 633e
000000b0: bbf7 fabb b38f aabc 6bfe 2fbe 84bd 28bd
000000c0: 59ef 16be 561a 03be 9fb1 33be fc95 c13d
000000d0: 2c71 33be a9e2 9abd 5cc8 513d ccda 023d
000000e0: a618 9c3d 27f1 54bc 10ee 36bd 4ab4 083e
000000f0: cc82 f2bc 81e1 d3bd 704c 26be 1049 2e3e
-0.030728897 -0.12839955 0.21573386 -0.08516944 0.10239961 0.08896011 -0.120114714 -0.08564232
-0.03174466 -0.239037 0.058345597 0.14075413 0.1801694 0.11681961 -0.10164686 0.037678808
0.0896749 -0.048789885 0.108968705 -0.14205925 -0.24899757 0.057589784 -0.11871112 -0.012444438
0.069528565 0.06802547 0.035404697 -0.12546709 0.013452469 0.07308295 -0.01499468 -0.2102208
-0.21625598 0.014025803 0.19778267 -0.06810679 0.22471906 0.1151919 0.03771806 0.030630166
0.14584355 -0.15100701 0.1875215 0.22231415 -0.0076589263 -0.020820474 -0.17186897 -0.04119636
-0.14739741 -0.12803015 -0.17548226 0.094524354 -0.1752364 -0.07562763 0.05121647 0.031946942
0.07621889 -0.012996948 -0.044660628 0.13350025 -0.029603384 -0.10345746 -0.16240096 0.17020059

value_head.weight f4 [1, 64]
00000000: c9c5 05be 5875 41be cde0 373e 0c22 41be
00000010: 1284 df3d a89b 993d 05cd 47be 902c 6abe
00000020: fdc5 48be e5d0 32be 6e96 3b3e 9758 473e
00000030: f0fa 213e 080c bc3d 74ec 62be ee99 9c3d
00000040: dcad d33d d0ab febd 9480 cd3d 338b 7bbe
00000050: dae8 0bbe e11f f73d 0ad3 10be 993c 2dbe
00000060: 95c8 103e aa95 193e 659f 0b3e 3387 13be
00000070: 5ffb 5dbe d67a 263e d228 6a3d 91fc 64be
00000080: 6b11 26be 02d4 ac3d 074d 393e d82d 57be
00000090: 9707 e23d d11d 443e d8dc a73d 0aad f53d
000000a0: ae41 293e 9db4 69be fe01 0a3e 6754 ed3d
000000b0: bbf5 b93d fd22 0e3e 7cf3 fbbd 2382 efbd
000000c0: ea00 31be a52c fcbd 53ad 66be 121c 153e
000000d0: 4f2e 77be 1fc1 46be 805b 203e 4742 953d
000000e0: 4cd9 de3d 2972 47be 9e8a d9bd 2973 413e
000000f0: f650 29be ee34 38be 716e 2fbe e36e 163e
-0.1306373 -0.1889242 0.17956848 -0.18860644 0.10913862 0.07500392 -0.19511802 -0.22868562
-0.19606777 -0.174625 0.18319103 0.19467388 0.15818381 0.09181982 -0.22160512 0.07646547
0.103358954 -0.124351144 0.1003429 -0.24564819 -0.13663045 0.12066627 -0.14143005 -0.16917647
0.14139016 0.14998499 0.13635023 -0.14407043 -0.21677922 0.16257796 0.057167836 -0.22361971
-0.16217582 0.08438875 0.1809579 -0.21013582 0.11036604 0.19151999 0.081964195 0.11995895
0.16528961 -0.22822805 0.13477322 0.11588364 0.090800725 0.13880534 -0.123023 -0.116947435
-0.17285505 -0.12313203 -0.22527055 0.14561489 -0.24138759 -0.19409607 0.15659904 0.07288032
0.1088129 -0.19477142 -0.10622142 0.18891586 -0.1653479 -0.17988941 -0.17131974 0.14690737
