output/4-agents_domain-CoinGame-4_MATE-TD-T0.25_2022-08-09-12-04-13/critic_net_1.pth (torch, 44695 bytes, 5 tensors)

fc_net.0.weight f4 [64, 100]
0	0x3e39a46f	0.18129133
1	0x3dd0b6f4	0.101911455
2	0x3e1fe308	0.1561395
3	0x3db744f6	0.089487
4	0x3d50c304	0.05096723
5	0x3e63b41b	0.22236674
6	0x3bbf9865	0.0058470243
7	0x3e0fe1dd	0.14051004
8	0x3df8b8e0	0.12144637
9	0x3bf983ed	0.0076146037
10	0x3e0d8271	0.1381929
11	0x3df2c1b9	0.11853356
12	0x3dc81921	0.09770418
13	0x3d78b47f	0.06071901
14	0x3dcfd120	0.10147309
15	0x3df7ca61	0.120991476
16	0x3af04f5c	0.0018334198
17	0x3e17a0ba	0.14807406
18	0xbc72e26b	-0.01482449
19	0x3c444ec9	0.0119816745
20	0x3d53fa40	0.05175233
21	0x3dfbc5c3	0.122935794
22	0x3e2eb943	0.17062859
23	0x3caa3973	0.020779347
24	0x3e04fb70	0.12986541
25	0x3dc5a4f9	0.09650607
26	0x3d282a02	0.041055687
27	0x3e0c7722	0.1371732
28	0x3ce67a7d	0.028134579
29	0x3d9dbb3d	0.077017285
30	0x3e39e8f0	0.18155265
31	0x3e06ff30	0.13183284
32	0x3d974e04	0.07387927
33	0x3d04b6f0	0.032401025
34	0xbc2abaa7	-0.010420478
35	0x3d1c5fde	0.038177364
36	0x3e0d6f8b	0.13812082
37	0x3e2371f9	0.15961446
38	0x3d2dfc0f	0.04247671
39	0x3dd482c3	0.10376503
40	0x3d1da129	0.038483772
41	0x3aafa07e	0.0013399271
42	0x3e0a1f8d	0.13488598
43	0xbcae4b85	-0.021276245
44	0x3d31fdbe	0.043454878
45	0x3d2f92e1	0.042864684
46	0x3ddc3317	0.10751932
47	0x3d2a54c8	0.04158476
48	0x3c155a0c	0.009115707
49	0x3e005394	0.12531883
50	0x3d1ec461	0.0387615
51	0xbcac2ab7	-0.021016462
52	0xbd24b315	-0.04020985
53	0xbc775c7a	-0.015097732
54	0x3d6cf478	0.05785033
55	0xbdfb0caa	-0.12258275
56	0xbdb9de17	-0.090755634
57	0x3d29c1b9	0.041444514
58	0x3da634d4	0.08115545
59	0x3d60a887	0.05484822
60	0xbd5064ec	-0.050877497
61	0xbb0d4c29	-0.0021560288
62	0x3e15a4e9	0.1461369
63	0x3dbb8c3f	0.09157609
64	0x3d780c34	0.060558513
65	0xbd3923cf	-0.045200165
66	0xbc08ea3d	-0.008356628
67	0x3db94d3e	0.09047936
68	0x3d29579f	0.041343328
69	0xbcbbf310	-0.02294305
70	0xbcf23a36	-0.029568773
71	0xbc20ec93	-0.009822029
72	0xbd31f05d	-0.04344212
73	0x3da7258b	0.08161458
74	0xbd0850ef	-0.03328031
75	0x3b6e49cc	0.0036359904
76	0x3e1e74e9	0.15474285
77	0x3dd58027	0.10424834
78	0x3e5422fa	0.20716467
79	0x3e307c80	0.17234993
80	0x3d313174	0.043260053
81	0x3cc9a8ed	0.024616683
82	0x3bfc13da	0.007692796
83	0x3e161d3e	0.14659593
84	0x3dddf105	0.108369865
85	0x3cb250aa	0.02176698
86	0x3dc28384	0.09497741
87	0x3aa38802	0.0012476447
88	0x3d551f2d	0.052031685
89	0x3e12520e	0.14289114
90	0x3d5de35e	0.054171912
91	0x3c2617dd	0.010137525
92	0x3e20df3d	0.15710159
93	0x3e4b797d	0.19870563
94	0x3e200d1f	0.15630005
95	0xbcbdf227	-0.023186756
96	0x3dfa336c	0.12216839
97	0x3d2cd8d9	0.04219899
98	0x3d81c8a0	0.06337094
99	0x3dbc1e51	0.0918547
100	0x3d8a3362	0.06748082
101	0x3dc18da6	0.094508454
102	0xbcfb8ca9	-0.03070672
103	0x3e1c0cb7	0.15239225
104	0x3d860981	0.065447815
105	0x3d74a84d	0.059730817
106	0x3d893f7f	0.06701564
107	0x3dcbeffe	0.09957884
108	0x3daadab2	0.08342494
109	0x3d995999	0.074877925
110	0x3e154f09	0.14580931
111	0x3cfa0a59	0.030522512
112	0xbcd951ce	-0.026528265
113	0xbbb05ed9	-0.0053824005
114	0x3e1b5962	0.15170816
115	0x3e3653d7	0.1780542
116	0x3def9804	0.116989166
117	0x3d88a178	0.06671423
118	0x3df65d91	0.12029565
119	0x39a0d48a	0.00030675932
120	0x3de02d79	0.10946173
121	0x3e3e3869	0.18576206
122	0x3de83f2e	0.113401756
123	0x3d9ccc85	0.076561965
124	0x3e191a24	0.14951378
125	0x3e2bb67b	0.1676883
126	0x3d9f7010	0.07785046
127	0x3de18c7d	0.11013124
128	0x3e35d7a3	0.1775804
129	0x3ca8498b	0.02054288
130	0x3dd3e575	0.103465
131	0x3dd514f0	0.10404384
132	0x3e1d8972	0.15384462
133	0x3dbdb3ce	0.09262811
134	0x3d18b1dd	0.037279
135	0x3da3b279	0.07993025
136	0x3db59c2d	0.08867679
137	0x3d724dd0	0.05915624
138	0x3e1ed6e9	0.15511669
139	0x3d241a0d	0.040063906
140	0x3e21403e	0.15747163
141	0x3d28f8a9	0.041252766
142	0xbc0b9b3d	-0.008520898
143	0x3e13e213	0.14441709
144	0x3d625610	0.055257857
145	0x3d96c601	0.07361985
146	0xbc53d3d8	-0.012928925
147	0x3e0c93a0	0.1372819
148	0x3df7c645	0.12098364
149	0x3e0fa68e	0.1402838
150	0xbc62a943	-0.0138343
151	0xbb8d27b3	-0.004307711
152	0xbd1ecd7a	-0.038770176
153	0x3db064a2	0.08612944
154	0x3d030310	0.031985343
155	0xbde168d3	-0.11006322
156	0xbda4a010	-0.08038342
157	0xbd400b2e	-0.04688566
158	0x3c707ac1	0.014677704
159	0xbd6ebdfb	-0.05828665
160	0xbcaf6d4d	-0.021414423
161	0xbdcf7441	-0.101295955
162	0x3e1f2aa9	0.15543617
163	0x3db5a664	0.08869627
164	0x3e250ad5	0.16117413
165	0xbe135375	-0.14387305
166	0xbd9d0b85	-0.07668213
167	0xbc9c31cf	-0.01906672
168	0xbce52bd5	-0.027975002
169	0xbce2cd38	-0.027685747
170	0xbdcce0a5	-0.10003785
171	0xbe14684e	-0.14492914
172	0xbd157f70	-0.036498487
173	0xbd0fe120	-0.035126805
174	0x3d0a7454	0.033802345
175	0x3c701686	0.0146538075
176	0x3e00af03	0.12566762
177	0x3e2f4ac9	0.17118372
178	0x3dcd3de3	0.100215696
179	0x3dca96ed	0.09892068
180	0x3d082684	0.033239856
181	0x3d289e5b	0.041166645
182	0x3dcd209e	0.10015987
183	0x3e08a375	0.13343604
184	0x3e0e59b4	0.13901407
185	0x3ccc9bb5	0.02497659
186	0x3e44208c	0.1915304
187	0x3cd4ca32	0.02597532
188	0x3e4cd707	0.20003901
189	0x3e4ea15c	0.20178741
190	0x3da82ff1	0.08212269
191	0x3e0ef87e	0.1396198
192	0x3dcd1776	0.100142404
193	0x3d80f40a	0.06296547
194	0x3e1e4fe2	0.1546016
195	0x3d7e960a	0.062154807
196	0x3d2d0c47	0.042248037
197	0x3dd5b215	0.10434357
198	0x3e016df2	0.12639597
199	0x3ce3af74	0.027793624
200	0xbda34c5b	-0.07973548
201	0x3cf42ea3	0.029807394
202	0x3c07db73	0.008292067
203	0xbd82a0fc	-0.063783616
204	0xbde5d10b	-0.112215124
205	0xbe020ac1	-0.12699415
206	0x3cd476c4	0.025935538
207	0x3ca30ecd	0.019904518
208	0xbdcc60a7	-0.099793725
209	0xbe7bdd74	-0.24596196
210	0xbdbf1deb	-0.09331878
211	0xbd8fd965	-0.070238866
212	0x3c1abe34	0.009444762
213	0x3c5e6926	0.013574874
214	0x3cf821d4	0.030289568
215	0xbe409d75	-0.18810065
216	0xbcf09919	-0.029369878
217	0xbe0fec56	-0.14054999
218	0x3d2a70bf	0.04161143
219	0x3d86f4da	0.065896705
220	0xbe023fc3	-0.12719636
221	0xbe0735e2	-0.13204148
222	0xbd1e761e	-0.038686864
223	0xbe29d173	-0.16583805
224	0xbdf27e8d	-0.11840544
225	0xbe059379	-0.13044538
226	0xbcf718f4	-0.030163266
227	0xbdd18c60	-0.102318525
228	0xbe32b448	-0.17451584
229	0xbcc886d6	-0.024478357
230	0x3c1c7fab	0.009551923
231	0xbe2f7d97	-0.17137752
232	0x3cdb2ed5	0.02675573
233	0xbd9a2088	-0.07525736
234	0xbd4ccd13	-0.05000026
235	0xbe1d5d6b	-0.15367667
236	0xbc2b75ed	-0.010465127
237	0xbd923dd3	-0.07140698
238	0x3c7cf101	0.015438319
239	0xbddc8563	-0.10767629
240	0xbe13f3bd	-0.14448448
241	0xbd69e427	-0.05710235
242	0xbca334c8	-0.019922629
243	0xbd5ee7be	-0.054420225
244	0xbd461237	-0.048357215
245	0xbd642ce4	-0.055706874
246	0xbe31e559	-0.17372645
247	0xbdbfee8b	-0.0937167
248	0xbe1ad75f	-0.1512122
249	0xbe29f0b6	-0.1659573
250	0x3e1f15b3	0.15535621
251	0x3d932125	0.07184056
252	0x3d8adc93	0.067803524
253	0xbc77a3ff	-0.015114783
254	0x3df59d0a	0.119928434
255	0x3ca956a3	0.020671194

fc_net.0.bias f4 [64]
0	0x3df4a316	0.11945169
1	0x3e424a32	0.18973616
2	0xbe3697ea	-0.17831388
3	0xbdafda00	-0.08586502
4	0xbe5e9795	-0.21737511
5	0xbe211a0e	-0.15732595
6	0xbe5e5e79	-0.21715726
7	0xbe44c6d5	-0.19216473
8	0xbe314563	-0.17311625
9	0xbe0769b7	-0.13223921
10	0x3da55e09	0.080745764
11	0xbe35985c	-0.17733902
12	0x3d85ae13	0.06527343
13	0x3e3abea2	0.18236783
14	0x3d3c0f71	0.045913164
15	0xbe34446e	-0.17604229
16	0x3bf38cc1	0.0074325507
17	0x3e2a6d96	0.16643366
18	0xbe044231	-0.12915875
19	0x3e23a245	0.1597987
20	0xbe293344	-0.16523463
21	0xbdb325f2	-0.08747472
22	0x3e345aa0	0.17612696
23	0xbe14fd47	-0.14549743
24	0xbe41fc4b	-0.18943898
25	0xbe30e62f	-0.17275308
26	0x3e303e74	0.17211324
27	0x3deab692	0.11460604
28	0xbdecfbb7	-0.11571448
29	0xbe4b9738	-0.19881904
30	0x3e03bf07	0.1286584
31	0xbe450ce2	-0.19243196
32	0x3e4a9843	0.19784646
33	0xbe2b6652	-0.16738251
34	0x3e219a0c	0.1578142
35	0xbde6b172	-0.11264314
36	0x3e05af12	0.13055065
37	0xbd0436e9	-0.03227893
38	0x3d93dcc7	0.07219844
39	0xbd60ed5e	-0.05491387
40	0x3de73e01	0.11291123
41	0x3e0450a6	0.1292139
42	0xbe16221d	-0.1466145
43	0xbe3e449c	-0.1858086
44	0x3d0c80dc	0.034302577
45	0xbe390b62	-0.18070748
46	0xbe055266	-0.13019714
47	0xbe2ee744	-0.17080408
48	0x3dd4af29	0.10384972
49	0xbd573ef3	-0.052550267
50	0xbdff50e6	-0.12466602
51	0xbe428483	-0.18995862
52	0xbe1ec87b	-0.15506165
53	0x3dcfa5f9	0.10139079
54	0x3df11d0e	0.1177312
55	0x3df2676d	0.11836133
56	0x3e3ab639	0.18233575
57	0xbe2c2742	-0.1681185
58	0x3dba84fd	0.09107397
59	0xbe2e4ad1	-0.17020728
60	0x3d8470fa	0.06466861
61	0x3dccc466	0.099983975
62	0xbe4cc6c4	-0.19997698
63	0x3e208f1a	0.15679589

fc_net.2.weight f4 [64, 64]
0	0xbd4971b8	-0.049180716
1	0xbe2ec1d6	-0.1706613
2	0x3df57e09	0.1198693
3	0x3e3e2c77	0.1857165
4	0x3d9c7761	0.07639957
5	0x3e85b047	0.2611105
6	0x3defc59f	0.11707615
7	0x3d61b591	0.055104796
8	0xbb00610f	-0.0019589101
9	0x3d96bdb4	0.07360402
10	0xbe72dfea	-0.23718229
11	0x3ddab7d4	0.10679594
12	0xbdc03b4a	-0.093863085
13	0xbe82f9cf	-0.25581214
14	0xbdbe03f7	-0.092781
15	0x3e6b03f8	0.22950733
16	0xbca3e0dc	-0.020004682
17	0xbe16260e	-0.14662954
18	0x3e70dff8	0.23522937
19	0xbd2a66d9	-0.04160199
20	0x3e6910e1	0.22760345
21	0x3e6b45e1	0.22975875
22	0xbe47eb3d	-0.1952333
23	0x3d049c11	0.0323754
24	0x3e75ddd8	0.24010408
25	0x3d25c19b	0.04046784
26	0xbd9c5d2f	-0.07634961
27	0xbe483a8d	-0.19553585
28	0x3e579cb9	0.21055879
29	0x3da5fe50	0.08105147
30	0xbe204c04	-0.15653998
31	0x3e219d50	0.15782666
32	0xbe69d446	-0.22834882
33	0x3e005930	0.12534022
34	0xbdeeaf93	-0.11654582
35	0x3dfa8734	0.12232819
36	0xbe766e44	-0.240655
37	0xbe1c7272	-0.15278032
38	0xbe41a447	-0.18910323
39	0x3e812144	0.25220692
40	0xbe77d964	-0.24204022
41	0xbdacf9c4	-0.084460765
42	0x3d0ad28c	0.0338922
43	0x3e55e6fb	0.20888893
44	0xbd5fb199	-0.05461273
45	0x3ddfe505	0.10932354
46	0x3e777b1d	0.24168058
47	0x3e37709e	0.17914054
48	0xbdb24f60	-0.08706546
49	0x3e6d8346	0.23194608
50	0x3dc6d9bb	0.097094975
51	0x3e3b3c16	0.1828464
52	0x3e83a957	0.25715134
53	0xbe598055	-0.21240361
54	0xbe786792	-0.24258259
55	0xbe41ec6a	-0.18937841
56	0xbdf3bd04	-0.11901286
57	0x3e29c87a	0.16580382
58	0xbe289899	-0.16464461
59	0x3e87731e	0.26455015
60	0xbe7ac930	-0.2449081
61	0xbe599fdb	-0.21252386
62	0x3dca07d6	0.09864776
63	0xbde32518	-0.110910594
64	0xbe576d66	-0.21037826
65	0xbcea908b	-0.028633377
66	0x3e96b11a	0.29431993
67	0x3e71d7f3	0.23617534
68	0x3e04badd	0.12961908
69	0x3da79cf2	0.08184232
70	0x3e02730f	0.12739204
71	0x3e3f9d90	0.18712449
72	0x3e00926f	0.1255586
73	0x3d238b62	0.039927848
74	0xbe5d04b6	-0.21583828
75	0x3d9c6f46	0.07638411
76	0xbe841ecf	-0.25804755
77	0xbe596512	-0.21229962
78	0x3d5149a5	0.051095624
79	0x3e2380cb	0.159671
80	0xbdc3b006	-0.09555058
81	0xbe61753e	-0.2201738
82	0x3e6ee6bf	0.2333021
83	0xbdd52741	-0.10407878
84	0x3e816e08	0.2527926
85	0x3e18cca8	0.1492182
86	0xbe7b0ffd	-0.24517818
87	0x3e1cd892	0.1531699
88	0x3e8ae867	0.27130434
89	0x3dbe5c03	0.092948936
90	0xbe142784	-0.14468199
91	0xbe234f78	-0.15948284
92	0x3e34669f	0.17617272
93	0x3e438e6d	0.190973
94	0xbe53f05c	-0.20697159
95	0x3d824c2b	0.06362184
96	0xbe7f1489	-0.24910177
97	0x3e4ef126	0.20209178
98	0xbe023202	-0.12714389
99	0x3e17ec02	0.14836124
100	0xbdb6fd87	-0.08935075
101	0xbe5b7421	-0.21431018
102	0xbe41f618	-0.18941534
103	0x3dbd8b26	0.09255056
104	0xbe8dc20a	-0.27687103
105	0xbe8e2fc8	-0.2777083
106	0x3e483a35	0.19553454
107	0x3e7f6d44	0.24944025
108	0xbe5bdd55	-0.2147115
109	0x3db09379	0.08621878
110	0x3da18e3b	0.078884564
111	0x3dc3e331	0.09564818
112	0xbd471033	-0.048599433
113	0x3d2284e3	0.039677512
114	0x3d0e1ac1	0.034693483
115	0x3e8648be	0.26227373
116	0x3e67a9e6	0.22623405
117	0xbe352fb9	-0.17693986
118	0xbccb6391	-0.02482775
119	0xbe111070	-0.14166427
120	0xbd8adfca	-0.067809656
121	0x3e8a97ec	0.27069032
122	0xbe69e037	-0.22839437
123	0x3e4da683	0.2008305
124	0xbe80845c	-0.25100982
125	0xbe885a0e	-0.26631206
126	0x3e2bb558	0.16768396
127	0xbe6953dd	-0.22785898
128	0xbc73a22e	-0.01487021
129	0x3df785ba	0.12086053
130	0xbdac8d6e	-0.08425413
131	0xbdb880b6	-0.09008925
132	0x3c9b83aa	0.01898368
133	0x3c983118	0.018578097
134	0xbd96d45c	-0.07364723
135	0xbe0bf766	-0.13668594
136	0xbddba974	-0.1072568
137	0x3c80f053	0.015739596
138	0x3d80cd7e	0.062891945
139	0xbe321e39	-0.17394342
140	0xbc9abbb1	-0.018888326
141	0x3d526932	0.051369853
142	0x3ddc0bbf	0.10744428
143	0xbd996f9e	-0.074919924
144	0xbd3c7faf	-0.046020206
145	0x3d498aa1	0.049204472
146	0x3d782775	0.060584504
147	0x3e29172a	0.16512743
148	0xbdfa005a	-0.12207098
149	0xbe4d28cd	-0.20035096
150	0x3c664b56	0.014056047
151	0xbdebbf3d	-0.11511085
152	0xbdbd36b3	-0.09238949
153	0x3c88b4ea	0.016687829
154	0x3e1827f6	0.14858994
155	0x3ca492e2	0.02008957
156	0xbe314b3f	-0.1731386
157	0xbd93eb44	-0.07222608
158	0x3d097b06	0.03356459
159	0xbd6cbcbd	-0.057797182
160	0x3e22ae38	0.15886772
161	0x3c919e70	0.017775744
162	0x3dde0a7e	0.10841845
163	0xbe14d33e	-0.14533707
164	0xbc8b04ee	-0.016970124
165	0x3d9a435e	0.075323805
166	0xbd767368	-0.060168654
167	0x3c517916	0.012785217
168	0xbc3f4c68	-0.0116759315
169	0x3e2f413e	0.17114732
170	0x3d16dd33	0.036832046
171	0xbda7b7ff	-0.08189391
172	0xbde7489c	-0.11293146
173	0xbd4ef2ca	-0.05052451
174	0xbddc829a	-0.10767098
175	0xbe53eb20	-0.20695162
176	0x3dbf5978	0.09343237
177	0x3b067709	0.0020517728
178	0xbc2967f5	-0.010339727
179	0xbd51235e	-0.05105912
180	0xbd676f5a	-0.056502678
181	0xbd460a51	-0.048349682
182	0x3dfb4680	0.12269306
183	0xbc888ae9	-0.0166678
184	0x3e0d2f5e	0.137876
185	0xbe3bed7c	-0.18352312
186	0xbcff2454	-0.031145252
187	0xbd957bad	-0.0729898
188	0x3d460fb1	0.04835481
189	0x3b965366	0.0045875786
190	0xbd77ee79	-0.06053016
191	0xbd6d0740	-0.057868242
192	0xbd6f445f	-0.058414813
193	0x3df40803	0.119155906
194	0x3c7db215	0.015484353
195	0xbd023892	-0.03179223
196	0xbd847821	-0.06468225
197	0xbd368f66	-0.04457035
198	0x3bbf702a	0.0058422284
199	0xbd642889	-0.05570272
200	0xbde798f9	-0.11308474
201	0xbe1bf7b7	-0.15231214
202	0xbc865717	-0.01639895
203	0xbbf05b2d	-0.0073350878
204	0xbc3044b5	-0.0107585685
205	0x3d3a7298	0.04551944
206	0xbdc85f05	-0.097837485
207	0xbe50669c	-0.20351642
208	0xbb3dc3fa	-0.0028955922
209	0xbd8f3afc	-0.06993672
210	0x3d3d6059	0.046234462
211	0x3d591e15	0.053007204
212	0xbc42e2fb	-0.011894937
213	0xb9cbd253	-0.0003887588
214	0x3e123e91	0.1428168
215	0xbe230c82	-0.1592274
216	0xbd8410b7	-0.064485006
217	0xbe2de399	-0.16981353
218	0xbd619018	-0.05506906
219	0x3e303754	0.17208606
220	0xbe05e790	-0.13076615
221	0xbd825933	-0.0636467
222	0x3c618f00	0.013767004
223	0x3cf4fb15	0.029904881
224	0x3de34245	0.11096624
225	0xbdc1d28b	-0.09463986
226	0x3de8160a	0.113323286
227	0xbca1629e	-0.019700345
228	0x3df5438f	0.119757764
229	0xbcf441a1	-0.02981645
230	0xbd4a3e98	-0.0493761
231	0xbddc0f05	-0.10745052
232	0x3d3a6dbe	0.045514815
233	0x3d9e6963	0.07734945
234	0xbde282f0	-0.110601306
235	0x3c9aed16	0.01891188
236	0xbd031fa9	-0.032012615
237	0x3b130cd9	0.0022438078
238	0xbdd1a311	-0.102361806
239	0xbca38b7d	-0.019963974
240	0x3de7cb83	0.11318114
241	0xbc795ce8	-0.0152199045
242	0xbe5226a1	-0.20522548
243	0xbdb4af41	-0.088224895
244	0xbd201c12	-0.03908927
245	0x3cf71ccc	0.030165099
246	0x3e21d7e7	0.15805016
247	0x3d97ed8e	0.07418357
248	0x3e1ec96a	0.15506521
249	0xbe4d8868	-0.20071566
250	0x3de9b2b7	0.1141104
251	0xbe2de2f0	-0.16981101
252	0xbd4095ac	-0.04701774
253	0x3e22f1d7	0.15912567
254	0xbcdd02c4	-0.026978858
255	0x3cb2d301	0.02182913

fc_net.2.bias f4 [64]
0	0xbe23e328	-0.16004622
1	0xbe21a634	-0.15786058
2	0x3e2afef1	0.16698815
3	0x3e4301d7	0.1904367
4	0x3e0bd41e	0.13655135
5	0xbe56a92e	-0.20962974
6	0x3b0c25a1	0.0021384733
7	0xbe17e333	-0.14832763
8	0x3cc65692	0.024211202
9	0xbd2c2531	-0.042027656
10	0xbddecd03	-0.10878947
11	0x3d41d70d	0.04732423
12	0xbe53bdc5	-0.2067786
13	0xbe33151f	-0.17488526
14	0x3d490f0e	0.049086623
15	0xbe377024	-0.17913872
16	0x3d125f19	0.035735223
17	0xbd77cb5e	-0.06049668
18	0x3c779bf4	0.015112866
19	0x3c96e631	0.01842031
20	0x3dc95294	0.09830204
21	0x3e16c564	0.14723736
22	0x3d3fd6c6	0.046835683
23	0xbe08c815	-0.13357575
24	0xbe509553	-0.20369463
25	0x3d920429	0.071297
26	0xbe61c305	-0.2204705
27	0xbdfcad66	-0.123377606
28	0x3e4310e6	0.19049415
29	0xbbadc603	-0.005303146
30	0xbe67aefd	-0.22625346
31	0x3c9849f9	0.01858996
32	0x3dc618a0	0.096726656
33	0x3d76d02e	0.06025713
34	0x3dccefdc	0.10006687
35	0xbddc2bc3	-0.107505344
36	0x3d0de301	0.034640316
37	0xbe4eee89	-0.20208181
38	0xbce23e50	-0.027617604
39	0xbbf4aed8	-0.007467132
40	0x3e390476	0.18068108
41	0x3e0d6950	0.13809705
42	0xbcc30927	-0.023808075
43	0xbc425a7b	-0.011862393
44	0x3e664c22	0.2248998
45	0xbdba9025	-0.09109525
46	0xbd3d9c4f	-0.046291646
47	0x3d65d36c	0.05610983
48	0xbe33f3ce	-0.17573473
49	0xbdc4c5b8	-0.09608024
50	0x3dff0ab2	0.12453212
51	0x3e41fd72	0.18944338
52	0x3e1a4609	0.15065779
53	0xbd6875b4	-0.056752875
54	0x3e0c024a	0.13672748
55	0xbe5897db	-0.21151678
56	0xbe6a6e9e	-0.2289376
57	0x3e382021	0.17981006
58	0xbc3ce658	-0.011529528
59	0xbdd6d184	-0.10489181
60	0x3dd4177c	0.10356042
61	0xbdba46b7	-0.09095519
62	0xbe2c792e	-0.16843101
63	0xbb56466f	-0.003269579

value_head.weight f4 [1, 64]
0	0xbe5e06a4	-0.2168222
1	0xbe255eca	-0.1614944
2	0x3e21f7ed	0.15817232
3	0x3dac04cb	0.08399352
4	0x3e0068d0	0.12539983
5	0xbe791abf	-0.24326609
6	0x3dd8b9ea	0.10582335
7	0xbe56059e	-0.2090058
8	0xbe39e65e	-0.18154284
9	0x3d76fa8d	0.060297538
10	0xbe3512a6	-0.17682895
11	0x3e3503ad	0.17677183
12	0xbe5639f5	-0.20920546
13	0xbe4170d6	-0.188907
14	0x3e38e99f	0.1805787
15	0xbe5999a5	-0.21250017
16	0x3e00163c	0.12508482
17	0xbe152bb8	-0.14567459
18	0x3dcb31e8	0.09921628
19	0xbdf3e3b1	-0.11908663
20	0x3e221033	0.15826492
21	0x3e0f1a20	0.1397481
22	0x3dc039a5	0.09385995
23	0xbe618b29	-0.22025742
24	0xbe5235e6	-0.20528373
25	0x3d5c5ec5	0.053801317
26	0xbdf76e84	-0.12081626
27	0xbe580ebf	-0.21099375
28	0x3e19ce6e	0.15020153
29	0x3dff1d64	0.12456778
30	0xbe1ec7ab	-0.15505855
31	0x3d847231	0.06467093
32	0x3e4837d9	0.19552554
33	0x3dc4211a	0.09576626
34	0x3dd4fb8d	0.10399542
35	0xbe421ef7	-0.18957125
36	0x3e2d37b8	0.16915786
37	0xbe0b1369	-0.13581623
38	0x3dada64f	0.084789865
39	0xbe5ea3d0	-0.21742177
40	0x3e3e6354	0.18592578
41	0x3dd2b676	0.10288708
42	0x3dd50ad3	0.10402455
43	0x3da9bbbc	0.082877606
44	0x3db32219	0.08746738
45	0xbe01c299	-0.1267189
46	0xbe0e9caa	-0.1392695
47	0x3e178eef	0.14800619
48	0xbe7b62aa	-0.24549356
49	0xbe31e510	-0.17372537
50	0x3e3c15d4	0.18367702
51	0x3dc59bbf	0.09648847
52	0x3e03b715	0.12862809
53	0xbe32969a	-0.17440262
54	0x3db587a1	0.0886376
55	0xbe5299d7	-0.20566498
56	0xbdf2f7e1	-0.118636854
57	0x3dba9793	0.09110942
58	0xbe5cecda	-0.21574727
59	0xbe800733	-0.25005493
60	0x3dceb9b0	0.10094011
61	0xbe382107	-0.17981349
62	0xbe261a6b	-0.16221015
63	0xbe381e7c	-0.17980379
