output/4-agents_domain-CoinGame-4_MATE-TD-T4_2022-08-10-03-19-18/actor_net_1.pth (torch, 45463 bytes, 6 tensors)

fc_net.0.weight f4 [64, 100]
0	0x3dfb4a98	0.12270087
1	0x3deaacb5	0.114587225
2	0xbd657325	-0.056018014
3	0x3af9e664	0.0019065854
4	0xbcbbf3fe	-0.022943493
5	0x3e8bd791	0.27312902
6	0x3d31c2bc	0.043398604
7	0x3d83e065	0.06439284
8	0xbe369dab	-0.17833583
9	0xbda7b5f2	-0.08189
10	0x3e7d530b	0.2473871
11	0x3de9a11e	0.11407684
12	0x3d45647f	0.048191544
13	0xbe2f9bfa	-0.17149344
14	0xbe1f3ff6	-0.15551743
15	0x3e8659fe	0.26240534
16	0x3debbddb	0.115108214
17	0xbdb45bfd	-0.08806608
18	0xbe5981c7	-0.21240912
19	0xbe1254b0	-0.14290118
20	0x3e6d9027	0.23199521
21	0xbd3a277d	-0.045447815
22	0xbd05e902	-0.032692917
23	0xbd9792f4	-0.07401076
24	0xbe9f70e9	-0.3114083
25	0x3d8cf669	0.068829365
26	0xbd9455a5	-0.07242898
27	0xbda5b5d0	-0.080913186
28	0xbd4cffd2	-0.050048657
29	0x3d3ffdf4	0.046873048
30	0xbc5a9bf5	-0.013342847
31	0xbb19fa17	-0.0023495012
32	0xbad40f7d	-0.0016178932
33	0x3d24032f	0.0400421
34	0xbd97945e	-0.07401346
35	0x3d64f0d1	0.055893723
36	0xbd58677e	-0.052833073
37	0x3da3a7cd	0.0799099
38	0x3c671555	0.014104207
39	0x3c16f6f0	0.009214148
40	0xbd3631ec	-0.044481203
41	0xbccf820c	-0.025330566
42	0xbd6ed98f	-0.05831295
43	0xbd9d1b5a	-0.076712325
44	0xbd0f438b	-0.034976523
45	0x3d760419	0.0600625
46	0x3d81bb38	0.06334537
47	0x3da18850	0.07887328
48	0x3de94f18	0.11392039
49	0x3d7739e2	0.060357936
50	0xbd7ab0dd	-0.061203826
51	0xbcc16815	-0.0236092
52	0x3c1139c8	0.008863874
53	0x3d72da83	0.05929042
54	0x3da829af	0.082110755
55	0xbe4f1d3c	-0.20225996
56	0x3c7e6f5b	0.015529479
57	0xbc4c8daf	-0.012484952
58	0x3d275a50	0.040857613
59	0xbcfdc70c	-0.030978702
60	0xbe710ccc	-0.23540038
61	0xbdfe00b3	-0.12402477
62	0x3b14d032	0.0022707102
63	0x3d7f995e	0.06240212
64	0x3d9dc16f	0.0770291
65	0xbe7599c8	-0.23984444
66	0x3cc25e29	0.02372654
67	0x3d8a1495	0.06742207
68	0x3e740f4d	0.23833962
69	0x3eb111bc	0.34583843
70	0xbe07cd0f	-0.13261817
71	0xbd7d66d5	-0.061865646
72	0x3deefd70	0.11669433
73	0x3e4697c4	0.19393831
74	0x3eaf76ba	0.3427027
75	0x3d08b495	0.03337534
76	0x3d5473f1	0.051868383
77	0xbcba6068	-0.022751048
78	0x3d40d5d2	0.047078915
79	0x3de211f0	0.110385776
80	0xbe861c9a	-0.26193696
81	0xbd758bff	-0.059947964
82	0x3bbb2989	0.0057117385
83	0x3c9e3b37	0.019315345
84	0x3e3f6350	0.18690228
85	0xbe4b6aee	-0.19865009
86	0xbdba9872	-0.09111108
87	0xbc2545e7	-0.010087467
88	0x3db22a04	0.0869942
89	0xbdd8cd42	-0.10586025
90	0xbe540d2b	-0.20708148
91	0x3b58b878	0.0033068936
92	0x3da2fdf3	0.07958593
93	0x3d940f11	0.07229436
94	0x3e9b688b	0.30353197
95	0xbe1435ec	-0.14473695
96	0xbd2d173b	-0.042258482
97	0x3bdc2bde	0.0067190966
98	0x3e3909a4	0.18070084
99	0x3e91e9db	0.2849873
100	0xbe30ae48	-0.17253983
101	0xbe3329e9	-0.17496456
102	0x3dde6a99	0.10860176
103	0x3a1fc5cf	0.00060948444
104	0x3bb0c158	0.005394142
105	0xbe6146d3	-0.21999674
106	0xbd7ad2df	-0.06123626
107	0xbe190b71	-0.14945771
108	0xbbc59629	-0.0060298634
109	0xbdc91af5	-0.09819595
110	0xbdf5dcf6	-0.120050356
111	0xbdc4f1b0	-0.09616411
112	0xbd64db7d	-0.055873383
113	0x3d94c162	0.07263447
114	0xb9c9e84e	-0.00038510788
115	0xbe18dd30	-0.14928126
116	0xbc389152	-0.011265116
117	0x3dff69c6	0.124713466
118	0x3e427f0b	0.18993776
119	0x3e7305a0	0.23732615
120	0x3cbef306	0.023309242
121	0x3dd58863	0.10426404
122	0x3e2515fe	0.1612167
123	0x3e92b308	0.28652215
124	0x3e84d351	0.25942472
125	0x3c8f80ed	0.017517531
126	0xbd7a6128	-0.06112781
127	0x3df4c831	0.11952246
128	0x3cc31910	0.023815662
129	0xbdea8853	-0.11451783
130	0xbcc45ee3	-0.023971027
131	0x3d11a263	0.035555255
132	0x3dc95973	0.09831514
133	0x3ceb234d	0.028703356
134	0xbd92970b	-0.071577154
135	0xbd82a65f	-0.06379389
136	0x3d26ad09	0.040692363
137	0x3c70f858	0.014707647
138	0xbcdb61f4	-0.026780106
139	0xbc98a670	-0.018634051
140	0x3da1fb4f	0.079092614
141	0xbd095ed4	-0.0335377
142	0xbc09e689	-0.00841678
143	0xbb010980	-0.00196895
144	0x3dac36ed	0.08408914
145	0xbd8c4378	-0.06848806
146	0xbcb37d85	-0.021910438
147	0xbd831bae	-0.06401764
148	0x3d9b6747	0.07588058
149	0xbc86eee5	-0.016471336
150	0x3e334979	0.17508496
151	0x3ccb5c02	0.024824146
152	0x3c0bd83f	0.008535444
153	0x3b1a7b97	0.00235722
154	0xbd03bd36	-0.032162867
155	0x3e6c565e	0.23079821
156	0x3e366b91	0.17814471
157	0x3c093d50	0.008376434
158	0xbdf9e2dd	-0.12201474
159	0xbcd2fa9d	-0.025754267
160	0x3dee9ebe	0.116513714
161	0x3e461e53	0.19347505
162	0x3dd1830c	0.10230073
163	0x3c506371	0.012719021
164	0xbe5ce057	-0.21569954
165	0x3e393d2b	0.1808974
166	0x3d59c27c	0.05316399
167	0xbc3a7187	-0.011379606
168	0xbe632444	-0.22181803
169	0xbe98df79	-0.29857996
170	0xbcdba9b8	-0.026814327
171	0xbd917726	-0.07102804
172	0xbd5f6c55	-0.054546673
173	0xbe98c3a6	-0.29836768
174	0xbe529129	-0.20563187
175	0x3dcab782	0.098982826
176	0xbd9b3e25	-0.075802125
177	0xbdd71405	-0.10501865
178	0xbcf3178e	-0.029674318
179	0x3db6e02c	0.08929476
180	0x3e0b6c39	0.13615502
181	0xbd113162	-0.035447486
182	0x3d3e053e	0.046391718
183	0xbd09c3c3	-0.03363396
184	0xbe78fe8e	-0.24315855
185	0x3e6a0dc9	0.22856821
186	0x3e36d5ae	0.1785495
187	0x3d907592	0.07053675
188	0xbe0f31cc	-0.1398384
189	0x3d294778	0.041327924
190	0x3e85b0ea	0.26111537
191	0x3d00c3fe	0.031436913
192	0xbc482675	-0.0122162
193	0xbe20dbdd	-0.15708871
194	0xbe7fb68a	-0.24971977
195	0x3dce8d68	0.10085565
196	0xbdb50145	-0.08838133
197	0xbe5b3f6b	-0.21410911
198	0xbe8038f4	-0.25043452
199	0xbeb02773	-0.34405097
200	0xbdc8fe98	-0.09814185
201	0x3d6e5d25	0.0581943
202	0xbdd00d59	-0.10158796
203	0xbe4d2b01	-0.20035936
204	0xbca3b470	-0.0199835
205	0xbd3ef54d	-0.046620656
206	0xbe6ef5ff	-0.23336028
207	0xbe8050ec	-0.25061738
208	0xbd5a5a95	-0.053309042
209	0xbe9013c1	-0.2814007
210	0xbcb322b5	-0.021867136
211	0xbe13cfa1	-0.14434673
212	0xbe8a3e4e	-0.2700066
213	0xbe7ccecc	-0.24688262
214	0xbeaf82dc	-0.34279525
215	0x3e860269	0.26173714
216	0x3d7d209f	0.061798688
217	0xbdf5ff66	-0.12011604
218	0xbe0a5673	-0.1350954
219	0xbe14cebd	-0.1453199
220	0x3ec7be80	0.39012527
221	0x3ea71c5a	0.32638818
222	0x3e7e0426	0.2480627
223	0x3e671b79	0.22569074
224	0xbcd14201	-0.025544168
225	0x3d2d42f0	0.042300165
226	0xbc8d57a8	-0.017253712
227	0xbd05e291	-0.032686774
228	0xbd9cb30e	-0.076513395
229	0x3def2b9e	0.11678241
230	0x3d2faefa	0.04289148
231	0x3d84d247	0.0648542
232	0xbd584382	-0.052798755
233	0x3d8c0791	0.06837381
234	0xbd5de4a4	-0.054173127
235	0xba8ebfc3	-0.001089089
236	0xbd2df0ba	-0.042465903
237	0x3d17245a	0.036899902
238	0xbd4b84b1	-0.04968709
239	0xbc0d3cd2	-0.008620458
240	0xbba97fd6	-0.00517271
241	0x3d2f33aa	0.04277388
242	0x3c3aca3d	0.011400756
243	0x3d2d1a29	0.042261276
244	0x3cf6d124	0.030129023
245	0x3d829282	0.063756004
246	0x3b15244d	0.0022757233
247	0x3da1983b	0.07890364
248	0x3d5dba29	0.054132614
249	0xbbc4e4f4	-0.0060087387
250	0xbe0e516b	-0.13898246
251	0x3e085471	0.13313462
252	0x3e18873c	0.14895338
253	0x3e4d35a6	0.20039997
254	0xbdfea30c	-0.124334425
255	0x3e9dda2b	0.3083051

fc_net.0.bias f4 [64]
0	0x3c12dbd6	0.008963546
1	0xbd515776	-0.0511088
2	0xbd127899	-0.035759542
3	0x3d4cc73a	0.049994685
4	0xbd069845	-0.03286006
5	0x3c7a44b7	0.015275172
6	0x3d5133f0	0.051074922
7	0x3ca946c7	0.020663632
8	0xbc5ca31f	-0.0134666255
9	0xbddc8529	-0.10767586
10	0x3d2217cb	0.039573472
11	0x3dfa0bbb	0.12209269
12	0xbcfd47cc	-0.030918024
13	0xbb8e5df2	-0.0043446952
14	0x3dc4ab26	0.096029565
15	0x3e20eb95	0.15714867
16	0xbd43bfb9	-0.047790263
17	0x3bb47ac2	0.005507798
18	0xbd38fb92	-0.04516179
19	0xbcb87a35	-0.02251921
20	0x3dc0b85a	0.09410162
21	0x3d47dc3d	0.04879402
22	0x3d85d09d	0.065339305
23	0xbdc97e34	-0.098385245
24	0xbc05ed88	-0.008174308
25	0x3d4eb976	0.050469838
26	0x3dd6031b	0.10449811
27	0x3ad7caa4	0.001646359
28	0xbb3d1d39	-0.002885653
29	0x3cca309b	0.02468138
30	0x3d4dabf0	0.0502128
31	0x3ded0152	0.115725175
32	0xbd5e8bb1	-0.05433244
33	0x3c99f757	0.018794699
34	0xbcd2f089	-0.025749462
35	0x3c6c50a2	0.014423521
36	0x3d3b6585	0.045751113
37	0x3cfd54cf	0.030924229
38	0x3dc0f7da	0.09422274
39	0x3d79d17d	0.0609908
40	0x3d81544f	0.06314909
41	0x3d82609f	0.06366085
42	0x3d2e40fc	0.042542443
43	0x3d7bb064	0.061447516
44	0x3d58fac7	0.052973535
45	0x3c4d4dc6	0.01253075
46	0xbd8b2708	-0.06794554
47	0x3cca5d2d	0.024702633
48	0xbe17cc6b	-0.14824073
49	0x3d0aa0e4	0.033844844
50	0x3b9bc338	0.0047534965
51	0xbdd5630c	-0.10419282
52	0x3c8ce44f	0.01719871
53	0x3ddb60f2	0.1071185
54	0x3d287769	0.041129503
55	0x3d6f0bc3	0.058360826
56	0xbdad8ff0	-0.084747195
57	0xbd86bc11	-0.065788396
58	0xbd924901	-0.07142831
59	0xbc2e3746	-0.010633295
60	0x3d4a3dfb	0.049375515
61	0x3d8591df	0.06521963
62	0xbadc800a	-0.0016822827
63	0xbce962af	-0.028489439

fc_net.2.weight f4 [64, 64]
0	0x3de1e820	0.110306025
1	0xbe0d0e21	-0.13774921
2	0xbe382c04	-0.1798554
3	0xbd166cfb	-0.036725026
4	0xbdbb7b1a	-0.09154339
5	0x3df72b36	0.12068789
6	0x3d963ae9	0.07335455
7	0xbcb15317	-0.021646066
8	0xbe814664	-0.25249016
9	0xbd911276	-0.07083599
10	0x3e3ca01e	0.18420455
11	0x3bc16093	0.005901405
12	0x3c837fe4	0.016052194
13	0xbdc39ab2	-0.0955099
14	0x3de8143f	0.11331987
15	0x3e64d861	0.22348167
16	0x3dca8413	0.098884724
17	0xbd0228f8	-0.031777352
18	0xbe10e1aa	-0.14148584
19	0xbdcf228b	-0.101140104
20	0x3e770408	0.24122632
21	0xbab370c7	-0.0013690226
22	0xbd6954c8	-0.05696562
23	0xbe415460	-0.18879843
24	0xbd30f1d0	-0.04319936
25	0x3ea20cdf	0.31650445
26	0x3e0ecb50	0.13944745
27	0xbd9a8725	-0.07545308
28	0x3e18ad1d	0.14909787
29	0xbddedbe3	-0.10881784
30	0xbe39983b	-0.18124478
31	0x3e7699a4	0.24082047
32	0xbe1df1bf	-0.1542425
33	0x3e997833	0.29974517
34	0xbde73fee	-0.112914905
35	0xbe3f395f	-0.18674229
36	0xbce58e5c	-0.028021984
37	0xbe10d72d	-0.14144583
38	0x3c1c0134	0.009521771
39	0x3cb923f4	0.022600152
40	0x3c672a9d	0.014109281
41	0xbdaa8c1e	-0.083275065
42	0xbc9c6f29	-0.019095974
43	0x3b8e090b	0.004334574
44	0xbe37f556	-0.17964682
45	0xbe644cb9	-0.22294892
46	0xbd7fe092	-0.062470026
47	0xbe7722c6	-0.24134359
48	0x3c85f5ca	0.016352553
49	0x3cf9f1ff	0.0305109
50	0xbe08f5cb	-0.13375013
51	0xbe958d98	-0.2920959
52	0xbdebf936	-0.115221426
53	0x3daf0c55	0.08547274
54	0xbc4b5d3c	-0.0124123655
55	0x3d53185b	0.0515369
56	0xbe78d6fa	-0.24300757
57	0xbcea7b4e	-0.02862325
58	0xbe2b629e	-0.16736838
59	0x3e55a446	0.20863447
60	0xbe122e2d	-0.14275427
61	0xbe060e46	-0.13091382
62	0xbcce0fb2	-0.025153968
63	0xbd587da4	-0.052854195
64	0x3c182bb7	0.009287766
65	0xbe6022e0	-0.21888304
66	0xbe965826	-0.29364127
67	0xbe948038	-0.29004073
68	0x3dcc05bc	0.09962031
69	0x3e715e50	0.23571134
70	0xbe6e2c0f	-0.23258995
71	0xbe7c7fc7	-0.24658118
72	0xbe25106b	-0.16119544
73	0xbdb1446a	-0.08655627
74	0x3e17575e	0.14779422
75	0x3e4414d2	0.19148567
76	0xbe54b92c	-0.20773762
77	0xbea1b037	-0.31579754
78	0x3d96489b	0.07338067
79	0xbca719b9	-0.020398008
80	0x3cfbc51e	0.030733641
81	0xbdd33bd4	-0.10314146
82	0xbde35905	-0.111009635
83	0xbe6f81c5	-0.23389347
84	0xbdfe8fc2	-0.124297634
85	0xbd7176cd	-0.058951188
86	0x3cb8dca9	0.022566156
87	0xbd9b1ec4	-0.075742275
88	0xbcd4b9d9	-0.025967525
89	0xbcda47bd	-0.026645536
90	0x3eab8f76	0.3350789
91	0x3d99c7a2	0.0750878
92	0x3e0d77c6	0.13815221
93	0xbe395b7d	-0.18101306
94	0xbbf070c6	-0.0073376624
95	0x3e50eb29	0.20402206
96	0xbc8dda72	-0.017316077
97	0x3e8535c4	0.26017582
98	0xbc7f9fe6	-0.015602088
99	0xbd9052c7	-0.070470385
100	0x3e5f9016	0.21832308
101	0xbdc6d458	-0.0970847
102	0xbe349d86	-0.17638215
103	0xbd979e15	-0.07403199
104	0x3e9be2cf	0.3044648
105	0x3e67dba7	0.22642384
106	0xbd6eebbf	-0.058330294
107	0x3d421e83	0.04739238
108	0x3d0c8caf	0.034313854
109	0xbd9b8a8b	-0.07594784
110	0xbe831fc6	-0.2561018
111	0xbd2a29f6	-0.041543923
112	0xbd085324	-0.033282414
113	0xbd2a624d	-0.041597653
114	0xbea04f38	-0.3131044
115	0xbd9deca2	-0.0771115
116	0xbc12efe9	-0.008968332
117	0xbe07a2e1	-0.13245727
118	0xbe664922	-0.22488835
119	0xbd99d3a6	-0.07511072
120	0xbdc9a5c7	-0.09846073
121	0xbe3b2e8f	-0.1827948
122	0xbdc9c25d	-0.09851525
123	0xbd356569	-0.044286165
124	0xbe90ae76	-0.28258103
125	0x3e1e86a7	0.15481053
126	0x3e0ef4f6	0.13960633
127	0xbe4c9d97	-0.19981991
128	0xbd2b6535	-0.041844565
129	0xbe169a0b	-0.147072
130	0xbe30ae1d	-0.17253919
131	0xbca47781	-0.020076515
132	0x3e7dc771	0.24783112
133	0x3eb23e8f	0.34813353
134	0xbe954a91	-0.29158452
135	0xbe3fda54	-0.1873563
136	0x3ddc4339	0.10755009
137	0xbe3f1547	-0.1866046
138	0x3d030b96	0.03199347
139	0x3e2fc304	0.17164236
140	0xbebf1b9e	-0.37325758
141	0xbe1494b1	-0.14509846
142	0x3d79d950	0.06099826
143	0xbdb5b30b	-0.0887204
144	0xbdbaae08	-0.09115225
145	0xbd26876b	-0.04065649
146	0x3c846576	0.016161662
147	0xbd16466e	-0.03668826
148	0xbe442adc	-0.19156975
149	0x3e26c9fb	0.16287987
150	0xbd88c2aa	-0.06677754
151	0x3dfd1cd5	0.12359015
152	0xbbb58e08	-0.005540613
153	0x3daaeb9f	0.083457224
154	0x3e419081	0.1890278
155	0x3e9b8082	0.3037148
156	0x3e8d9942	0.2765599
157	0xbe87bda5	-0.26511875
158	0xbd883bd6	-0.06652038
159	0x3e29f3cf	0.16596912
160	0xbdae95f2	-0.085246935
161	0x3e66c8f4	0.22537595
162	0x3e078627	0.13234769
163	0xbd9a1265	-0.0752304
164	0x3e9703f9	0.29495218
165	0xbc279e24	-0.010230575
166	0xbad9c74b	-0.001661518
167	0xbe3395b4	-0.17537576
168	0x3e5ba844	0.21450907
169	0x3e57ce55	0.21074803
170	0xbd8f95ac	-0.070109695
171	0x3decf3b5	0.11569921
172	0xbdd027ea	-0.10163863
173	0xbd414f01	-0.047194485
174	0xbe3c26b3	-0.18374138
175	0xbe19a2ce	-0.15003511
176	0xbde3d85f	-0.11125254
177	0x3deac478	0.11463255
178	0xbe0b4131	-0.13599087
179	0xbdca88dd	-0.09889386
180	0x3d6afe26	0.05737128
181	0x3c3ecf6b	0.011646132
182	0xbdf571e3	-0.11984613
183	0xbe297712	-0.16549328
184	0x3db4d659	0.08829946
185	0xbd1bea48	-0.038065225
186	0x3e1d7b6a	0.1537911
187	0x3d082a2d	0.033243347
188	0xbe804117	-0.2504966
189	0x3e0a9170	0.13532043
190	0x3dcf2f83	0.10116484
191	0xbe7c6cb3	-0.2465084
192	0xbe8edd96	-0.27903432
193	0x3e377ee3	0.17919497
194	0x3ddc397c	0.10753152
195	0x3e6ee0ed	0.2332799
196	0x3d53cae5	0.051707167
197	0xbe82fc87	-0.25583288
198	0x3df2cdee	0.11855684
199	0x3db1e21e	0.086857066
200	0x3e357ed8	0.17724168
201	0x3e009aa0	0.12558985
202	0xbe262c38	-0.16227806
203	0x3e710965	0.2353874
204	0x3d2ecc28	0.042675167
205	0x3c3e630f	0.011620297
206	0xbe6e051e	-0.2324414
207	0x3e2aa735	0.16665347
208	0xbe83445a	-0.25638086
209	0x3deb0f8c	0.11477575
210	0xbd429aea	-0.04751102
211	0x3e1fa2e9	0.15589489
212	0xbe8e3f35	-0.27782598
213	0x3deda564	0.116038114
214	0x3dea5e72	0.11443795
215	0x3e205c05	0.15660103
216	0xbe2bf3d3	-0.1679223
217	0xbe37faeb	-0.17966811
218	0x3dd0540b	0.1017228
219	0xbd9d3e98	-0.076779544
220	0x3d129b40	0.03579259
221	0x3e1e32b7	0.15449034
222	0x3e4deb13	0.20109205
223	0xbe85a35e	-0.26101202
224	0x3e29638f	0.16541885
225	0xbdcf01b0	-0.10107744
226	0x3dfd697e	0.12373637
227	0x3ebb3c9a	0.36569673
228	0x3e886c02	0.26644903
229	0x3e8035c3	0.25041017
230	0x3e8e7c51	0.2782922
231	0xbdec8aae	-0.115498886
232	0x3d16b1ec	0.036790773
233	0x3dba81f0	0.09106815
234	0xbe80e497	-0.251744
235	0x3e000ce7	0.12504922
236	0x3e7b1bb5	0.24522288
237	0x3e70dc70	0.2352159
238	0x3e48ad53	0.19597368
239	0x3d994bbd	0.07485149
240	0xbe0569f5	-0.130287
241	0x3dc31c4a	0.0952688
242	0x3e79f00a	0.24407974
243	0xbe15ae25	-0.14617212
244	0x3e67eea8	0.22649634
245	0x3e8ab1a4	0.27088654
246	0xbcb28e05	-0.021796236
247	0x3e94c439	0.29055956
248	0x3d978da5	0.074000634
249	0x3e864577	0.26224872
250	0x3e1823cd	0.14857407
251	0x3e0114c2	0.12605575
252	0x3e0272f9	0.12739171
253	0x3e8c27b0	0.2737403
254	0x3c415280	0.011799455
255	0x3e5322eb	0.20618789

fc_net.2.bias f4 [64]
0	0x3982fda5	0.00024984512
1	0xbe215392	-0.15754536
2	0xbdf30892	-0.11866869
3	0x3defce6a	0.11709292
4	0x3d19e50b	0.037571948
5	0xbcd8b25d	-0.026452238
6	0x3db0a06b	0.08624347
7	0x3d9f63df	0.07782721
8	0x3dd4e9b5	0.103961386
9	0xbd1f8fee	-0.03895562
10	0xbbef3f2a	-0.007301231
11	0x3e1f3e98	0.15551221
12	0x3e18b156	0.14911398
13	0x3bcc099f	0.006226733
14	0xbc5e76b6	-0.013578108
15	0xbcd87871	-0.026424618
16	0x3e35f8ff	0.17770766
17	0x3bc45bef	0.0059924047
18	0x3e008b0f	0.12553047
19	0xbb0603dc	-0.0020449078
20	0xbe16c5fb	-0.14723961
21	0x3d6fc1cb	0.058534425
22	0xbcf1e0e8	-0.029526189
23	0xbcd9dcbd	-0.026594514
24	0x3dffbe74	0.12487498
25	0x3c99f493	0.01879338
26	0x3d7a93f8	0.06117627
27	0x3db744b7	0.08948653
28	0xbcd5b1ef	-0.026085822
29	0x3dde33aa	0.10849698
30	0x3d8f8da8	0.07009441
31	0x3e101234	0.14069444
32	0x3d86d1fa	0.065830186
33	0xbd7b24bd	-0.061314333
34	0xbcd8e990	-0.026478559
35	0x3dd0f87b	0.10203644
36	0xbc5e47d0	-0.013566926
37	0x3d8ed957	0.06975048
38	0x3c577935	0.013151457
39	0x3e18239d	0.14857335
40	0x3b643adb	0.003482512
41	0x3c83491d	0.016026074
42	0x3dff55af	0.12467515
43	0xbbd63023	-0.0065365
44	0x3e1eddbf	0.15514277
45	0x3e083818	0.13302648
46	0x3dddbe3f	0.10827302
47	0x3d5a1c9e	0.053249948
48	0xbd4028e8	-0.04691401
49	0x3df2bb85	0.11852173
50	0xbc76c27a	-0.015061015
51	0x3e1e2898	0.15445173
52	0x3d15aefa	0.036543824
53	0x3da2fb35	0.0795807
54	0x3c8d33a0	0.01723653
55	0x3df6efe0	0.12057471
56	0x3dac5365	0.08414344
57	0x3cc6499d	0.024205023
58	0x3e4069fc	0.1879043
59	0x3daee9e6	0.08540706
60	0x3d54b412	0.05192954
61	0x3dd9e086	0.106385276
62	0xbdbde973	-0.092730425
63	0xbdc22d3d	-0.09481285

action_head.weight f4 [4, 64]
0	0x3e813db1	0.2524238
1	0xbe52b36e	-0.2057626
2	0xbe936780	-0.28789902
3	0xbeaca479	-0.33719233
4	0xbe2cae0d	-0.1686327
5	0x3e937997	0.28803703
6	0x3e86c892	0.26324898
7	0x3dfc5ac5	0.123220004
8	0xbeaa44f6	-0.33255738
9	0x3e750022	0.23925832
10	0x3ec4fa7a	0.38472348
11	0x3ed47689	0.41496685
12	0x3e9e621e	0.30934232
13	0xbe94d2de	-0.2906713
14	0x3eb6a85f	0.35675332
15	0xbd0fd21e	-0.035112493
16	0x3d7493f2	0.059711404
17	0xbe8d81c9	-0.2763808
18	0x3e56fdfa	0.20995322
19	0xbe99a081	-0.30005267
20	0xbccda209	-0.025101678
21	0x3ebfdd04	0.3747331
22	0xbee0bee3	-0.43895635
23	0xbe08aaa9	-0.13346352
24	0xbcb6482c	-0.022251211
25	0x3e78d368	0.24299395
26	0xbeb33083	-0.3499795
27	0x3eb566a3	0.35429868
28	0x3ead03bc	0.33791912
29	0xbd219a80	-0.039453983
30	0xbe0d34d5	-0.13789685
31	0x3e1c2246	0.1524745
32	0xbe651691	-0.2237189
33	0xbe80b055	-0.2513453
34	0xbe82640d	-0.25466958
35	0x3e4b70e9	0.1986729
36	0x3d6bde77	0.057585206
37	0xbe7821b7	-0.24231611
38	0xbe5b291a	-0.21402398
39	0x3d9bcd7f	0.07607555
40	0x3ee7075c	0.45122802
41	0xbe0f6764	-0.14004284
42	0x3e830b3d	0.25594512
43	0x3d8fb925	0.070177354
44	0x3e07a1ce	0.13245317
45	0xbe3e67cd	-0.18594284
46	0x3e0e7e27	0.13915311
47	0xbeae1371	-0.33999208
48	0xbe0d8e24	-0.13823754
49	0xbda4b67d	-0.080426194
50	0x3ecbf79e	0.39837354
51	0xbd35640f	-0.044284876
52	0x3d93fed9	0.07226343
53	0xbec88dac	-0.39170587
54	0x3e517505	0.20454796
55	0xbe5063a1	-0.20350505
56	0x3ea4d4f4	0.3219372
57	0xbee88851	-0.454165
58	0x3dcfc48a	0.10144909
59	0xbea9f373	-0.3319355
60	0xbec3200d	-0.3811039
61	0x3ea38613	0.31938228
62	0x3ecf8d89	0.4053767
63	0xbe15b987	-0.14621554
64	0x3cc163c7	0.023607148
65	0xbdd9eb98	-0.10640639
66	0x3d52dcdf	0.05148017
67	0x3ec373f2	0.38174397
68	0x3e9b4999	0.30329588
69	0x3c90423b	0.017609706
70	0xbeb87b29	-0.36031464
71	0xbe50edf1	-0.20403267
72	0x3e262bed	0.16227694
73	0xbea2c0ce	-0.31787723
74	0xbec420b0	-0.3830619
75	0xbeb3b85c	-0.35101593
76	0xbe2082bc	-0.15674871
77	0x3e46d82f	0.19418405
78	0xbe9106a1	-0.2832537
79	0xbe3c55ea	-0.18392149
80	0xbc1ebd49	-0.009688684
81	0x3e43c2c4	0.19117266
82	0x3ddb8713	0.10719123
83	0x3e9f00b3	0.3105522
84	0xbe8f2ae7	-0.2796242
85	0xbec8b072	-0.39197117
86	0x3e26f245	0.16303356
87	0xbe2cec88	-0.16887105
88	0x3e706e9d	0.23479696
89	0xbec1c002	-0.37841803
90	0x3e5dfbe3	0.21678118
91	0xbe300438	-0.1718911
92	0xbe7385ed	-0.23781557
93	0x3dc02d72	0.09383668
94	0x3e6631a9	0.22479881
95	0x3e227618	0.15865362
96	0x3ee72c01	0.4515076
97	0x3e8568a7	0.26056406
98	0x3ed142f1	0.40871385
99	0xbe342435	-0.17591937
100	0xbe86a645	-0.2629873
101	0x3eb105b4	0.34574664
102	0x3e9b1e7f	0.30296704
103	0xbd822906	-0.06355481
104	0xbe960678	-0.2930181
105	0x3e4c0bc8	0.19926369
106	0xbe7fee65	-0.24993284
107	0xbb018338	-0.001976205
108	0xbd01c00f	-0.031677302
109	0x3e25da77	0.16196619
110	0xbd66026a	-0.056154646
111	0x3dfae3a7	0.122504525
112	0x3e1b44bc	0.15162939
113	0x3d6fe057	0.058563557
114	0xbed1e17b	-0.4099234
115	0x3e8437f8	0.2582395
116	0xbe835237	-0.25648662
117	0x3eac2684	0.33623135
118	0xbecbb338	-0.3978517
119	0x3eb0aa46	0.34504908
120	0xbe3a72fc	-0.18207926
121	0x3ef1fc4c	0.472628
122	0xbe014daf	-0.1262729
123	0x3e36654b	0.17812078
124	0x3ee0fffd	0.43945304
125	0xbeb2c74a	-0.3491767
126	0xbe8d45b9	-0.27592257
127	0xbe22af1a	-0.15887108
128	0xbec1f248	-0.37880158
129	0xbe83515a	-0.25648004
130	0xbe0bbc50	-0.13646054
131	0x3e0bd36b	0.13654868
132	0x3d8b946e	0.0681542
133	0x3d8348bf	0.064103596
134	0x3e7ae78c	0.2450239
135	0xbedb2daf	-0.4280829
136	0xbef1133f	-0.47084996
137	0xbeb560fe	-0.35425562
138	0xbec3932d	-0.38198224
139	0x3e081536	0.13289341
140	0xbdf1c400	-0.11804962
141	0xbea6436c	-0.32473314
142	0xbd409e45	-0.047025938
143	0xbe828fc5	-0.25500312
144	0x3d3917ed	0.045188833
145	0x3ecdc890	0.4019208
146	0x3daa8f5e	0.08328126
147	0x3dedbc7d	0.11608217
148	0x3eabd4f9	0.33560923
149	0xbe910d35	-0.2833039
150	0xbe8d40a0	-0.27588367
151	0x3ecf6c9d	0.40512553
152	0x3a161abb	0.0005726029
153	0x3e268e8f	0.1626532
154	0x3e5b1173	0.21393375
155	0xbefaa739	-0.48955706
156	0x3d39d5c4	0.04536988
157	0xbde5048c	-0.11182508
158	0xbecaec07	-0.396332
159	0x3d1ae8fb	0.037819844
160	0xbda01b04	-0.07817653
161	0x3c8519e4	0.016247697
162	0xbdd495c9	-0.10380132
163	0xbec48427	-0.38382074
164	0x3d1d949b	0.0384718
165	0x3e053972	0.13010195
166	0x3e92eebe	0.2869777
167	0xbecbf097	-0.39831993
168	0xbe0c5ad2	-0.1370652
169	0x3dce9c46	0.100884005
170	0x3d61981d	0.055076707
171	0xbe85534b	-0.2604011
172	0x3ea298d7	0.31757233
173	0x3e602cf1	0.21892144
174	0xbef035fc	-0.46916187
175	0xbd7832e7	-0.06059542
176	0xbec35daa	-0.38157398
177	0xbebd74ec	-0.37003267
178	0xbe759deb	-0.23986022
179	0xbe70d5d3	-0.23519067
180	0x3e06087a	0.13089171
181	0xbe9c2f70	-0.30504942
182	0x3e02a896	0.12759623
183	0xbe377cbe	-0.17918679
184	0xbe852d4b	-0.26011118
185	0xbc3427b3	-0.010995793
186	0xbef7c419	-0.48391798
187	0xbe92b0e9	-0.28650597
188	0xbac01ac3	-0.0014656413
189	0x3e33bd83	0.17552762
190	0x3c2ed655	0.010671218
191	0x3ecaf54f	0.3964028
192	0x3e2dc9d5	0.16971524
193	0x3e8fec3d	0.28109923
194	0x3eb3f97a	0.35151273
195	0xbeacddf2	-0.3376308
196	0xbe9cced9	-0.30626562
197	0xbe19739c	-0.14985508
198	0xbe9bdf8b	-0.30443987
199	0x3ebc2b30	0.367517
200	0x3e951b7b	0.29122528
201	0x3eb592c1	0.35463527
202	0x3e50c0a3	0.20385985
203	0xbe522226	-0.20520839
204	0xbe16bb47	-0.14719878
205	0x3ea2f3cf	0.31826636
206	0xbd8dbffc	-0.06921384
207	0x3ee5290b	0.44757876
208	0xbeffa256	-0.4992854
209	0xbea4012b	-0.3203214
210	0xbeeed61f	-0.46647736
211	0xbe8c9136	-0.27454537
212	0xbe62933d	-0.2212648
213	0x3eb36f44	0.35045826
214	0x3e5036da	0.20333424
215	0xbe4ca0dd	-0.1998324
216	0xbe55bf38	-0.20873725
217	0xbea4ba68	-0.32173467
218	0xbeb87a21	-0.36030677
219	0x3e7ae7a8	0.24502432
220	0x3df65d7d	0.1202955
221	0x3e90f5dd	0.2831258
222	0x3ea2e6c7	0.31816694
223	0xbebb6c7a	-0.366062
224	0x3d7396f8	0.059470147
225	0x3dde0870	0.10841453
226	0x3e2aa042	0.16662696
227	0x3e943b6d	0.28951588
228	0x3ea07847	0.31341764
229	0xbd51eabd	-0.051249254
230	0xbe6abad0	-0.22922826
231	0x3ea58d0f	0.32334182
232	0xbd64245b	-0.055698734
233	0xbe957ab7	-0.29195186
234	0xbe88b6c9	-0.26701954
235	0x3ef8144b	0.48452982
236	0xbeaad0b5	-0.33362356
237	0xbeb11d5d	-0.34592715
238	0x3e9ea0d9	0.30982092
239	0x3e1d61fd	0.15369411
240	0x3ed1c952	0.40973908
241	0x3e99d488	0.3004496
242	0x3e683a53	0.22678499
243	0x3dfa4d38	0.122217596
244	0x3da7488a	0.081681326
245	0x3d850dbc	0.0649676
246	0x3d1ee684	0.038794056
247	0x3dcc3acb	0.09972151
248	0x3e85e2f1	0.26149705
249	0xbcc5d426	-0.024149012
250	0x3e7f2ba8	0.24918997
251	0x3e851762	0.25994402
252	0xbe23e8dd	-0.16006799
253	0xbed509c6	-0.4160902
254	0x3dfbf842	0.12303211
255	0xbec03a73	-0.37544593

action_head.bias f4 [4]
0	0x3d8cf5e5	0.06882838
1	0x3d27c78a	0.04096178
2	0xbdcfbdef	-0.10143649
3	0xbd1f5c0a	-0.038906135
