output/4-agents_domain-CoinGame-4_MATE-TD-T4_2022-08-10-03-19-18/actor_net_3.pth (torch, 45463 bytes, 6 tensors)

fc_net.0.weight f4 [64, 100]
000000 d4 ab bc be 49 8f 28 be 32 11 5d be 8f 86 95 bd
       -0.36849844 -0.16460909 -0.2158859 -0.07301056
000010 35 9c 8a bd d8 54 21 be 2a d8 48 be 1f 4d a9 bd
       -0.067680754 -0.15755022 -0.1961371 -0.08266663
000020 a9 12 3f 3e 62 89 2f 3d fb ee 52 bd 89 94 4e be
       0.18659462 0.042855628 -0.05149744 -0.20173849
000030 8a 7e c3 3d 1a 91 11 3e b8 7c 23 3e 99 4c de 3a
       0.0954562 0.14215508 0.15965545 0.0016960084
000040 f0 13 3e be a4 9f 72 3c ae a1 8f 3d 3e 99 1a 3e
       -0.18562293 0.014808569 0.0701326 0.1509752
000050 27 b7 93 bd 3d 9e 3c 3c 94 7c 69 3d 8e 77 7f 3e
       -0.07212668 0.011512336 0.057003573 0.2494795
000060 e6 d8 80 3e 3e 70 bc 3a 1a 50 89 bd 4f 2a 88 bc
       0.2516548 0.0014376712 -0.06704731 -0.016621737
000070 ff 6a 97 3d 82 89 48 3d 86 11 74 3d db 59 0b bd
       0.07393455 0.048959263 0.059587024 -0.03402124
000080 bc de e7 3d 15 a2 ab bd a6 6a ae bc f6 b5 50 bc
       0.1132178 -0.08380524 -0.021291088 -0.012738695
000090 9d 6d cf bc 09 55 2f 3d a1 42 29 3d 9f 40 a3 3d
       -0.025320822 0.042805705 0.041323308 0.0797131
0000a0 f6 17 18 3e b0 e1 0c 3e ee cf c7 3a 78 77 17 bd
       0.1485289 0.13757968 0.0015244463 -0.03697917
0000b0 e8 df 4f 3d ae 0e 1c bd a2 76 f6 bd 06 74 0e 3c
       0.050750643 -0.038099937 -0.12034346 0.008694654
0000c0 b4 76 f2 bd 5b 4b 9d bd 32 36 98 3e 9e 92 7a 3e
       -0.11839047 -0.076803885 0.29728848 0.24469993
0000d0 aa be 90 3e b3 9a c3 3d 5b a8 f9 bd 53 7e 8c 3e
       0.28270465 0.09550991 -0.121903144 0.27440128
0000e0 35 67 6c 3e 6f 8d f8 bc e4 e9 d0 bd 99 28 37 be
       0.23086245 -0.030340878 -0.10200861 -0.1788658
0000f0 35 4b db 3b 88 9e b7 3d 0f 05 29 bd e0 20 a0 bd
       0.006692315 0.08965784 -0.04126459 -0.078187704
000100 8e 0d 96 be 70 15 fa 3c 47 43 56 3d 77 30 12 be
       -0.29307216 0.0305278 0.052310254 -0.142763
000110 42 6d 9c be d4 ad 9e be 2b be 09 3e 53 79 e8 bd
       -0.30552107 -0.30991995 0.1345145 -0.11351266
000120 5c 4b 42 3d 01 b2 e7 bd 46 94 49 bb e2 68 8e 3e
       0.04743515 -0.113132484 -0.0030758544 0.27814394
000130 dd 09 70 3e 90 19 64 3e eb 35 9e 3d 91 3b d6 bc
       0.23441263 0.22275376 0.07725128 -0.02615145
000140 12 e4 63 3e 39 f3 c0 3d 13 60 34 3d f0 a7 d9 bd
       0.2225497 0.09421391 0.044036936 -0.10627735
000150 88 65 3f be 78 58 a1 b8 54 2b cf bc ea e9 cd bc
       -0.18691075 -7.693557e-05 -0.025289215 -0.025135953
000160 23 82 3f be 35 80 87 be fb 53 f0 bd 84 fc f6 3d
       -0.18701987 -0.26465002 -0.11734768 0.12059882
000170 77 05 a8 bb 8b bc 0e 3a b5 48 9a bd 75 d9 8f 3c
       -0.0051276046 0.0005444965 -0.07533399 0.017559746
000180 4f 21 13 bc 2b 25 84 3d 94 48 b4 bd a9 cf 52 bc
       -0.008980109 0.06452402 -0.08802906 -0.012866893
000190 29 b5 ca 3d 7c 9c 33 be 49 bd 73 be 03 0f 34 be
       0.09897835 -0.17540163 -0.23802675 -0.17583852
0001a0 29 88 b9 be fd bf fe 3d 6c b1 e5 3c 4d df b4 bb
       -0.36236694 0.124389626 0.028038703 -0.0055197836
0001b0 d3 24 e9 bd 54 fb 78 be 99 4f e3 3d 12 7c 38 3e
       -0.11383977 -0.24314624 0.110991664 0.18016079
0001c0 c3 85 9a 3d 5e 7e 06 3e e8 3e b8 bd ee ce 05 3e
       0.07545044 0.13134143 -0.089963734 0.13067219
0001d0 74 f0 05 bc ce 47 1f 3e 04 18 95 3d 28 42 77 bd
       -0.008175004 0.15554735 0.07279971 -0.060365826
0001e0 80 1c c3 3d 65 87 1b 3e 0d ce 05 3e 6b 1e f8 3d
       0.0952692 0.15188368 0.13066883 0.12115177
0001f0 9b 51 44 3d 36 f4 8f bd 42 f6 9c 3c 33 ba a9 bd
       0.047929388 -0.070290014 0.019160394 -0.08287468
000200 c2 b7 64 bd 15 bf 80 bd 2d 4e 3f 3d fa 45 27 bc
       -0.055839308 -0.06286446 0.046705414 -0.010209555
000210 07 fc d3 3c 77 b5 12 3d 2e 49 01 bd 42 09 95 3d
       0.025877012 0.03581759 -0.03156393 0.072771564
000220 7c 4e 8f 3d b7 e7 17 3d da aa a8 3d 22 5e cd bc
       0.069973916 0.037086215 0.08235712 -0.0250693
000230 62 d8 a0 bc a1 6a 92 3d 2b 74 80 3c 85 0c 52 bc
       -0.01963443 0.07149244 0.015680393 -0.012820368
000240 4a b4 1c bd 16 c7 0b 3c 01 dc e2 3d 3e ac df 3c
       -0.038257875 0.0085313525 0.11077119 0.027303811
000250 01 5c 4d bd 71 49 80 3d 85 1e 48 be 5a 48 9c 3d
       -0.05013657 0.06264008 -0.19542892 0.076309875
000260 f0 51 ff 3d d5 20 9c 3e 6c 86 aa 3e db 72 8b be
       0.124668 0.304938 0.3330568 -0.27236065
000270 85 e1 51 be 33 9d 4c bc 66 aa c1 3c cb 55 48 3e
       -0.20496185 -0.012488651 0.023640823 0.19563977
000280 09 7a 6b 3d ba 31 88 be 9e dd 48 be d5 be c3 bc
       0.05748943 -0.26600438 -0.1961579 -0.023894707
000290 66 dc 3c 3d 67 a1 70 bb 20 98 a2 be a1 51 ae be
       0.046108626 -0.0036717297 -0.31756687 -0.34046653
0002a0 c4 2d 46 be 45 24 da bc 5a c0 34 be 77 c0 b7 be
       -0.19353396 -0.026628623 -0.17651501 -0.35889027
0002b0 2a ea 69 3c 63 c4 4c 3c 82 06 92 3d 15 4e 6e bd
       0.0142770205 0.012497994 0.071301475 -0.058179934
0002c0 7f 8d da 3c 92 07 f6 3d ba ff b6 3e fc 06 a3 3e
       0.026678799 0.12013163 0.3574198 0.31841266
0002d0 fa 21 73 be 30 31 a5 bd ef d0 be bc d8 76 c9 bc
       -0.2374343 -0.080660224 -0.023292987 -0.024592802
0002e0 37 9c 6f 3e 32 c1 f5 bd 3e 3b 52 bc d5 21 6d bc
       0.23399435 -0.1199974 -0.012831507 -0.014473398
0002f0 24 6a 2d be 78 69 69 3d f0 1b 8e bd a4 5b 21 bb
       -0.1693502 0.05698535 -0.069389224 -0.0024621272
000300 ca 7c 82 bd b1 ac 0c 3d 52 52 ec 3d 4f 39 76 bd
       -0.06371458 0.03434438 0.11539139 -0.060113247
000310 1f d7 14 be e6 3a 83 bd 07 66 74 3c 9a a1 86 3d
       -0.14535187 -0.06407718 0.014916903 0.06573792
000320 55 48 0d bc cf 76 4b 3d 5f d3 de 3d 27 6b 03 3e
       -0.008623202 0.04967385 0.108801596 0.12833844
000330 65 f2 de 3e 89 3f a1 be d9 bd 9c 3c d1 5b 6d 3c
       0.43544307 -0.31493786 0.019133495 0.014487223
000340 1b d7 aa 3d 31 72 94 3e 4c 6a e5 bd f9 05 51 be
       0.08341809 0.2899337 -0.11201915 -0.20412435
000350 fc 28 5c be 28 6f a1 bd 35 de 45 3e e7 ff 38 be
       -0.2150001 -0.078825295 0.19323047 -0.18066369
000360 0b f0 6c bd 07 65 98 bd 86 a0 88 bd 22 d3 c5 bc
       -0.05784611 -0.074411444 -0.066712424 -0.024148528
000370 c4 95 4e be 7e a6 75 be 40 14 86 be 28 bb a1 bd
       -0.20174319 -0.23989293 -0.26187325 -0.07897025
000380 b5 b3 8a 3d b9 9f e3 3b 85 b8 39 bd ff 3a 65 bc
       0.06772558 0.0069465307 -0.045341987 -0.013991117
000390 7a fa b4 3d c9 f7 a6 3b 5e c7 bb bd 8b 66 6c bd
       0.08836837 0.0050954563 -0.09168886 -0.05771498
0003a0 d7 5e f6 3b 11 95 83 bd 54 00 ee 3d 83 bd 92 bc
       0.00751863 -0.064249165 0.11621156 -0.017912632
0003b0 7e 09 25 bd 78 22 9e 3c 9c aa 45 3d ee 40 5d 3d
       -0.040292256 0.019303545 0.04825841 0.054017
0003c0 e4 c3 22 bd 89 64 1a bc 99 f4 fd 3d 9c cc 22 3b
       -0.039737597 -0.0094233835 0.12400169 0.0024841195
0003d0 0b d6 ce 3b b4 bc 16 3e b9 59 9e bd 3a e8 5d 3d
       0.006312137 0.14720422 -0.07731957 0.054176547
0003e0 c6 35 7a bd 59 ca 71 3c 8f 2c 40 3e dc 62 01 be
       -0.06108644 0.014757716 0.18766998 -0.12635368
0003f0 04 ce 2c be df ff 8e be ce f1 d5 be ee b2 1b 3e
       -0.16875464 -0.2792959 -0.41786045 0.15204975

fc_net.0.bias f4 [64]
000000 d1 0e 91 3d 2d 0a f7 3d 81 2d d2 3c 0f 79 b6 3d
       0.07082904 0.12062488 0.025656464 0.08909809
000010 c6 17 96 3d 69 b3 b2 3d 98 5a ef 3c ac 4a d3 3d
       0.07328753 0.08725626 0.029218003 0.10316977
000020 12 db f2 bb 06 24 33 3d bc fd 51 bd d3 4d a6 3c
       -0.007411369 0.043735527 -0.05126737 0.020300781
000030 e3 f4 54 3c c0 ad 98 bc 93 e5 be 3d 51 a3 7f bc
       0.012997839 -0.018637538 0.093211316 -0.0156029025
000040 f1 89 f0 3d a6 29 e6 bc f7 4d df 3d 05 a9 f0 bc
       0.1174506 -0.028096031 0.109035425 -0.02937747
000050 cf e6 22 bd 18 ed 89 bd 07 6f 15 bd b0 a8 c1 bc
       -0.039770897 -0.06734675 -0.036482837 -0.023640007
000060 a8 a1 df 3c fc 7a fd bd ec 85 d8 3c 2a 8e 8e 3d
       0.027298763 -0.12376973 0.026431046 0.069607094
000070 e5 78 4b bd 75 af d8 3c a2 b7 98 bd a5 ec d7 3d
       -0.04967584 0.026450852 -0.074569 0.10543183
000080 8b cd 1c bc 02 2f 98 bd 44 cd 97 3d a6 6d 99 3d
       -0.00957049 -0.07430841 0.07412198 0.07491617
000090 60 f5 3d bd 75 e4 98 3d cf a6 8f 3d 5f 0d 88 bd
       -0.046376586 0.0746545 0.07014238 -0.06643175
0000a0 7d 64 8a bb 44 43 20 bc 17 dd 99 bd f3 cc 59 bc
       -0.004223405 -0.009781662 -0.07512873 -0.013293493
0000b0 15 a8 34 bd 09 2a 3f 3d 8e e5 a7 3d d6 6d b4 3a
       -0.044105608 0.046670947 0.08198081 0.0013765644
0000c0 e5 a2 69 3d 0b a0 74 bd 32 62 98 bc 25 b1 06 3d
       0.057040114 -0.05972294 -0.01860151 0.032883782
0000d0 5d 1f 99 bd c0 4b 3d bd b3 17 7c 3d 64 fd 0f 3d
       -0.07476685 -0.04621482 0.06154604 0.03515376
0000e0 cf ed 9b 3d be ac ed 3c 82 6c c7 3d a8 7a 43 3c
       0.07613718 0.029013034 0.09737493 0.011931099
0000f0 74 29 d6 3d ad 06 13 3d 64 99 e2 3c 37 76 36 3d
       0.10457125 0.03589504 0.027661033 0.044546332

fc_net.2.weight f4 [64, 64]
000000 cc b6 8b bd f8 a2 c6 bb 75 49 b5 bd d3 40 25 3e
       -0.06821975 -0.006061908 -0.088519014 0.1613801
000010 51 05 26 3e 80 d3 de bc d0 7c c9 bc 4a 15 8c bd
       0.16212966 -0.02720046 -0.024595648 -0.06839998
000020 86 6b 34 bd 7f 99 50 3e cb 01 2b 3e 0a 1b 90 bd
       -0.044047855 0.20371054 0.16699903 -0.07036407
000030 b4 b9 29 be cf 1b c3 bb e0 ff c3 3e bb 1d e3 3d
       -0.16574746 -0.005954243 0.38281155 0.11089655
000040 2b 73 8b 3d b6 43 5f be fb 96 51 3e 48 a0 b6 3d
       0.06809076 -0.21803173 0.2046775 0.0891729
000050 44 6d a2 3c 42 d9 1d 3e fc d2 9f 3e 45 6e 21 be
       0.019827493 0.15414909 0.31215656 -0.1576472
000060 71 e2 07 3e 49 25 25 3d 02 81 8d 3e 38 1a 12 3e
       0.13269974 0.04031876 0.27637488 0.14267814
000070 b1 97 26 be 26 61 82 3e d3 4e e4 bd fb 3c 6c be
       -0.16268803 0.25464743 -0.11147847 -0.23070137
000080 0d 09 9f be e9 52 a8 3d cf 81 9c 3d 21 7c 4d be
       -0.31061593 0.08218939 0.076419465 -0.20066883
000090 9a 87 dc 3d 70 f6 a0 3e 44 99 81 bd c3 cb 50 bc
       0.107680514 0.31438017 -0.06328061 -0.012743893
0000a0 93 9c 6e be 27 0d 87 3e b9 48 d1 3d 75 80 25 bd
       -0.23301916 0.26377222 0.10218949 -0.04040571
0000b0 fa ef 81 3d b1 ed 11 3e 39 ac e4 3c f9 ca aa 3e
       0.063446 0.14250828 0.027914153 0.3335798
0000c0 db 02 a6 3d 64 b7 52 3e 52 29 18 be b8 57 4d 3e
       0.081060134 0.2057777 -0.14859512 0.20052993
0000d0 2c 47 11 be 0f 93 03 3e b5 eb 15 be 57 1e ce bd
       -0.14187306 0.12849067 -0.14640696 -0.100643806
0000e0 61 59 df 3d 59 26 dc 3c ea 3a 54 be 8f ff 9f be
       0.109057195 0.026873754 -0.20725599 -0.31249663
0000f0 0d e4 6d 3d 1e 2d 55 3e 9f df 1d 3e bd 3d 49 3c
       0.058078814 0.20817992 0.15417336 0.012282786
000100 0a 5f ab bc 09 de 0f 3e 64 d9 f4 bd 78 31 86 3e
       -0.020919342 0.14049543 -0.119555265 0.26209617
000110 f3 2d e2 bd 70 09 dc 3d cc eb 71 3e fd e7 9a 3d
       -0.1104392 0.107439876 0.23625106 0.075637795
000120 4f 68 70 bd 4e c3 9e 3d 58 97 60 be 84 d4 b4 3d
       -0.058693226 0.07752095 -0.21932733 0.08829597
000130 74 f6 47 be a4 4a 3e be 48 07 75 3d 4e 24 92 bd
       -0.19527608 -0.1858316 0.059821397 -0.07135831
000140 ad a4 a1 3c 3b 20 9f 3d 76 93 65 be d7 27 3d be
       0.019731844 0.07769819 -0.22419533 -0.18472229
000150 a7 33 8b 3c 37 e9 97 bd f0 25 c9 bd be 87 f9 3d
       0.016992403 -0.07417529 -0.09821689 0.12184094
000160 c6 5b b6 3d e8 fe 21 bd 9e 54 e7 bd 81 98 40 be
       0.08904223 -0.03954974 -0.11295436 -0.18808176
000170 07 8c c4 bd ea 5c 35 be 8e 65 7d be 5b 9c 59 3e
       -0.095970206 -0.17711225 -0.24745771 0.21251051
000180 c1 e1 68 3e 28 aa f5 bc f7 5c 52 be 44 4c 90 be
       0.22742368 -0.029988363 -0.20543276 -0.28183186
000190 87 df 61 3e 2c e1 19 be 69 1a f2 be 1e 48 77 3e
       0.22057925 -0.15027303 -0.47285774 0.24148604
0001a0 93 39 76 3d 46 b6 1a be 42 d4 86 be a7 e0 7f 3e
       0.0601135 -0.15108594 -0.26333815 0.24988042
0001b0 26 73 18 be a9 01 24 be 88 50 a9 3d 12 f2 0b be
       -0.14887676 -0.16016258 0.08267313 -0.13666561
0001c0 59 c9 e4 3d 6d 5a 74 be 1a fb 6b be ef 4a 52 be
       0.111712165 -0.2386262 -0.23045006 -0.20536397
0001d0 99 ec a0 be 8b 6c 2e be e9 2c e6 3d f3 5b 02 be
       -0.3143051 -0.17033593 0.11239035 -0.12730388
0001e0 aa c7 39 3e c3 28 a2 be b5 13 ee bd 3b 08 dd 3d
       0.18142572 -0.31671724 -0.116248526 0.107925855
0001f0 52 7d 7e 3e 21 ad c5 3d 25 89 6e bc 49 8f c5 bd
       0.24852493 0.09652162 -0.014559065 -0.0964647
000200 04 79 2e bd 4a 6d 68 3e cc ee ad bd 32 7c 06 3e
       -0.04259588 0.2269794 -0.084928125 0.13133314
000210 e2 13 20 3e 15 df e7 bc 6b 16 4d 3e 3a 5b 8a bd
       0.15632585 -0.028304616 0.20028083 -0.06755681
000220 f9 31 15 bd 31 7b 16 3e 13 8f 90 bd b2 27 ae bd
       -0.03642461 0.14695431 -0.07058539 -0.08503665
000230 9b 08 31 bd 70 fd d1 bd 75 35 94 3e 5b 22 59 3e
       -0.043221097 -0.102534175 0.28947034 0.21204512
000240 51 25 de 3d 78 c4 88 bd 1d 79 61 3d 02 57 b0 bd
       0.10846961 -0.066780984 0.055047143 -0.086103454
000250 48 f0 cd 3d f5 80 f0 3d c3 c9 98 3d f5 37 49 be
       0.10055596 0.117433466 0.07460358 -0.19650252
000260 76 6b 67 3e e6 da e5 bc 9e b5 85 3e 56 fc 9f 3d
       0.22599587 -0.02805848 0.26115125 0.07811801
000270 7e 23 71 bd 11 32 2f 3d d9 4f 0d be 36 9a 00 be
       -0.05887174 0.042772356 -0.1379999 -0.12558827
000280 90 cb d4 bd a0 a1 6c bd 56 46 da bd 64 2f 34 be
       -0.10390389 -0.057771325 -0.10657947 -0.17596203
000290 d6 3d a3 3e a1 8b c2 3d 0e 06 08 be fe c6 ec 3d
       0.31883115 0.09499288 -0.1328356 0.11561392
0002a0 23 54 45 be 95 28 da 3d 92 ef 94 3d ba 3c d0 3c
       -0.19270377 0.10652272 0.07272257 0.025419582
0002b0 48 94 aa bd 61 f8 e4 3b 73 81 38 3e 65 a0 c6 3e
       -0.08329064 0.006987617 0.18018131 0.38794246
0002c0 f2 44 9c 3d 65 05 04 3e 1c 75 94 be 0e 40 d3 3c
       0.07630338 0.12892683 -0.28995597 0.02578738
0002d0 02 8d 33 be 83 24 44 3e db a2 82 bd ab 29 20 be
       -0.17534259 0.19154553 -0.063787185 -0.15640895
0002e0 af 2d a5 3e 6c 44 80 3d b2 71 cf bd fb 71 6e be
       0.32261416 0.062630504 -0.101291075 -0.23285668
0002f0 39 69 60 3e 0d 6e 89 3e 1f 10 5e 3a 15 5a dd bd
       0.2191514 0.26841775 0.000847103 -0.108081974
000300 36 a7 19 3e 67 c4 29 3d 78 e9 a4 bd 05 c3 b4 3d
       0.15005192 0.04144707 -0.08052343 0.088262595
000310 40 d0 58 be dc f7 29 3e 71 54 1d 3c c9 16 eb 3d
       -0.21173191 0.16598457 0.009602652 0.11478955
000320 9a 43 23 3e 1c 99 d9 bd e7 14 d5 bd 36 6c c4 3c
       0.15943757 -0.106249064 -0.104043774 0.02397738
000330 34 2e be bd 9c a5 9f bd 59 44 1c be e6 b6 a3 3b
       -0.09286156 -0.07795259 -0.15260448 0.0049961684
000340 b0 91 89 3d df 6b 90 3e 2d 12 e7 bd dc d2 92 be
       0.06717241 0.282073 -0.11282764 -0.28676498
000350 f9 c3 e4 3d 85 c2 3a be 51 5a 7f be 27 04 93 3e
       0.11170191 -0.18238266 -0.24936797 0.28714105
000360 92 93 c8 3d b7 4a 81 3d e4 9e b6 bc a9 86 cd bd
       0.09793772 0.06313079 -0.022292562 -0.1003545
000370 7e 78 ee bc 88 93 5a be ff 5a 41 3c 67 4d 19 3e
       -0.02911019 -0.21345341 0.01180148 0.14970933
000380 c9 2a 96 3e a3 ab 27 bd c9 35 c9 bb 29 29 ac bd
       0.29329517 -0.04093517 -0.006140445 -0.08406288
000390 cb 98 55 bd b0 2f 7f be 16 92 07 be 6d 38 31 3e
       -0.052147668 -0.24920535 -0.13239321 0.17306681
0003a0 7f 26 28 3d 40 67 38 be cf 99 86 be 0d 31 ed 3d
       0.041052338 -0.18008137 -0.26289222 0.11581621
0003b0 fe 6d 0e be db 13 f5 bd f5 95 ab 3d a5 eb 25 be
       -0.13909146 -0.11966678 0.083782114 -0.16203173
0003c0 41 68 09 3e 9c 49 ff bd 0a e5 12 3b e7 b0 8b be
       0.13418676 -0.12465212 0.002241435 -0.27283403
0003d0 3c 18 d6 bd 39 ba b0 bd f3 92 8c 3e 65 84 02 be
       -0.10453841 -0.08629269 0.27455863 -0.12745817
0003e0 ba 64 fd 3d 31 91 15 be 59 a5 54 3d c9 8d 64 3d
       0.12372728 -0.14606167 0.0519155 0.05579928
0003f0 ce d8 04 3d d9 8a fb bd 5e e7 05 bc f1 0b 13 be
       0.032433324 -0.122823425 -0.008172838 -0.14360024

fc_net.2.bias f4 [64]
000000 f4 48 14 3b 51 54 06 bd a3 80 6b bd 24 ff 37 bd
       0.0022626491 -0.032795254 -0.057495724 -0.044921055
000010 9f ea a9 3d e9 90 c4 3c 08 af 36 3e f7 3d 04 3e
       0.082967035 0.02399488 0.17840207 0.12914263
000020 30 2d 8e 3d 97 92 14 3e 58 fa 3e 3e bc 2c 05 3b
       0.069422126 0.14509045 0.18650186 0.0020320853
000030 ef 44 09 3e a9 f1 f6 bc 58 2f f2 3d 17 8e 0b 3c
       0.13405202 -0.03014453 0.11825436 0.008517764
000040 5b bd 47 3e 3d 09 80 bc 2d 52 be 3d 42 b7 fa 3d
       0.19505827 -0.015629405 0.092930175 0.12241985
000050 c6 0c 1b 3e 1f a7 73 3d b1 98 dd bb 37 2e c6 3d
       0.15141591 0.05948555 -0.006762587 0.096767835
000060 26 65 e9 bd ff 6f 95 3d f9 2c f4 3d 33 f5 22 bd
       -0.11396246 0.07296752 0.1192264 -0.03978462
000070 be 71 9f 3d 8a 51 3c 3e 1b 4a 58 3d e6 f9 39 3c
       0.077853665 0.1839048 0.052805047 0.011351084
000080 7d f4 02 3e 5f 3f 23 3e 7b ea 3f 3d a4 86 0a be
       0.12788577 0.15942143 0.046854477 -0.13527924
000090 ee ce a2 3c 7f bc f2 bc 65 40 39 3d 99 83 4d 3d
       0.019874062 -0.029630898 0.045227427 0.05017433
0000a0 23 81 2b 3e e7 4b 6f 3d 12 9e 27 bd 12 01 52 3e
       0.1674848 0.058421995 -0.040922232 0.20508221
0000b0 d9 1a 0c bd 62 9d a1 3c de 64 0a 3e 8b a2 98 3d
       -0.03420529 0.019728366 0.1351504 0.074528776
0000c0 89 91 04 3c b8 0d 10 3e ac d4 21 bc a4 42 4d bd
       0.008091339 0.14067733 -0.009877365 -0.05011238
0000d0 ae 0f cc 3d 3d 4b ac 3c 78 5d 16 bd 18 75 ee bd
       0.09963928 0.02103197 -0.036710232 -0.116434276
0000e0 c2 77 8b 3d 49 ab 24 3e da 47 83 3c d9 d1 ff 3d
       0.06809951 0.16080965 0.016025472 0.12491197
0000f0 3b f2 6c 3d fd e7 8e 3b 97 3d 3f 3e 8d 77 12 3d
       0.057848196 0.0043611513 0.18675838 0.035758544

action_head.weight f4 [4, 64]
000000 0b 97 a8 3e 53 0f 1c 3d e6 c3 bd 3e f2 df 0a be
       0.32927737 0.03810055 0.3706352 -0.13561991
000010 5a 43 b7 be 02 19 08 3e 15 d5 75 be 7e f8 46 3e
       -0.35793573 0.1329079 -0.24007066 0.1943073
000020 05 00 45 be b0 25 80 be 7b dc 26 bd 5a 9d 23 3e
       -0.19238289 -0.25028753 -0.04073761 0.15977994
000030 7e 9c 9e 3e ba 2b a0 3e 41 4b 3c be 05 19 18 3d
       0.3097877 0.3128336 -0.18388082 0.037133235
000040 67 b6 0b 3e d6 a3 a4 3e c2 ad 97 3e 0b b4 e5 bd
       0.136438 0.32156247 0.29624754 -0.11215981
000050 fb ac 22 3e 30 82 b2 be 0a b2 90 be b4 de 75 be
       0.158863 -0.3486495 -0.28260833 -0.24010736
000060 c1 f9 f8 3c 74 1b 79 3d ae af 1a be 81 bb e5 bd
       0.03039253 0.060817197 -0.15106079 -0.11217404
000070 cc 64 85 be 28 5e 51 3e a9 22 67 3e ce fb 90 3e
       -0.26053464 0.20446074 0.22571816 0.28317112
000080 e5 fd 61 3d fa bb 14 3e 1c 38 74 3e 6b 14 88 be
       0.055173773 0.14524832 0.23849529 -0.26578078
000090 7a c5 8a be df 5d b8 3e c9 d0 b8 3e af d1 b2 3e
       -0.27103788 0.36009118 0.3609679 0.349256
0000a0 65 40 66 be 19 b4 a0 bc 2a 1c 9b 3e e4 11 37 be
       -0.22485502 -0.019617127 0.30294925 -0.17877918
0000b0 ea f7 ab 3e d7 76 60 be 88 11 92 3e fc 40 be be
       0.3358758 -0.21920334 0.28529 -0.37158954
0000c0 39 2c ad be b4 47 6d 3e e3 09 52 3e ae 71 41 be
       -0.33822802 0.23171884 0.20511584 -0.18891022
0000d0 f7 9d a2 3e c8 af 85 be de bc 68 3e 12 c8 f0 bc
       0.31761143 -0.26110673 0.22728297 -0.029392276
0000e0 71 2a 14 be e1 10 0d 3e ff 22 25 3d 34 4c a2 be
       -0.14469315 0.1377597 0.040316578 -0.31698763
0000f0 8b 7f 79 3e 19 5c a9 3e af 64 d0 3d f4 66 94 3d
       0.2436506 0.33078077 0.10175454 0.07246199
000100 2e 3d ba be e8 ca 12 be 80 25 b1 be bb 2e 99 3d
       -0.363748 -0.14335215 -0.34598923 0.07479616
000110 a7 21 cf 3e c3 89 00 3e 1a 1a 50 3e c0 91 71 3b
       0.40455362 0.12552552 0.20322457 0.0036860555
000120 72 12 de 3d 99 61 8e 3e d5 0c 04 bd 15 70 ab bd
       0.10843362 0.27808836 -0.0322388 -0.08370987
000130 20 66 cd be 49 db 78 be 24 a2 a2 3d 61 d8 bc be
       -0.40116978 -0.243024 0.07941082 -0.36883834
000140 c9 45 2c 3e 22 2f 9e bd 50 47 16 be a4 81 87 3d
       0.16823496 -0.077238336 -0.14675641 0.06616524
000150 9f 63 50 bd 98 b5 e6 3e 8d f0 cc 3e 82 24 a9 3e
       -0.050876256 0.4506042 0.40027276 0.33035666
000160 0f c3 88 be 1a e5 22 bd 31 34 8b 3e 65 c0 25 be
       -0.26711318 -0.03976927 0.27188256 -0.16186674
000170 d9 e7 c9 3e 83 4f 3a 3d 09 d4 c2 bd 6e 2d eb be
       0.39434698 0.045485985 -0.09513099 -0.45933098
000180 ac 31 12 3e 32 65 e1 bd 14 23 88 be 25 c8 a7 bb
       0.14276761 -0.110056296 -0.26589262 -0.0051202946
000190 24 1e 82 3e fe ab 22 be a9 4c 8f be 07 9c 04 be
       0.2541362 -0.15885922 -0.27988175 -0.12950145
0001a0 b4 5d aa 3e 16 4a 35 3e 9b b3 3b be 44 25 c1 3d
       0.33274615 0.17704043 -0.18330233 0.09430936
0001b0 ed 9c a1 be 42 25 ad 3e c1 16 cc bd 7e 71 cd 3e
       -0.31565037 0.33817488 -0.099652775 0.4012565
0001c0 2d 04 b1 3e 26 b5 dd 3d 9f 3b a3 be 2f 0c 1a 3e
       0.34573498 0.10825567 -0.31881425 0.1504371
0001d0 86 0d 3d be 54 d5 19 3d e5 58 17 3d 13 73 75 be
       -0.1846219 0.03755696 0.03695001 -0.23969679
0001e0 23 a6 5d 3e 96 d9 92 bb 16 bf 8c be 06 db b2 3e
       0.21645407 -0.0044815047 -0.27489537 0.34932727
0001f0 d0 f4 9c be db 30 f7 be f0 2e 95 3c 06 7c ce bd
       -0.30655527 -0.4827946 0.018210858 -0.10082249
000200 2b 6b 51 be 35 9b fe 3e ec cf 05 3d f5 42 8c 3e
       -0.20451038 0.4972779 0.032668993 0.27394834
000210 d4 21 25 be b7 85 d4 be 7c aa 3b 3e a8 d8 80 be
       -0.16126186 -0.41508266 0.18326753 -0.25165296
000220 9b d0 a1 3e c6 0b ba be 84 da ec 3d cf 20 53 be
       0.31604466 -0.36337107 0.11565116 -0.20617984
000230 3e ca 08 be 49 0a 49 3e f9 9f 09 bf 4e b4 81 be
       -0.133584 0.1963283 -0.53759724 -0.25332874
000240 d6 2a 0c 3e 65 b5 ac 3e 50 ed f0 be 48 01 65 3e
       0.13688216 0.33732143 -0.47056055 0.2236377
000250 81 eb d3 be b2 57 b4 3d a9 b5 87 ba b5 f3 90 be
       -0.41390613 0.08805789 -0.0010353822 -0.28310934
000260 90 0e 95 bd 2a 0a ba 3e 88 2a 94 3e b0 74 80 3e
       -0.07278168 0.3633588 0.289387 0.25089025
000270 8e 77 8f 3d 7c 94 a3 3e 7f e7 af 3e 1a e9 60 3e
       0.07005225 0.31949222 0.34356305 0.21963921
000280 b7 90 8c 3e 15 63 37 3e 7f 86 7f be 98 4e 94 3d
       0.2745416 0.1790889 -0.2495365 0.07241553
000290 e0 bd a9 be 7c 89 f3 bc ba ad 61 be 89 01 4d be
       -0.33152676 -0.029728644 -0.22038928 -0.20020117
0002a0 d5 99 53 be c8 cd c2 3e fb ac e1 3d d4 55 01 3e
       -0.20664151 0.38047624 0.110193215 0.12630397
0002b0 e1 bc b1 3e 87 d2 2a be 98 63 f3 3d ad 5d 35 3d
       0.34714416 -0.16681872 0.118842304 0.04427879
0002c0 25 78 14 bd 02 71 9f 3d 7f a7 46 3e 91 a0 57 be
       -0.03624739 0.077852264 0.19399832 -0.21057345
0002d0 a5 9c 41 be e8 54 84 be 60 65 17 be e3 da 84 3e
       -0.18907411 -0.25846028 -0.14784765 0.25948247
0002e0 ce 26 be 3e 42 e3 f7 be 3e 66 d0 be 65 64 88 3e
       0.3713898 -0.4841557 -0.40703005 0.26639095
0002f0 df 22 c2 3d f9 5a e7 3c 3e 26 57 3e af ae da be
       0.094793074 0.028241621 0.21010682 -0.42711398
000300 e5 14 94 3d fd cb 9a be 92 38 94 bd 29 c6 73 be
       0.07230548 -0.30233756 -0.072373524 -0.23806061
000310 6f dc 9b 3d 5b f4 82 3e 69 d2 07 bf 29 8d d8 ba
       0.07610404 0.25577053 -0.53055435 -0.0016521561
000320 ba bf 6c be d3 ff 98 3e 21 c3 e8 be a4 e9 b6 3e
       -0.23120013 0.29882678 -0.45461372 0.3572513
000330 99 e0 2f 3e 7b a5 c6 bd f0 75 85 3e 1d 1a cc 3e
       0.17175521 -0.09699532 0.26066542 0.39863673
000340 13 c5 c1 be 2f 33 c2 be 03 e9 b5 3e f0 9f a9 be
       -0.37845668 -0.37929675 0.35529336 -0.33129835
000350 7f c7 7c 3e 08 3e 13 be 5e 09 2e be 41 8f 90 3e
       0.24685477 -0.14379132 -0.16995761 0.28234294
000360 8b b4 7e 3e ed 44 ea be bd 4a dd be 45 47 c3 be
       0.24873559 -0.4575571 -0.43221083 -0.38140312
000370 03 14 09 be 75 1f eb be ce aa 9b be 5a 31 4a be
       -0.1338654 -0.45922437 -0.3040375 -0.19745389
000380 88 e4 cc be f5 37 b3 be fa ae b0 3e e8 92 11 3e
       -0.40018106 -0.3500363 0.34508497 0.14216197
000390 a9 0b 88 3e 01 78 11 be 2c 0f a6 bc 39 4d 9e bb
       0.26571396 -0.14205934 -0.020270906 -0.004830983
0003a0 80 93 68 3c 34 3c 08 bf bd 15 5e be 6a 53 f8 be
       0.014195323 -0.5321686 -0.2168798 -0.4850114
0003b0 76 49 f8 be b8 3f 8d bd 4a 80 4e bd 34 a0 0b be
       -0.48493546 -0.06896919 -0.050415315 -0.13635331
0003c0 f2 ed 7e be 80 ed b6 be 8f c9 bf be c2 b3 03 3e
       -0.24895456 -0.35728073 -0.37458465 0.12861541
0003d0 28 b1 33 3e 20 d1 a3 3e de 15 88 3d a5 d2 d2 3d
       0.17548048 0.31995487 0.06644796 0.102940835
0003e0 ff 3c f0 be c5 0f e8 3d 78 10 8e 3e d7 33 85 be
       -0.46921536 0.11331133 0.2774694 -0.26016113
0003f0 31 3c 49 be 53 1c 94 bc 38 8b d1 be e8 64 ca 3e
       -0.19651867 -0.018079912 -0.40926528 0.3953011

action_head.bias f4 [4]
000000 1f 62 19 3e 26 89 ba bb ef 62 e7 bd 68 c0 86 bd
       0.14978836 -0.005692619 -0.11298167 -0.06579667
