output/4-agents_domain-CoinGame-4_MATE-TD-T4_2022-08-10-03-19-18/critic_net_1.pth (torch, 44695 bytes, 5 tensors)

fc_net.0.weight f4 [64, 100]
00000000: 6bdd 183e 660e 8d3e 39ca fe3c 7fe6 853d
00000010: 1f3e 0e3e 92b1 913b 83ba af3d 2da4 103e
00000020: e263 573e 0d39 373e 3594 c03d bb6c 3d3d
00000030: 4b97 b93c c991 3e3d a899 1f3d d3c6 d53d
00000040: 444d a23d 941d aa3c 3ba3 f13d ae9f 3fbd
00000050: 0d47 8f3c 716a 103e 8321 2d3d 33cf 893d
00000060: f5b3 033e d70e 033c be4f fe3d 486d 173e
00000070: 64b0 073e e342 e6bc 64a9 ec3c 5f80 e73c
00000080: e672 f03d 3af9 fa3d 3ada 543d ba34 193e
00000090: aa83 da3b d762 0f3c 1577 db3d a26e 5dbb
000000a0: 290e 143e c114 073e 90d4 353e dac5 3c3d
000000b0: 14a0 c43d 1850 3d3e 8415 3a3e ad75 9b3d
000000c0: 997e 0a3e b4a9 54bc 482f ccbd c802 f2ba
000000d0: d0c3 ecbd ea78 76bd aa6e a2bd 8111 efbd
000000e0: 29de cbbc ab2c 80bd bf3b d63a c384 dd3c
000000f0: d1bb 09bd fad3 f63c ae24 dd3b f242 d5bd
00000100: cff7 8bbc 979d d43b 7c11 8e3d 911c 4c3b
00000110: e3b2 123e ea87 a3bd 846a e43d 57af d53d
00000120: f586 8f3d bda6 6ebc c98a 893d 9e55 393c
00000130: 9de0 ec3d dbeb 4f3d 7110 063e 230f 313e
00000140: b4c9 c93d 5112 0f3e b9ca 273e 385a 8f3d
00000150: 4c16 903d b3a5 bc3d 8d10 183d a85f 0a3e
00000160: 1bcc 273e 41ab 943d acf1 363d 65c5 3c3e
00000170: d9c7 f03d fdf4 7a3d e41f 8e3d 7d34 023e
00000180: 5362 6a3d 057a 7f3d 3df9 203d 9d6f 733c
00000190: cf91 e03d 1713 213e 9dbd c63d 0266 bebc
000001a0: f120 373e 303d c23d cf34 f83d 6e8f 253c
000001b0: a163 f93d 3a59 1a3d 9936 e93d 256e ab3d
000001c0: 7cce 373b 842d fe3d 0298 f43d 9257 7e3d
000001d0: 1246 a03d 424f 8c3d 7fd3 a73d 785f 0c3e
000001e0: 0638 f23d 71f3 f63d e325 633d be1a 8dbc
000001f0: faf8 05bd 5033 a93c 9a20 0b3e d2a6 f93d
00000200: 8e4c e03d 2472 0b3e 371a d4bc ccfe fb3d
00000210: 8c14 943d 38b5 703d 62c4 713c 22e4 bf3d
00000220: 77da 223d 0b82 bb3d a44c 1b3e 27e5 d83c
00000230: 0abf 183e d4d1 193e 79fb c33d a0ab 82bb
00000240: 10a8 81bc 5fb2 0a3e 7708 3f3e 3cca f63d
00000250: 1b05 893d 91aa 423c e674 8cbc 4472 88bd
00000260: 1b0f fabd b73a a6bd 92f6 9ebd 9f45 883b
00000270: bfa6 4cbd 171d af3d 0709 86bd cbe3 81bd
00000280: 0121 6ebd 08ec 5f3d 9402 b03c dc93 93bd
00000290: a4ad eabd 86f1 383c 04b9 d4bb 9c20 86bd
000002a0: 5175 b83d bc7f 003d 23b8 933d 5ca8 c53d
000002b0: 8e9f b53d d846 373d 759d 9b3c 7e57 403d
000002c0: 2032 003e 8ae9 c73b c7a9 ac3c 6231 bb3d
000002d0: 90fc 323e 7ca3 e23d b4f8 793d 23c1 d43d
000002e0: c36e 2e3e 2a61 dc3d ad4b a23d b525 4c3e
000002f0: 0934 343e f8a1 103e e50b e53d b3b2 663e
00000300: ae66 ec3d 8626 7d3d f9fc ec3a 6aa4 283e
00000310: f891 bb3d 9ae1 fb3d d666 a83d d6b8 0b3e
00000320: e50e 6d3c 7d3d 923e 2e65 6f3d e42a 003d
00000330: dfaa 333e a6c5 323d 6081 273e 566b 1c3e
00000340: b72a f73d 17b0 1b3e ef79 de3d b1a8 a53d
00000350: 0fb1 3b3d 905d d73d e91a 5f3c 40b8 a43d
00000360: 7d83 8d3c 796f e83c 016d 993d e2de 113e
00000370: 77dc 043e 7bba 023e 80ac 213d 0ead 8cbb
00000380: 09af 793d d037 b73d 9067 a6bc 5219 d23d
00000390: 9290 8dbc e253 c33d 89d5 bfbc 38a5 203e
000003a0: da47 1f3e 6d97 013d e6b8 133e 7af9 b53d
000003b0: c608 f43d 0cad 993d d0a6 c73d 706c 043e
000003c0: 2e83 ce3d 5355 c43d baa8 0b3e cde2 2b3e
000003d0: 182b 303d a373 903b a2df 473e 84ef d73d
000003e0: fcab d93d 2060 9c3d 3969 11be 896c 26bc
000003f0: 95c4 24bd de61 bdbc 1005 21bc dac9 21bd
0.14928214 0.27550048 0.031102287 0.06538104 0.13890885 0.004446217 0.08580496 0.14125128
0.21034196 0.17892857 0.09403268 0.04624627 0.02265515 0.04652575 0.038964897 0.10438313
0.079248935 0.020766057 0.11798712 -0.04678314 0.017489934 0.14103104 0.042268287 0.06728973
0.12861617 0.007999144 0.12417553 0.14787781 0.13250881 -0.028108066 0.028889365 0.028259454
0.11740665 0.122545674 0.05196593 0.1496152 0.0066685276 0.008751593 0.107160725 -0.0033787866
0.14458527 0.1319151 0.17756867 0.046087123 0.09600845 0.18487585 0.1817227 0.07590804
0.13524856 -0.0129799135 -0.09969956 -0.0018463964 -0.11560786 -0.060173906 -0.07931264 -0.116732605
-0.024886208 -0.0625852 0.001634471 0.027040845 -0.03362638 0.030130375 0.0067487573 -0.104131594
-0.017085938 0.0064885127 0.06936929 0.0031144957 0.14326052 -0.07984908 0.11153129 0.10433834
0.07008163 -0.014566121 0.06715924 0.011311917 0.11566279 0.05076204 0.1309221 0.1729093
0.09852925 0.13971831 0.16385926 0.0699963 0.07035503 0.09211292 0.03712516 0.13513052
0.16386454 0.072592266 0.04466407 0.18434675 0.11756868 0.061268795 0.069396764 0.12715335
0.057222676 0.062372226 0.039300192 0.014858154 0.10965311 0.15729938 0.097041346 -0.023242
0.1788366 0.09484327 0.121194474 0.010104997 0.12177206 0.03768275 0.11387367 0.08370618
0.0028046658 0.12411025 0.11943056 0.062095232 0.07825865 0.06851055 0.081946366 0.13708293
0.11827092 0.120581515 0.055456053 -0.017224666 -0.032708146 0.02065435 0.13586655 0.121900216
0.10952102 0.1361776 -0.025891406 0.12304458 0.072304815 0.058766574 0.014756294 0.09369685
0.039759126 0.09155663 0.15165955 0.026476456 0.14916626 0.1502145 0.09569449 -0.0039877445
-0.015827209 0.13544606 0.18655573 0.12050292 0.06690427 0.0118814865 -0.017145585 -0.066624194
-0.122099124 -0.08116668 -0.07761873 0.00415869 -0.04996371 0.0855047 -0.065446906 -0.06342276
-0.058136944 0.054668456 0.021485604 -0.07205936 -0.114589006 0.011288052 -0.006491782 -0.065491885
0.09006751 0.031371817 0.07212856 0.096512526 0.08868323 0.044745296 0.01899598 0.04695844
0.12519121 0.006100838 0.02107705 0.091402784 0.17479157 0.110663384 0.061028197 0.103884004
0.1703444 0.1076072 0.0792459 0.19936259 0.17597975 0.14124286 0.11183909 0.22529106
0.11543022 0.061804317 0.0018080763 0.16468969 0.09158701 0.122988895 0.082227394 0.13644728
0.014468883 0.28562537 0.0584461 0.031290904 0.17545651 0.043645523 0.16357946 0.1527532
0.12068694 0.15203892 0.10863101 0.08088816 0.045823153 0.105158925 0.013617256 0.080429554
0.017274613 0.028373467 0.07491494 0.1424518 0.12974726 0.12766449 0.03947115 -0.0042930907
0.060957942 0.08946192 -0.020313054 0.10258736 -0.01728085 0.09537484 -0.023417251 0.15688026
0.15554753 0.03163855 0.14426002 0.088854745 0.11915736 0.07503709 0.09748614 0.1293199
0.10083614 0.09586587 0.13638583 0.16785736 0.043009847 0.004408316 0.19518903 0.10543731
0.106285065 0.07635522 -0.14200296 -0.010157713 -0.040226538 -0.023117956 -0.009827867 -0.03949914

fc_net.0.bias f4 [64]
00000000: aeae e33d 63be 123e 28b8 943d aff5 b23d
00000010: 7744 08be 91b4 e83d 330f 44be 2bfc 583d
00000020: 8a42 263e d078 f33d 3164 35be bac0 133e
00000030: 5971 273e c09c 33be f9f7 70bd d62f 4ebe
00000040: 68d5 ebbd 8665 50be e2f1 463e 4be8 42be
00000050: 935f d0bd f107 163e ddbe 1dbe 3077 3cbe
00000060: a8dc 0fbe 980f d2bd f346 30be b045 ef3d
00000070: b928 c03d 5759 01be 1169 a33d dc91 a73d
00000080: 8f69 ad3d 620f e93d a266 09be d66c a8bd
00000090: 3872 863d ebb8 243e 44cc ff3d 3302 fdbd
000000a0: 1b5a 0bbe ac94 c43d e6be 9abb 115e b33d
000000b0: 9523 d43d 1851 cc3d de1b 113e edc1 ba3c
000000c0: 9270 ecbd fc84 b03d 5cfb 17be e29e ab3d
000000d0: 8437 fd3d aa98 19be afad cabd 6c65 c03d
000000e0: d725 04be f74d 51be e5d6 16be 1bda bfbc
000000f0: 9ac3 0cbe 60be 103e 8889 5bbe b2d5 863d
0.11117302 0.1433044 0.072616875 0.08738267 -0.13307367 0.11362565 -0.19146423 0.05297486
0.1623632 0.118882775 -0.17714001 0.14428988 0.16351832 -0.17540264 -0.058830235 -0.20135435
-0.115153134 -0.20351228 0.19428208 -0.19033925 -0.10174479 0.14651467 -0.1540484 -0.18404841
-0.14049017 -0.102568805 -0.17214565 0.11683214 0.09382767 -0.12631737 0.07979024 0.08182117
0.08467399 0.11379887 -0.13418058 -0.08223884 0.06564754 0.16086166 0.124901325 -0.12353935
-0.13608591 0.095986694 -0.004722464 0.08758176 0.10358349 0.09976405 0.14170787 0.02279755
-0.115449086 0.08619115 -0.1484198 0.08379914 0.123641044 -0.14999643 -0.09896409 0.09394345
-0.1290506 -0.20439897 -0.14730413 -0.02341943 -0.13746491 0.14135122 -0.21439183 0.06583728

fc_net.2.weight f4 [64, 64]
00000000: 6ace 32bc 2a03 67be 8a30 04be 7f1e 05be
00000010: d6f7 b63c 8b6e 95bd 5202 773e 3c7f 983c
00000020: 0a4d f2bd bb44 4dbd 3ff4 813d dc45 7abe
00000030: 7fb4 04be abf2 123d d736 7f3e 1ed4 453e
00000040: 5686 0d3e 32a2 5d3e 3e51 b3bd 243a 0a3e
00000050: 47e4 133d 7cda 48bd c341 653e 2fe8 be3e
00000060: b5c1 153e c902 333e 2312 b73d c518 99bd
00000070: 1810 85bd 2aa0 3f3e cf76 05bd 40c5 6fbd
00000080: dd86 78bd 949e 9bbc 33ee 833e 6398 253e
00000090: 256b 0dbe 1fdf 81be ef29 61be 43f8 3f3e
000000a0: 6d3e 073e 0949 98bd 5258 5abe 018c 81bd
000000b0: 8f4a dbbd aea7 69bd 617e 32be 346e 3abe
000000c0: c729 813e 21be 01be cad5 633d a65d 6ebe
000000d0: 6543 36bd b755 f53d b8f9 c63d 4922 f3bc
000000e0: b9df 6e3d 1eef 9f3d 990a d83d 6643 013e
000000f0: fc26 1d3e 46d2 20be 25af 523e 3357 f9bd
00000100: 2469 3abe d1c8 54be 989a 68be 301b 36be
00000110: 9182 aa3d 36c7 8e3c a3d5 453d 8820 57be
00000120: ae79 bbbc 8b92 44bd e59e 203e f840 18be
00000130: f89a 59be 61eb 413e 4a97 b03d e0f2 373e
00000140: b3e3 e73d 0fb9 443e 0752 7cbc ec31 573d
00000150: 91f0 6c3c 0912 3fbe 6aaa 073e 834b 313e
00000160: 1cf8 5e3c cbd7 673e 6a94 ba3d cf63 60be
00000170: 5a8d 81bd 8df9 473e be20 f7bd c05f 75be
00000180: 402a 94bd 8ed5 47be 5b7f ac3d 762f fb3d
00000190: 9fda e2bc 8524 84be f7fa 52be 74c0 263d
000001a0: 38f1 e73d 2bec 4cbd e242 b8bd 816b 3cbe
000001b0: 2348 78be 4046 4fbe 8317 4bbe 54c1 56be
000001c0: e267 493d 203e f3bd a557 1d3e 4fb3 76be
000001d0: b206 f9bd f1af 173e 90d5 5c3e 7a8e 20bd
000001e0: 5be3 033e 7402 0a3e d017 3b3d fa33 453d
000001f0: 57b8 063d 55d5 69be 1d49 4e3e cbe1 91bd
00000200: 5d10 dbbb ca23 6bbd b208 b5bd 9380 64be
00000210: 7726 0f3e 8bad 6dbc 202f 293e addb 90bd
00000220: 5045 e5bd ad22 c9bd de0a a43c 9fa8 82bd
00000230: 8e64 4abe 13ba 123d e5e1 133d 47b8 5e3e
00000240: 8c10 f83d 6c56 a83d 7ebf 34bd 5b71 6b3e
00000250: e095 f23d c57e f1bc 5d26 353e f60e 3a3e
00000260: cab7 233e 362f 913e bee9 643e de5c 16be
00000270: 40be 21be 82ce 513d fd31 7bbe 6a0e e4bb
00000280: 660d 69be a369 1bbe e9bd 4c3e a3a0 5a3e
00000290: bc3f a8bd d61b 82be db49 5abd d51f 7a3e
000002a0: 1e08 a33e 3716 44be 7e98 2ebe 6d24 64be
000002b0: 4d58 94bd 4c5a 02bd c53b 62bd 61f3 40be
000002c0: f925 223e df1c 33be 86b0 5d3d 0763 dabd
000002d0: 26ed c6bd 9f9b c43d dabf 143e 166f 31bd
000002e0: 850e 853e f101 1e3d 9daf 053d 50a0 3f3e
000002f0: 4945 0a3e c830 3bbd b93b 8e3b 8a51 62be
00000300: 6b7b 85bc 4c56 d1bc 43cd c8bc fc58 4abe
00000310: 9bcb a23c e515 223c aa1e f73d cbfb d5bd
00000320: ac1e 43be bf30 37be 31eb 743e 7f45 83bc
00000330: b2b5 80bd cb07 843e 71eb c63d d1e2 9a3d
00000340: a9f8 0d3d 6552 8d3e ff80 45bc 3d8b 023e
00000350: 82bf 713e 852f d7bd 356f d63d 2fd3 c53e
00000360: ac75 fd3c 0c44 a13d 63be c33d 6a4c 6cbe
00000370: d016 dabd e13c ef3d fcb8 1dbe 5468 5fbe
00000380: 537a 41be fd61 69be fb77 7b3e c39d 0b3e
00000390: d62c 25be 9288 6cbd ddaf 02bd cec5 0f3e
000003a0: 5533 633e 1144 3cbe e0b5 dbbd ef26 bebd
000003b0: d74f d8bc 2811 0dbe 72e8 b5bd 8514 68be
000003c0: 3ea4 2b3e 4555 fcbd 3306 243e 96ff 70bd
000003d0: c384 c0bd 0fc3 5d3e 799b 523d 1905 5ebd
000003e0: 0b17 433e fa50 913d 4942 363d 805e 6f3e
000003f0: 11d8 393e 9e58 32be efd0 0b3d 5e7b 1bbe
-0.010913471 -0.225598 -0.12909141 -0.12999915 0.022334974 -0.07296475 0.24121979 0.018615358
-0.118311 -0.050114375 0.06345414 -0.24440712 -0.12959479 0.035875957 0.24923263 0.19319198
0.13820776 0.21643904 -0.0875573 0.13498741 0.036106374 -0.049036488 0.22388367 0.37286517
0.14624675 0.17481531 0.08939006 -0.074754275 -0.0649721 0.18713441 -0.032584008 -0.05853772
-0.06067549 -0.018996514 0.2576767 0.16171412 -0.13810404 -0.2536554 -0.21988653 0.18747048
0.13207407 -0.07435805 -0.21322754 -0.06325532 -0.1070758 -0.057044677 -0.17431022 -0.18206102
0.25227186 -0.12670185 0.055623807 -0.23277912 -0.044497866 0.119792394 0.09715599 -0.029679434
0.058318827 0.0780928 0.10548896 0.12623367 0.15346903 -0.15705213 0.20574625 -0.12174835
-0.1820417 -0.2077973 -0.22715223 -0.17783809 0.08325685 0.017428976 0.048299443 -0.21008503
-0.02288517 -0.047991317 0.15685613 -0.14868534 -0.21250522 0.18937446 0.08622606 0.17963743
0.11322727 0.19211219 -0.015400416 0.052537844 0.014461652 -0.18659224 0.13248602 0.17313962
0.013608959 0.22640912 0.09110339 -0.21913074 -0.06325789 0.1952879 -0.12066792 -0.23962307
-0.07234621 -0.19515058 0.08422729 0.12264912 -0.027692137 -0.25809112 -0.20603548 0.04071088
0.11325306 -0.050029915 -0.08997132 -0.18400384 -0.24246268 -0.20241642 -0.19833188 -0.20972186
0.049171336 -0.11877084 0.15365465 -0.24091838 -0.1215948 0.1481321 0.21565843 -0.039198376
0.12879698 0.13477498 0.045677006 0.04814527 0.032890644 -0.22835286 0.20145078 -0.07123145
-0.0066853003 -0.057407178 -0.08839549 -0.22314672 0.13979517 -0.014506708 0.16521883 -0.0707315
-0.11194861 -0.09821067 0.020024713 -0.06379818 -0.19764921 0.035821985 0.0361041 0.21749984
0.12112531 0.08219609 -0.044127934 0.2299246 0.11844993 -0.029479394 0.17690416 0.1816977
0.15988079 0.28356332 0.2235479 -0.14683864 -0.15795231 0.05122233 -0.24530788 -0.006959726
-0.22759017 -0.15177016 0.1999432 0.2135034 -0.08215281 -0.25411862 -0.05329309 0.24426205
0.3184213 -0.191491 -0.17050359 -0.2227952 -0.072434045 -0.031824395 -0.055232782 -0.18842842
0.15834798 -0.17491482 0.054123424 -0.10663419 -0.09713201 0.09599995 0.1452631 -0.04331883
0.2598764 0.03857607 0.03263818 0.18713498 0.13502993 -0.04570082 0.0043406156 -0.22101417
-0.016294202 -0.025553845 -0.024511939 -0.19760507 0.019872477 0.009892915 0.120663956 -0.10448416
-0.19054669 -0.17889689 0.23917843 -0.01602435 -0.06284656 0.25787196 0.09712876 0.07562793
0.03466097 0.27601925 -0.012054681 0.12748428 0.2360821 -0.105071105 0.1047043 0.38637683
0.0309399 0.07874307 0.09557798 -0.23076025 -0.106488824 0.116815336 -0.15402597 -0.21817142
-0.18894319 -0.22791286 0.24557488 0.136344 -0.16130385 -0.05774743 -0.031905998 0.140403
0.2218755 -0.1838534 -0.10728049 -0.0928477 -0.026405258 -0.13776076 -0.08882226 -0.22664078
0.16761872 -0.12320951 0.1601799 -0.058837496 -0.09400322 0.2165644 0.0514178 -0.05420408
0.19051759 0.07095523 0.04449681 0.23375893 0.18148829 -0.17416617 0.0341348 -0.1518378

fc_net.2.bias f4 [64]
00000000: a739 1bbe 315d 2cbe 9223 9bbd b8d2 3fbe
00000010: 2fec 51be 0e52 3fbe 01fb 5e3e de81 1cbe
00000020: b850 543e 8227 9bbc ce5f 0cbd d30a 98bd
00000030: 6458 083d 357d 17be 1b5d 113e cc30 223e
00000040: c2cf 0f3e 8149 4a3e d281 e83d 34c1 a6bd
00000050: 6920 f2bd c30a aebd e3af a73d 5f51 503e
00000060: 0a45 143c adea 16bd 34cc 74be 9db4 f13d
00000070: d2b5 b3bd c28f 843c a1f7 e1bd 518a 6fbd
00000080: b323 ffbd 6327 4ebd 5f06 12be 38af 08bd
00000090: 1228 1bbe da7b 223c 1153 79bd 2e64 143d
000000a0: 9432 603d b0a3 84bd 7b42 f83d d196 953c
000000b0: f867 9cbd b016 323d e75a 4b3e c4ba 203d
000000c0: 8241 073d 4eff 1dbe b849 4fbe ac00 f73d
000000d0: 6ff9 8d3d 81c8 f63d 00b4 03be 7569 db3b
000000e0: 483a c9bd b05a 0fbe 3e87 573d 8521 4f3e
000000f0: 70e6 04be 34b7 da3d 39a3 123e 50c9 533e
-0.15158711 -0.16832425 -0.07575144 -0.18732727 -0.20500253 -0.18683645 0.21775438 -0.15283915
0.20733917 -0.018939737 -0.034271054 -0.074239396 0.03328742 -0.14793856 0.14195673 0.15838927
0.14044097 0.19754602 0.11352886 -0.08142319 -0.11822588 -0.084981464 0.081878446 0.2034354
0.009049663 -0.036844898 -0.23906022 0.118020274 -0.08774914 0.01618183 -0.110335596 -0.05848152
-0.12457981 -0.05033053 -0.14260243 -0.033370227 -0.15152004 0.009917224 -0.060870234 0.03622835
0.054735735 -0.064765334 0.12122055 0.018260391 -0.07637018 0.043478668 0.19858895 0.039240614
0.033021457 -0.15429422 -0.20242965 0.12060675 0.06932341 0.12049962 -0.12861633 0.006695921
-0.098255694 -0.13999438 0.05261921 0.2022763 -0.1297853 0.106794745 0.14320077 0.20682263

value_head.weight f4 [1, 64]
00000000: 6846 24be d951 7abe c3b0 4bbe f851 25be
00000010: a29d 17be e59d 71be f6e6 053e fb7e 67be
00000020: 9738 e13d a88c b43d d1b0 2fbe 487b dbbd
00000030: 7632 213e 0b2f 07be e5e1 323e 7b10 a93d
00000040: 84c4 ee3d 58f5 133e 4ae9 bb3d af67 5fbe
00000050: e274 57be e7ce 39be fdba 373e 22fb 153e
00000060: dc4a 833d 1203 d23d 4fbd fdbd e6da 963d
00000070: 03b9 f0bd d39a 1e3d 994e 69be 8c41 3fbe
00000080: d24c 64be 461f 63be 0fa6 17be bcb3 39be
00000090: fd0a 0abe 32ff f73d 29cc 4bbe eae4 27be
000000a0: bf22 f73d 0e2f 10be 9e8c 253e 2299 f0bd
000000b0: 3d7a 78be b8aa 853d cfae 413e 7b00 39be
000000c0: 2f17 8e3d 2175 7bbe ff20 39be b7a2 e93d
000000d0: 5bd3 d13d 7bd3 133e e439 03be ecd6 143e
000000e0: b2cb 43be e955 6dbe 3d98 8c3d 5446 3d3e
000000f0: affe 65be 4205 f33d 514d 2f3e d0e5 043e
-0.16042483 -0.24445285 -0.19891648 -0.1614455 -0.14806226 -0.23595388 0.13076386 -0.22607033
0.10997122 0.088158906 -0.17157294 -0.107168734 0.15741906 -0.13201539 0.17468984 0.082550965
0.11658576 0.1444906 0.09175356 -0.21816896 -0.21040681 -0.18145333 0.17942424 0.14646581
0.06410763 0.10254492 -0.123896234 0.0736597 -0.11754038 0.03872187 -0.22783889 -0.18677348
-0.2229493 -0.22179899 -0.1480944 -0.1813497 -0.13480754 0.121092215 -0.199021 -0.16395918
0.12067174 -0.1408045 0.16166922 -0.11747958 -0.2426538 0.06526703 0.1891434 -0.1806659
0.06938016 -0.245564 -0.18078993 0.114079885 0.10245391 0.14436142 -0.12815052 0.14535111
-0.19120672 -0.23177303 0.06864975 0.1848386 -0.22460435 0.11866237 0.17119338 0.12978292
