output/4-agents_domain-CoinGame-4_MATE-TD-T0.25_2022-08-08-10-55-02/actor_net_1.pth (torch, 45463 bytes, 6 tensors)

fc_net.0.weight f4 [64, 100]
00000000: 8d1e 12be 1d96 dabc f92f 97bd 8c9e 903d
00000010: 2ab5 213e 79d7 cbbd 8a62 78be 39c2 4ebe
00000020: 6cd7 f23c 9a36 f63d b9bc f4bd b568 11be
00000030: 3226 fdbd d377 c23d aaf3 473e db40 e13c
00000040: 6250 863c 4ce7 943a 4656 d63d 978d 423e
00000050: d2a1 7fbd 36e1 69bd 3ad5 47bc 82de 44bc
00000060: 5b17 0a3e 7874 0abe 11d5 7cbd 1cfe 003d
00000070: ea5a 703d 16e5 3c3d 9b5f ec3b 6449 843c
00000080: f893 093d 6c50 1c3d 2db2 b23d 0043 99bd
00000090: 8491 86bd 2f91 71bd b4a3 13bd d693 07bc
000000a0: 877e f5bc 143f 25bd d506 8c3d d3c5 183d
000000b0: 054d 243d ff19 6b3d 17cb 0a3d 097b 94bd
000000c0: e0ba 52bd 16c4 c2bb 5692 cd3e 350e bc3e
000000d0: 5776 643d 063e 33bd 0e99 0bbe bc87 b2bd
000000e0: 03cc 943e 81ad 8d3d cefd e33d 324d 39be
000000f0: 3f5e 16be 0a32 883c 9902 3b3e 0f9f cdbc
00000100: d0db b6bd 67c3 46bd 8a8b 2fbe f2ab d03d
00000110: 74db 7cbd eae6 87be f55b dcbc 8267 03bb
00000120: 3664 e23d 1954 cebb 3b56 59be 4fe4 ac3e
00000130: 5d49 843d 7e0b 6a3e 794d 02bd 9091 e4bd
00000140: 9021 fcbd 7b64 6c3d 44f9 fb3d 0419 cd3d
00000150: 4835 c1bc 7dbe a43d 037c bcbd b2d7 f9bc
00000160: 4ae3 823c 8edb e1bd 8117 8e3d 2a0a 14ba
00000170: 4437 0f3e e4fd 393d 0124 86be c33c 383d
00000180: dc2b 1c3d bbf1 0f3b 7b29 d8ba 8cd5 8cbe
00000190: e6c6 15be f617 4abe b60a 1bbe 0867 95bd
000001a0: e395 053e dd27 afbd 43c4 88be 13fb 00be
000001b0: 36df be3d 26a0 ee3d e65d 8fbd 27bd 2fbe
000001c0: c56f dabc a55d e73d 9b6f 893e 356a 7a3c
000001d0: 6396 07bc 3871 c3bc c809 623c ba2a 853e
000001e0: d8ef 9a3d 4d7f 00be 704e 04bd dc3c 593c
000001f0: d5b0 8a3e 07d2 ee3c 58ea b73c 6299 0c3d
00000200: 060a 9f3c 73af 14bd ebd7 993d 93d2 4e3c
00000210: 33cc 33bd a281 cd3d 9057 373d 6fcb 7f3d
00000220: 72af 95bd 8c68 2dbd d8c6 0d3d 0d12 86bd
00000230: c9e7 7abd d155 953d 7d27 cf3d 927c 5ebc
00000240: 477f f63c 945d 513d c7ab 993b aa8d 73bc
00000250: 5b69 2d3d 4cf5 023e 6950 a43e 75f4 b73e
00000260: 731a 243e fe22 97bb 4de9 a23b ad9e e3bd
00000270: 0ea8 6e3e 46d8 553e 430c e13d cabf 0cbe
00000280: 36c0 85bd 77ed 7abd 2010 2d3e c17d 233d
00000290: 508b 65be e459 10bd 4a8f 40bd 66ec 2e3e
000002a0: d9a9 debd cd59 b3bd 1bd8 85bd f72d 6abd
000002b0: 1c91 b93d d3f8 2ebd bd38 83bd 138e 103e
000002c0: 7fcd 85bd b1e6 353e 23dc 983d 3fe4 f4bb
000002d0: d9f2 69be d1eb d3bd 8451 6d3e 4820 2c3d
000002e0: fe4a 2bbe d930 793d 98c3 11be 96e3 113e
000002f0: 3290 19bd edfd 7abe 0001 d1bc 3351 a13c
00000300: 87c7 863d a049 e53d 7cd1 38bd c5ab 13be
00000310: b4e5 2dbd 5a65 483e aae4 00be 0891 71be
00000320: 9981 1b3e 4700 ad3e 010d 3e3e 9652 8c3d
00000330: 2c31 1dbe 5b3a 3ebd 9873 943e 98f6 bb3d
00000340: 7b61 32bc 5d01 21be 3aaf 573d e820 4a3e
00000350: 1e21 7c3d 4642 15be 944f 90be 8752 a1bc
00000360: a4dc bc3d d22e fd3c f64c 5cbd 3741 67be
00000370: 3d52 01bd 1f69 ba3d 53d5 333d 38a0 82bd
00000380: eeb5 a9be 870c 24bd 4404 19bd 9784 debd
00000390: 4916 113d b81f 5cbd 0578 8dbd d3f9 603c
000003a0: edfa 97bc 975d 9fbd 219a 1e3d b291 773c
000003b0: 5dbd b13c 38f4 c539 14f0 a6bd 14c5 64bd
000003c0: ad09 383d 2b3c bbb9 48a6 76bc 4ab6 91bd
000003d0: a486 6b3d 04be 06be 7f05 843c 7382 afbd
000003e0: b902 83bd 611e a63c bd72 24be 9e3f 9ebe
000003f0: e94f 89be 1ad1 20be 7f04 263c f729 813e
-0.14269467 -0.026682908 -0.07382197 0.070614904 0.15791765 -0.099532075 -0.2425634 -0.20191278
0.029643737 0.12022133 -0.119500585 -0.14200099 -0.12360801 0.09495511 0.19526544 0.027496746
0.016395751 0.0011360436 0.10465674 0.18999325 -0.062410183 -0.057099544 -0.012196833 -0.012015941
0.13485472 -0.13520992 -0.061726633 0.031492338 0.058680452 0.04611691 0.0072135455 0.016148277
0.03358838 0.038162634 0.087253906 -0.07483482 -0.06570724 -0.05897635 -0.03604479 -0.008274993
-0.02996756 -0.04034336 0.068372406 0.037298035 0.040112514 0.05739784 0.033885088 -0.072500296
-0.05144775 -0.0059437854 0.40150708 0.3672959 0.05577692 -0.043760322 -0.13632604 -0.087172955
0.290619 0.06917859 0.11132394 -0.18095854 -0.1468439 0.016625423 0.1826271 -0.02510026
-0.08928645 -0.048526194 -0.17143074 0.10189046 -0.061732724 -0.2654336 -0.026899317 -0.002005071
0.1105427 -0.0062966463 -0.212243 0.33767936 0.064593054 0.22855946 -0.031812165 -0.11160576
-0.12311089 0.057713013 0.12303403 0.10014537 -0.023584977 0.08044145 -0.09203341 -0.03049836
0.01597752 -0.11028205 0.06938077 -0.00056472665 0.13985926 0.045408145 -0.26199344 0.044979822
0.038127765 0.002196415 -0.0016491854 -0.27506673 -0.14626655 -0.19735703 -0.15140805 -0.07295042
0.13045458 -0.08552525 -0.26712236 -0.12595777 0.09319918 0.1165164 -0.070003316 -0.17162
-0.026664624 0.11297158 0.2684296 0.015284111 -0.008275601 -0.023857698 0.013796277 0.2600916
0.07565278 -0.12548561 -0.032301366 0.013259139 0.27088037 0.029152883 0.022450611 0.034325965
0.01941396 -0.036300134 0.07511886 0.012623447 -0.04389591 0.10034491 0.04476124 0.06244987
-0.07308854 -0.04233603 0.03461346 -0.06546412 -0.061256204 0.07291759 0.10114954 -0.013579505
0.030089987 0.051114634 0.004689667 -0.014865318 0.042336803 0.12788886 0.32092598 0.35928693
0.16025715 -0.0046123257 0.0049716593 -0.111142494 0.23306295 0.20883283 0.10988667 -0.13745037
-0.06530802 -0.06126162 0.16900682 0.03991485 -0.22416425 -0.035241976 -0.04701165 0.17082366
-0.108722396 -0.087573625 -0.065353595 -0.05717274 0.090608805 -0.042717766 -0.06407306 0.14116697
-0.06533336 0.17763783 0.07463863 -0.007473498 -0.22846545 -0.10347713 0.23175627 0.042022973
-0.16727826 0.0608376 -0.1423477 0.14246973 -0.03749103 -0.24510927 -0.025513172 0.01969204
0.065810256 0.111956835 -0.045121655 -0.14420994 -0.04245539 0.19569913 -0.12587228 -0.23590481
0.15186156 0.33789274 0.18559648 0.068516895 -0.15350789 -0.04644237 0.2899444 0.091778934
-0.010887499 -0.15723176 0.052657343 0.19739115 0.06155502 -0.14576063 -0.28185713 -0.019692672
0.09221771 0.030906115 -0.053784333 -0.22583471 -0.03157257 0.091020815 0.043904614 -0.063782156
-0.33146614 -0.04005101 -0.037357584 -0.10865133 0.035421643 -0.053741187 -0.069076575 0.013731438
-0.018552268 -0.07781523 0.038721208 0.01511042 0.02169674 0.00037756725 -0.0815126 -0.05585201
0.044931103 -0.00035712248 -0.015054293 -0.07114847 0.05750145 -0.13158423 0.016115902 -0.08569803
-0.06397004 0.020278158 -0.16059394 -0.3090791 -0.2681878 -0.15704766 0.010132908 0.2522733

fc_net.0.bias f4 [64]
00000000: 47a0 973c 6e71 14bd 145d 9e3d 94c7 a33c
00000010: 06ee 9e3c a572 563d cde3 083d 6454 88bd
00000020: 4c25 e93d 7a57 a03d 7b34 313d 2980 a23d
00000030: 71d0 ad3d e7fd d13d c8f1 0cbd 1dac 583d
00000040: d9f7 e53d 4f90 88bc ff51 a03d b58f 533d
00000050: af6e a43d 5196 093d b6d0 e13d 832d ec3d
00000060: 94a8 b7bd bd55 723d bb0b e53b 4abb 83bc
00000070: 6651 fabc a19f 283c 1141 703d 405e d23d
00000080: bf7e 2e3c 4d85 f13d 404d aabd 5719 73bd
00000090: a5dc 473d 5502 8b3c 1d50 ca3d 5bd1 433d
000000a0: e7d6 12bd bfe4 b2ba 8adf 8dbd 7a99 a43d
000000b0: 1a96 603d b77d 80bd c5b9 963b b40a a7bc
000000c0: 0bda 663d 5777 ba3d a5f8 db3d 8c46 bd3d
000000d0: 27f2 e83d 2b0f 3f3d eeef 263c 1781 4cbc
000000e0: 168d 003d 1f87 34bb 374c dfbb 3752 1d3d
000000f0: b0f6 65bd c33f 87bd 1269 bb3d 39c7 8a3d
0.018509043 -0.036240987 0.07732597 0.019992627 0.019400608 0.052355427 0.033420373 -0.06656721
0.11384067 0.07829185 0.04326294 0.07934601 0.08487023 0.10253506 -0.034410268 0.052898515
0.11228914 -0.016670374 0.078281395 0.05165072 0.08028924 0.03359062 0.110261366 0.11532118
-0.089677006 0.059163798 0.006989924 -0.016080517 -0.030556392 0.010291965 0.058655802 0.10271883
0.010650336 0.11793003 -0.083155155 -0.059350338 0.048794407 0.016968885 0.09878562 0.04780708
-0.035849478 -0.0013648494 -0.06927402 0.08037086 0.054830648 -0.06273978 0.004599782 -0.020390846
0.056360286 0.091047935 0.107407846 0.092419714 0.11374312 0.046645325 0.01018904 -0.012481949
0.03138455 -0.0027546359 -0.0068145054 0.038408484 -0.056143463 -0.066039585 0.091509 0.0677628

fc_net.2.weight f4 [64, 64]
00000000: b906 8a3e e3f3 923e 50fb a0bc 1610 90be
00000010: 9a0d 463e 80aa cfbb 5ce0 3bbe 935d 61be
00000020: 1829 cabb b2dd d5bc 56ba dc3d e196 3abe
00000030: a77d 99be 02dd 9dbd 7f13 583e 94df b43d
00000040: f2e2 093e c6b8 643e aa1a 61be 5b04 e6bd
00000050: 7d0c 3b3e 8c17 1bbe 8205 78be 4c54 7a3e
00000060: 41f7 9bbd ab98 003e 77b6 413e afb0 37be
00000070: b95f 01be 1bc4 47be 13cb 8e3e 367a 9d3e
00000080: afde b7bd 288e b73c c452 d3bd 3e72 c6bd
00000090: cb26 bebd dd67 2ebc b760 11be 2fe1 32bc
000000a0: 5a61 4dbe d8bf 9cbe 5ba9 a23d 13bd 81be
000000b0: d8a6 333e f618 bbbd cc29 753e 0c90 8a3d
000000c0: 3137 0cbe 98cd 1d3e d3b5 a03c e442 41be
000000d0: cd8e 2ebe 0538 093d 1303 13be c1bd 6b3d
000000e0: e175 96bd 59e3 843e 78f0 5ebe 6374 e83d
000000f0: 50a8 8fbd 20f0 8a3e 320c 30be 658b 2bbe
00000100: f1e6 56be b4bc e9bd cccb 833e f30c 283e
00000110: f1f5 35be 3898 9e3c 7b7c 9b3e ad97 de3d
00000120: 8512 3dbc 8c14 8e3d ab13 35be ce1d 923e
00000130: d318 9d3e 90bb de3c 5fa8 1cbe 8571 21be
00000140: 86b8 80be 0296 18bd 6496 323e a744 7a3e
00000150: 296f 22be 399e f23d acfa d33d 2f7c 8e3d
00000160: f4aa b0bd 5475 18bc 8223 82bd a04b 693e
00000170: c373 7cbd c04f ab3d 6011 b6be 3365 59be
00000180: d07e 563c fc14 3fbe 6906 bc3d d091 6a3e
00000190: eb10 253e a683 3e3d e303 943e 177e 4abc
000001a0: 29cd 663e 361f 263e 74b9 a8bd 91ca 793e
000001b0: 0b10 eabd ec69 4e3e e222 6dbd 6d2a 6ebe
000001c0: be2a 7e3c 6fa7 05be e76d 09bb 5fa7 b73e
000001d0: 214b 703e 8e20 21be a16a c13d d913 eabd
000001e0: cf9d 3e3e e376 96be fc78 1d3e 7f8b 29be
000001f0: 202b 4c3c 5ee2 afb9 f19f 033e 2bd8 5f3e
00000200: 6099 31bd 380d e2bd 68e2 be3d 8ae1 7a3e
00000210: 7482 4bbd c8aa debd daac 163d 0e7b 033d
00000220: 5957 80be 7426 97bd d719 ad3e 260d b53d
00000230: 2bf7 3c3e a515 b7bd b84c 05be 3602 dfbc
00000240: 221e 113e 663b 81be cae0 263e 757c b43d
00000250: 3346 19be e99c 9fbd 2199 5bbc a80e 15be
00000260: 84db 0b3e 2b24 213e c727 003d 8ac8 c8bd
00000270: ddd1 113e 88d8 0b3d 7ade f3bb 3019 20be
00000280: cdff 863d 6b03 4fbe 346a 02bd fb3c ef3d
00000290: c06e 01be ab20 a83d 4249 793d 6a98 a7bb
000002a0: 8961 2f3e 7c1c 56bd 323c 793e 8307 a93c
000002b0: 1d20 5ebe 2896 6a3d 1110 d23d bd3e 2dbc
000002c0: a834 763d b212 04be 3c45 7e3d a5eb 9f3c
000002d0: fea1 0abe 2f7d 43bd a435 a6bd 4448 6fbe
000002e0: 38f4 60be a971 a7bd 5e2d 08bd dd8f 8e3e
000002f0: 8d3a 5c3d d718 abbd 3761 523d 9499 d43d
00000300: 3aa5 4dbe 2abf f3bd 2417 e93c 49a9 053c
00000310: 9234 92be 6421 a1bd 52f2 6b3d 41f7 393e
00000320: 21e7 563c 7413 bc3c 0e87 ebbd da1d 353e
00000330: 0d13 3a3e 7797 333e 6fda 3ebe e38e 46be
00000340: 071b 2ebe d8e4 34be bdea 583d 6a55 993e
00000350: 31f8 06be 6c32 153e c867 2f3e 719b a2bc
00000360: b524 04be 4760 89bd 8749 13be c4d1 3a3e
00000370: 1ea2 953c 13bd dd3d b281 12be eb53 8dbe
00000380: 0ace 6a3e c290 33be c280 9a3d 4218 363e
00000390: 6faa 2c3e 8ab2 143e a95d 693e 6f87 84bd
000003a0: 7e1f 883d 1842 9b3e 7515 2cbe 67a4 193e
000003b0: 8551 933c 3518 ea3d 9462 52be fb22 cfbd
000003c0: 7352 ab3d ceba f6bd 2f82 0f3e ece3 823e
000003d0: 23ed 9d3e dfcf 58bd ff4c 263e 740c 31be
000003e0: 3b96 283e f1b7 e5bd 7d9b 963d 935d 18be
000003f0: 5ee6 e83d 0eda 0bbe 8d6f eebc ba93 3b3d
0.26958254 0.28701696 -0.019651085 -0.28137273 0.19341126 -0.006337464 -0.18347305 -0.22008352
-0.0061694495 -0.02610669 0.10777728 -0.18221618 -0.29978678 -0.077081695 0.21101187 0.08831707
0.13465479 0.2233611 -0.21982828 -0.112312995 0.18266483 -0.15145701 -0.24220851 0.24446219
-0.07615519 0.12558238 0.18917261 -0.17938493 -0.12634172 -0.19508402 0.27889308 0.30757302
-0.089780204 0.022406653 -0.10318521 -0.09689759 -0.09284743 -0.01064488 -0.1419705 -0.010917946
-0.20056668 -0.30615115 0.07942458 -0.25339565 0.17544115 -0.0913562 0.23941725 0.06765756
-0.13692929 0.15410459 0.01961795 -0.18873173 -0.17046662 0.03350069 -0.14356641 0.05755401
-0.07346702 0.25954702 -0.21771419 0.11350324 -0.07014525 0.27136326 -0.17192152 -0.16752394
-0.20986535 -0.114129454 0.25741422 0.1641119 -0.177696 0.019359693 0.3036841 0.108687736
-0.01154006 0.06937513 -0.17683284 0.28538364 0.30683002 0.027189046 -0.15298603 -0.1576596
-0.2514078 -0.037252434 0.17440182 0.24440251 -0.15862717 0.11846585 0.10350546 0.0695728
-0.08626357 -0.009305317 -0.06354429 0.22782755 -0.061633836 0.083648205 -0.3556013 -0.2123001
0.013091758 -0.18660349 0.0918091 0.22907186 0.16119735 0.04651227 0.28909215 -0.012359164
0.225392 0.16222844 -0.082384974 0.24393679 -0.11428841 0.20157593 -0.057894595 -0.23258372
0.01551312 -0.13052152 -0.0020970048 0.35869882 0.2346616 -0.15735075 0.09444166 -0.11429567
0.18614887 -0.29387578 0.15378183 -0.1655712 0.012461454 -0.00033547258 0.12853982 0.21859805
-0.04335916 -0.110376775 0.09320527 0.24500099 -0.049684957 -0.10872418 0.036785938 0.032099776
-0.2506664 -0.07380381 0.33808777 0.088403985 0.18453662 -0.08939675 -0.13017547 -0.027222734
0.14171651 -0.2524063 0.16296688 0.08812801 -0.14968185 -0.077936 -0.013403208 -0.14556372
0.13657957 0.15736453 0.031287935 -0.09803875 0.14240213 0.034142047 -0.0074422928 -0.15634608
0.06591759 -0.20216148 -0.031839564 0.11681553 -0.12639904 0.08209356 0.06086088 -0.0051146047
0.1712705 -0.05227326 0.24339369 0.020633465 -0.21691938 0.057272106 0.10256971 -0.01057404
0.06010881 -0.12897757 0.062077746 0.019521544 -0.13538358 -0.047726806 -0.081157 -0.23367411
-0.21968162 -0.08175976 -0.03324639 0.27844134 0.053766776 -0.08354347 0.051362243 0.10380855
-0.2008256 -0.11901696 0.028453417 0.0081580365 -0.28555733 -0.07867697 0.05760414 0.18160726
0.013116629 0.022958495 -0.11500369 0.17687169 0.1817133 0.17538248 -0.18638013 -0.19390444
-0.17002498 -0.17665422 0.05295824 0.29947978 -0.13180615 0.14570016 0.17129433 -0.01984951
-0.12904628 -0.067078166 -0.14383517 0.18244082 0.01826578 0.10827079 -0.14307287 -0.27603087
0.2293016 -0.1753569 0.0754409 0.17782691 0.1686189 0.14521232 0.22789635 -0.064711444
0.06646632 0.30323863 -0.1680506 0.15004121 0.017983207 0.114303984 -0.20545417 -0.10114094
0.08365335 -0.12047349 0.14014505 0.25564516 0.30844983 -0.052932616 0.16240309 -0.17289907
0.16463558 -0.11216725 0.07353876 -0.14879446 0.11372064 -0.136574 -0.029105926 0.04579518

fc_net.2.bias f4 [64]
00000000: 7a8a 7a3d ca9f 823d 1836 dcbc e6f6 203d
00000010: a2ec ef3d 17f7 07bd 0214 12bd a3f2 fb3d
00000020: 730f 723d 8970 c13d 285b 223e 9a3b f33d
00000030: d476 d23a b926 eb3d 0644 fdbc 1f65 e33d
00000040: b188 e0bc 7660 5dbd 8206 ff3c da45 adbd
00000050: b6c3 e4bd 73db f63b 4a3c 173d a4d7 973d
00000060: da68 883c cfdb 7abd 6251 19bd 021a 49bd
00000070: ea95 65bd 5266 063d 63ec 00be 004a 243d
00000080: f5c8 d3bc 4968 693d 4e1b 123c 5ee7 adbd
00000090: 7008 963d fbaf f93d 1c68 803d 17c4 dabc
000000a0: 1db9 a7bd a5bb 1e3e d9b2 d13d ca77 a73c
000000b0: 3d0d 49bd 73a9 81bc 5fac 58bd 3775 e43d
000000c0: 8dd1 bc3c b52a 2ebd 77d0 083e 60a6 f7bd
000000d0: f096 29be eae1 213c f9e3 253e 3f07 24bd
000000e0: 2fcd 66bd 26cc 7e3d 6f4a 7a3c 1619 ec3d
000000f0: 973a 293e 86e1 bc3c d62e 9abb 6cf7 443d
0.061167218 0.063781336 -0.026881263 0.03929796 0.11715056 -0.033194628 -0.035663612 0.12302139
0.059096765 0.094452925 0.15855086 0.118766025 0.0016057142 0.11481995 -0.030916225 0.11103272
-0.02740893 -0.05404707 0.031131033 -0.08460589 -0.111701414 0.0075334846 0.03692273 0.07414177
0.01665156 -0.061244782 -0.03743113 -0.04909707 -0.056051172 0.032812424 -0.12590174 0.040109634
-0.02585266 0.05698422 0.008917643 -0.084913954 0.07325828 0.12191769 0.06269857 -0.026704831
-0.081896044 0.15501268 0.102391906 0.020442862 -0.04908489 -0.01582787 -0.05289876 0.111551695
0.02304914 -0.042521197 0.13360773 -0.120922804 -0.16561484 0.009880522 0.16200246 -0.040045973
-0.056348022 0.06220641 0.015276535 0.11528222 0.16526257 0.023056757 -0.0047052903 0.048087522

action_head.weight f4 [4, 64]
00000000: 8f17 9dbe 2341 523e 58cb 9b3b 0ea1 d43e
00000010: 4ba2 293e ac47 493e e4d6 ebbe 5c5a b0be
00000020: 33a8 71be 4449 ab3e 1116 533d f8bb 873e
00000030: 70d4 a63e 5829 96be 726e c63e fd21 92be
00000040: 9d45 293d 3137 bdbd 3f26 893e e861 2e3e
00000050: e57d a5bd 3364 85be f49e 5c3e 97c8 a1be
00000060: bdc4 dd3e b329 b03e 93ae 84be 4b77 1a3e
00000070: 291b 723e f4f0 a8be 6238 353e 3b3b e93d
00000080: 3576 68be b694 a7bd 9a7c b33e bae3 c13e
00000090: e447 8f3e 6568 85be 380a 8e3e 8018 903c
000000a0: dd91 66be 1557 43be 3c73 94be 5439 163d
000000b0: 0e1b 0bbe 4203 73be f6ca a93e a696 2a3e
000000c0: 5364 6b3e c58d debc 2642 ec3d 8653 f6bd
000000d0: e362 94bb eb14 aa3e 83e4 cebe 26a6 3ebd
000000e0: e12e 863e 7168 c8bd e846 723d 3df3 65be
000000f0: 5b44 593e ba27 ac3e ed5f 8d3e 211a bbbe
00000100: e005 893e 4afe 62be 8d0d d23d 15cc c1be
00000110: dca3 62be 1259 0bbe a988 8a3e 85d9 e93d
00000120: 12eb 84bd 1d17 4abe f57a 2abe 679f a7be
00000130: d2dd 7abe 5635 543e b2a5 a1be cc95 913e
00000140: 0b5e c83d a6e9 9cbd 8c6c a6be 0619 acbd
00000150: 69bf b13e 7861 183e 96e7 d3be 02e9 a53e
00000160: 0d22 b4be 1e31 75be df64 9e3e 7827 7abe
00000170: d28f 65be e298 5d3e 0e02 c4bd f5b1 e9bd
00000180: dd24 b83d d724 abbd 85bc 69be 1b31 b8be
00000190: ac8a a9be 2309 453e 2161 e1be cd8f fcbd
000001a0: 3dce a63e c4db 123d 1403 3d3e ee19 d2bd
000001b0: dd45 b63e 64a6 c23e e232 c7be 1e4c 2cbe
000001c0: 6f4c dabe 1c46 9839 b03b 80be ed7d 063d
000001d0: 2dd5 c73d 8a70 52be 7c16 28bd 608f 3cbe
000001e0: aec6 a0be 7758 5dbe fb5d cabe 2b6b bfbd
000001f0: 9048 d6be a69c 50be 83e8 93be 6fe5 ab3e
00000200: ad67 343e 2b8a 1dbe c72e bcbe fd90 77be
00000210: 017f 2ebe 551c b2be eb64 18be c7c3 563e
00000220: 0a99 e43e f6ef f53d b85e bf3e b854 7dbe
00000230: dc07 3d3d 5dd9 95be 802f 403d 2f5f 083e
00000240: f9b9 d8be cc6b 8a3e 5270 133e 4994 84be
00000250: 7074 5d3c 3cc4 983e 1983 f63d 0ab9 433e
00000260: 5b80 3a3b b9d0 b9bd bca0 973e b5f8 0b3e
00000270: 6b9c 46be 4feb dabd a318 98be 753f ef3e
00000280: 10da aa3e 178f d0be 12a7 493e b593 46be
00000290: aeb7 9a3e 07ef 8d3e 47db 963e 7d2b a73e
000002a0: d95b ca3d fa07 b13e ae26 f53d 0935 aabe
000002b0: 7ac0 8fbd 4801 8dbe 7533 18be fed8 bebe
000002c0: d738 9b3e 6b5e b63e f330 63be 905b bc3d
000002d0: 8257 9dbd 5178 de3d 91dd 253e 49af a8be
000002e0: a25d 863d 0683 c73e 8b24 363e a10f 943e
000002f0: f66b d3bc 2e8a 973e c391 b9be 8c76 383e
00000300: f11f 57be ace1 2f3d 5390 2b3e 793a ad3d
00000310: e78f ae3d 0655 0c3e 9a35 563e e5a3 86be
00000320: a77e bdbe 2318 b6bb 7edd bcbe 81fc 923e
00000330: 9cbb 80be 2970 cc3e 1a40 b3bd a93f e1bd
00000340: 5c08 b03e 7a5c 4ebe 3976 9ebd 7a0a 893e
00000350: d0b5 213c a660 7abe 71c0 cabd 9b71 e9bd
00000360: 4165 a63b f1e8 67bd 79fa 9abe 4b5e 75be
00000370: 691c 823e 8e4d 753e 319e 193e 1154 ffbe
00000380: b681 cfbe 523c b13e f329 68be d526 88bd
00000390: 3257 ebbe 6616 94be 7a7a 97be f8cd a2be
000003a0: 6e09 8abe fae7 45be a0eb 1a3e f957 d23e
000003b0: c2d4 f5bd 4ead c63e 676a ee3d ef19 a43e
000003c0: c681 d3be 8d48 61be 479b 823e b0de 99be
000003d0: d394 50be 1f2e 92be e2ee 613e 3aaa c53e
000003e0: e5dd 87bd 43bb d5be 651d 05bd 418c 6abd
000003f0: f106 3bbd 5acb 65be ef37 a03e a680 94be
-0.30682036 0.2053266 0.004754465 0.41529125 0.16565816 0.19656247 -0.46062386 -0.3444394
-0.23599319 0.33454335 0.051534716 0.26510596 0.32583952 -0.29328418 0.38756138 -0.28541556
0.041326154 -0.092390426 0.26786992 0.17029536 -0.08080653 -0.26053008 0.21545011 -0.3159835
0.43314162 0.34406814 -0.2591444 0.15084569 0.23643173 -0.32996333 0.1769729 0.113882504
-0.22701342 -0.08182661 0.35056 0.37869054 0.27984536 -0.2605621 0.2774217 0.017589808
-0.2251658 -0.19076188 -0.28994167 0.036675766 -0.1358454 -0.23731712 0.3316266 0.1665903
0.2298749 -0.02716721 0.11536054 -0.120276496 -0.00452839 0.33219084 -0.40408716 -0.04654517
0.2620764 -0.097855456 0.059149653 -0.2245607 0.21217482 0.3362406 0.27612248 -0.36543372
0.26762295 -0.22167316 0.10256491 -0.37851015 -0.2213282 -0.13608196 0.27057388 0.11418442
-0.064901486 -0.1973538 -0.16648467 -0.32738802 -0.2449868 0.20723471 -0.31571728 0.28434598
0.09783562 -0.076617524 -0.3250469 -0.0840321 0.34716347 0.14880931 -0.41387624 0.32404333
-0.3518223 -0.23944518 0.30936334 -0.24429119 -0.22418144 0.21640351 -0.095707044 -0.11410896
0.08991406 -0.08356636 -0.2282582 -0.35974964 -0.3311361 0.19241767 -0.44019416 -0.12332115
0.32579222 0.035854116 0.18458205 -0.10258852 0.35600176 0.3801757 -0.38906008 -0.16825911
-0.4263644 0.00029043935 -0.25045538 0.032834936 0.09757457 -0.20550743 -0.041037068 -0.18414068
-0.3140158 -0.21615778 -0.39524826 -0.093466125 -0.41852236 -0.20372257 -0.2888833 0.3357348
0.17617674 -0.15384738 -0.36754438 -0.24176402 -0.17040636 -0.3478724 -0.14882247 0.2097312
0.4464801 0.120086595 0.37376952 -0.24739349 0.046150073 -0.29267398 0.0469203 0.1331756
-0.42329386 0.27035367 0.14398316 -0.25894383 0.01351653 0.29837215 0.12036724 0.19113556
0.0028457853 -0.09073014 0.29614818 0.13669093 -0.19395606 -0.10689413 -0.29706296 0.467281
0.33369493 -0.4073417 0.19692639 -0.19392283 0.3021826 0.27721426 0.2946417 0.32650366
0.098808 0.34576398 0.11970268 -0.33243588 -0.07019134 -0.2754004 -0.1486338 -0.37274927
0.30316803 0.3561891 -0.22186641 0.09197152 -0.076827064 0.10862792 0.16197802 -0.32946232
0.06560828 0.3896715 0.17787378 0.28918174 -0.025808316 0.2959761 -0.3624402 0.18013972
-0.21008278 0.042939827 0.16754274 0.084584184 0.08523541 0.13704309 0.20918885 -0.26296917
-0.3701069 -0.0055570765 -0.36887735 0.2870827 -0.25143135 0.3992932 -0.08752461 -0.1099847
0.34381378 -0.20152465 -0.07737393 0.26765805 0.009870008 -0.24450931 -0.098999865 -0.11398622
0.0050779884 -0.056618635 -0.3026922 -0.23961751 0.254123 0.23955366 0.15001751 -0.49868825
-0.4052865 0.34616333 -0.22672252 -0.066480316 -0.45964962 -0.2892334 -0.2958563 -0.31797767
-0.2696032 -0.19326773 0.15128946 0.41082743 -0.12003471 0.38804096 0.116413884 0.32051036
-0.41309947 -0.22000332 0.25509092 -0.3005271 -0.20369272 -0.28550813 0.22063783 0.38606435
-0.0663412 -0.41744432 -0.032498736 -0.057262663 -0.045660917 -0.22440854 0.31292674 -0.290044

action_head.bias f4 [4]
00000000: 340b c33c bb06 1abe e892 a53d 315f 193d
0.023809053 -0.1504163 0.08084661 0.037444297
