output/4-agents_domain-CoinGame-4_MATE-TD-T0.25_2022-08-08-10-55-02/actor_net_2.pth (torch, 45463 bytes, 6 tensors)

fc_net.0.weight f4 [64, 100]
0	0xbe2e0f82	-0.16998103
1	0xbdf6e6a4	-0.1205571
2	0x3dcdb9e9	0.10045225
3	0x3dfeab36	0.12435
4	0x3e4f1ccc	0.20225829
5	0xbdfce495	-0.12348286
6	0xbe1d8a70	-0.15384841
7	0x3da6ea32	0.08150138
8	0x3d71fb9a	0.059077837
9	0x3e325b8b	0.17417733
10	0xbe4cb339	-0.19990243
11	0xbca38330	-0.019960016
12	0x3d3f57fc	0.046714768
13	0xbbc56cd8	-0.006024938
14	0xbcd36e5b	-0.025809458
15	0xbda7833f	-0.0817933
16	0xbd4617c7	-0.04836252
17	0x3e372fd7	0.17889343
18	0x3e6faa3c	0.23404783
19	0xbd682c9d	-0.05668317
20	0x3c46fb77	0.012144915
21	0xbc4f2cc1	-0.0126449475
22	0x3df01886	0.117234275
23	0x3e783de7	0.24242364
24	0xbd362eee	-0.04447835
25	0x3d32d279	0.043657754
26	0x3d01d505	0.031697292
27	0x3debec98	0.11519736
28	0x3ba841f9	0.0051348177
29	0xbc579083	-0.013157013
30	0x3daa8920	0.08326936
31	0xbd65f197	-0.0561386
32	0xbc00ed29	-0.007869043
33	0xbd80eab0	-0.06294763
34	0xbd82e146	-0.06390624
35	0x3d3dd1bf	0.046342608
36	0x3d921ac9	0.07134015
37	0x3d91ec60	0.07125163
38	0xbb777d90	-0.003776405
39	0xbcf13707	-0.029445184
40	0x3dbe17f2	0.09281911
41	0x3d6cdf6d	0.057830263
42	0x3b0b8134	0.0021286728
43	0xbda45b07	-0.080251746
44	0xbde2a042	-0.11065723
45	0x39b684e0	0.00034812745
46	0x3c965c0e	0.018354442
47	0x3dadf5ca	0.08494146
48	0xbd8579ae	-0.06517349
49	0x3dcadef1	0.09905804
50	0x3e03155c	0.12801117
51	0x3e54da32	0.2078636
52	0xbb81a420	-0.003956333
53	0xb99d8aea	-0.00030048873
54	0xbc7a4f6b	-0.015277724
55	0x3e69f336	0.22846684
56	0xbd1fa6a2	-0.038977273
57	0xbdde9ad5	-0.108693756
58	0xbd611084	-0.05494739
59	0x3dd5ddb5	0.10442678
60	0x3d84052c	0.06446299
61	0x3d01db55	0.031703312
62	0xbd8e3487	-0.069436125
63	0x3bfd5cff	0.0077320333
64	0xbdb88355	-0.090094246
65	0x3d89650e	0.06708728
66	0xbc484c64	-0.012225244
67	0xbe098049	-0.13427843
68	0xbca81d30	-0.02052173
69	0xbc806346	-0.015672337
70	0xbd84b3ed	-0.064796306
71	0xbcc57600	-0.024104118
72	0xbe1f0812	-0.15530422
73	0xbe88df34	-0.2673279
74	0x3cecd7c5	0.02891148
75	0x3e04d677	0.12972437
76	0x3e306175	0.17224677
77	0xbda33fbe	-0.07971142
78	0x3e4ade24	0.19811302
79	0x3c87880e	0.016544368
80	0x3e209707	0.15682612
81	0x3d8c550d	0.0685216
82	0x3d44bb44	0.048030153
83	0xbe007b48	-0.12547028
84	0xbcccab98	-0.024984166
85	0x3d2a951f	0.04164612
86	0x3d29d5a1	0.041463498
87	0xbe06256d	-0.13100214
88	0x3e29629c	0.16541523
89	0xbd9e7e6f	-0.07738959
90	0x3dca8241	0.09888125
91	0xbe0bd77f	-0.13656424
92	0xbe1e0b0d	-0.15433903
93	0x3de96212	0.113956586
94	0x3c064db3	0.008197236
95	0xbd752c4a	-0.05985669
96	0xbe17bf32	-0.14819029
97	0xbe7f8936	-0.24954686
98	0x3d2f2f1c	0.042769536
99	0x3dce3e94	0.100705296
100	0x3d16b864	0.036796942
101	0xbdbfdfc3	-0.09368851
102	0xbe8f3cea	-0.2797616
103	0xbe27cbc2	-0.16386321
104	0xbe8aa9a3	-0.27082548
105	0x3e7da494	0.24769813
106	0x3c8f99b6	0.01752935
107	0xbe1f3a0d	-0.15549488
108	0xbdb99dad	-0.090632774
109	0xbe00ce87	-0.12578784
110	0x3e883a96	0.26607198
111	0x3d08939e	0.033343904
112	0xbdda8c9a	-0.10671349
113	0xbdb45016	-0.08804338
114	0xbc656596	-0.014001271
115	0x3eaa78fa	0.33295423
116	0x3e4d17a0	0.20028543
117	0xbd51d659	-0.05122981
118	0xbe79cd81	-0.243948
119	0x3c181e35	0.009284546
120	0x3e6a87b8	0.22903335
121	0x3dbbbc24	0.09166744
122	0xbd4e8739	-0.050421927
123	0xbe03aad4	-0.12858135
124	0xbda9d5d3	-0.08292737
125	0xbd4329b0	-0.04764718
126	0xbc435b58	-0.0119236335
127	0xbda4b55d	-0.08042405
128	0xbdefaa71	-0.11702431
129	0x3d6aac25	0.057293076
130	0xbd8566a2	-0.06513716
131	0xbdcd8a45	-0.100361384
132	0x3d379c0c	0.044826552
133	0x3d6749b1	0.056466762
134	0xbb58a2d2	-0.0033056033
135	0xbcf0b25a	-0.02938192
136	0x3d610fd4	0.054946736
137	0xbd8efb25	-0.06981496
138	0xbda4489c	-0.08021662
139	0xbc84a04e	-0.01618972
140	0xbdb627d8	-0.08894318
141	0x3d40246f	0.046909746
142	0x3d23cad7	0.039988365
143	0x3d9b2819	0.075760074
144	0xbbde85d0	-0.006790854
145	0x3d877ab9	0.06615204
146	0xbe0070f5	-0.1254309
147	0xbc4293e8	-0.011876084
148	0x3c34ebca	0.011042545
149	0xbab2a5e4	-0.0013629762
150	0x3d01f72b	0.03172986
151	0x3d2f3dca	0.042783536
152	0x3e3034b3	0.17207603
153	0xbdcaadcf	-0.098964326
154	0x3e647a26	0.22312221
155	0xbe0054da	-0.12532368
156	0x3d276e00	0.04087639
157	0x3e29b7f5	0.1657408
158	0xbd8fcad1	-0.07021106
159	0xbd4831ad	-0.0488755
160	0xbe874d03	-0.26425943
161	0xbd134eb8	-0.035963744
162	0x3e4d919e	0.2007508
163	0xbdf0c972	-0.11757173
164	0x3e26cf32	0.16289976
165	0xbe89482a	-0.2681287
166	0xbd19b7cf	-0.03752881
167	0x3de9e910	0.11421406
168	0x3d1a1956	0.03762182
169	0x3cdec7ec	0.02719494
170	0xbeb34762	-0.35015398
171	0xbe380461	-0.1797042
172	0x3da53a71	0.080677874
173	0x3d94528c	0.07242307
174	0xbaa79508	-0.0012785504
175	0x3dd782d3	0.105229996
176	0x3d2cce38	0.042188853
177	0x3eac47b9	0.3364847
178	0xbddc6b56	-0.1076266
179	0x3bfd7fe2	0.007736192
180	0xbdc354a2	-0.09537627
181	0x3c195b7f	0.009360193
182	0x3e224089	0.1584493
183	0x3e06a843	0.13150124
184	0x3e16c38d	0.14723034
185	0xbe3861dd	-0.18006082
186	0xbde30747	-0.110853724
187	0x3e652af0	0.2237966
188	0xbd1d194a	-0.038354196
189	0xbd57a2ad	-0.052645374
190	0xbe066d97	-0.13127743
191	0x3d1e85ab	0.038701694
192	0x3d18b803	0.037284862
193	0xbd8106c6	-0.0630012
194	0xbd32a808	-0.04361728
195	0xbe6c28e4	-0.23062474
196	0xbe2c0918	-0.16800344
197	0x3d205ba2	0.039149888
198	0xbda9eb59	-0.08296842
199	0xbd9b6a14	-0.07588592
200	0x3e6ed1f4	0.23322278
201	0x3e5bc0fb	0.21460335
202	0x3e82ce22	0.25547892
203	0x3e853d75	0.2602345
204	0x3c96496d	0.018345559
205	0x3d560a44	0.052255884
206	0x3de224a4	0.11042145
207	0x3e36e177	0.17859446
208	0x3d230fe9	0.039810095
209	0xbe146390	-0.14491105
210	0xbe053ce3	-0.13011508
211	0xbdc7f878	-0.097641885
212	0xbdb170de	-0.08664106
213	0x3cb4993d	0.022045726
214	0x3c616aec	0.013758402
215	0xbd16aed5	-0.036787827
216	0xbe229fee	-0.15881321
217	0xbcca35d0	-0.024683863
218	0xbd3c7773	-0.046012353
219	0xbd950a6f	-0.07277381
220	0xbea7f972	-0.328075
221	0xbe81d423	-0.2535716
222	0xbde2165b	-0.1103942
223	0xbdb3aa4e	-0.087727174
224	0xbdfe6627	-0.12421828
225	0xbd8307c6	-0.06397967
226	0xbda3c281	-0.07996083
227	0x3dc391d8	0.09549302
228	0xbc2e31d3	-0.010631996
229	0xbd981ed1	-0.07427753
230	0x3db1b6a6	0.086774155
231	0xbb84644b	-0.004040276
232	0x3c3da201	0.011574269
233	0xbca52256	-0.020157974
234	0x3d5cd666	0.053915404
235	0xbc8f8d65	-0.017523477
236	0xbd5e0e7b	-0.05421303
237	0x3d660020	0.056152463
238	0xbd2d394b	-0.042290967
239	0x3d354384	0.04425384
240	0x3b1b6a2f	0.0023714413
241	0xbce9acec	-0.028524838
242	0x3d81976c	0.063277096
243	0x3cf437fb	0.02981185
244	0x3d6ddc3e	0.058071367
245	0xbd6ab9da	-0.057306148
246	0x3cca73d9	0.024713444
247	0xbc6df7e3	-0.014524433
248	0xbdac8d8e	-0.08425437
249	0x3d8b7305	0.068090476
250	0xbe030d7f	-0.12798117
251	0xbe27d3ad	-0.16389342
252	0xbd6e00ae	-0.058106117
253	0x3d83d88c	0.064377874
254	0xbd66a429	-0.0563089
255	0xbd0b9c77	-0.034084763

fc_net.0.bias f4 [64]
0	0xbd4d3e0f	-0.05010801
1	0x3d1a8cb8	0.037731856
2	0x3dae114a	0.084993914
3	0xbcd21fb5	-0.025649885
4	0x3c9d4aee	0.019200768
5	0x3d77fd73	0.060544442
6	0xbc6b509a	-0.014362479
7	0xbda17886	-0.07884316
8	0x3d147dd9	0.03625283
9	0xbd8d1436	-0.068886206
10	0x3dce8b73	0.100851916
11	0xbdc1e778	-0.09467977
12	0x3db85882	0.090012565
13	0xbdafa0c1	-0.08575583
14	0x3dc677f5	0.09690849
15	0xbd791e17	-0.06081971
16	0x3b5a1b5b	0.0033280465
17	0x3dde4bb3	0.10854282
18	0x3d8565b1	0.06513537
19	0x3d956c8e	0.07296096
20	0x3db5f024	0.08883694
21	0x3d7663f5	0.06015392
22	0x3d78ba2d	0.060724426
23	0x3d1cd43a	0.038288333
24	0x3d99429f	0.0748341
25	0xbd0c9625	-0.034322876
26	0x3ce7c8a7	0.02829392
27	0xbbbcd89a	-0.0057631256
28	0x3d9f14de	0.07767652
29	0x3c0cd752	0.008596258
30	0x3d53b210	0.051683486
31	0x3d84d043	0.06485035
32	0x3d045b8b	0.032313865
33	0x3ddbf178	0.10739416
34	0xbc992d4c	-0.018698357
35	0x3d5ef24a	0.054430284
36	0xbc93e4da	-0.01805346
37	0x3d9ec8eb	0.07753166
38	0xbda1ca29	-0.07899887
39	0xbd484dc7	-0.0489023
40	0xbce46feb	-0.027885398
41	0x3d3ea468	0.04654351
42	0xbd60d56a	-0.054891028
43	0x3d5210ed	0.051285673
44	0x3d89b661	0.06724239
45	0x3d8785f2	0.06617345
46	0x3dae8737	0.08521884
47	0x3db4b1f8	0.08823007
48	0xbd27e682	-0.040991314
49	0xbca01221	-0.019539895
50	0x3c0465bc	0.008080896
51	0x3d8146cf	0.06312334
52	0x3d015e90	0.031584322
53	0x3d27d1e2	0.040971644
54	0x3d8c1fd4	0.06842008
55	0x3dc63b12	0.096792355
56	0x3d118c11	0.03553397
57	0xbd1c4eea	-0.038161196
58	0xbd20f62d	-0.03929727
59	0x3d11eb72	0.03562493
60	0x3b6dd7ac	0.003629188
61	0x3d80ce6a	0.0628937
62	0x3d752dce	0.059858136
63	0xbd292083	-0.04129077

fc_net.2.weight f4 [64, 64]
0	0x3cdeb57c	0.027186148
1	0xbe582328	-0.21107161
2	0x3d2d5205	0.042314548
3	0x3e0c6d55	0.13713582
4	0xbe315fbf	-0.1732168
5	0xbe57c850	-0.21072507
6	0x3d07ff8f	0.033202704
7	0xbe485e31	-0.19567181
8	0xbeb220ca	-0.3479064
9	0x3e54bb64	0.20774609
10	0x3e8d4d86	0.27598208
11	0xbde2752c	-0.11057505
12	0xbd3f56f0	-0.04671377
13	0xbdc4d6b2	-0.096112624
14	0x3df046f5	0.11732284
15	0xbee99ac3	-0.45625886
16	0xbe93a8c2	-0.2883969
17	0x3e800099	0.25000456
18	0x3e738411	0.23780848
19	0x3dc8d3db	0.09806033
20	0x3e9287d5	0.28619257
21	0xbea94c6c	-0.33066118
22	0x3ea434b7	0.32071468
23	0xbeb26eb5	-0.34850088
24	0x3e61f71a	0.22066918
25	0xbce8a260	-0.028397739
26	0x3f0873c5	0.5330165
27	0x3e7ed4b5	0.24885829
28	0xbe5d8583	-0.21632962
29	0x3df1c4a9	0.11805088
30	0x3ced504d	0.028968954
31	0xbe1a78ed	-0.15085192
32	0xbee04119	-0.43799666
33	0xbc27c095	-0.010238786
34	0x3ddf1942	0.108934894
35	0xbe8b7084	-0.2723428
36	0x3e3223e2	0.173965
37	0x3dc1e3dc	0.09467289
38	0xbe233c38	-0.1594094
39	0xbe830c55	-0.25595346
40	0xbefb1c20	-0.49044895
41	0x3e6666ca	0.22500148
42	0x3c9ff0b7	0.019523961
43	0xbe9324c2	-0.2873898
44	0x3e3a34d3	0.18184213
45	0xbe822a9f	-0.25423142
46	0xbd2a685f	-0.041603442
47	0x3e97b2cf	0.29628608
48	0x3e46d7f0	0.19418311
49	0xbc91e7c4	-0.01781071
50	0xbd334244	-0.043764368
51	0x3eceefd8	0.4041736
52	0x3df7c1c5	0.120975055
53	0x3e1f3347	0.15546905
54	0x3dcc2638	0.09968227
55	0x3e959aaa	0.29219562
56	0x3dc12e7e	0.09432696
57	0xbdea540f	-0.11441814
58	0xbb6e5228	-0.0036364887
59	0xbdf991b3	-0.12185993
60	0x3e6a8a69	0.22904362
61	0xbea9929a	-0.3311966
62	0xbedfa107	-0.43677542
63	0xbe367210	-0.17816949
64	0xbe4a0dda	-0.19731846
65	0x3e3ba265	0.18323667
66	0x3e8698da	0.2628849
67	0xbdb06da5	-0.08614663
68	0x3e81eb6c	0.25374925
69	0x3e76686a	0.24063268
70	0xbdc91d36	-0.09820025
71	0x3e3976db	0.18111746
72	0x3e63f54d	0.22261544
73	0xbe6d4753	-0.2317174
74	0xbe86b0f4	-0.2630688
75	0x3e242f43	0.16033654
76	0xbdb59ed9	-0.088681884
77	0x3d012bad	0.031535793
78	0x3d8b90fc	0.06814763
79	0x3e94c104	0.2905351
80	0x3e4655da	0.19368687
81	0xbe81d0ed	-0.2535471
82	0xbe427f0b	-0.18993776
83	0xbe01f6a5	-0.12691744
84	0xbe780c15	-0.24223359
85	0x3eada0b5	0.33911672
86	0xbead3266	-0.33827513
87	0x3e859f24	0.26097977
88	0xbe927170	-0.2860217
89	0x3d60fd07	0.054928806
90	0xbe9c1834	-0.30487216
91	0xbe0d90bd	-0.13824745
92	0x3e2de3fc	0.169815
93	0x3ced2d57	0.028952284
94	0xbd399dba	-0.045316435
95	0x3e3f81f0	0.18701911
96	0x3f0d9334	0.5530274
97	0x3e11b9ae	0.14230987
98	0x3d37a43c	0.04483436
99	0x3e2c3293	0.16816168
100	0xbdd10fa5	-0.10208062
101	0xbe4f5e55	-0.20250829
102	0xbcd61917	-0.02613501
103	0x3e270732	0.16311339
104	0x3efefe07	0.49803182
105	0xbe21705b	-0.15765516
106	0xba25b74b	-0.0006321563
107	0x3e57932a	0.21052232
108	0x3a845dd9	0.001009877
109	0x3e93818b	0.2880977
110	0x3dc06cae	0.09395729
111	0xbdd861a7	-0.10565501
112	0xbe0db063	-0.13836817
113	0x3da39f1d	0.07989333
114	0xbe51a6ec	-0.20473832
115	0xbdb50bc4	-0.08840135
116	0xbde3a586	-0.111155555
117	0xbea94ca8	-0.33066297
118	0x3d28d432	0.04121799
119	0xbe841a2e	-0.25801224
120	0xbe36f825	-0.17868097
121	0x3dfe2057	0.12408512
122	0x3d2e3ac3	0.04253651
123	0x3e30c082	0.17260936
124	0xbe8bdd0d	-0.27317086
125	0x3e96f576	0.29484147
126	0x3ece76bc	0.40324962
127	0x3e0874f3	0.13325863
128	0x3d90ef44	0.07076886
129	0xbd5bab21	-0.053629998
130	0x3c2347c3	0.00996584
131	0xb8ca32c9	-9.64157e-05
132	0xbe00dea3	-0.12584929
133	0xbd5deee9	-0.05418292
134	0xbdb214aa	-0.086953476
135	0xbddd7032	-0.10812415
136	0xbdb3f96f	-0.0878781
137	0x3e3a59e5	0.18198355
138	0xbdc897dc	-0.0979459
139	0x3b54eb90	0.003248904
140	0xbd00ccbd	-0.031445254
141	0x3bb67364	0.005567955
142	0x3e0cbeaf	0.13744615
143	0xbe12b76c	-0.14327782
144	0x3d4fa229	0.050691757
145	0x3cadb1e5	0.02120299
146	0x3d0bf247	0.0341666
147	0x3caaa4f9	0.020830618
148	0x3e0b18f0	0.13583732
149	0xbcf3db08	-0.029767528
150	0x3deb1bf5	0.11479942
151	0x3ca68158	0.020325348
152	0x3da73ee9	0.08166296
153	0xbdf3885b	-0.11891242
154	0x3e2f7a0b	0.171364
155	0x3c31e96a	0.010858873
156	0xbdc32ee5	-0.09530429
157	0xbc6fe6fd	-0.014642474
158	0xbcd5e6ae	-0.026110973
159	0xbe113267	-0.14179383
160	0xbd5db397	-0.05412635
161	0x3e0f2b4c	0.1398136
162	0x3e3470d2	0.17621163
163	0x3dbbf69f	0.091778986
164	0x3c954141	0.018219592
165	0xbe182325	-0.14857157
166	0xbdc2c806	-0.09510808
167	0x3db57bff	0.08861541
168	0xbdd05b26	-0.10173635
169	0x3d352429	0.044223938
170	0xbe7ae188	-0.24500096
171	0xbe40efe6	-0.18841514
172	0x3e59f229	0.21283783
173	0xbe08ef53	-0.13372545
174	0xbe82c2b5	-0.25539175
175	0xbe011133	-0.12604217
176	0xbcc98168	-0.024597839
177	0xbc1a0146	-0.009399718
178	0xbdac5627	-0.0841487
179	0x3d56627f	0.052340027
180	0xbd220934	-0.039559558
181	0x3d77ae45	0.06046893
182	0x3e3a2d06	0.18181238
183	0x3e04e76b	0.12978904
184	0xbda9fb1d	-0.08299849
185	0x3d13b37e	0.03605985
186	0x3d4f3033	0.050583076
187	0xbdb35d5d	-0.08758042
188	0xbd86b0d7	-0.06576698
189	0xbc4f6633	-0.012658644
190	0xbe09f816	-0.13473544
191	0xbe0359a3	-0.12827162
192	0xbd21ec87	-0.03953221
193	0x3e06134f	0.13093303
194	0xbd05e965	-0.032693285
195	0x3e0ea0da	0.13928548
196	0xbe44a340	-0.192029
197	0xbe2760f1	-0.16345574
198	0x3e87b9b8	0.2650888
199	0x3a22f57a	0.00062163884
200	0x3d7e8a55	0.062143642
201	0x3cb6bf48	0.022308007
202	0x3d410bd1	0.04713041
203	0x3da39446	0.07987265
204	0xbd5566c9	-0.052099977
205	0x3e33d6ab	0.17562358
206	0x3cdec1c1	0.027191998
207	0x3d648bd0	0.055797398
208	0xbdfcfa8f	-0.12352478
209	0xbdb5ce1b	-0.08877202
210	0xbc99c0a7	-0.018768622
211	0x3e1746a2	0.14773038
212	0xbd31a8cc	-0.043373868
213	0x3d24e864	0.040260687
214	0x3e27a82a	0.16372743
215	0xbd44404b	-0.047912877
216	0x3d54e40b	0.05197529
217	0x3e6ad606	0.22933206
218	0x3d595646	0.053060792
219	0xbcdc0a21	-0.026860299
220	0x3db43ed1	0.08801044
221	0xbe6e2d5e	-0.23259494
222	0xbd4a1b94	-0.049342707
223	0x3e2c72d8	0.16840684
224	0xbe111a12	-0.14170101
225	0xbe8731ca	-0.26405174
226	0xbeae7adf	-0.34078118
227	0x3c25c40e	0.010117544
228	0x3d254dcb	0.040357392
229	0x3e08a386	0.13343629
230	0x3e38ba44	0.18039805
231	0x3da87aa6	0.08226518
232	0xbdc33d2e	-0.095331535
233	0xbe3187f9	-0.17337026
234	0x3eac369d	0.33635417
235	0x3dfc6e80	0.12325764
236	0xbe14e3d1	-0.1454003
237	0x3b443464	0.0029938454
238	0x3dafd91a	0.08586331
239	0x3e187226	0.14887294
240	0xbd8f0fb1	-0.06985415
241	0xbd4a603a	-0.049408175
242	0x3db6d453	0.089272164
243	0xbe51d062	-0.20489648
244	0x3d24bb2d	0.040217567
245	0x3db6eb38	0.08931583
246	0xbdb46bd7	-0.08809631
247	0xbe87584c	-0.26434553
248	0x3ed1a881	0.4094887
249	0xbdaf6b4b	-0.085653864
250	0x3dda0253	0.106449746
251	0x3d9e0925	0.07716588
252	0xbdc8c4e2	-0.098031774
253	0xbca8e549	-0.020617144
254	0x3dc1bb82	0.094595924
255	0x3e4d6a2e	0.20060036

fc_net.2.bias f4 [64]
0	0x3e747bde	0.23875377
1	0x3da3a356	0.07990138
2	0xbc9ca518	-0.019121692
3	0xbdcc657b	-0.09980293
4	0x3e39c3ba	0.1814107
5	0x3bc63fa4	0.006050067
6	0xbd597aae	-0.053095512
7	0xbcf82de1	-0.030295314
8	0x3dc1d309	0.0946408
9	0x3c5e4cd4	0.013568122
10	0x3e31aee0	0.17351866
11	0xbcfaed2e	-0.030630674
12	0x3e6604f1	0.22462822
13	0xbc816d6f	-0.015799252
14	0xbd5daac1	-0.05411792
15	0xbc375a63	-0.0111909835
16	0x3e19d322	0.15021947
17	0xbd16b0cc	-0.0367897
18	0x3dc0145a	0.09378882
19	0xbd59f697	-0.053213682
20	0xbca4f5a3	-0.02013666
21	0x38e87ec8	0.00011086237
22	0x3dc9e69b	0.09858438
23	0x3d86d16b	0.06582912
24	0x3dcd0c6b	0.10012134
25	0x3c9d0720	0.019168437
26	0xbdf756d3	-0.12077107
27	0x3e153f80	0.14575005
28	0x3e2828e0	0.16421843
29	0x3d5fd6a2	0.05464805
30	0xbd9cece7	-0.07662373
31	0x3dead1b5	0.1146578
32	0xbd924a38	-0.07143062
33	0x3d91fddf	0.071285
34	0x3e365750	0.17806745
35	0x3e3fe766	0.18740615
36	0xbdf1f8a1	-0.11815
37	0x3e037a0d	0.12839527
38	0xbcc06b26	-0.023488592
39	0xbd84e1ae	-0.064883575
40	0x3c4e3c34	0.012587596
41	0x3cf9942c	0.030466162
42	0x3d0ba58d	0.03409343
43	0x3c811c26	0.015760493
44	0x3b7a4693	0.0038189038
45	0xbc936175	-0.017990807
46	0x3ccb88ce	0.024845507
47	0xbabc378f	-0.001435982
48	0x3a9afd1d	0.0011824701
49	0x3c9ae3f7	0.01890753
50	0x3beab8f0	0.0071631595
51	0x3d79e7bd	0.06101202
52	0x3bd113f8	0.0063805543
53	0x3c499681	0.012303949
54	0x3c19af72	0.009380208
55	0xbd6b095a	-0.057381965
56	0x3d0ecc54	0.03486283
57	0x3b812ac0	0.003941864
58	0xbd311bf4	-0.04323955
59	0x3b9219ae	0.0044586277
60	0x3e053a5d	0.13010545
61	0x3da6ebce	0.08150445
62	0x3cba8eff	0.022773264
63	0xbe240086	-0.16015825

action_head.weight f4 [4, 64]
0	0xbef0d471	-0.4703708
1	0x3e6d883d	0.23196502
2	0xbdab2102	-0.08355905
3	0x3e0d0c78	0.13774288
4	0xbe791c41	-0.24327184
5	0xbd8737d6	-0.06602447
6	0xbc42eb53	-0.011896926
7	0xbe82cd25	-0.25547138
8	0xbc9cb7ea	-0.019130666
9	0x3bcb34c5	0.006201359
10	0xbeb2c787	-0.34917852
11	0xbe7f8115	-0.24951585
12	0xbefd234c	-0.49440992
13	0x3e0a2288	0.13489735
14	0x3e2aa036	0.16662678
15	0xbeb2d788	-0.34930062
16	0xbf093cf4	-0.5360863
17	0xbdbfbc2f	-0.09362065
18	0xbe3374c2	-0.17525008
19	0x3d4522e3	0.048128974
20	0x3e5d0d0d	0.2158701
21	0xbd104558	-0.03522238
22	0x3eb169ad	0.34650937
23	0x3e0d7e04	0.13817602
24	0x3e9fc878	0.31207633
25	0x3e26cb52	0.16288498
26	0x3ed39366	0.41323394
27	0xbeacdc0b	-0.3376163
28	0xbdbfa1e2	-0.093570486
29	0x3e760d38	0.2402848
30	0x3eb97103	0.36219034
31	0xbe8dd8ef	-0.2770457
32	0x3dce3b0a	0.100698546
33	0x3eb9385e	0.36175817
34	0xbd014c75	-0.031567056
35	0xbefb8426	-0.4912426
36	0x3d27def0	0.040984094
37	0xbf13e1af	-0.5776624
38	0x3e9284f8	0.28617072
39	0x3eccd8ad	0.4000906
40	0xbda699cf	-0.081348054
41	0xbe3623b2	-0.17787054
42	0x3daf6f1f	0.085661165
43	0xbd4dddb4	-0.05026026
44	0x3e15f549	0.1464435
45	0x3e6093e1	0.21931411
46	0x3e1e0230	0.15430522
47	0x3e23201f	0.15930222
48	0x3e3b0e32	0.18267134
49	0x3d16e01d	0.036834825
50	0x3e266565	0.16249616
51	0x3e80817d	0.25098792
52	0x3d972d67	0.07381707
53	0x3eb79d7a	0.35862333
54	0x3e0665dd	0.13124795
55	0x3d912b2b	0.07088312
56	0x3e864bf9	0.26229838
57	0xbeab5e9e	-0.33470625
58	0x3df9922d	0.12186084
59	0xbec60b63	-0.38680562
60	0xbf0bd4ce	-0.5462159
61	0xbe447aaf	-0.19187425
62	0x3e82189d	0.25409403
63	0x3e0e5051	0.13897826
64	0x3ed506b6	0.41606683
65	0xbed292f8	-0.41127753
66	0x3e95c175	0.29249159
67	0xbe16ab87	-0.1471387
68	0x3e6093a9	0.21931328
69	0x3e9696fa	0.2941206
70	0xbe10be59	-0.14135112
71	0xbd0c38d9	-0.0342339
72	0xbdfc6716	-0.123243496
73	0x3d61434e	0.054995827
74	0x3e61d044	0.22052103
75	0x3ec074ca	0.37589103
76	0x3e74bf2b	0.2390105
77	0x3d00b9a1	0.03142703
78	0xbc860bc4	-0.016363032
79	0x3eb943bc	0.3618449
80	0x3e968d12	0.29404503
81	0x3b8fec11	0.004392155
82	0x3c9b9a96	0.01899461
83	0x3cb2ef9e	0.021842774
84	0xbece3375	-0.40273634
85	0xb9295c38	-0.0001615145
86	0xbeb567ef	-0.35430858
87	0x3c95e2e7	0.018296672
88	0xbeb85608	-0.36003137
89	0xbe7df217	-0.24799381
90	0xbea5135c	-0.32241333
91	0x3eea318f	0.45740935
92	0x3e6a4bd4	0.22880489
93	0xbebbc900	-0.36676788
94	0xbeb73e5d	-0.35789767
95	0x3e4e4f99	0.20147552
96	0xbe5465a5	-0.207419
97	0xbf0ab8fc	-0.54188514
98	0x3da3d4d4	0.07999578
99	0x3eb9b45a	0.3627041
100	0x3dac9917	0.08427637
101	0x3ed3f78c	0.413998
102	0xbea76fc3	-0.32702455
103	0xbecc8068	-0.39941716
104	0xbd4f36dc	-0.050589427
105	0xbce75418	-0.028238341
106	0xbe235f56	-0.15954337
107	0xbd6458dd	-0.05574881
108	0xbed566b1	-0.4167991
109	0xbec7361a	-0.38908464
110	0xbea6e898	-0.3259933
111	0xbecf3703	-0.40471658
112	0xbe9abe32	-0.30223233
113	0x3df50f44	0.11965802
114	0xbddbfc83	-0.10741522
115	0xbe87800e	-0.26464885
116	0x3de00cfd	0.10939977
117	0xbee3fdf8	-0.445297
118	0xbe7c04ca	-0.24611202
119	0xbe6ae5b0	-0.22939181
120	0xbe3849ea	-0.17996946
121	0x3e0d5d80	0.13805199
122	0xbe377dbe	-0.1791906
123	0x3ec9cc51	0.39413694
124	0x3e98e1fe	0.29859918
125	0xbd2c0190	-0.041993678
126	0xbe6e177e	-0.23251149
127	0xbdd1433a	-0.102179006
128	0x3e7f6b13	0.2494319
129	0xbed653ff	-0.4186096
130	0xbdf71699	-0.12064857
131	0x3daa7e49	0.08324868
132	0x3ddfe7ea	0.10932906
133	0xbe453182	-0.19257167
134	0xbeaac2a2	-0.33351618
135	0xbed0ee4a	-0.408068
136	0xbe627cba	-0.22117892
137	0x3ecc1b80	0.3986473
138	0x3ec9cfd9	0.39416388
139	0xbd9b6af9	-0.07588763
140	0xbd771ac7	-0.06032827
141	0xbea67c6f	-0.3251681
142	0xbe0d1445	-0.13777263
143	0x3d865e29	0.065609284
144	0xbde7c4f8	-0.11316866
145	0xbe996f7e	-0.29967874
146	0xbd151cf3	-0.03640456
147	0xbec09802	-0.37615973
148	0xbe0125d7	-0.12612091
149	0xbe56f31a	-0.20991173
150	0xbe3276a2	-0.17428067
151	0xbec42896	-0.38312215
152	0xbe1d7275	-0.15375693
153	0x3ee51641	0.4474354
154	0xbe2a2e10	-0.16619134
155	0x3caaa315	0.020829717
156	0xbea81195	-0.32825914
157	0xbea1b046	-0.31579798
158	0x3e5fa2d7	0.21839462
159	0xbe451da5	-0.1924959
160	0xbe87a70a	-0.26494628
161	0xbcda82f6	-0.026673775
162	0x3ea0c901	0.31403354
163	0xbe69a9de	-0.22818705
164	0xbe7b32c2	-0.24531081
165	0x3e14421f	0.14478348
166	0x3d9ad32e	0.075598106
167	0xbe56caff	-0.20975874
168	0xbede35e4	-0.4340049
169	0xbea33310	-0.31874895
170	0x3eae3e23	0.34031782
171	0xbecbe0bf	-0.39819905
172	0x3eaa5330	0.33266592
173	0xbec0836f	-0.37600276
174	0x3e65f6b6	0.22457394
175	0x3e83f5f7	0.25773594
176	0xbe9d3308	-0.30702996
177	0x3ebcb242	0.3685475
178	0xbe1b7b69	-0.15183796
179	0xbedb9d92	-0.42893654
180	0x3e9ee492	0.3103376
181	0x3ec59883	0.3859292
182	0x3e9ee66a	0.31035167
183	0xbe1fe583	-0.15614896
184	0xbe91b1e1	-0.28456023
185	0x3c94eb37	0.018178565
186	0xbed1e452	-0.40994507
187	0x3e67e25a	0.2264494
188	0xbeb37378	-0.35049033
189	0xbe87d80b	-0.26532015
190	0xbdfd189d	-0.1235821
191	0xbe009af3	-0.12559108
192	0xbe3edb1a	-0.18638268
193	0x3e804771	0.25054505
194	0xbca8763d	-0.020564193
195	0xbe64b3fb	-0.22334282
196	0x3dbf002d	0.093262054
197	0x3ccfa2e9	0.025346236
198	0x3e99c5bb	0.3003367
199	0x3e8cd06f	0.27502772
200	0x3e95e549	0.29276493
201	0xbe97becb	-0.2963775
202	0xbebdd50b	-0.370766
203	0xbd301388	-0.042987376
204	0xbdab7149	-0.08371217
205	0x3ea23674	0.3168217
206	0xbdf797bb	-0.12089487
207	0xbe26fc55	-0.16307195
208	0x3de0624c	0.10956249
209	0x3e9a9275	0.30189863
210	0x3e0e94ed	0.13923998
211	0x3ed33dae	0.41257995
212	0x3e3bdde1	0.18346359
213	0x3ebeb191	0.37244847
214	0x3d94a6ef	0.072584026
215	0x3efce930	0.49396658
216	0x3be8d7a6	0.0071057854
217	0xbede3bbd	-0.43404952
218	0xbd4ab72a	-0.049491085
219	0x3e2e5a99	0.17026748
220	0x3edd305c	0.43200958
221	0x3e0cacaf	0.13737749
222	0xbe8740a8	-0.26416516
223	0x3e5f443d	0.21803375
224	0x3e83e2c6	0.25758952
225	0xbe50ec65	-0.20402677
226	0xbecf9381	-0.40542224
227	0x3e3cd895	0.18441994
228	0x3ddbdb62	0.10735203
229	0xbd65c368	-0.056094557
230	0xbe3da292	-0.18519047
231	0x3d3c4cdb	0.045971733
232	0x3e863c97	0.262181
233	0x3eb0850e	0.34476513
234	0xbecc413c	-0.3989352
235	0x3edc1198	0.42982173
236	0xbee0354c	-0.43790662
237	0x3e6b84e8	0.22999918
238	0xbd58f32a	-0.052966274
239	0xbe358f1c	-0.17730373
240	0x3ea828c4	0.32843602
241	0xbec2556f	-0.37955806
242	0x3e8f2255	0.2795588
243	0x3ea8a3cf	0.32937476
244	0xbe8e0bca	-0.2774337
245	0xbead9bba	-0.33907872
246	0xbebb0c15	-0.36532655
247	0x3e9a381a	0.30120927
248	0x3de8f31e	0.11374496
249	0x3e13bc80	0.14427376
250	0x3eb98a67	0.36238405
251	0xbea95ea6	-0.33080024
252	0x3daf8f84	0.08572295
253	0x3e4f4ab6	0.20243344
254	0xbd772b72	-0.060344167
255	0xbdd75124	-0.10513523

action_head.bias f4 [4]
0	0xbdfa24e3	-0.12214067
1	0xbd597321	-0.05308831
2	0x3da98491	0.08277238
3	0xbdd3f8b9	-0.103501745
