output/4-agents_domain-CoinGame-4_MATE-TD-T0.25_2022-08-08-10-55-02/critic_net_1.pth (torch, 44695 bytes, 5 tensors)

fc_net.0.weight f4 [64, 100]
000000 3b 70 95 bd 22 91 af bd 92 40 ca bd f8 90 2d bd
       -0.07296797 -0.08572604 -0.09875597 -0.04237458
000010 dd 22 a9 bd 78 38 0c be 27 98 04 ba dd 40 ea bd
       -0.08258603 -0.13693416 -0.0005058073 -0.11438153
000020 31 27 bb bd 86 e7 a0 3c a7 6c 45 be 08 69 62 3c
       -0.091383345 0.019641649 -0.19279729 0.013818987
000030 db 2f 07 be b0 10 c5 bc 42 7f 92 3b 2d ea 00 be
       -0.13201849 -0.024055809 0.0044707367 -0.12589331
000040 a7 59 c1 bd 8d 4b d0 bd 10 51 ce bc 84 f3 b8 bd
       -0.09440928 -0.1017066 -0.025185138 -0.09030822
000050 9a 72 4e be 6b 41 49 be c9 2d 8c bd f3 b9 14 be
       -0.20160905 -0.19653861 -0.0684467 -0.14524059
000060 a9 ea f0 bd 5c 56 57 bd 3b a7 6b be d0 b7 0b be
       -0.11763508 -0.052572593 -0.23013012 -0.13644338
000070 e6 b1 d5 bc 12 d5 60 bd 7d 29 04 be 49 a4 a8 bd
       -0.026085805 -0.0548907 -0.12906452 -0.0823446
000080 c5 74 fd bc ee 54 0b bc a2 8c c0 bd b4 2e d2 bd
       -0.03093947 -0.0085041355 -0.094018236 -0.10262814
000090 e4 16 91 3a 3b 29 87 3c ee e4 ec bd a0 6c 88 bd
       0.0011069444 0.016499152 -0.115671024 -0.066613436
0000a0 95 d4 66 bd ff 9f 9a 3d 05 9b b1 bd 4b f8 c1 bd
       -0.056355078 0.07550048 -0.08672146 -0.09471186
0000b0 45 aa b2 bd a3 fa 00 be f4 c5 39 be 98 5b 98 bd
       -0.087238826 -0.1259561 -0.1814192 -0.07439345
0000c0 f2 4f 32 be cf 37 05 be 4f 4e ec 3c eb 9a 85 bc
       -0.17413309 -0.1300957 0.028845934 -0.016309222
0000d0 88 46 e6 3d 5f d6 8e bd 46 5c b1 bd 13 04 d0 3d
       0.112439215 -0.06974482 -0.08660178 0.10157027
0000e0 a6 8f b9 3c 95 72 20 3d a5 96 a7 bc 26 81 65 ba
       0.022651505 0.039171774 -0.020457575 -0.00087549014
0000f0 65 dd 00 bd 3b 35 01 3e ac 21 a8 bc 9a a4 7f bd
       -0.03146114 0.12617962 -0.020523869 -0.062412836
000100 82 57 51 3c 1a 0e dc 3c fd 71 92 3d 5e ba 91 3c
       0.012777211 0.026862193 0.07150648 0.017789062
000110 9b ee 87 3d 76 41 75 bd fc a7 c3 bc fb e9 dd bb
       0.06637307 -0.05987688 -0.023883812 -0.0067722774
000120 5c 59 65 3d 41 7e db 3c d4 17 22 bc a4 19 0a 3d
       0.055993423 0.026793601 -0.009893376 0.03371586
000130 b0 74 ed bd 20 63 38 bd f5 ca ea bd c2 06 51 be
       -0.11594522 -0.045016408 -0.11464492 -0.20412734
000140 fe c1 36 bc 09 3f f5 bd 75 64 10 be 55 dd 2b be
       -0.01115465 -0.119749136 -0.14100821 -0.1678365
000150 28 d5 1c be 8a d3 5d be 1d 32 96 bd 57 4e 5c bd
       -0.15315688 -0.21662727 -0.07333777 -0.05378565
000160 2d b0 bb bd 8a 59 29 be fd fa 7b bd 8d 59 31 be
       -0.09164462 -0.16538063 -0.061518658 -0.17319317
000170 de 27 8c bd 2d c5 d6 bc ce e4 51 bd 33 4f f2 bd
       -0.068435416 -0.026217068 -0.051243596 -0.11831512
000180 aa ea 1e be 5b 7d 39 bd 37 bc 95 3b fd ee 95 bc
       -0.15519205 -0.045285564 0.004569556 -0.018302435
000190 27 7e 84 bc f8 5e 7d be 33 e1 62 bd 75 48 b1 bd
       -0.016173435 -0.24743259 -0.055390548 -0.08656398
0001a0 e5 45 40 bd f5 47 fc bd 05 c2 d1 bd 17 55 e2 bd
       -0.046941657 -0.12318412 -0.102420844 -0.11051386
0001b0 cb 01 c1 3d 7a 53 cd bc 3b 2e 26 be 0b 2e a5 bd
       0.0942417 -0.025064219 -0.16228573 -0.080654226
0001c0 b6 25 cb bd 51 34 c5 bd 22 f7 5b be 9c f9 21 be
       -0.09919302 -0.09629119 -0.21480992 -0.15817875
0001d0 b3 62 10 be c8 1f 2f bd 55 1a 70 be 1a 0d d7 bd
       -0.14100151 -0.04275492 -0.23447545 -0.10500546
0001e0 b7 de 85 bd e4 4b ee bc a6 12 1a bb f1 9e 9a bd
       -0.0653662 -0.029088922 -0.002350965 -0.07549847
0001f0 c9 67 01 bc e9 f8 9e bd 4e bc 34 be 97 08 cd bb
       -0.0078982795 -0.077623196 -0.17649958 -0.0062571275
000200 b3 bb 4f 3b 09 a3 80 bd 30 3d e1 bd 1e b1 c2 bd
       0.003169757 -0.062810965 -0.10997999 -0.09506439
000210 89 86 dc bd 16 90 eb bd 5e 5f 70 bc f4 24 0e 3a
       -0.10767848 -0.115020916 -0.014671175 0.00054223766
000220 ae 9c 9b 3c 57 c6 82 3c 2d cb 1c bc 13 27 2c be
       0.01899561 0.015963716 -0.009569925 -0.1681178
000230 20 a0 9e 3d 68 b5 cb bd e8 3c bc bb f1 53 66 be
       0.07745385 -0.0994671 -0.0057445653 -0.22492959
000240 fc e7 85 be 64 ff ca 39 c3 9c 36 3d 8c 2a c4 bd
       -0.26153553 0.00038718723 0.044583093 -0.09578428
000250 8f d3 33 be 4b 2a bd bd 59 2e fc 3d ee f4 64 3d
       -0.17561172 -0.09236582 0.123135276 0.055897646
000260 c1 2a b0 bc 39 61 8e be 11 15 a8 bd c6 e0 33 3b
       -0.021504762 -0.2780855 -0.08207143 0.0027447208
000270 0a e9 33 bd 62 6c e2 bc 14 b0 bc 3c 01 68 04 be
       -0.043923415 -0.027639572 0.02303318 -0.129303
000280 54 1b f1 3d 57 94 06 3e 7b 12 f4 3c 4f cf e3 bd
       0.117727906 0.13142525 0.029793968 -0.11123525
000290 bb 6c 16 bc 34 d0 a1 bc 30 16 b7 3d 55 72 b9 3c
       -0.009181197 -0.0197526 0.08939779 0.022637526
0002a0 c3 a9 4c bb 29 25 0a 3c f4 4c a4 3c 2d ae a8 3d
       -0.0031229116 0.008431711 0.020056225 0.082363464
0002b0 b9 91 63 3c f8 5b ce 3d 9b 78 04 3b eb 05 48 3d
       0.013889723 0.100761354 0.0020213488 0.04883377
0002c0 5e 83 3f be 20 19 b9 bd 6a fc e2 bd 95 b1 78 be
       -0.18702456 -0.09037995 -0.110833004 -0.24286492
0002d0 94 c0 39 bd 1b b8 30 be b4 61 ba bd c7 4e 0a bd
       -0.045349672 -0.1725773 -0.09100667 -0.033766534
0002e0 15 e8 30 bd 9a 86 82 be 4d f2 34 be 45 b6 48 be
       -0.04319008 -0.25493318 -0.17670555 -0.1960078
0002f0 2a 1c 1d be 5c 60 cf bd 06 86 63 be e1 df 3c be
       -0.15342775 -0.10125801 -0.22219095 -0.18444778
000300 f7 92 00 be 95 3c c6 bc ed 47 29 3c 36 f5 84 be
       -0.12556063 -0.02419881 0.01033209 -0.2596833
000310 fd 18 8c bd 6b bc ef bd f5 3e 29 bd e3 f3 05 3e
       -0.06840704 -0.1170586 -0.041319806 0.13081317
000320 14 15 57 bd 9d 06 f4 bd e0 25 cb bb 2e a9 a9 bc
       -0.052510336 -0.11915324 -0.0061995834 -0.020710554
000330 00 f9 f2 3b 4f 25 4f 3d 68 4c 01 be 3b fc b5 3d
       0.007414937 0.05057269 -0.12626803 0.08886
000340 a7 de 72 3d a5 86 d2 bd ff 10 7c bd e5 90 0f 3d
       0.05929437 -0.10279588 -0.061539646 0.03505029
000350 f1 89 76 bd bc ae c8 bc fd c5 fc bd c6 d2 a6 bd
       -0.060190145 -0.024497382 -0.12342451 -0.081456706
000360 e6 57 26 bc a2 fa 95 bd 4a e4 d5 bc ec 0f 45 be
       -0.010152793 -0.07323195 -0.026109833 -0.19244355
000370 23 08 1c be 41 9a 1c be 05 15 ea bd a8 36 75 3c
       -0.15237479 -0.15293218 -0.114297904 0.014966644
000380 d5 88 32 bd d3 a5 35 be cd f4 9a 3d 4b 6f 7c bd
       -0.043587524 -0.17739038 0.07566223 -0.061629575
000390 56 56 69 bd 74 3f 05 be 7c 1c 1c be d1 46 b1 bd
       -0.056967102 -0.13012487 -0.15245241 -0.08656085
0003a0 9c 69 9e 3d 95 6d 0c be b9 7c 14 3c 5c db 0c be
       0.07734987 -0.13713677 0.009062939 -0.13755554
0003b0 fc 9e 5a 3d 02 b0 6c 3c 09 6a 7f 3c 8a b9 09 be
       0.053374276 0.01444626 0.015589246 -0.13449684
0003c0 83 7a 09 bd a3 9d 82 bb 2b f5 7f 3d 46 f5 7d 3c
       -0.033564102 -0.003986077 0.06248967 0.015500372
0003d0 4f 55 19 be e5 3b 18 be c7 91 49 bd c3 85 23 be
       -0.14973949 -0.14866598 -0.04921129 -0.15968995
0003e0 1d d4 0e be 82 28 2e be 9a 6f a0 3c a8 d9 55 3d
       -0.13948102 -0.1700764 0.019584466 0.052209526
0003f0 10 f7 b3 bd 9f 7e 27 be e6 3a 35 bd dd 4d bb 3d
       -0.08787358 -0.16356896 -0.044245623 0.091457106

fc_net.0.bias f4 [64]
000000 17 9d 0c be ff c5 27 be 37 b3 f0 bd 12 dc 3d 3e
       -0.137318 -0.16384123 -0.117529325 0.18540981
000010 34 36 48 3e f5 b8 61 3d 9f 80 19 3e ce 9b 27 3e
       0.19551927 0.05510803 0.14990471 0.16368029
000020 ba b0 0d be 93 a0 8c bd 63 fd 57 be 88 6a 47 be
       -0.13836947 -0.068665646 -0.21092753 -0.19474232
000030 e4 7c 1a be 5d 05 25 be 6a f4 ce 3d 24 a8 42 3e
       -0.15086704 -0.16115327 0.10105212 0.19009453
000040 33 71 31 3e c6 b9 26 be e7 17 3d be 10 33 bb bc
       0.17328338 -0.16281804 -0.1846615 -0.022851497
000050 55 0e 1b be 5e 39 34 be bc c0 81 bd dd 2b a4 bd
       -0.15142186 -0.17600009 -0.06335589 -0.08016179
000060 7e 7e 27 be 15 8e 62 be 8c b2 41 be 25 b3 15 3e
       -0.16356847 -0.22124512 -0.18915766 0.1461912
000070 10 2b 3a be 89 eb 2c be c5 a3 34 3e ff 94 8f 3d
       -0.1818049 -0.16886725 0.17640598 0.070108406
000080 25 40 11 3e e7 00 15 be 1a 4e c3 bd e6 76 ec 3d
       0.14184625 -0.14551125 -0.09536381 0.115461156
000090 d8 ae a3 bd 10 77 4a be c9 24 30 3e 38 d2 b6 bd
       -0.07992333 -0.19771981 0.17201532 -0.08926815
0000a0 a2 93 4f be ca 45 50 be d2 94 35 be bd 25 2d 3e
       -0.20271161 -0.20339122 -0.17732552 0.16908927
0000b0 29 5d 17 3e 98 7f 4e be b7 9d d6 bd c0 14 e4 bc
       0.14781632 -0.2016586 -0.104793005 -0.027841926
0000c0 d4 e7 2c be 02 f2 2d be a5 11 a6 bd 1b 28 16 be
       -0.1688531 -0.1698685 -0.08108834 -0.14663737
0000d0 19 9f 4c 3e 77 8a b9 bd bf f7 07 3e 1a 28 46 be
       0.19982566 -0.09059613 0.13278101 -0.19351235
0000e0 1e e4 33 3e 9c 98 f5 3d bd 67 ad bd 91 7a b1 3d
       0.17567489 0.119919986 -0.08467052 0.08665956
0000f0 f0 8d ad 3c 5b d9 34 be 36 1e 40 be 2c fc fb 3d
       0.021185845 -0.1766104 -0.18761525 0.12303957

fc_net.2.weight f4 [64, 64]
000000 6f 6f b7 3d 9b 8e 95 3e 40 54 dd 3d 5c b9 9a bd
       0.08956801 0.29210362 0.10807085 -0.07554886
000010 8b fc 79 be eb 19 f0 39 28 47 f1 bd d7 83 4e bd
       -0.24412744 0.00045795678 -0.1178115 -0.0504187
000020 c6 a4 9c 3e 4a 88 f0 bd c3 32 d9 3d ee ad 02 3e
       0.30594462 -0.11744745 0.10605385 0.12761661
000030 be 34 84 3d cb e1 64 3e 99 f1 b9 bd 2c 44 0a be
       0.06455372 0.22351758 -0.09079284 -0.13502568
000040 95 4e ae bd 53 da e5 3d e7 23 18 3e b1 e7 21 3e
       -0.08511082 0.11223283 0.14857446 0.1581104
000050 73 b1 7c 3e 0c c4 1c 3e 92 82 c6 3c 34 eb 5e 3e
       0.24677067 0.15309161 0.024232183 0.2176941
000060 01 73 69 3e 2a 56 6f 3e 6e 3f f0 3d c9 61 3c be
       0.22797777 0.23372713 0.11730848 -0.18396677
000070 4a d2 9c 3e 02 82 03 3c 69 1c 74 bd a3 3a 5f be
       0.30629188 0.008026602 -0.059597407 -0.21799712
000080 63 96 23 be 9f 7b 47 bb 7f 2f 9c 3e c5 b4 3f be
       -0.15975337 -0.0030438674 0.30504987 -0.18721302
000090 f1 ba 7a 3e 9c a1 d9 3d 85 46 70 be 96 85 97 3e
       0.24485375 0.10626528 -0.23464401 0.29594105
0000a0 2b 3c 8b 3e d3 e6 18 3e 37 cf 8e 3e 17 41 3c bd
       0.27194342 0.14931802 0.27892467 -0.045960512
0000b0 39 33 49 be 3f 0d 89 3e c7 63 15 3e 61 c7 29 3e
       -0.19648446 0.26767918 0.14588843 0.16579963
0000c0 1a 18 2f 3e 28 fe 7e 3e 2f 63 55 3e 35 01 87 3e
       0.17099038 0.2490164 0.20838617 0.26368108
0000d0 05 35 b4 bd c4 7e 4f 3e d6 50 3d be c0 d0 f7 3d
       -0.08799175 0.20263201 -0.18487868 0.12100363
0000e0 73 ac 59 be e2 ea 18 be 08 17 17 3e 28 72 18 be
       -0.2125719 -0.1493335 0.1475488 -0.14887297
0000f0 cc 6b 1e be 48 51 1f 3e 0d 21 fe 3d 54 89 a3 bd
       -0.15470809 0.1555835 0.12408648 -0.07985178
000100 00 d5 1d 3e 32 b0 61 3e cb eb d2 3d 1f 5c c5 bd
       0.15413284 0.2203987 0.1029888 -0.09636711
000110 f1 e1 29 be f6 38 28 bc 69 ef 5c be 43 ea 28 be
       -0.16590096 -0.010267487 -0.21575703 -0.16495614
000120 f2 cc bf 3d bd 5f ef 3d 5d 7b 07 3e df 27 91 3e
       0.09365262 0.116881825 0.13230653 0.28350732
000130 64 44 0c 3e 55 e2 9e 3d f5 84 7f be 9c 5a c1 bc
       0.13697964 0.07758013 -0.24953063 -0.023602776
000140 42 11 98 bc 00 e0 2d 3e 6f 41 3e 3e 4c 20 72 3e
       -0.018562917 0.1697998 0.18579648 0.23645133
000150 e3 20 55 3e f4 31 87 3e 94 ee 6a 3a 72 df cf 3d
       0.20813327 0.264053 0.00089619425 0.10150041
000160 9b 1e 81 3e cd fd ba 3d 1c 4e c7 3d a7 30 27 be
       0.25218663 0.0913044 0.09731695 -0.16327153
000170 48 33 81 3d 0a 8a 4e 3e 3f 36 83 bc 2a d0 48 be
       0.06308609 0.20169845 -0.016017077 -0.19610658
000180 53 76 de bd 88 a2 2d 3e 49 49 aa 3e 40 d7 3b 39
       -0.10862412 0.16956532 0.33259037 0.00017913897
000190 83 83 b5 3d cf e4 19 3e 61 2f 52 be 32 11 80 3e
       0.088629745 0.1502869 -0.20525886 0.2501312
0001a0 5b 2f 83 3e db d4 0f 3e f7 91 12 3e 4a 5e 4a be
       0.25622067 0.14046042 0.14313494 -0.19762531
0001b0 fb 30 83 bd 30 a9 3f 3e e7 c9 27 3e b0 c3 9a 3d
       -0.06405827 0.18716884 0.16385613 0.07556856
0001c0 15 7e 7d 3e 4b 87 85 3d af 0e 2d 3e ad 7b 13 3e
       0.24755128 0.06519946 0.16900133 0.14402647
0001d0 8b ca 6e bd e4 5b 2d 3e 6a 14 b9 bd 40 fd a6 3e
       -0.05829863 0.16929585 -0.09037097 0.3261509
0001e0 39 16 43 be 71 ef 23 be 5b 9b 81 3e 57 15 22 be
       -0.19051446 -0.16009308 0.2531384 -0.15828453
0001f0 fd 8f 05 be ed 55 09 3d 19 d5 81 3e 70 ae 4c be
       -0.13043208 0.03352921 0.25357893 -0.19988418
000200 0a e3 65 3e 25 76 8b 3e 05 a2 99 3d f2 b6 d0 bc
       0.2244989 0.27238575 0.07501606 -0.02547786
000210 c2 80 48 bd 63 4e f4 bc 32 5a 10 be 0b 7d 6b be
       -0.048950918 -0.029822534 -0.14096907 -0.22996919
000220 0a ff 98 3d d7 eb 3a bd 7d 09 cb 3c b6 76 5f 3e
       0.0747052 -0.04563507 0.024784798 0.21822628
000230 58 f2 63 3e 0c 6c 2b 3e a3 8a b0 bd 86 ee 61 be
       0.22260416 0.16740435 -0.08620193 -0.22063646
000240 af 83 c0 bd df 02 79 3e c7 e7 12 3d 2c 75 58 3e
       -0.09400117 0.24317501 0.03586557 0.21138448
000250 08 6c 0b 3e a9 e6 55 3e 07 11 4d bc 95 a3 86 3d
       0.1361543 0.20888771 -0.012516267 0.065741695
000260 90 ef 82 3e b9 ec 0b 3e 6a 9e 50 3d 5b 16 3d be
       0.25573397 0.13664521 0.050932325 -0.18465559
000270 6b d3 4e 3e fc 8a 1b 3d 95 26 df bd 2c 1a 93 bc
       0.20197837 0.037974343 -0.10896031 -0.017956816
000280 71 ec 2d bd 9d 32 a4 3d 68 78 cb 3d 94 25 59 be
       -0.042461816 0.08017466 0.09935075 -0.21205741
000290 f3 70 68 3e fe dc 92 3d 37 e4 16 be 30 27 70 3e
       0.22699337 0.07171057 -0.14735495 0.23452449
0002a0 0c e2 5e 3e ec 58 1e 3e ef 22 0e 3e 2e c5 02 be
       0.21765918 0.15463609 0.13880514 -0.1277053
0002b0 1c 10 19 be 0f b3 e8 3d 48 6f 7a 3e 7b b1 a9 3d
       -0.14947551 0.11362278 0.24456513 0.08285805
0002c0 79 a7 8a 3d 02 07 3f 3e 63 b2 5f 3d be 58 cb 3d
       0.06770224 0.18655017 0.054613482 0.099290356
0002d0 df f9 3c 3b 31 c6 97 3e f6 8d 80 be 17 eb 46 3e
       0.0028835458 0.29643396 -0.25108308 0.19425617
0002e0 a8 bf eb bd db 15 13 be 27 19 50 3e ad 51 56 be
       -0.11511165 -0.14363806 0.20322095 -0.20929594
0002f0 5d fa ba bc f2 87 4e 3e 74 85 15 3e 93 b3 2d be
       -0.02282446 0.20169047 0.1460169 -0.16963033
000300 02 e6 3d 3e d6 58 89 3e 7f 21 50 3e da e6 ba bd
       0.18544772 0.2682559 0.20325278 -0.09126063
000310 10 fe 23 be 1b 19 07 3c 49 29 3a be 56 c5 f5 bd
       -0.16014886 0.008245732 -0.18179812 -0.120005295
000320 9f 5e fc 3d 9a d5 c1 bd cf bd 05 3d 87 a0 fd 3d
       0.12322735 -0.094645694 0.03265172 0.12384134
000330 1a a1 a8 3d 90 87 5a 3e 18 53 b9 bd 5b d2 9d bd
       0.08233853 0.21340775 -0.09049052 -0.07706138
000340 97 91 63 be e3 ba 77 3e fb d6 32 3e f8 73 7a 3e
       -0.22223507 0.24192385 0.17464821 0.24458301
000350 fb 1e 57 3e 1a c2 d7 3d 08 7b 20 bd 71 30 eb 3c
       0.21007912 0.10535069 -0.03917983 0.028709622
000360 56 81 75 3e 7c 3d b1 3d 1d 26 bb 3c e8 fa bf bd
       0.23975119 0.08654305 0.022845322 -0.093740284
000370 05 d3 fe 3d b6 0f 95 3b 5f 4a 09 be 5c 93 44 be
       0.124425925 0.004548992 -0.13407277 -0.19196838
000380 a9 95 3b be 73 4c ee 3c 80 30 9f 3e c3 63 00 bd
       -0.1831881 0.029089188 0.3109169 -0.03134514
000390 68 3a c7 3d b5 a1 7a 3c 01 1c 44 be 99 0e 2a 3e
       0.09727937 0.015297343 -0.19151308 0.16607131
0003a0 6a 3b e8 3d 6f 8a 70 3e 20 40 38 3d ac 00 b5 bd
       0.11339457 0.23490308 0.04498303 -0.08838019
0003b0 e6 98 94 bc 46 c2 88 3d 8e 30 d6 3c f8 e2 23 3c
       -0.018139314 0.0667768 0.0261462 0.010002844
0003c0 5d 4f 61 3e 11 c0 90 3d 09 72 83 3e 77 4e 7d 3e
       0.22002931 0.07067884 0.2567294 0.24736963
0003d0 98 f7 40 be 5f c9 41 3e e7 f0 c0 bd 41 28 40 3e
       -0.1884445 0.18924473 -0.094209485 0.18765356
0003e0 e4 2a 07 be f4 f0 a3 bd 9d 56 6f 3d c2 5c 58 be
       -0.13199955 -0.080049425 0.05843221 -0.21129134
0003f0 e0 2b ce bd 2a 84 60 3e 7e d0 29 3d 33 70 92 bc
       -0.10066962 0.21925417 0.0414586 -0.017875766

fc_net.2.bias f4 [64]
000000 c2 7a d1 bd 35 58 51 be 13 21 fd bd 73 9e 9c bb
       -0.10228492 -0.20443805 -0.12359824 -0.004779631
000010 24 1f 0f be 3e bf 60 3e a7 96 a9 bc 11 57 7c 3d
       -0.13976723 0.21947953 -0.02070172 0.06160647
000020 7e 10 54 3e 3e ad 14 bc a8 98 0b 3e b6 d2 fd bc
       0.20709416 -0.009074507 0.13632452 -0.030984264
000030 e9 cb 53 bd 75 98 89 bd a0 a0 d3 3d b5 3a 83 bd
       -0.051708136 -0.06718532 0.10333371 -0.06407682
000040 e8 50 ba bd 65 07 c2 ba 6e 17 d4 3d 33 50 4c be
       -0.09097463 -0.0014803229 0.10356031 -0.19952469
000050 77 95 89 3c 0d f7 c1 3d e7 68 ed 3d fd a9 1b bd
       0.016794903 0.09470949 0.11592274 -0.03800391
000060 32 89 83 3c be a5 ea bc 87 7a ae 3d 31 a1 cd bd
       0.01605663 -0.028643485 0.08519464 -0.100405104
000070 f0 ea 7e 3d a1 c7 1b bc 51 33 4b be 00 05 eb 3d
       0.062235773 -0.009508044 -0.19843794 0.11475563
000080 7e 16 d6 bd ac b9 15 be 6d b6 1e be d2 b0 0b 3e
       -0.10453509 -0.1462161 -0.15499277 0.1364167
000090 34 a8 8b bc 18 4c 57 3e 3b ca cf 3c f9 65 11 bd
       -0.017047979 0.21025121 0.025364986 -0.03549764
0000a0 8f 09 12 be 46 1c 1a 3d 5e 57 d6 3d 09 01 e3 bc
       -0.14261459 0.03762462 0.10465883 -0.027710455
0000b0 a9 87 df bd fd 96 68 bd 1a 0e 46 3e b7 d2 a4 bd
       -0.10914547 -0.05678462 0.19341317 -0.08048003
0000c0 e7 d0 5a 3e 57 bc 2f be 22 7c 23 3e 15 f5 35 be
       0.21368752 -0.1716169 0.15965322 -0.17769273
0000d0 73 b8 5b 3d 88 0e 4a 3d 6d e0 b5 3d e0 5e 0f 3d
       0.0536427 0.049330264 0.088806964 0.03500259
0000e0 de 1d aa b9 c1 a5 b9 3c 46 7c 2f be 13 14 d7 3d
       -0.0003244718 0.022662045 -0.1713725 0.10501876
0000f0 97 6a 16 3e 61 cb 25 be 6d dc 21 3e 8a d4 ca bb
       0.14689098 -0.16190864 0.15806742 -0.0061898874

value_head.weight f4 [1, 64]
000000 a8 22 06 be 76 8d 14 be e1 6a 5e be 71 62 26 be
       -0.13099158 -0.14507088 -0.21720459 -0.1624849
000010 7f a4 13 be 65 54 e0 3d 83 64 f3 bd b4 3f df 3d
       -0.14418219 0.10953597 -0.118844055 0.10900822
000020 8a 6f 29 3e 5e 7c 04 be 9d ec 04 3e 54 0e 30 be
       0.16546455 -0.12938067 0.12980886 -0.17192966
000030 94 05 05 be ee b1 21 be 44 fc 36 3e f2 61 be bd
       -0.12990409 -0.15790531 0.17869669 -0.09296025
000040 d4 03 41 be c3 b5 4d be 45 d6 cc 3d ae b0 74 be
       -0.18849117 -0.20088868 0.10001806 -0.23895523
000050 63 a8 f1 3d 77 0c 1c 3e 77 69 e2 3d 03 9c db 3d
       0.11799695 0.1523913 0.11055272 0.10723116
000060 81 95 04 be 57 e4 8b 3d 74 01 dc 3d 70 14 33 be
       -0.12947656 0.06830662 0.10742465 -0.17488265
000070 bc 91 b0 3d 38 80 0c 3e 3d 48 5e be 01 bd f4 3d
       0.086215466 0.13720787 -0.21707244 0.11950112
000080 11 a9 1e be f5 26 39 be 53 0d 31 be 26 cf 05 3e
       -0.15494181 -0.18081267 -0.17290239 0.13067302
000090 cd 98 c2 3d bd 39 38 3e 14 a7 3f be 7b f9 55 be
       0.09501801 0.17990775 -0.18716079 -0.2089595
0000a0 82 71 0a be c7 5c 6a be 03 18 1b 3e 7c 50 12 be
       -0.13519862 -0.22886954 0.15145878 -0.14288515
0000b0 dc d8 1f be f5 ab 0e be 3f 4d 27 3e 7c 11 56 be
       -0.15610069 -0.13932784 0.16338061 -0.20905107
0000c0 70 bb 4b 3e b7 81 1f be cf ae 64 3d 3a c2 5c be
       0.1989572 -0.15576826 0.055830773 -0.21558467
0000d0 5b e1 1e 3e 0d e1 3e 3e 01 14 fc 3d 3f 45 f9 3d
       0.15515654 0.18640538 0.12308503 0.12171411
0000e0 80 de 0e 3e 1d c9 b5 3d 46 75 15 be 84 c0 a3 3d
       0.13952065 0.0887625 -0.14595518 0.07995704
0000f0 b6 0e 10 3e 92 85 30 be d6 bf 90 3d 68 c8 03 3e
       0.14068112 -0.17238453 0.0706784 0.12869418
