output/4-agents_domain-CoinGame-4_MATE-TD-T2_2022-08-09-22-15-26/actor_net_0.pth (torch, 45463 bytes, 6 tensors)

fc_net.0.weight f4 [64, 100]
0	0xbd58ca40	-0.052927256
1	0xbda136ef	-0.07871806
2	0xbe863c42	-0.26217848
3	0xbe71a869	-0.235994
4	0xbe225947	-0.15854369
5	0x3bee903d	0.007280378
6	0x3db26e62	0.0871246
7	0x3b6f333c	0.0036499044
8	0xbe35951a	-0.17732659
9	0xbe68d65c	-0.22738022
10	0x3da49014	0.08035293
11	0xbc0ed9ea	-0.008718947
12	0x3d5b5f45	0.053557653
13	0xbbc7427d	-0.006080924
14	0xbbb81cb0	-0.005618654
15	0xbbe2f12d	-0.006925723
16	0x3d8014dc	0.062539786
17	0x3e6a3d00	0.22874832
18	0x3cef63e5	0.029222438
19	0x3e2d94d3	0.16951303
20	0xbcec3a17	-0.028836293
21	0x3d049634	0.032369807
22	0x3e2e07ec	0.1699521
23	0x3eb5997a	0.35468656
24	0x3ea51ea0	0.32249928
25	0x3bc8d833	0.0061292886
26	0x3c04bb0e	0.008101238
27	0x3c4300de	0.011902062
28	0x3abfcc28	0.0014632987
29	0xbd033884	-0.03203632
30	0xbdf0daff	-0.1176052
31	0xbc78d38e	-0.015187157
32	0x3c9d19c6	0.019177329
33	0xbd6963a2	-0.056979783
34	0x3d5557a0	0.05208552
35	0x3cdf986b	0.027294358
36	0xbd5e81df	-0.054323073
37	0xbb9ba3c2	-0.004749746
38	0x3d759173	0.059953164
39	0x3d73aeb6	0.05949279
40	0x3cc9feef	0.024657695
41	0xbd7645b5	-0.06012507
42	0x3d2227cb	0.03958873
43	0xbd40aa99	-0.047037695
44	0x3e169823	0.14706473
45	0x3c4e4512	0.01258971
46	0x3c42e0b4	0.011894394
47	0x3d9255c4	0.07145265
48	0xbd474fb7	-0.048660006
49	0xbd70f5ec	-0.05882828
50	0x3da02d91	0.07821191
51	0x3e6c3d98	0.23070371
52	0x3eb3e25e	0.35133642
53	0x3ea6dc55	0.32589975
54	0x3ea8c9fa	0.32966596
55	0xbcd95d02	-0.026533607
56	0x3e18a425	0.14906366
57	0x3e0e4c09	0.13896193
58	0x3e16216e	0.1466119
59	0x3e301704	0.1719628
60	0xbcf9ef2f	-0.03050956
61	0x3d0904eb	0.033451956
62	0x3d33de28	0.043913037
63	0x3e0423df	0.12904309
64	0x3e0de823	0.13858084
65	0xbeaa6d25	-0.33286396
66	0xbd8fbc0c	-0.07018289
67	0xbb893290	-0.0041869357
68	0x3c497952	0.012296991
69	0x3cb97e23	0.022643154
70	0xbe196dba	-0.14983264
71	0xbdec7f35	-0.115477
72	0xbdb0966a	-0.08622439
73	0xbe430b93	-0.19047384
74	0xbe9755fd	-0.2955779
75	0xbd989a50	-0.07451308
76	0x3d51de9d	0.05123769
77	0xbcb8a4a5	-0.022539446
78	0xbcd21dc3	-0.025648957
79	0x3aeaf1b0	0.0017924812
80	0xbe1ecf95	-0.15508874
81	0x3e073967	0.13205491
82	0x3d25c061	0.04046667
83	0x3bc7e857	0.006100695
84	0x3c6d9dca	0.014502952
85	0xbd6aa49f	-0.0572859
86	0xbd8863ac	-0.06659636
87	0xbcf770b4	-0.030205108
88	0xbda00d51	-0.0781504
89	0x3d5744c5	0.052555818
90	0xbd920685	-0.0713015
91	0x3d3dae29	0.04630867
92	0x3d36a8ea	0.044594683
93	0x3dee2cef	0.11629664
94	0xbd4681af	-0.04846352
95	0xbde464cc	-0.11152038
96	0x3c3fb7bb	0.01170152
97	0xbd19748e	-0.03746467
98	0x3d0b8689	0.03406385
99	0xbe94a3b9	-0.2903116
100	0xbe4d8842	-0.2007151
101	0xbe4618f6	-0.1934546
102	0x3cda4986	0.026646387
103	0xbe2bd36f	-0.16779874
104	0xbd053efa	-0.032530762
105	0xbd209422	-0.03920377
106	0xbdb30faa	-0.08743222
107	0xbca21d9e	-0.019789513
108	0xbe00f544	-0.12593561
109	0xbd42b45c	-0.047535285
110	0xbd80f026	-0.06295805
111	0xbd046af8	-0.032328576
112	0x3b15510b	0.00227839
113	0x3e0e921d	0.13922925
114	0x3d735207	0.0594044
115	0xbd5d0be2	-0.05396641
116	0xbe2e4b79	-0.17020978
117	0x3d9da5e1	0.076976545
118	0x3ccd15ac	0.025034748
119	0x3ce10d97	0.0274723
120	0x3b569049	0.003273981
121	0xbdb987ce	-0.09059106
122	0x3d250523	0.040288102
123	0x3e0206cf	0.1269791
124	0x3e88789f	0.26654527
125	0xbddfa357	-0.109198265
126	0xbd409654	-0.047018364
127	0x3d0b2058	0.033966392
128	0x3deebc42	0.11657001
129	0xbda9cc67	-0.0829094
130	0xbb283e6f	-0.002567198
131	0x3d4872e6	0.0489377
132	0x3d2ba7af	0.041907962
133	0x3c348fb8	0.011020593
134	0xbcb0c2c5	-0.021577248
135	0x3d0fc5b6	0.03510066
136	0x3cebe786	0.028796922
137	0xbda477ea	-0.08030684
138	0xbd21dc2d	-0.039516617
139	0x3cc524f5	0.024065474
140	0x3d4417a8	0.047874123
141	0xbdbfc8ff	-0.09364509
142	0xbdbbd95e	-0.09172319
143	0xbd34f0c2	-0.044174917
144	0xbdacf5e2	-0.08445336
145	0xbd7d6882	-0.061867245
146	0xbae61acd	-0.0017555595
147	0x3cc5b5c4	0.024134524
148	0xbd40ffb3	-0.047118854
149	0x3c8ffbe3	0.017576164
150	0xbbead486	-0.007166448
151	0x3eadadeb	0.3392175
152	0x3e64c922	0.22342351
153	0x3e9c8702	0.30571753
154	0x3dbb89f2	0.0915717
155	0x3d7b32a4	0.06132759
156	0x3df8ec67	0.12154465
157	0x3ea618e0	0.32440853
158	0x3e6082cc	0.21924895
159	0xbcf4d8da	-0.02988856
160	0xbd17c895	-0.037056524
161	0x3e817add	0.2528905
162	0x3e8fa012	0.2805181
163	0x3e3a0d81	0.18169214
164	0xbd720c4a	-0.05909375
165	0xbdd57798	-0.10423201
166	0x3c7a6e3d	0.015285072
167	0x3db49540	0.0881753
168	0x3b0f59d5	0.0021873612
169	0xbe3a2b07	-0.18180476
170	0x3da53420	0.08066583
171	0xbe0181d2	-0.12647179
172	0x3d4b5795	0.04964407
173	0xbd688ed4	-0.056776837
174	0xbe3e863c	-0.18605894
175	0x3d36f171	0.04466385
176	0x3d6408c3	0.05567242
177	0xbd867b71	-0.06566513
178	0xbdce2334	-0.10065308
179	0xbcec1ef7	-0.028823359
180	0x3d0f067d	0.034918297
181	0xbd71f44e	-0.059070878
182	0xbd928727	-0.071546845
183	0x3d35f96b	0.044427317
184	0xbda2c356	-0.079474136
185	0xbd5e7ebe	-0.05432009
186	0xbe229482	-0.15876964
187	0xbdf00285	-0.117192306
188	0x3deeb9a8	0.11656505
189	0xbe0fe918	-0.14053762
190	0x3e093421	0.13398792
191	0xbd02f727	-0.031973984
192	0xbd9862cd	-0.0744072
193	0x3cf7bde4	0.030241914
194	0xbde5ce20	-0.11220956
195	0x3d357f0a	0.044310607
196	0xbd9cb344	-0.0765138
197	0x3ce33723	0.027736252
198	0x3e3d7cb6	0.18504605
199	0xbe6f7718	-0.23385274
200	0x3e80632d	0.25075665
201	0x3e6509b1	0.22366978
202	0x3e5e20be	0.21692178
203	0x3d919d11	0.07110036
204	0x3dad195a	0.08452101
205	0x3e2a42f1	0.16627099
206	0x3e5517a9	0.20809807
207	0x3e37ba18	0.17942083
208	0x3dee7cc6	0.116448924
209	0xbdaab720	-0.083357096
210	0x3e1d27f2	0.15347269
211	0x3e466144	0.19373041
212	0xbcb63fbc	-0.022247188
213	0x3c5bf88a	0.013425956
214	0xbdba80a3	-0.09106567
215	0x3d9dd57f	0.07706737
216	0x3d9c7833	0.07640114
217	0xbd257d4f	-0.040402707
218	0xbe0d6777	-0.13809
219	0xbe0eb783	-0.13937192
220	0x3e1e72f3	0.15473537
221	0x3dddebc4	0.10835984
222	0xbd881007	-0.06643682
223	0xbe4433b4	-0.19160348
224	0xbe874b70	-0.26424742
225	0x3d278dbc	0.040906653
226	0x3d1447c1	0.036201242
227	0x3d9cb732	0.07652129
228	0xbc3e7c39	-0.011626297
229	0x3d98ae5a	0.0745513
230	0xbd1c875f	-0.038215037
231	0x3cad5a35	0.021161178
232	0x3caba6df	0.020953594
233	0xbcdc028a	-0.02685668
234	0xbde69719	-0.11259288
235	0xbc97fe8b	-0.018553993
236	0xbcb73df3	-0.022368407
237	0xbda20325	-0.07910756
238	0x3cdc3a0c	0.026883148
239	0x3d2c2408	0.04202655
240	0xbd850b70	-0.06496322
241	0x3c085602	0.008321287
242	0xbd765fc3	-0.06014992
243	0x3d66e5da	0.056371547
244	0xbcae93c4	-0.021310695
245	0xbda88d55	-0.08230082
246	0x3d8246f6	0.06361191
247	0x3d80fff1	0.06298817
248	0xbbbc7441	-0.0057511632
249	0x3cfd91c2	0.030953292
250	0xbda22d08	-0.07918745
251	0xbe96c478	-0.2944677
252	0xbedad916	-0.42743748
253	0xbe5a8862	-0.21341088
254	0xbd454c8a	-0.048168696
255	0xbdf81833	-0.12113991

fc_net.0.bias f4 [64]
0	0xbc80c0d3	-0.015716946
1	0xbd8c63ee	-0.068549976
2	0x3e069d1d	0.13145871
3	0xbd8d3e35	-0.06896631
4	0x3e16743e	0.1469278
5	0xbd858e83	-0.065213226
6	0x3e210d1b	0.15727656
7	0x3d36cfd0	0.04463178
8	0xbd2e3d1f	-0.04253876
9	0xbc8f13be	-0.017465468
10	0x3d001a07	0.03127482
11	0x3de4a544	0.111643344
12	0x3c8a2f2f	0.016868202
13	0x3d9669a7	0.0734437
14	0x3e04b0a5	0.1295801
15	0x3c6cc96c	0.01445232
16	0xbd586b79	-0.05283687
17	0x3dd8d555	0.10587565
18	0xbd8cd559	-0.0687663
19	0x3dc4d4ba	0.09610887
20	0x3c99be8f	0.018767623
21	0xbb6a3c16	-0.003574138
22	0x3d21c9a5	0.039498944
23	0xbcf5eb20	-0.030019343
24	0x3d505aa4	0.05086769
25	0x3d9679c0	0.07347441
26	0x3d78a472	0.060703702
27	0x3dfb935c	0.12283966
28	0x3e1155c1	0.14192869
29	0xbdb28b20	-0.08717942
30	0xbbc327da	-0.0059556784
31	0xbde3c955	-0.111223854
32	0x3d61676a	0.055030264
33	0x3da1a5c3	0.07892945
34	0x3d203250	0.03911048
35	0x3d3e01dd	0.046388496
36	0xbd952c13	-0.07283797
37	0x3d75f056	0.060043655
38	0xbdef9784	-0.11698821
39	0x3a10f464	0.0005529581
40	0x3ca58cc7	0.02020873
41	0x3dae5cfc	0.08513829
42	0x3d08659f	0.03330004
43	0x3d8efbb8	0.06981605
44	0x3d84cd58	0.06484479
45	0x3df97ee6	0.12182407
46	0x3dc9eb8f	0.09859382
47	0xbd74446c	-0.059635565
48	0xbd2deb2a	-0.042460598
49	0x3d03d8fd	0.032189358
50	0x3dfc1bcf	0.123099916
51	0x3da3bdac	0.079951614
52	0x3cb93443	0.022607928
53	0x3dacde81	0.08440877
54	0x3c77d178	0.015125625
55	0xbd69b936	-0.057061397
56	0x3dfb3394	0.12265697
57	0xbdda6384	-0.10663512
58	0xbd6a3bc5	-0.057185907
59	0x3da43a73	0.08018961
60	0xbd0121f4	-0.03152652
61	0xbd51b4b3	-0.05119772
62	0xbda76eda	-0.0817544
63	0x3d1f6b8e	0.03892093

fc_net.2.weight f4 [64, 64]
0	0x3e33edc2	0.17571166
1	0x3ccae8a1	0.02476913
2	0xbdf14f46	-0.11782698
3	0x3e3ffb00	0.18748093
4	0xbd045237	-0.03230497
5	0x3d4c1b9e	0.049831025
6	0x3d91fcf5	0.07128326
7	0xbddc6aac	-0.107625335
8	0x3e31e983	0.17374234
9	0xbe318331	-0.17335202
10	0x3dcbbf19	0.09948558
11	0xbdc26b87	-0.094931655
12	0x3e3022bb	0.17200749
13	0xbe49a307	-0.19691096
14	0xbd2f1de0	-0.0427531
15	0x3dd590ee	0.10428034
16	0x3d74c58d	0.05975871
17	0x3ce02e49	0.02736582
18	0x3e8ca120	0.2746668
19	0x3da11e71	0.07867134
20	0x3e6fc0d5	0.23413403
21	0x3cda15a8	0.026621655
22	0xbe015ea8	-0.12633765
23	0x3b51e77f	0.0032028852
24	0xbe00a9e0	-0.12564802
25	0xbd0cc54f	-0.034367856
26	0x3da967bd	0.0827174
27	0xbd883b3d	-0.06651924
28	0xbdaa545d	-0.08316872
29	0x3d4d7748	0.050162584
30	0xbe736a8f	-0.23771118
31	0x3e8f665b	0.2800778
32	0xbc36738f	-0.01113595
33	0x3d549bcd	0.051906396
34	0x3e232e64	0.15935665
35	0xbce8c078	-0.028412089
36	0xbcc85493	-0.02445439
37	0x3db88c9b	0.09011193
38	0xbce3c6e8	-0.027804807
39	0x3e779812	0.24179104
40	0x3e963737	0.29339
41	0x3dc87055	0.09787051
42	0x3dedac1d	0.11605094
43	0x3de73d42	0.11290981
44	0xbd34968a	-0.044088878
45	0xbde22c36	-0.11043589
46	0xbd8de8c5	-0.06929163
47	0x3e7f92be	0.24958321
48	0x3e75509f	0.23956536
49	0xbe9ec648	-0.31010652
50	0x3dade9fc	0.084918946
51	0x3e276fc1	0.16351224
52	0xbe043e16	-0.12914309
53	0x3dd3189e	0.1030743
54	0x3e81b767	0.25335237
55	0xbd306734	-0.043067172
56	0xbe5afd39	-0.2138566
57	0xbd901906	-0.07036023
58	0xbd01a5ca	-0.03165225
59	0xbe4c2843	-0.19937234
60	0x3e5fe1a7	0.21863423
61	0xbd950078	-0.0727548
62	0xbd643c9e	-0.05572187
63	0x3e75fb16	0.24021563
64	0xbcd20888	-0.025638834
65	0xbd1dba98	-0.038508028
66	0x3daa55d2	0.0831715
67	0xbe27bfae	-0.16381714
68	0x3dc306f2	0.09522809
69	0xbdf089b6	-0.11745016
70	0x3e2c66f8	0.16836154
71	0x3dc8e3d8	0.09809083
72	0xbe310cbf	-0.17290018
73	0xbc3b5cda	-0.011435712
74	0xbd1e284f	-0.03861266
75	0x3d571fe7	0.05252066
76	0xbe06073f	-0.13088702
77	0xbd71965d	-0.05898129
78	0x3e7989a3	0.2436891
79	0x3e05e97a	0.13077345
80	0xbe827b84	-0.2548486
81	0x3e0fca39	0.14041986
82	0xbe1bdf26	-0.15221843
83	0x3da9bb66	0.082876965
84	0xbd9fcc1b	-0.07802602
85	0x3e3d0c49	0.18461718
86	0x3def8ce7	0.11696797
87	0xbc9f9cec	-0.019484006
88	0x3e7f16e2	0.24911073
89	0xbc4ed9cb	-0.012625168
90	0x3ddb3608	0.10703665
91	0x3e9d1450	0.3067956
92	0x3e1b76f8	0.15182102
93	0xbe9a7f07	-0.3017504
94	0x3dab4fa7	0.08364802
95	0xbe5f235c	-0.21790832
96	0x3e2de03d	0.16980071
97	0x3d3fff0f	0.046874102
98	0x3c81e9fe	0.015858646
99	0xbdd1001f	-0.10205101
100	0xbd2a281c	-0.041542158
101	0x3dc13e15	0.09435669
102	0xbe258426	-0.16163692
103	0xbe4eaae1	-0.20182373
104	0x3df4cddd	0.11953328
105	0x3d382025	0.04495253
106	0xbd2e77bb	-0.042594653
107	0x3e2c11b9	0.16803636
108	0x3d9c717d	0.07638834
109	0x3e4ab53d	0.197957
110	0x3dbdc718	0.0926649
111	0xbe0fdde9	-0.14049496
112	0x3c429d84	0.011878375
113	0xbd8d6d15	-0.06905571
114	0x3b5985ae	0.0033191252
115	0x3da99d0e	0.08281909
116	0xbdf18b6d	-0.117941715
117	0x3ddd57b1	0.108077414
118	0xbe0884c5	-0.13331898
119	0xbe183bef	-0.14866613
120	0x3d9c33b7	0.07627051
121	0xbd008a49	-0.03138188
122	0xbda179ea	-0.078845814
123	0x3e4ea088	0.20178425
124	0xbdcb324b	-0.09921702
125	0xbd2679bf	-0.04064345
126	0xbddd3153	-0.108004235
127	0x3e648d6d	0.22319575
128	0xbd629173	-0.055314492
129	0x3df33e8f	0.118771665
130	0xbd69568f	-0.056967314
131	0xbe1db823	-0.15402274
132	0xbddb3de4	-0.10705164
133	0xbd9dfc6e	-0.07714163
134	0xbd3b842a	-0.04578034
135	0xbd8b4b59	-0.06801481
136	0xbe10c746	-0.14138517
137	0x3e0c0dce	0.13677141
138	0xbdfb0294	-0.12256351
139	0x3cc8ffeb	0.024536094
140	0x3ca2c214	0.019867934
141	0x3d1d5137	0.03840753
142	0xbda0c6c0	-0.078504086
143	0xbea60e03	-0.32432565
144	0xbdc509de	-0.09621023
145	0xbe8e5db3	-0.27805862
146	0xbde5c87b	-0.11219879
147	0xbe178a37	-0.14798819
148	0x3e01756e	0.12642452
149	0xbe878cfa	-0.26474744
150	0xbe7ff296	-0.24994883
151	0x3e14f26a	0.14545599
152	0xbe27a483	-0.1637135
153	0xbcf5e6b4	-0.030017234
154	0xbe90ed08	-0.2830584
155	0xbdedc10c	-0.116090864
156	0x3e45683c	0.19278044
157	0x3d324044	0.04351832
158	0xbd36e821	-0.04465497
159	0x3d395922	0.04525102
160	0x3e7db907	0.24777614
161	0xbe18afcf	-0.14910816
162	0xbd5b12a4	-0.053484574
163	0xbda2315b	-0.0791957
164	0x3d246070	0.040131032
165	0x3c894801	0.016757967
166	0x3df56bde	0.11983465
167	0x3dd5d1fc	0.10440442
168	0xbe2df8d6	-0.16989455
169	0xbcf03fa7	-0.029327227
170	0xbd24312b	-0.040085953
171	0xbe99e91b	-0.30060658
172	0xbdf1965e	-0.117962584
173	0xbd01d82e	-0.031700306
174	0xbc31311c	-0.010814931
175	0x3d8bc3b7	0.06824439
176	0x3d7d41ba	0.06183026
177	0x3e438f6c	0.1909768
178	0xbdd1e02b	-0.10247835
179	0xbe74838e	-0.23878309
180	0x3e04398f	0.12912582
181	0xbe733a6b	-0.23752753
182	0x3d10bbdf	0.035335418
183	0x3e4570a3	0.19281249
184	0xbd404c94	-0.04694803
185	0x3ddc9f89	0.107726164
186	0x3d829d64	0.06377676
187	0x3de70123	0.11279514
188	0xbc45ec8c	-0.012080323
189	0x3e90350f	0.2816548
190	0x3df82e9f	0.12118267
191	0xbd58a665	-0.05289306
192	0xbc96f5b7	-0.018427713
193	0xbe68a417	-0.22718845
194	0x3e70657d	0.23476215
195	0x3cb5afaf	0.022178499
196	0x3d8f140d	0.06986246
197	0x3d516ed5	0.05113109
198	0x3e9eacde	0.30991262
199	0x3d610516	0.05493649
200	0x3e1479e6	0.14499626
201	0x3ce1875e	0.027530368
202	0xbd919822	-0.07109095
203	0x3e0ba550	0.1363728
204	0x3db1bbfd	0.08678434
205	0x3d4776c2	0.04869724
206	0x3e85afc4	0.2611066
207	0x3e352821	0.17691089
208	0xb5cd2600	-1.528475e-06
209	0x3e950cac	0.2911123
210	0xbd876ffb	-0.066131555
211	0x3e0b670e	0.13613531
212	0xbd04f525	-0.03246035
213	0x3df11676	0.11771862
214	0x3e685896	0.22690043
215	0xbe701a8c	-0.23447627
216	0x3e9092bb	0.28236946
217	0x3e325167	0.17413865
218	0x3e1e4fd5	0.15460141
219	0x3e2a9b82	0.16660884
220	0xbb861cd0	-0.00409279
221	0xbe612403	-0.21986394
222	0x3df9818b	0.121829115
223	0xbe507b23	-0.20359473
224	0x3df3a62c	0.11896929
225	0x3da0fcee	0.078607425
226	0x3e395cf7	0.1810187
227	0xbc8cfb10	-0.01720956
228	0xbcab2165	-0.020889947
229	0x3d942e57	0.07235401
230	0xbdac5772	-0.08415116
231	0xbe60f154	-0.2196706
232	0xbd639f93	-0.055572104
233	0xbbcaa85a	-0.00618462
234	0x3e0be02e	0.13659737
235	0x3e82c121	0.2553797
236	0x3e8b9329	0.27260712
237	0x3e0a7c01	0.13523866
238	0x3dc4f761	0.09617496
239	0xbe052dc3	-0.13005738
240	0x3d272951	0.040810887
241	0xbe1b57b7	-0.1517018
242	0x3e5d3f85	0.21606262
243	0x3d022bb8	0.031779975
244	0xbe165724	-0.14681679
245	0x3e8205f4	0.25395167
246	0xbcb377c2	-0.02190769
247	0xbea9dbc6	-0.33175486
248	0x3e00d420	0.1258092
249	0xbe1c3c7c	-0.15257448
250	0x3b68f8ae	0.0035548615
251	0x3dafe045	0.08587698
252	0xbda2c0f9	-0.07946963
253	0xbe489f36	-0.19591984
254	0xbd844b38	-0.06459659
255	0x3d53bc63	0.05169333

fc_net.2.bias f4 [64]
0	0xbd9fa69e	-0.077954516
1	0x3da9870c	0.08277711
2	0xbd2d4dd4	-0.04231055
3	0x3e30dba0	0.1727128
4	0x3dfc378a	0.12315281
5	0x3b886f3b	0.0041636503
6	0xbc502f52	-0.012706595
7	0xbd145fad	-0.036224056
8	0x3de811df	0.11331534
9	0xbe132e87	-0.14373218
10	0x3e22d8de	0.15903041
11	0xbd2abe8c	-0.041685626
12	0xbca0b2c8	-0.0196165
13	0x3d96e096	0.07367055
14	0x3d4eba59	0.050470684
15	0x3da39b10	0.0798856
16	0x3d49aa16	0.049234472
17	0xbe0f6ed8	-0.14007127
18	0xbcc5cf67	-0.024146749
19	0xbc48d19a	-0.012257004
20	0x3d9b74a5	0.075906076
21	0x3d95f748	0.07322556
22	0x3d2cc311	0.042178217
23	0x3de2e3ee	0.110786304
24	0x3d88666c	0.066601604
25	0xbd2e8b38	-0.042613238
26	0x3cea1140	0.028572679
27	0x3d836062	0.06414868
28	0xbd42d6b8	-0.047568053
29	0x3cb86af1	0.022511931
30	0x3df4e733	0.1195816
31	0x3d87f3f7	0.066383295
32	0x3e39b91a	0.18137017
33	0x3e3df68e	0.18551084
34	0x3e160405	0.14649971
35	0xbcdbd921	-0.026836934
36	0x3db743ef	0.08948504
37	0xbd9bbb89	-0.07604129
38	0x3df7845b	0.12085792
39	0xbdb5582a	-0.088547066
40	0xbd152e17	-0.036420908
41	0xbd4af8e4	-0.049553767
42	0x3d7bf292	0.06151063
43	0xbc22efc5	-0.009944861
44	0xbd87c7e7	-0.06629925
45	0x3c931201	0.01795292
46	0x3dad40ee	0.0845965
47	0x3bc44160	0.0059892386
48	0x3e0f7b66	0.14011917
49	0x3d8c65c0	0.06855345
50	0xbe01574d	-0.12630959
51	0x3cb3dfae	0.021957245
52	0xbcffff78	-0.031249747
53	0x3cd44da3	0.025915926
54	0x3c890c1d	0.016729409
55	0x3d839f87	0.06426912
56	0x3d5bd3de	0.05366885
57	0x3d9c1ac6	0.07622294
58	0x3c9fd319	0.019509839
59	0xbd697cb5	-0.057003696
60	0x3e0cb7ec	0.13742036
61	0x3dd7d3ec	0.10538468
62	0xbda38ac1	-0.079854496
63	0x3daf29b7	0.08552878

action_head.weight f4 [4, 64]
0	0x3be636aa	0.0070255594
1	0x3e17b745	0.14816006
2	0xbe9d1812	-0.30682427
3	0x3e0c15d9	0.13680209
4	0xbd2c503b	-0.0420687
5	0xbdd302e9	-0.103032894
6	0xbdaae261	-0.083439596
7	0xbe96d174	-0.29456675
8	0x3d95937a	0.073035195
9	0xbe728c78	-0.23686397
10	0x3e2b3717	0.16720234
11	0xbe9134d7	-0.28360626
12	0xbe0ee6e0	-0.1395526
13	0x3e2e5b3d	0.17026992
14	0x3d98f0a3	0.07467773
15	0x3e17a808	0.14810193
16	0x3e61a8fd	0.2203712
17	0xbcf69cb9	-0.030104028
18	0x3d866e6a	0.065640286
19	0xbe974e70	-0.2955203
20	0x3e75329a	0.23945084
21	0xbd22ae9c	-0.0397173
22	0xbd98d090	-0.07461655
23	0xbe926a74	-0.28596842
24	0xbeaf8caf	-0.3428702
25	0xbe25700f	-0.16156028
26	0x3e5a0c2c	0.21293706
27	0xbe894e8e	-0.26817745
28	0xbeb4c7fe	-0.35308832
29	0xbe8b52d6	-0.27211636
30	0x3e2ea123	0.17053656
31	0xbe8cab26	-0.27474326
32	0x3ebb1432	0.36538845
33	0x3e8241ad	0.25440732
34	0xbe0f3e3b	-0.13988583
35	0x3dd50b01	0.104024895
36	0x3e44cc65	0.19218595
37	0xbd9fa637	-0.07795375
38	0x3d320969	0.043466005
39	0x3ddf92ae	0.10916649
40	0x3e85bc09	0.26120022
41	0xbeaf8afa	-0.34285718
42	0xbd2f980f	-0.042869624
43	0xbeb0a46b	-0.3450044
44	0xbe5e072d	-0.21682425
45	0xbde6558e	-0.11246787
46	0x3e9006bf	0.28130147
47	0xbeb5485f	-0.35406777
48	0x3e89cdd3	0.26914844
49	0x3e570e81	0.21001627
50	0xbd8eef6d	-0.069792606
51	0x3d88996e	0.066698894
52	0xbe8e0dce	-0.27744907
53	0xbeae6080	-0.34058
54	0xbd3fe37c	-0.046847805
55	0x3ea5e015	0.32397524
56	0xbd4bd476	-0.049763165
57	0x3e814ba9	0.25253037
58	0x3e280e13	0.16411619
59	0xbe7ad758	-0.2449621
60	0x3e7df778	0.24801433
61	0x3e316706	0.17324457
62	0xbe415305	-0.18879326
63	0xba2b66e5	-0.0006538465
64	0xbd9c0ede	-0.07620023
65	0xbe4e510d	-0.20148106
66	0x3e691749	0.22762789
67	0xbebba2d8	-0.36647677
68	0x3c28f86b	0.010313134
69	0xbd8b7ae0	-0.06810546
70	0xbe3350b9	-0.17511262
71	0x3ebd3ce6	0.36960524
72	0x3e350519	0.17677726
73	0x3cfd573a	0.030925382
74	0x3d33bd40	0.043881655
75	0x3e129fa0	0.14318705
76	0x3cc83497	0.02443914
77	0xbe923b73	-0.2856098
78	0x3ca9499c	0.020664982
79	0xbe958a3a	-0.2920702
80	0xbe927e87	-0.28612158
81	0xbd0f5490	-0.034992754
82	0xbd553ad8	-0.05205807
83	0x3ea9b649	0.33146885
84	0xbe66cfee	-0.22540256
85	0x3d3aa41b	0.04556666
86	0x3e763823	0.24044852
87	0x3e7aab5f	0.24479435
88	0x3ed3c0b3	0.41357955
89	0x3e3d3ac0	0.18479443
90	0xbe19796f	-0.1498773
91	0x3eba193f	0.36347386
92	0x3ed9c55b	0.42533383
93	0x3ea84ebd	0.32872573
94	0xbea06723	-0.31328687
95	0x3e6e1d7b	0.23253433
96	0xbea96c9a	-0.3309067
97	0xbec3cf6d	-0.3824419
98	0x3de5bfa6	0.11218195
99	0xbe1e6f8b	-0.15472238
100	0xbe9f3aab	-0.31099448
101	0xbe4d06e4	-0.2002216
102	0x3dafd1e2	0.08584954
103	0xbe8eb4e3	-0.2787238
104	0xbec95d0c	-0.39328802
105	0x3e21d756	0.158048
106	0xbdb132d3	-0.08652272
107	0x3ec8fb16	0.39254063
108	0x3ec2368f	0.3793225
109	0xbe17a9ee	-0.14810917
110	0xbea3c20c	-0.31983984
111	0x3ec0f77f	0.37688825
112	0xbe84aa50	-0.25911188
113	0xbe52c26c	-0.20581979
114	0xbe1f2141	-0.15540029
115	0xbe570d1a	-0.21001092
116	0x3db880c5	0.09008936
117	0x3eb8304c	0.35974348
118	0x3d1e8aae	0.038706474
119	0xbe351517	-0.17683826
120	0xbddf8ce8	-0.109155476
121	0xbea5971a	-0.32341844
122	0xbe94b1ba	-0.29041845
123	0x3e2aeba3	0.16691451
124	0xbed3b3b7	-0.4134805
125	0xbd64187c	-0.055687413
126	0x3eb57be3	0.3544608
127	0xbe18a844	-0.14907938
128	0x3e3b0b1c	0.18265957
129	0xbe894d17	-0.26816627
130	0xbe217167	-0.15765916
131	0xbe0189fc	-0.12650293
132	0xbed0355a	-0.40665704
133	0x3e656075	0.22400077
134	0x3eb7fa32	0.3593307
135	0xbd42fa74	-0.047602132
136	0x3e602a0a	0.21891037
137	0x3ead93fc	0.33901966
138	0xbeb36776	-0.35039872
139	0x3d33d3ba	0.04390309
140	0xbed4d85c	-0.4157132
141	0x3e6eb82e	0.23312446
142	0xbed5f701	-0.41790012
143	0x3e62c2ca	0.22144619
144	0xbe975504	-0.2955705
145	0x3e3d514d	0.18488045
146	0x3e96eb39	0.29476336
147	0x3e0a8448	0.13527024
148	0x3eb71e7b	0.35765442
149	0x3ec020f4	0.3752514
150	0x3e8280b0	0.25488806
151	0xbe7345e0	-0.23757124
152	0x3d567e0a	0.052366294
153	0x3d60dd74	0.054898694
154	0xbe9002c7	-0.2812712
155	0x3d85c4f9	0.0653171
156	0xbea5cc6e	-0.3238253
157	0xbd71244a	-0.0588725
158	0xbe34a645	-0.17641552
159	0xbd19b230	-0.03752345
160	0x3ce53c8c	0.027982973
161	0x3dc8b27d	0.09799669
162	0xbec7221a	-0.38893205
163	0xbea0a04c	-0.31372297
164	0xbea83fb4	-0.32861102
165	0xbc8b844f	-0.017030863
166	0x3dce4ce6	0.10073261
167	0x3ebaf917	0.36518165
168	0x3db94fdb	0.09048434
169	0x3eb0a1cf	0.3449845
170	0x3e9d80c6	0.3076231
171	0x3cce19ac	0.025158726
172	0xbd7a7b00	-0.06115246
173	0xbeaf9414	-0.34292662
174	0xbe9fae32	-0.31187588
175	0xbd7343da	-0.05939088
176	0xbd991266	-0.07474212
177	0xbe704eef	-0.23467611
178	0x3ea9eca3	0.33188352
179	0xbe5d89f4	-0.21634656
180	0xbe6b6106	-0.2298623
181	0xbde786d6	-0.11305015
182	0x3df6e04d	0.12054501
183	0xbe930610	-0.28715563
184	0xbe3fecf2	-0.18742731
185	0xbe97078d	-0.29497948
186	0x3ebc6e8b	0.36803088
187	0x3e8ba962	0.27277666
188	0x3e808421	0.25100806
189	0xbe7e1f93	-0.24816732
190	0x3cf97330	0.030450433
191	0x3e4e4ebb	0.20147221
192	0xbe87da5c	-0.26533782
193	0x3d2d2cc7	0.04227903
194	0xbd807bc2	-0.06273605
195	0xbc579461	-0.013157935
196	0x3e6ba17b	0.23010819
197	0xbe2996ae	-0.16561386
198	0xbee62146	-0.4494726
199	0xbd15b394	-0.036548212
200	0xbecfbd40	-0.40574074
201	0xbe351c22	-0.17686513
202	0x3e965743	0.2936345
203	0x3defd097	0.11709707
204	0x3ec41a9d	0.38301554
205	0xbe0d2d40	-0.13786793
206	0x3e3f8030	0.18701243
207	0xbe74ce69	-0.23906864
208	0x3ea5b6c9	0.32366017
209	0x3d86762d	0.06565509
210	0xbe4ba36e	-0.19886562
211	0xbe5b35ae	-0.21407196
212	0xbe94b0a3	-0.29041013
213	0xbebdd278	-0.37074637
214	0xbe987de8	-0.2978356
215	0x3e85998e	0.26093715
216	0x3d8614d8	0.065469444
217	0xbea054fa	-0.31314832
218	0x3e6b5b5d	0.22984071
219	0xbe5d95e6	-0.21639213
220	0x3e00ef5c	0.12591308
221	0x3e180723	0.14846472
222	0x3d9987da	0.07496615
223	0x3d737730	0.059439838
224	0xbdd56045	-0.104187526
225	0xbe5645e0	-0.20925093
226	0x3e93c49a	0.28860933
227	0x3e9b07ce	0.30279392
228	0x3ea1f58f	0.3163266
229	0x3e3cf901	0.18454362
230	0xbe8e86ce	-0.27837223
231	0xbe9408b9	-0.28912905
232	0xbe157ac2	-0.1459761
233	0xbea444dd	-0.3208379
234	0xbe96ea93	-0.2947584
235	0xbdf2c381	-0.11853696
236	0x3e3dc4cd	0.18532105
237	0x3ebbbd8c	0.3666805
238	0x3e9217c1	0.28533748
239	0xbd853ed0	-0.06506121
240	0xbc043ba6	-0.008070862
241	0x3c340782	0.010988118
242	0xbe796795	-0.2435592
243	0x3ebab4e8	0.36466146
244	0x3ea50408	0.32229638
245	0xbc493a41	-0.012281955
246	0x3cf1cdfe	0.02951717
247	0x3e5b4864	0.21414334
248	0x3e8e6447	0.2781088
249	0x3e8db270	0.276752
250	0xbe93ccda	-0.28867227
251	0xbe752b14	-0.23942214
252	0xbea51daa	-0.32249194
253	0xbbee4c7a	-0.0072723003
254	0xbe2c0ae5	-0.16801031
255	0xbecd33a6	-0.40078467

action_head.bias f4 [4]
0	0xbcf14392	-0.029451165
1	0xbdaab884	-0.08335975
2	0xbc0abf22	-0.008468421
3	0xbc6df092	-0.014522688
