output/4-agents_domain-CoinGame-4_MATE-TD-T4_2022-08-09-02-34-17/actor_net_2.pth (torch, 45463 bytes, 6 tensors)

fc_net.0.weight f4 [64, 100]
000000 a4 2b 13 3e 7b 56 cc 3d 35 fa a2 3d 4c d0 b4 3c
       0.14372116 0.09977432 0.079578795 0.02207198
000010 9c d1 65 3e fd cf 48 3e 33 58 80 3d 48 f4 39 3d
       0.22443241 0.19610591 0.06266823 0.04539898
000020 ad 6e 2e 3e 0b df 3b bc 3b a8 e0 3d 6c 20 aa bd
       0.17034407 -0.011466752 0.109695874 -0.08306965
000030 a9 1f 9b bd 1c fb 73 bd 8f b2 29 3c cd 20 a8 3d
       -0.07574398 -0.05956565 0.010357513 0.08209381
000040 8c df 5a be 8b 0c d7 bd f3 76 97 bd 7e 50 a3 bd
       -0.21374339 -0.10500439 -0.07395735 -0.07974337
000050 29 75 91 bd 50 96 52 be 31 ae 2f be 93 13 81 be
       -0.07102425 -0.20565152 -0.17156292 -0.25210246
000060 ea 4b 8a be 0c b7 f6 bc 98 30 92 bd 3b 91 bd bd
       -0.27011043 -0.03011658 -0.07138175 -0.09256216
000070 8e 65 85 bc ec bc 63 3c 0e 4e 54 3d f3 d7 45 3b
       -0.016283777 0.013900023 0.05183225 0.003018853
000080 1d a5 79 bc c8 20 64 3d 82 43 01 bd 0d 13 ae 3d
       -0.01523712 0.055695325 -0.03155852 0.084997274
000090 11 4d ea 3c f4 86 d6 bc d2 13 b7 bc b8 33 da 3d
       0.028601201 -0.026187398 -0.022348318 0.10654396
0000a0 19 cb 40 3d 5c e6 7d bd 10 93 c2 3c 30 0b 55 3d
       0.04706869 -0.061987266 0.023751765 0.052012622
0000b0 9b c2 19 bd 4c 2a d6 bc 2c c4 10 bd 03 d8 b0 bc
       -0.037539106 -0.026143216 -0.035343334 -0.021587377
0000c0 26 5a 87 3d 23 b7 a5 bc 14 4d 2f be a4 42 93 be
       0.06608991 -0.020228928 -0.17119247 -0.2876178
0000d0 b0 13 35 be 89 8d a9 be f1 c8 fd bd 45 6f e7 bb
       -0.17683291 -0.33115795 -0.12391842 -0.007062825
0000e0 31 05 7d be dd cd 4e be 92 d5 ee bd 3a 29 fc bc
       -0.24709012 -0.20195718 -0.11661829 -0.030781377
0000f0 c3 39 95 bd 8d 95 0e 3d 27 ec 95 ba 7d ed 24 3c
       -0.07286408 0.03481059 -0.0011438177 0.010066387
000100 be b1 fb 3d 61 0d 5f 3d 2e 7b ad 3d c9 25 f7 3d
       0.12289761 0.05445612 0.0847076 0.12067754
000110 af 98 3c 3e f1 b7 9d 3e 7e b2 31 3e 55 13 f2 bb
       0.18417619 0.308044 0.17353246 -0.0073875585
000120 3c 20 5d 3e 1a 18 7c 3e 8f 9d 7d 3e d1 25 e3 bd
       0.21594328 0.24618569 0.24767135 -0.11091197
000130 49 9b 2e be c3 22 12 be 58 ed 69 be 17 2c 25 be
       -0.17051424 -0.14271073 -0.22844446 -0.161301
000140 d8 ea 43 bd 91 24 a5 3d 1e d3 b2 bd 35 20 fd bc
       -0.047831386 0.08063615 -0.08731674 -0.030899147
000150 1b 0a b5 bd c8 31 da bd 7c 47 81 3d 0f 83 08 3e
       -0.08839818 -0.10654026 0.06312463 0.13331245
000160 b9 61 9c 3d bf 95 e6 3d 67 9c d8 bd 74 f3 31 be
       0.076358266 0.112590306 -0.105767064 -0.17378026
000170 6f a3 00 be fa 18 b1 bd 26 cf 92 3e e8 03 6b 3d
       -0.12562345 -0.08647342 0.28673667 0.057376772
000180 bf b1 5d b9 99 14 89 3d 04 b8 cb 3d 1b 2b c7 3e
       -0.00021142418 0.06693382 0.099472076 0.38900074
000190 fc 78 6d 3e 65 41 42 3e 49 9f 51 3e db 49 00 3d
       0.23190683 0.18970259 0.20470919 0.031320434
0001a0 0e 5f 1e bd 8e 55 76 3e cb 1c 3e 3e 75 72 2a 3e
       -0.03866487 0.24056074 0.18565671 0.16645224
0001b0 25 a6 b7 3c 98 80 0b be 5a db 0f 3e cf 71 35 3e
       0.022418091 -0.13623273 0.1404852 0.17719196
0001c0 d3 cb 1f 3c 1c 1c a6 bd 3e 8c 8f be fe 54 a7 3d
       0.009753185 -0.0811083 -0.28036684 0.08170508
0001d0 93 42 d6 bd 23 be 14 3e aa c8 7c be 37 42 c4 be
       -0.10461917 0.14525656 -0.24685922 -0.38331768
0001e0 2a be 7e bd 10 35 2c 3d 81 f5 91 bd 5f 7f 96 bd
       -0.062193073 0.04204279 -0.07126904 -0.07348513
0001f0 60 5e 5b be 39 b3 ab 3d 70 b0 0b 3c f7 95 d4 bc
       -0.2142272 0.083837934 0.008525953 -0.025950415
000200 94 c4 91 bd 9f fa 8e 3d 50 d9 c9 3d ee fb fd 3c
       -0.071175724 0.06981396 0.09855902 0.031003918
000210 b4 92 37 bd 82 b7 1f bd 9a 97 7f 3d 0d aa 87 3d
       -0.04481764 -0.038993366 0.062400438 0.066242315
000220 cc aa e8 bc 6b 30 d7 3c b1 1c 15 3d 9a 4d d6 bd
       -0.028401755 0.026268205 0.036404315 -0.1046402
000230 1b 3e f0 ba f1 31 1a bd 35 73 b7 3d a8 4e ef 3c
       -0.0018329056 -0.037645284 0.08957521 0.02921231
000240 f1 60 90 3b 69 2b 3f 3b fb a7 4e bb ff 7e 62 bd
       0.0044060876 0.0029170162 -0.003153323 -0.055296894
000250 d8 ef c3 bc b5 de 93 3b 9f 00 ac be a8 22 8e be
       -0.023918077 0.0045126327 -0.33594224 -0.27760816
000260 39 73 4c be 3f c6 d4 bd 44 26 c3 3d 5c 16 04 be
       -0.19965829 -0.10389375 0.09528783 -0.12899154
000270 04 22 6c be 85 fe 74 be 9b 6d 9d bd 95 38 2a 3e
       -0.23059851 -0.23925216 -0.07686921 0.16623147
000280 68 88 a4 be 02 56 2f be 68 b9 8b bd 52 5b 03 bd
       -0.3213532 -0.17122653 -0.06822473 -0.03206951
000290 6a 72 98 3e 95 f4 3d bd 82 25 ef bd ab f2 21 bd
       0.2977479 -0.04637583 -0.11677076 -0.039538067
0002a0 eb 14 d3 3d 38 07 35 3e 7a 7b 2b 3c 0b 42 85 3d
       0.10306724 0.17678535 0.010466451 0.06506737
0002b0 ec 5c 02 be 0e 9d be 3d 0d ed 2c 3e d9 8f 36 3d
       -0.1273076 0.093072996 0.16887303 0.044570778
0002c0 76 ac 55 bd 5c 39 66 be a8 0f 06 bc 5c b9 24 bc
       -0.052166425 -0.22482818 -0.008182444 -0.010053959
0002d0 66 0b 14 be f3 e2 f6 3c 3d 93 36 be e3 ed 31 3d
       -0.14457473 0.030137515 -0.17829604 0.043439757
0002e0 b0 80 02 3e 73 a0 96 3d 62 f6 53 3d 64 bd 98 3d
       0.12744403 0.07354822 0.05174864 0.074579984
0002f0 fa 5d c9 3c de bf a7 3e 1e 44 c8 3d d4 ef d4 3d
       0.024580944 0.3276357 0.09778617 0.10397306
000300 db a6 52 3d e8 1e a8 3c 94 48 d6 3d 24 52 11 3d
       0.051428657 0.02052255 0.10463062 0.035478726
000310 c0 d3 d4 3c 57 83 c7 3d f3 3d dd 3d 54 ef 05 3e
       0.025979877 0.09741848 0.108028315 0.13079578
000320 cf 6a 70 bd 9d 5d f8 3d 68 96 cc bd f7 86 c4 bd
       -0.05869561 0.1212723 -0.09989625 -0.09596055
000330 80 48 af be 15 8c 50 3d 38 e0 0b 3e ec 56 8b 3d
       -0.34235 0.050914843 0.13659751 0.068036884
000340 f8 0c cf bd 67 6a 55 be 8c f8 2c 3e 86 9d c6 3d
       -0.101098955 -0.2084137 0.16891688 0.09698014
000350 24 c4 3e 3e 0e 35 90 3d 05 c2 00 be 1e e5 02 3e
       0.18629509 0.070413694 -0.12574013 0.12782714
000360 2a 7e 7f 3c 75 a2 95 3e 44 08 f1 bc ce 33 5c be
       0.015594045 0.29225507 -0.029422887 -0.21504137
000370 b3 e9 81 3d e5 2c 6f 3e 83 8b 81 3e bf 3f a0 3d
       0.06343403 0.2335697 0.25301751 0.078246586
000380 5a 4a b3 3c 52 01 32 bd e1 df 38 bd a1 d4 d3 bb
       0.02188604 -0.04345829 -0.045135383 -0.0064645563
000390 f4 80 db 3d e5 a7 32 3c 6d d5 4d 3d c5 76 4a bd
       0.10717955 0.010904287 0.050252367 -0.049429674
0003a0 50 c4 d9 bc 3a dc 54 bd 9a dd ae bc b4 ff 83 bd
       -0.026582867 -0.051967837 -0.021345902 -0.06445256
0003b0 dc 58 0a bd 04 42 7a 3d d8 22 3f 3d da d4 9f bd
       -0.03377615 0.061098114 0.04666409 -0.0780427
0003c0 26 18 6b bc 7a 1a 77 bd a2 15 4b 3c fa 67 64 bd
       -0.014349019 -0.060327984 0.012395294 -0.055763222
0003d0 38 bb b3 3d d5 48 b4 3c 86 6f d4 bc 8c 18 84 bd
       0.087759435 0.022007385 -0.025932085 -0.064499944
0003e0 ba 0a 0d bd 84 aa d5 3b 8d d5 1e 3d 4a 32 bc 3d
       -0.034434058 0.006520571 0.038777877 0.091892794
0003f0 b4 9d 22 3e ce 8e 8a 3e 55 b8 e5 3e 5b 51 25 be
       0.15880471 0.27062076 0.44867197 -0.16144316

fc_net.0.bias f4 [64]
000000 43 a4 85 3b 5b 06 56 3d 1a c5 af 3d 79 a8 09 bd
       0.0040784194 0.052252155 0.08582516 -0.033607934
000010 c7 45 8f 3d 50 08 aa 3c 35 16 7d bd 05 75 b3 3d
       0.06995731 0.020755917 -0.061788756 0.08762554
000020 2f d4 5d 3d 2e 25 08 3d 49 c4 95 3d e7 df da 3c
       0.054157432 0.033238582 0.07312829 0.026718093
000030 ee 97 75 bc 66 18 82 3d ed f6 16 3a cb 0f 51 bd
       -0.014989836 0.0635231 0.00057588407 -0.051040452
000040 0d 6a d1 3c 7b a1 3b bc 10 4a 25 3d f7 d8 a2 bd
       0.025563264 -0.011452074 0.040353835 -0.07951539
000050 2e f8 68 3d f4 b9 7a 3d 77 28 4b bd 69 95 72 bc
       0.056877308 0.061212495 -0.049599137 -0.01480613
000060 af 0f 21 bb 15 7d 82 3d e9 ec 1d 3c 94 e1 78 3d
       -0.0024575999 0.06371514 0.009639003 0.060762003
000070 ce 04 14 3d a8 2f 3d 3d f0 4e bf 3b cc ca 0d 3c
       0.036137395 0.046188027 0.0058382675 0.008654308
000080 3c 50 70 bd 1b 8a 15 3d a6 69 2f 3c b5 21 90 bd
       -0.058670267 0.03650866 0.010706341 -0.07037679
000090 25 bf cd bc 97 75 5e 3d e9 74 17 bd 45 6e 87 3d
       -0.025115559 0.05431136 -0.03697673 0.06612829
0000a0 0f a7 26 3d d0 91 f5 3d 8e 88 16 bd db c0 86 3b
       0.040686663 0.11990702 -0.036751322 0.0041123456
0000b0 44 9c af 3d b1 97 71 3d 11 5b b2 3c bb ae 68 bd
       0.08574727 0.058982555 0.02177194 -0.05680726
0000c0 6b d5 53 bd 13 89 0e 3c 46 bd ad bc 69 97 62 3d
       -0.051717203 0.008699673 -0.021208417 0.055320177
0000d0 f7 00 42 3b c1 ec e0 bc 5d f9 29 bc b0 92 79 bc
       0.0029602626 -0.027456643 -0.010374394 -0.015232727
0000e0 c1 e8 69 3d f9 84 d8 3c a4 24 74 3d 17 af a9 bd
       0.057106737 0.026430594 0.059605256 -0.08285349
0000f0 fd 72 ce 3d 20 35 46 3d a3 a5 40 3d 7c 3b e9 3c
       0.10080526 0.048390508 0.047032963 0.028470747

fc_net.2.weight f4 [64, 64]
000000 dc d2 a8 bc af 3e 89 be 50 d0 dc 3b 5c ff d8 3b
       -0.020608358 -0.26805636 0.0067387 0.006622238
000010 4b 3b 07 3d 43 ae 01 3e f3 11 c0 bd 25 08 9b 3d
       0.03301553 0.12664132 -0.093784235 0.07569913
000020 f6 3b f2 3d 29 70 54 3d 3b 9b 60 3d 92 2a bc bc
       0.11827843 0.051864777 0.05483554 -0.022969518
000030 67 66 d5 3d 23 b3 88 3d 58 6b 43 3e 9f 3d cd 3d
       0.10419922 0.066747926 0.19083917 0.10021519
000040 38 17 65 be 2a 9f 15 be fb 1c 08 be 51 65 a9 3e
       -0.22372139 -0.14611498 -0.13292305 0.3308511
000050 81 9b db bd d5 01 75 bd 59 62 17 3e d8 22 a0 3d
       -0.107230194 -0.0598162 0.1478361 0.07819146
000060 0b 0e f4 bd 90 99 48 bd b9 13 fb 3c d9 fe 28 3d
       -0.11916741 -0.048974574 0.030649053 0.041258667
000070 86 c8 6b be 5c a9 b8 bd 18 b7 60 be d3 a2 6f 3e
       -0.23025712 -0.09016678 -0.21944845 0.23401956
000080 09 64 f0 3d 1c 00 74 bd 32 68 08 3e 5a 9d 71 3e
       0.1173783 -0.059570417 0.13320997 0.23595181
000090 11 de 0c 3a 9a 90 4e 3e 50 07 5e 3e 10 e8 84 bd
       0.00053736666 0.20172349 0.21682477 -0.06489575
0000a0 89 44 75 be 49 9b 47 be 3a 62 e3 3d 9b 4a 8d 3e
       -0.23951925 -0.1949283 0.111027196 0.27595982
0000b0 83 3f b1 3d 90 ef 45 be 77 87 db 3d 0e f3 46 3d
       0.08654692 -0.19329667 0.10719197 0.04857164
0000c0 6e ec dc 3c f5 a8 79 bd ec 83 02 be 3d a5 84 be
       0.026968207 -0.060952146 -0.12745637 -0.25907317
0000d0 45 f8 6b 3e b9 4b 3e be c2 4a e3 3d 01 35 21 bd
       0.23043926 -0.18583573 0.11098243 -0.03935719
0000e0 80 6a 8e 3e 8a 64 2f 3b 97 9e e8 3d 88 44 96 3d
       0.27815628 0.0026762807 0.113583736 0.0733729
0000f0 6c 2b 78 3d 8c 36 26 3d 6a fb 9c 3e 90 fc 3e 3e
       0.060588285 0.040579364 0.30660564 0.18651032
000100 b0 f8 85 3e 0e 15 97 3d a6 f1 b6 bd 2f 68 27 3e
       0.26166296 0.07377063 -0.089328095 0.16348337
000110 1f 3e 0f 3e f2 91 b5 3d 38 71 75 3e 5b 53 c0 3d
       0.13988541 0.088657275 0.23968971 0.09390899
000120 63 ad 93 be 15 e7 2e 3b 19 c3 28 be 01 8e 86 be
       -0.2884322 0.0026688029 -0.16480674 -0.26280215
000130 44 ba d9 bd 72 24 f6 bd 37 23 75 be a3 34 e9 3d
       -0.106312305 -0.1201867 -0.23939215 0.11386993
000140 51 cf d8 bd e5 09 11 ba 60 6c c9 3d 60 09 e8 3c
       -0.105864175 -0.00055327854 0.09835124 0.028324783
000150 73 b1 57 bd ce 36 26 3e 14 0f 93 bd 76 86 c0 ba
       -0.052659463 0.16231844 -0.0718061 -0.001468851
000160 ec d0 64 3e 8c 23 bb bd 4d d9 98 be 12 f5 9b 3e
       0.22345322 -0.091376394 -0.29853287 0.3046041
000170 44 66 8e bc 56 05 fe 3c dc 81 71 3d be 42 c5 3d
       -0.017382748 0.031008404 0.058961734 0.09631871
000180 19 62 7f be 1d 36 7e be 8f f6 89 be 37 30 46 bd
       -0.24939765 -0.2482533 -0.26945922 -0.048385825
000190 41 f4 3a 3d 5a 54 5e be ab ec c7 bd b0 96 3c 3e
       0.045643095 -0.21711865 -0.09761938 0.18416858
0001a0 cc c6 7b 3e 80 b9 04 3e 8d 8e 7c 3e 6f c4 b9 bd
       0.24587554 0.12961388 0.24663754 -0.0907067
0001b0 f2 27 d2 3d f7 b1 72 3e 0a 24 60 be 9d 20 d2 bd
       0.10261525 0.237007 -0.21888748 -0.10260127
0001c0 e7 f8 07 be 54 20 d7 bd 3b a8 a9 bd 08 41 f5 3d
       -0.13278542 -0.10504213 -0.082840405 0.11975294
0001d0 c5 90 00 be ef 7d 60 bd 81 46 c7 bd 6d 7d 73 be
       -0.12555225 -0.0548076 -0.097302444 -0.23778315
0001e0 48 23 34 3e c4 2b 86 bc c1 e1 11 be c0 f1 dd bd
       0.17591584 -0.016378291 -0.14246275 -0.10837126
0001f0 47 9c 2d 3e 31 d9 bf bd 96 ba 85 be 4d 9e d4 3c
       0.16954146 -0.09367598 -0.26118916 0.02595439
000200 17 8a a7 3e 80 66 03 bd 60 36 e1 bd 75 1e 41 3d
       0.32722542 -0.032080173 -0.10996699 0.047148187
000210 be d4 07 bd f5 67 ce 3d 5a ea 04 3e 9a 8f 47 3e
       -0.03316187 0.10078422 0.12980023 0.19488373
000220 9f d9 5b be ab 1b 2f 3d 4b 8c 60 bd cf e7 d8 bd
       -0.21469735 0.042750996 -0.054821294 -0.10591089
000230 78 a7 be bc f7 00 0f 3e f8 65 e8 bb 49 dc 70 3e
       -0.023273215 0.13965212 -0.0070922337 0.23521532
000240 6b 96 01 3c 79 4b d4 bd a9 d7 cf 3d b5 02 18 3e
       0.007909398 -0.10365958 0.10148556 0.14844783
000250 6d 95 e2 bd c6 6c 2f 3e 29 21 ed 3d e6 a8 d8 bd
       -0.11063657 0.17131338 0.115785904 -0.1057909
000260 41 a0 90 3e 16 57 e2 bd cd 0b b2 bd 8a 77 9d 3d
       0.28247264 -0.110517666 -0.08693657 0.07688816
000270 24 db 83 bd 12 e9 02 be 4b a6 6c 3d 07 d2 55 3e
       -0.06438282 -0.12784222 0.057775777 0.208809
000280 4d e5 d3 bd 93 dd 4d be 38 7b 45 be 18 ab 1c 3d
       -0.1034647 -0.20104055 -0.19285285 0.038249105
000290 f6 bf 8d 3e bb 98 78 3d 01 b1 87 3c f3 cd 10 3e
       0.27685517 0.06069253 0.016563894 0.14141063
0002a0 fe dc 87 3d 9e 1b 38 3e ee 4b 5f 3e 2c 09 2a 3b
       0.06633948 0.17979285 0.21806309 0.0025945408
0002b0 cf 01 58 3e bf 76 3f 3d df c2 ca 3d 1a ad 46 bd
       0.2109444 0.046744104 0.0990045 -0.048504926
0002c0 96 b0 0a be 94 6b 62 be 5e 79 62 be 89 1c e5 bd
       -0.13543925 -0.2211135 -0.2211661 -0.11187083
0002d0 66 97 de bd 1b e3 a9 bc 01 c6 0d 3c f4 b7 60 be
       -0.10868721 -0.020738175 0.008653165 -0.21945173
0002e0 35 a3 87 3e 7e e2 a3 bd ad d2 5b be 06 93 19 3d
       0.26491705 -0.08002184 -0.21467085 0.037493728
0002f0 9a cc 83 3c 21 8e e5 3d c2 e2 84 bc c3 cc c0 3d
       0.016088773 0.112087496 -0.016221408 0.09414055
000300 a6 42 41 3d e4 d7 8f 3e 29 a8 78 bc ec 73 0c bd
       0.0471827 0.280944 -0.015176811 -0.03429024
000310 d8 05 1f 3e dc 51 95 bd fa 4a 79 3d ea 33 3c 3d
       0.15529573 -0.07291004 0.06086252 0.045947947
000320 65 b2 7b be d7 2a 2a bd b3 61 0a be 9f 41 a8 3c
       -0.24579771 -0.04154476 -0.13513832 0.020539103
000330 1a 27 4a be 1b 6b b7 bd b3 11 04 be ee 6a 36 be
       -0.19741479 -0.089559756 -0.12897377 -0.17814228
000340 7f 39 33 3e c1 5e 31 3e b7 c9 50 3e 07 4a 8a be
       0.17502402 0.17321302 0.20389448 -0.27009603
000350 ea 12 b3 bc a2 84 78 3d 30 86 52 bd 2b c8 ac bd
       -0.021859605 0.060673364 -0.051397502 -0.084366165
000360 e6 58 09 3e 2a 0a ef 3d 3d 6a 2c be c9 2a 06 3e
       0.13412818 0.116718605 -0.16837402 0.13102259
000370 0b 96 78 3d 68 6a 44 bd bf dc 2b 3e ba 26 10 be
       0.060689967 -0.04795304 0.16783427 -0.14077273
000380 d6 a9 90 be 18 a3 29 3d 5c 3b 4c be 99 37 96 be
       -0.28254575 0.041415304 -0.19944519 -0.29339293
000390 25 25 00 be 48 a2 98 be 0d e0 d6 be a9 62 6b 3e
       -0.1251417 -0.2981131 -0.41967812 0.22986855
0003a0 ec bc bb 3e 1b c9 15 3e c7 11 03 be e3 27 93 be
       0.36667573 0.14627497 -0.1279975 -0.2874137
0003b0 58 42 de bd ff c8 7e 3e 3e 02 87 be ff 9d bb bd
       -0.10852498 0.24881361 -0.26368898 -0.09160995
0003c0 46 e4 f1 bd 72 55 6a 3d f2 46 99 3e 0d 7e 84 3e
       -0.11811118 0.057210393 0.2993694 0.2587742
0003d0 81 e5 8e be 38 9c 8d 3e 5e 7e 0c 3b 33 f6 17 be
       -0.27909473 0.27658248 0.0021437625 -0.14840011
0003e0 8f 57 c9 bd 6a b2 0d 3d 2e cb 48 bd 28 b9 ae bd
       -0.098311536 0.034593977 -0.049021892 -0.085314095
0003f0 15 c2 7b bc 36 6c 83 bc 2e 18 a1 be c5 95 e6 bd
       -0.015366097 -0.01604281 -0.3146376 -0.11259035

fc_net.2.bias f4 [64]
000000 5b f2 e5 3d 68 13 f0 3d 96 12 62 3d 38 a1 b7 3d
       0.11227866 0.117224514 0.055193506 0.08966297
000010 56 bf 56 bc ab 5a 8b 3d 7a da e5 3d 22 30 53 3d
       -0.0131071415 0.06804403 0.11223312 0.051559575
000020 19 f2 19 3e d1 3c bf 3d a6 e1 1d 3c df a9 cd 3d
       0.15033759 0.09337772 0.009636318 0.10042166
000030 34 e1 e1 bc 3e d7 20 3d b8 4a ad bd 1c e0 f2 3c
       -0.027573206 0.03926777 -0.08461517 0.02964788
000040 5d 4e 1a 3d 95 98 6d bd 6d 73 eb bb 67 bd d2 3c
       0.03767239 -0.05800684 -0.0071853907 0.02572508
000050 86 35 ae 3d 74 50 f0 3d bf b1 5d bd 5f a4 16 3e
       0.085063025 0.11734095 -0.05412459 0.1471114
000060 17 13 0b 3e c8 32 8a bd 91 8d ae bd f1 40 31 3d
       0.13581501 -0.06747967 -0.085230954 0.043274824
000070 2e 0f 1f 3e f8 d5 ae 3d 1f a5 9c bd 5f b0 32 bd
       0.15533134 0.08536905 -0.07648682 -0.04362523
000080 5e 6a ea bd f7 b3 24 3d c0 a3 18 3e eb e8 b2 bc
       -0.11446069 0.04021069 0.14906216 -0.02183958
000090 8b e8 57 3c 11 cf 76 bb 8a e8 d4 3c 1e a1 e7 3c
       0.013178001 -0.0037660042 0.02598979 0.028275069
0000a0 4b 2c 13 3d 6f ed 89 3d 6e e8 9b 3d 7e d3 f2 3d
       0.035930913 0.0673474 0.07612692 0.11856745
0000b0 9b 39 29 3d 18 36 99 3c 36 9e 8b 3d e9 df 29 3b
       0.041314702 0.018702552 0.06817286 0.0025920814
0000c0 6b 78 a1 3d 08 88 fb 3c 31 18 bb 3d c3 55 e9 bb
       0.07884296 0.030704513 0.091354735 -0.0071208193
0000d0 6c 16 6c 3d 04 01 e8 3d 60 a2 38 3c d8 de d5 3d
       0.05763857 0.11328319 0.011269182 0.10442895
0000e0 19 5a 66 3d e2 d6 4f 3d 76 47 da 3d ed 92 ad 3d
       0.056238268 0.050742038 0.10658161 0.084752895
0000f0 af 84 2d bc fa 4c 77 bd 0a 93 88 3d dc c5 a6 3d
       -0.010590716 -0.060376145 0.066686705 0.081432074

action_head.weight f4 [4, 64]
000000 96 15 b6 be 18 4e a8 bd 04 5b c3 bd 3b c9 d9 3e
       -0.35563344 -0.0821802 -0.09538844 0.4253634
000010 f4 87 65 3e 5b aa c7 be ce 7b 6f 3e 3f a5 0f be
       0.22415143 -0.38997158 0.23387071 -0.1402788
000020 ac f7 bd 3e c8 1d a9 bd b2 39 3c 3d fd e5 74 3e
       0.3710302 -0.082576334 0.04595346 0.23915859
000030 9a 66 95 be 85 05 c7 3e cf e6 c6 3e 6e 45 a1 3e
       -0.2917984 0.388714 0.38847968 0.31498283
000040 c8 1a 10 3e f7 de b6 be 14 b7 58 be ed 45 7e be
       0.14072716 -0.35716984 -0.21163589 -0.24831362
000050 49 c1 53 be 50 73 3b be ee 11 5d 3e 5e ae cb bd
       -0.20679201 -0.18305707 0.21588871 -0.09945367
000060 60 10 45 be f6 db 7f be a0 d3 2e bd 8f c8 94 3e
       -0.19244528 -0.24986252 -0.04268229 0.29059264
000070 a3 4b 4b be a8 ee a2 3e 61 be 3d bd 84 61 a4 be
       -0.19853072 0.31822705 -0.046324138 -0.3210565
000080 d8 61 c2 bc 3b 98 9d be 42 c0 89 3e 9c 3d 29 be
       -0.023728296 -0.30780205 0.26904494 -0.16527408
000090 02 c5 87 be ae 4e 51 3e 85 55 42 3e b7 70 54 be
       -0.26517493 0.2044017 0.18977936 -0.20746122
0000a0 77 41 57 be f1 38 ae be bf 6b 8d 3e 73 e2 b8 3e
       -0.21021067 -0.34027818 0.27621266 0.36110267
0000b0 52 4f a8 3e c3 e7 97 3e d8 e1 97 bb b1 1e c4 be
       0.32873017 0.29669008 -0.004635077 -0.38304666
0000c0 7e 26 a5 be a9 c5 9e 3e 02 c5 78 3d 2d d1 d6 3e
       -0.3225593 0.31010178 0.060734756 0.41956463
0000d0 8d ae 7e be 00 8a fe 3d 86 07 36 bc 5e e7 d4 be
       -0.24871273 0.12428665 -0.011110192 -0.4158277
0000e0 18 8d b4 3e b2 97 cd bd 7f f4 84 be 31 97 e0 3d
       0.35263896 -0.10038699 -0.25967786 0.109663375
0000f0 fc 50 3e bd d4 67 c9 3e 9e 33 5d 3e 83 d4 af be
       -0.04646395 0.39337027 0.21601722 -0.3434182
000100 aa b0 64 3e 48 89 2a be e8 4e cc 3d 4f c6 a6 be
       0.22333017 -0.16653931 0.09975988 -0.32573172
000110 33 78 9f be 3a b4 a5 3e 50 cb ca be 75 60 10 3b
       -0.31146392 0.32364064 -0.3960824 0.002203015
000120 09 ca cb be d4 d9 d5 3d c4 fc e9 bd 31 2b 80 be
       -0.39802578 0.10441938 -0.11425164 -0.25032952
000130 4f 87 cf 3e 3a 1a cd be fc fa d5 bd ed 10 e1 be
       0.4053292 -0.40059072 -0.10448262 -0.43958226
000140 35 7f 57 be be ff d1 3e a6 ca 15 3e 83 22 8e 3e
       -0.2104462 0.41015428 0.14628085 0.27760705
000150 41 b3 a9 3d f2 7b 79 3d c6 22 69 be 46 35 32 3e
       0.08286143 0.06090922 -0.22767171 0.17403135
000160 38 5f 5f 3e 24 7d 92 3e 47 d2 8b bc 01 4f 6c be
       0.21813667 0.286111 -0.017068041 -0.23077013
000170 38 80 a8 3e eb 22 c1 be 83 39 8b bd fe ea a2 3e
       0.32910323 -0.37721953 -0.06798079 0.3181991
000180 41 f2 96 bd 08 e4 a2 3e aa 44 c7 be 1b dd 92 bd
       -0.07370425 0.318146 -0.38919574 -0.07171079
000190 e5 ac 9c 3d 84 0b 92 be b9 bb 00 3e c9 8f cb 3d
       0.076501645 -0.2852441 0.1257161 0.09939534
0001a0 22 99 ee 3e 01 de 97 3e 17 08 11 be f1 5f be be
       0.46601206 0.29661563 -0.14163242 -0.37182572
0001b0 c8 6e df be 11 6d 9a be f8 a2 b6 bc a6 e4 8e 3e
       -0.43639207 -0.30161336 -0.022294506 0.2790882
0001c0 cd f4 74 3e a6 f3 93 be 7f ae a1 be e3 c7 e6 be
       0.23921509 -0.28896827 -0.31578442 -0.45074376
0001d0 97 f5 44 3e 4d 2d 99 be 2f a6 80 be e7 91 9e 3e
       0.1923431 -0.29917374 -0.25126788 0.3097069
0001e0 70 fe b0 be 9a 81 5c 3e c0 a5 2c 3e a9 a8 87 3d
       -0.3456912 0.21533814 0.16860104 0.06623966
0001f0 08 c9 e2 3c c2 2a 85 be d9 ba a4 be 41 ad 31 3e
       0.02768375 -0.26009184 -0.32173803 0.17351247
000200 16 51 5f 3e 8f ff 85 be b2 4b 05 be 01 3a 8c be
       0.21808276 -0.26171538 -0.13017157 -0.27388003
000210 2a 5e bc bd c0 2a e2 3d e4 d0 b8 be 5a 44 b6 3e
       -0.09197648 0.1104331 -0.3609687 0.35599023
000220 e2 0a b4 ba 60 2e de be 51 50 68 3e ee a5 a6 3e
       -0.0013736153 -0.43394756 0.22686888 0.3254847
000230 63 88 2a be 45 b3 70 be 02 41 3a be 42 77 65 be
       -0.1665359 -0.23505886 -0.18188861 -0.22408774
000240 23 46 c0 be e3 a2 44 3c 18 0e c6 be d9 8f 29 3e
       -0.3755351 0.012001726 -0.38682628 0.1655878
000250 fd 60 95 be b8 34 3a 3e f0 98 ef 3d fe d5 e1 3d
       -0.2917556 0.18184173 0.116990924 0.11027144
000260 9d 0b 7d bc f3 73 5e be 58 d7 8e be 4b b4 aa be
       -0.015444663 -0.21723919 -0.2789867 -0.33340678
000270 8c 2d 69 be b9 b2 80 3e 73 7e da 3d 57 3e 1d be
       -0.22771281 0.25136355 0.106686495 -0.15355812
000280 d7 b4 a3 3e 65 f5 c4 be 61 1a 1c be 64 47 99 be
       0.31973907 -0.3846847 -0.15244438 -0.2993728
000290 68 03 be be e2 a8 ab bd 9b fd 2b be ea c9 11 3e
       -0.37111974 -0.08381821 -0.16795962 0.1423718
0002a0 4f cc 9d bd 7f 77 6d 3e d2 42 b7 be 83 b2 8e 3e
       -0.077049844 0.23190115 -0.35793167 0.2787057
0002b0 47 fc b5 be e2 c5 01 3e 3a 55 09 3f ab f8 61 bd
       -0.35544035 0.12673143 0.5364567 -0.05516879
0002c0 65 a4 ad 3e 6b 9c 40 be e7 c1 ba 3e 3e 6a 17 be
       0.33914486 -0.18809669 0.3647606 -0.14786622
0002d0 13 33 df 3e da e5 84 3e de dc b7 3e b9 8e 87 bd
       0.43593654 0.25956613 0.35910696 -0.06619019
0002e0 07 0f 18 bc e9 09 de be ef af af 3d 7a 9e c3 be
       -0.009280927 -0.43366936 0.085784785 -0.38206846
0002f0 5a 80 4f 3e 44 a8 1b 3e 09 11 d2 3e 0b f1 f9 3d
       0.20263806 0.15200907 0.41028622 0.122041784
000300 5d b2 05 bd e0 ef ca 3d 6c 25 8b 3e 78 f0 1f 3e
       -0.032640804 0.09909034 0.27176988 0.15619075
000310 71 27 0e 3e e7 26 88 bd f8 48 22 3e 60 84 db be
       0.13882233 -0.06648045 0.15848148 -0.42874432
000320 03 cc 04 3d f9 af 8f 3e b4 16 aa be d7 c1 b6 be
       0.032421123 0.28063944 -0.33220446 -0.35694763
000330 db 5f f7 bd 44 74 16 3e 36 35 1e be 25 11 64 3d
       -0.1207883 0.1469279 -0.15449986 0.055680413
000340 de fe 8f 3e 59 2a 4b be 01 6b 36 3e 56 ed 7e be
       0.28124136 -0.19840373 0.17814256 -0.24895224
000350 04 ae b9 3e 7a 37 c7 be ec 99 ad be 9f fd 9f be
       0.36265576 -0.38909513 -0.33906496 -0.31248185
000360 0c f0 20 be 78 c4 81 3d 34 c9 bc 3e c5 5d 45 3e
       -0.1571657 0.063363016 0.36872256 0.19274051
000370 fb 0b c6 3d c1 1d da be c9 7a 36 3e de f5 56 3d
       0.09670254 -0.42600825 0.17820276 0.05248057
000380 1e 83 6e bd cf 36 9a 3e b4 3a 1a 3e 5c fa 9d 3e
       -0.05823051 0.3011994 0.15061456 0.30855072
000390 aa 6a 96 3e 03 fd f1 bd 74 3a e8 bd c2 74 8b be
       0.29378253 -0.11815836 -0.11339274 -0.27237517
0003a0 a2 8f 52 bd 69 8e 7e bd db 53 81 3e 8c e2 b0 bc
       -0.05140651 -0.06214753 0.2525929 -0.021592401
0003b0 e4 fe 4e 3e 6f 03 a6 3d 51 f7 b5 be ec c3 a5 3d
       0.2021442 0.08106124 -0.3554025 0.0809401
0003c0 64 3b 97 be 76 29 f3 3d 95 25 a6 be a8 d5 8e bd
       -0.295375 0.118731424 -0.32450548 -0.069743454
0003d0 d5 56 bd be 0d 35 c9 be 9f 1e 86 be 27 5a f3 3d
       -0.3698031 -0.39298287 -0.26195237 0.118824296
0003e0 03 82 6b 3e 73 13 b2 3d cb 0d 13 bc 67 fc 91 3e
       0.22998814 0.08695116 -0.0089754565 0.2851288
0003f0 35 08 b2 be 4a c6 9e be 41 e7 dc be b1 1c 55 bc
       -0.34771886 -0.31010658 -0.43145183 -0.013007329

action_head.bias f4 [4]
000000 2f 61 c7 3d 21 61 9a bc 79 a0 7b 3d 5e b0 d0 3d
       0.09735333 -0.018845143 0.061432336 0.10189889
