output/4-agents_domain-CoinGame-4_MATE-TD-T4_2022-08-09-02-34-17/actor_net_0.pth (torch, 45463 bytes, 6 tensors)

fc_net.0.weight f4 [64, 100]
00000000: f2b2 b23e 7a91 3e3e e470 eb3d 3d88 133e
00000010: c4d0 8abd d060 6d3e 01ae 3e3e e91a 573d
00000020: 9cdf cb3c c2ad ccbc 3054 203e 6cfd 6a3d
00000030: b3a7 113d c450 18be 0199 33be a982 b03d
00000040: 508b afbd 09f3 2dbe b343 0abe fb9d 9cbd
00000050: b393 f0bc e934 4bbe f1cc adbd 4288 96be
00000060: 74d3 b8be 0651 a1bb 8861 b03d b7d0 45bc
00000070: d42f d83a f989 2cbd abaa c6bd f8b4 7dbd
00000080: 9e5a 78ba 7389 7ebd 5b7c 9dbd 7418 cc3d
00000090: e119 5f3d 8767 10bd dffa ee3c 81a4 9dbd
000000a0: fe88 e63b 4f27 fc3c c179 e53c 46b4 8e3d
000000b0: 5993 dbbc 5137 813d 36ad dd3d 0065 bb3d
000000c0: c890 b53b 5e42 b8bc b2b4 8cbe ded2 38be
000000d0: c6a0 c5bd ac41 c7bd c686 babd 3257 aabe
000000e0: daf0 d9bd 4844 78b8 d3f1 e43d 9435 50bc
000000f0: 6479 62be 7cb3 93bd 5cb9 fa3d 1bd3 1d3e
00000100: 933f 69bd 34c3 d8bc d27c e33c bf65 563e
00000110: ece0 963e 1b13 a73e 2802 d43d 1a98 cd3d
00000120: aa05 ae3e 77f5 b43e 6da4 cd3e d81a 9ebe
00000130: 7bd9 8abe 6c7e c83c 6b07 8cbb b17e 53bd
00000140: 8715 92be c206 91be e58f 30bc 030d 963d
00000150: 4077 803d 78b7 48be 8f32 163c 2535 a1bd
00000160: 0caa abbc da14 b4bc 7443 c1bd 43e1 d03c
00000170: 3497 1ebb 14e7 553d b607 7bbc 1c9a 4b3d
00000180: c768 843e 2cef 813e e79d ae3e 7ebe 253e
00000190: 4b82 8bbe fba8 abbe de00 3fbe 5cc6 8bbe
000001a0: cdba 78be 0604 69bc 5698 f6bd b0f3 44bd
000001b0: 9e2e 0dbe 0b5a ea3d 16f6 56bd 1737 293d
000001c0: ddc9 b83c b5e6 06bd 5da2 ce3c 098d 1a3e
000001d0: e55b 463e 2f88 ee3d 124c f73d 4ca5 673d
000001e0: 4451 473e b88a 753e 9685 183e cab2 4b3e
000001f0: f736 9c3e 66a2 8f3c 77f0 31bd a6bb bbbb
00000200: 49e7 80bd ea46 49bd 114f a73d 81ee 733d
00000210: 2dd3 3a3d 405c ca3c 1893 11bc 0f52 253c
00000220: 4b38 01be 645b 66bd 051e ab3d 70e2 913d
00000230: 0dc1 8a3a d5a8 0b3d 9bf5 be3b f32e b2bd
00000240: b983 9c3d ad3f 86bd 5170 023d a914 71bd
00000250: daa9 e43b 3c27 4cbd 317a 2c3e 0a22 8a3e
00000260: ba12 823e 777f a73d de9a 0c3e 34a5 183e
00000270: be92 723e 4748 563e 00ca aeba 147b 0039
00000280: 6747 1c3e d040 50bd dcbb 42bc 465b a9bd
00000290: 3736 edbc b5bd 12bd ed5a d4bc c4b4 78bd
000002a0: 7f01 46be 3b7e 2ebe 1598 90be ba61 16be
000002b0: 5079 bcbe 10f0 97be f317 cebd c3e4 793e
000002c0: 4d30 813e bfa1 de3d b463 023d 4f2d 03bc
000002d0: 5f31 6f3e 0af1 573e 57b5 f23d 974d 523d
000002e0: 9cbb 043e 4800 993c 6e65 0d3d f9ac 48bd
000002f0: 0445 ed3d 1832 9ebd d6bc 61bd edaf 75be
00000300: 23b0 81bc 8012 4fbc 8d08 73bd b42d 28be
00000310: 2ca7 aabe 0e0b 50be 9742 abbe 8064 12be
00000320: 7b39 61be 15ff 34bd e0ba 13bd 654f 813d
00000330: 35bb 053e d563 babd 1371 6ebd b110 ccbc
00000340: bf67 b23d af7d 863d 8b4b 99be a63f 81bd
00000350: e4cb ea3d ce72 8c3e aa63 953d 3726 9bbe
00000360: c5ac 4cbd 650a 593c ba50 483e 78d6 d53d
00000370: dbff 91be 4ac0 40bc 00f5 5cbd 62a5 cc3d
00000380: 12b4 e63d b02c fc3c b038 89bd b2c3 e53b
00000390: dad6 b53d 4eb8 dd3d df09 8c3c 6e7a 003e
000003a0: a0b3 d03d daba df3d 0f57 08bd 867a 9e3b
000003b0: 9b03 b13d 77dc afbb acbd 633d 75eb 16bd
000003c0: 4787 a93c 1a79 503d 5ee2 a4bc c734 e33d
000003d0: a92f 45bc 52d8 b5bd 15ff 78bd ced3 453d
000003e0: 0e8c f73c 547a d3bd 798f 863e 7664 a63c
000003f0: d317 97bd d7d7 4dbe fbf8 94bc 2303 813e
0.3490215 0.18610182 0.114961416 0.1440744 -0.067781 0.23181462 0.18621065 0.052515898
0.024886899 -0.024985198 0.15657115 0.05737059 0.03556032 -0.1487456 -0.17538835 0.086186714
-0.085714936 -0.16987242 -0.13502388 -0.0764732 -0.029367303 -0.19844402 -0.08486355 -0.2940083
-0.36098826 -0.004922989 0.086123526 -0.012073687 0.0016493746 -0.04212377 -0.09700521 -0.061940163
-0.0009473952 -0.0621428 -0.076897345 0.099656016 0.05446804 -0.03525498 0.029172359 -0.07697392
0.0070353737 0.030780463 0.028012158 0.06967978 -0.02680366 0.06309379 0.10824053 0.091501236
0.005540941 -0.022492584 -0.2748161 -0.1804919 -0.09649806 -0.09729323 -0.09107737 -0.3326965
-0.10641642 -5.91914e-05 0.11178937 -0.0127080865 -0.2211662 -0.07211968 0.12242386 0.15412562
-0.056945395 -0.026460268 0.02776948 0.2093725 0.29468477 0.32631764 0.10351974 0.10038777
0.33988696 0.35343525 0.4016451 -0.30879855 -0.2711905 0.024474345 -0.004273345 -0.051634494
-0.2853205 -0.28325468 -0.010776495 0.073267005 0.06272745 -0.19601238 0.009167328 -0.07871465
-0.020955108 -0.021982599 -0.09436694 0.025498038 -0.002419901 0.052222326 -0.015321663 0.049707517
0.2586119 0.25377786 0.34104845 0.16185948 -0.27247843 -0.3352736 -0.18652675 -0.27299774
-0.24290009 -0.014222151 -0.120407745 -0.04808396 -0.13787314 0.114429556 -0.05248078 0.041312303
0.022557193 -0.032934863 0.025223905 0.15092863 0.19370992 0.11647069 0.12075056 0.056554124
0.19464594 0.23978698 0.14894709 0.19892421 0.30510685 0.017533492 -0.043442216 -0.0057291565
-0.06294114 -0.049139895 0.081693776 0.059553627 0.04561155 0.024702191 -0.008885168 0.010090365
-0.1261913 -0.0562395 0.08355335 0.07123268 0.0010586098 0.034096558 0.0058276183 -0.08700361
0.076423116 -0.06555114 0.031845395 -0.058857594 0.0069782557 -0.049842104 0.16843487 0.26979095
0.25404912 0.08178609 0.13730952 0.1490677 0.2368879 0.20926009 -0.0013335347 0.00012252881
0.15261613 -0.05084306 -0.0118856095 -0.08269362 -0.028956516 -0.03582545 -0.025922263 -0.060719267
-0.19336508 -0.1704034 -0.2824103 -0.14685717 -0.36811304 -0.2967534 -0.10063162 0.24403672
0.25232163 0.10870694 0.031833366 -0.008006408 0.23358677 0.21088043 0.11850994 0.051343527
0.12962192 0.018676892 0.03452056 -0.048993085 0.11585429 -0.077243984 -0.05511173 -0.23992892
-0.015831059 -0.012638688 -0.059334327 -0.16423684 -0.33330667 -0.20316717 -0.33449242 -0.1429615
-0.21994583 -0.044188578 -0.03606689 0.063139714 0.13059695 -0.09101073 -0.058213305 -0.024910303
0.08711194 0.06566941 -0.29940447 -0.06310968 0.1146467 0.2743134 0.072944 -0.30302593
-0.049969453 0.013247107 0.19562045 0.10441297 -0.28515515 -0.011764595 -0.053944588 0.09992482
0.112648144 0.030783027 -0.067002654 0.007011854 0.0887887 0.10826169 0.01709455 0.12546703
0.10190511 0.10924311 -0.03328615 0.0048363833 0.08643266 -0.0053668576 0.055600807 -0.036845643
0.020694388 0.05089674 -0.020127472 0.11094051 -0.012035289 -0.088791505 -0.06079014 0.048297696
0.03021815 -0.103260666 0.26281336 0.020311575 -0.07377591 -0.20101868 -0.01818513 0.25197706

fc_net.0.bias f4 [64]
00000000: e864 4cba f8ff 903d 8455 743d 41b8 9a3c
00000010: 7572 953c 88c4 3ebc 0b17 cb3b 1bd4 863d
00000020: 1069 a1bc 367a 89bc 6c53 b03d 8604 b63d
00000030: dc86 80bb c65a 093e aaee 9bbd b4a2 593d
00000040: e30c dfbc 5ab1 783c 90d4 be3d 98fd cdbd
00000050: c22e 8a3d 3bb0 333d 00eb 89bc 9805 eb3c
00000060: 7dd2 0d3d 091c 193d 2035 abbd 759d 503d
00000070: 9083 503c 9575 6bbd bfcf da3c e9be 033a
00000080: aaac c93d 7756 cdbd a19d 8a3d a0c3 4f3b
00000090: 904a 80bb 6519 863c fbd2 183d 79c7 e23c
000000a0: e65b 143e f994 a8bc 507d 1abb b8c0 93bc
000000b0: 1026 31bd 19f2 b3bc 1933 55bd d9bc a3bc
000000c0: 6d1a 803d e9f2 b5bc b427 eb3d 32ef f73c
000000d0: 0021 cf3d 856f 0bbd 548f 873b 75fb 90bd
000000e0: 443d d2bc 3672 2abd 6093 c93d 08fe ec3d
000000f0: 82ff da3c f16a 82bd 28d9 edbc 1d76 c23d
-0.00077970186 0.07080072 0.059651867 0.018886687 0.018243054 -0.011643536 0.0061978153 0.06583425
-0.019703418 -0.016781908 0.086096615 0.088875815 -0.0039223265 0.13413534 -0.07613881 0.05313368
-0.027227825 0.015179003 0.09317887 -0.10058135 0.067471996 0.04386924 -0.01683569 0.02868919
0.034624565 0.037380252 -0.08359742 0.050931413 0.012726679 -0.05748518 0.02671039 0.0005025701
0.09847386 -0.100262575 0.067683466 0.0031702295 -0.0039151385 0.01636953 0.03731058 0.027683007
0.14488181 -0.020578848 -0.0023573227 -0.018036231 -0.04324919 -0.021966027 -0.052050684 -0.01998751
0.0625504 -0.022210555 0.11482182 0.030265424 0.10113716 -0.0340419 0.004136959 -0.070792116
-0.02566398 -0.041612826 0.09842563 0.1157189 0.026733164 -0.06368054 -0.029034212 0.094951846

fc_net.2.weight f4 [64, 64]
00000000: ce66 0bbe f5f4 023d 11d0 e73d 3da2 dcbd
00000010: 6f58 f63d ba09 ebbd cbc3 0b3e 6659 06bc
00000020: 8eb8 d9bd 1302 fe3d b532 b63c 2a1c 553c
00000030: 711e 9bbb 11cc 053d 2de9 933d c456 8c3c
00000040: de81 933d 9cb9 f93d 8657 143e 829f 24bd
00000050: 50ca 303e 9fe5 60bd 35a0 0fbd c558 3f3d
00000060: deff f83d 1a6e 03be 7987 14be 6e37 2f3d
00000070: effb 2b3e 942f e83d ee37 753c 673d 39bc
00000080: aa78 be3b 12a3 963c 8643 7ebd 8dd1 be3b
00000090: 8a33 653d c496 a7bc 93af 99bd 4a0e c53d
000000a0: 0162 5ebd 4cd5 32bd f78a e43d 2e99 d53d
000000b0: edd3 213e 8ffc df3d 58ba 913c 43d7 8bbd
000000c0: 867e 1dbd bfe6 47bd b5a2 c13d 190d dabd
000000d0: 60ea c73c 6a53 a93d 35c7 b6bd eca7 a4bc
000000e0: 7af7 ca3d 0235 9c3d 9a9d c1bd a29e b3bc
000000f0: 2033 e0bd a636 9bbc f502 7fbd 6bda d4bd
00000100: 259b 483e 886c 42be c91b 163d 14a4 24bd
00000110: b519 1b3e 10aa bcbe 5d32 183e 27da 403e
00000120: e0ef 6c3e 4510 9e3e 2be5 9abd d8f6 a53e
00000130: 1e64 343c daa7 fe3d 5176 84bd f6fb 24be
00000140: 2787 0cbe 4e41 dabd 64d9 493e 9899 cdbd
00000150: d69b f83d e6ae c53b 0df7 95be b793 9e3e
00000160: 5aff a33e 1a1d afbe f709 15be b59c 72bd
00000170: b8a7 b63b b99d 253d f9e5 8a3c 6bbc 6abe
00000180: fe04 ddbe a904 8dbd 0695 71be 1e56 bebc
00000190: e1be 493e bb5d cd3d c7c6 7e3e 9de6 2e3e
000001a0: 2fcf 633e f032 80be 286e 853d e620 c1bc
000001b0: cbba 913e e856 923e bb4c fdbd 1206 513e
000001c0: 8f40 033e 604e 30be 6c2f ca3d 5f11 b4be
000001d0: c503 bebe 339a 89bd c754 0a3e d265 993d
000001e0: 43a9 71be 43e1 af3e 720c d63d 38f6 9a3e
000001f0: 6bea a3bd f98d d83d 3f28 bbbd 4faa 98bd
00000200: ff0b c7be 700a 863e 5d59 ba3d 4bc6 013d
00000210: c177 60bd 795a 943e f0e8 8a3d b2c5 81be
00000220: 3887 8ebe 37a1 07be 8829 3f3e faf3 a7be
00000230: ca35 9cbe 5901 61bd 5cd8 aa3d ec2d 883e
00000240: b7f4 523e 98b4 0a3e ce96 f6bd 750b 5c3d
00000250: a977 1abd ecc1 60bd 3362 b13e c6e5 a5be
00000260: a662 89be 1236 b13d 9176 fd3d 65c5 243e
00000270: 59cf 81bd 7aff 10be 428c 9a3d c149 1e3e
00000280: c0b3 d53e 8981 dc3d 41d8 a63e 8626 a53d
00000290: 261e a5bd eb7b a2bd c3c0 32be abde efbd
000002a0: 35d0 a9bd b693 913e b1f5 363e 1d8d 3abe
000002b0: 6b94 60be 8e8f c8be 708f 40bd 4da1 d2bc
000002c0: 221c 9a3d f3fe 953d 6966 0a3e 6136 8f3e
000002d0: 017f ca3e 71a0 453e 23fe bdbd 998a 8abd
000002e0: 3238 b03e d6cf 85be ab3a c3bd abdc 79be
000002f0: cf61 20bd 9299 06be 3d8d ea3d fb92 2a3e
00000300: fad3 043d ad8e e5bd d794 9e3e 1389 2a3d
00000310: 35a9 8f3e 3ffe 7b3d 858a 8bbe 251e 69be
00000320: c40f 0b3e d74c e53d 27d0 d23b cdaa 9ebd
00000330: 6327 26be 7541 753e ab0f 51be 431b 343e
00000340: 767a 6ebe 5885 e8bc 90bb 5a3e 816f 5abe
00000350: f189 e9bd 0c17 0b3e 91ea 9b3d 4ecd 0c3e
00000360: e417 14bd 7b14 7ebe 2360 c73d 5331 293e
00000370: d27b f23d f854 89be 0097 bf3d 3001 9ebe
00000380: 9e38 303e c886 fdbd 002e 63be 4d0b aebd
00000390: edc1 703e bfe7 323e 489a 763e 33d5 a6be
000003a0: 17d2 ab3e 45d5 92be 69af 103d 6139 66be
000003b0: f257 803c fba2 c93d 70b8 5fbe b90b c13e
000003c0: d8a7 003f aba5 9bbe cf8d 973e f1f4 90be
000003d0: 02ef 98bc 01a3 7c3e a91c 2f3e abcd 8dbe
000003e0: a96d 953e a953 873e 08f1 a53d 355a cd3d
000003f0: e5a4 613e f3a6 4dbe c031 163e ea38 d53d
-0.13613436 0.03197189 0.113189824 -0.10773132 0.12028586 -0.114764646 0.13648908 -0.008200025
-0.10630904 0.124027394 0.022240976 0.013007203 -0.0047338535 0.032665316 0.07222209 0.017131217
0.072025046 0.12193605 0.14486513 -0.04019118 0.17264676 -0.054906484 -0.035064895 0.046715517
0.12158178 -0.12834969 -0.14504804 0.04277747 0.16795324 0.113372 0.014966948 -0.011306143
0.005812724 0.018388305 -0.062076114 0.0058233202 0.055957355 -0.020457633 -0.07504191 0.09621866
-0.054292683 -0.043660447 0.11159318 0.10429607 0.158035 0.109368436 0.017789051 -0.06828167
-0.03845074 -0.04880404 0.09454862 -0.106470294 0.02440375 0.08267863 -0.089247145 -0.020099603
0.09910484 0.07627298 -0.09453888 -0.021926228 -0.10947251 -0.018946957 -0.06225868 -0.103932224
0.19590433 -0.18986714 0.03664759 -0.04019554 0.15146525 -0.36848497 0.14862962 0.18833219
0.2313838 0.30871788 -0.075632416 0.3241489 0.011010198 0.12434359 -0.064678796 -0.1611174
-0.13723432 -0.10656987 0.19711834 -0.10039061 0.12139098 0.0060328124 -0.29290047 0.30972072
0.32030755 -0.3420189 -0.14554583 -0.05923148 0.005574193 0.04043362 0.016955363 -0.22923438
-0.4316787 -0.068856545 -0.23592004 -0.023234423 0.19701721 0.10027643 0.24880515 0.1708016
0.22247003 -0.25038862 0.06515151 -0.023575258 0.28462824 0.2858193 -0.12368151 0.20412472
0.12817596 -0.17217398 0.09872326 -0.35169503 -0.3711225 -0.06718864 0.13508902 0.07490124
-0.23599724 0.3435155 0.104515925 0.30265975 -0.08003696 0.10573954 -0.09138536 -0.07454359
-0.3887634 0.26179838 0.09099076 0.031683248 -0.054801706 0.28975275 0.067827106 -0.25346142
-0.2783754 -0.13245092 0.18668187 -0.32803327 -0.30509788 -0.054932926 0.083420485 0.26597536
0.20601164 0.13545454 -0.120404825 0.053721864 -0.037711773 -0.05487244 0.34645233 -0.32401866
-0.26833075 0.08652891 0.1237613 0.16090925 -0.063383766 -0.14159957 0.07546283 0.15457822
0.417387 0.10766894 0.32586864 0.080639884 -0.08062391 -0.07933792 -0.17456345 -0.117123924
-0.082916655 0.28433007 0.17867161 -0.18217893 -0.21931617 -0.39172024 -0.047011793 -0.02571168
0.07524897 0.07324018 0.13515629 0.27971175 0.3955002 0.19299485 -0.09276988 -0.06764717
0.34417874 -0.2613513 -0.095326744 -0.24400584 -0.039155778 -0.1314452 0.1145272 0.16657631
0.03242872 -0.11208854 0.3097293 0.04163463 0.28058782 0.061521765 -0.2725412 -0.22765405
0.13580233 0.11196297 0.006433505 -0.077474214 -0.16225962 0.23950751 -0.20416133 0.17588525
-0.23288903 -0.028383896 0.21360612 -0.21331598 -0.11403263 0.1358301 0.07613099 0.13750193
-0.036155596 -0.248125 0.097351335 0.16522722 0.11840023 -0.2682264 0.09354973 -0.3086028
0.17209098 -0.12379223 -0.22185516 -0.08498249 0.23511477 0.17471217 0.24082291 -0.32584533
0.33558723 -0.28678337 0.035323534 -0.22482826 0.015666936 0.09845539 -0.21847701 0.37704256
0.5025611 -0.30399832 0.2960038 -0.28311875 -0.018668655 0.24671556 0.17100777 -0.27695975
0.29185227 0.26431015 0.08102614 0.10026971 0.22035559 -0.20083217 0.14667416 0.10411246

fc_net.2.bias f4 [64]
00000000: f57c b5bd ea7a 1dbc fb24 103e cd3f 353e
00000010: 32bd 9f3c 9906 a83c 15f1 0fbc 6321 a0bd
00000020: 803c 943d f2a8 a0bd 3b0c 713d 0aa0 bb3d
00000030: e4b4 d03d 0639 013d d7cc b33d b464 b0bc
00000040: edc7 f23d 366f 91bd fa15 123c 2187 4a3c
00000050: 406f 033d e120 173d 4079 933d 1966 33bd
00000060: 395a 94bd 3a37 033e f35d 2bbd 2354 a63d
00000070: 8f0d c23d 360e 63bc 7e06 183e ffdf aabd
00000080: a76a e7bb 6ac2 b23d e836 803d 9c30 a53c
00000090: c13a 1d3e 949a dd3d 1992 ab3d 50c9 053e
000000a0: ab1b 883d c017 98bd 7585 cebd 37b2 203d
000000b0: 85ef 313d 3688 8f3d f732 6d3d 1384 fcbc
000000c0: eba1 ef3d 10b5 cb3d 8570 383e 6ea3 8a3d
000000d0: 94c2 2a3e 0999 3f3d ef4e 353e 2de6 4fbd
000000e0: 7801 fc3d 67f5 c13d d5ee ea3d b764 7a3d
000000f0: a7ef 24bd 2f52 273e e7e0 1d3d 6372 043c
-0.08861724 -0.0096118245 0.14076607 0.1770012 0.019499395 0.020510959 -0.008785506 -0.07818868
0.07238102 -0.07844724 0.058849555 0.091613844 0.10190752 0.031548522 0.087793045 -0.021532394
0.11854539 -0.0710129 0.008916372 0.012361319 0.03208852 0.03689659 0.07200861 -0.04379854
-0.07243771 0.12814036 -0.041837644 0.081215166 0.09475242 -0.013858369 0.14846227 -0.08343505
-0.0070622745 0.08728488 0.062604725 0.02016478 0.15354444 0.10820499 0.08377475 0.13065076
0.06645902 -0.07426405 -0.10084049 0.03923246 0.043441314 0.07008402 0.057909932 -0.030824697
0.11700805 0.09946644 0.18011673 0.06769453 0.16675788 0.046776805 0.17705892 -0.050756622
0.12304968 0.09470635 0.11471335 0.061131205 -0.040267613 0.16339944 0.03854456 0.008083913

action_head.weight f4 [4, 64]
00000000: 343f d8bd 0af5 04be 0a81 3cbe 7cf4 cfbe
00000010: e4e3 173e 8ba9 b4bd 0422 8a3d 12e9 873e
00000020: 3a55 a1be c771 1f3e f8b7 4c3e f9c2 46bd
00000030: ba1b 7a3e 59dc 973d 794b 45be 4c1d 8a3e
00000040: ee8b 36be a722 d53d c641 66be bb20 c7be
00000050: 2a40 9abd 35aa 8d3d 69c5 bcbe 830b 1b3e
00000060: 7bfd f13d 1efc 43be 5886 96bd 4469 9bbd
00000070: 388b afbe cac7 d63d 2ae1 c0be a132 fbbd
00000080: 17e6 a9be 7349 66be 9ffd 6d3e 4c71 63be
00000090: 1f63 a7be db64 15bd 3bc9 363d c710 16be
000000a0: 7edf 7e3e 7808 ce3d b40b 833e e129 0c3e
000000b0: d059 bf3e 3a8d 08be 6abf 9b3e bf71 14be
000000c0: 6963 4fbe 1ece 8b3e 97a8 98be ef02 003d
000000d0: 95b9 d0be 5048 8f3e 53d0 ddbe 9bb4 56be
000000e0: d2dc a2be 2abf 24be bf29 0c3e 23ec a23e
000000f0: ef73 5c3e ebb4 96bc a2b8 5f3e 7a3e a43e
00000100: c4d0 12bd 6413 66bd 14c9 2f3e 1160 a43e
00000110: f7a3 b2be ea06 ac3e b663 ff3d d6d4 94be
00000120: 5ca0 803d 376f 56be 6daf 3fbe 8be5 223e
00000130: 79ff ccbe cbab 01bc 0613 4c3e 62c9 8fbe
00000140: 30b7 05bd 3208 66be 4deb 743e 9464 cf3e
00000150: 9850 043d db9e 4e3d 4210 d93e 2717 82be
00000160: 329f aebe 6121 813e 0766 813d 1ec2 51be
00000170: f5e1 bb3e a956 963c 58d9 953e 3f54 b5bd
00000180: 8669 763e 9f88 b03e 096c 78be 0394 8c3e
00000190: 779b 893e cf2a ffbd 4852 4b3e bed9 743e
000001a0: 4d2e cabe e008 04be 7cf7 85bd ccd3 c0be
000001b0: 82c4 afbe 5b0e 2a3e 1072 8bbe 5c9a a13e
000001c0: 05fc aa3e d70d a8be 7583 cb3d 8810 1cbe
000001d0: 6ecd d33e 4f7d bdbe aa9a a93e 2de3 873e
000001e0: 22f8 863e 52a6 373e 4e7b 3fbe ab1c e0be
000001f0: 40e2 aebe de69 ba3b db22 8fbe cd2a acbe
00000200: cb17 cb3d 18e5 bebe 1026 c53e 0734 70be
00000210: 429b 47be 7178 e3bd f8df 883e de80 f5bd
00000220: 013b a9be a1fd 223e 71a1 acbe 9623 a73e
00000230: b46b 91bd 58ae b0be 90d8 39be da6f a73e
00000240: f4fd bbbe a5f0 cd3e 1372 853e e57d 50bb
00000250: a56a 2e3e d737 80be a455 47be e527 bf3e
00000260: 0269 dfbc d9b5 afbe 45e6 b23e 86db 76be
00000270: 1d49 893e a37a 193e 7bbb 1a3e 0b3c ddbd
00000280: a279 64be 8d96 603e e0c5 523e 6067 b13e
00000290: 52bc ef3d 94a7 853e 8369 a03e 27ba 563e
000002a0: 2c63 f3bd c3d1 77be 1cab 8d3e e710 afbe
000002b0: 837d a03e 0652 f0be e64f ae3e 7c18 f83c
000002c0: bbb9 3f3e 6e9b f43c 2d7c bbbe 912d d8be
000002d0: 6eb2 2c3e 60c1 913e 9b11 093e 26ec 573e
000002e0: f2b0 c8be 010b 823e 2211 133d 1635 783e
000002f0: 502f a3be cb3f ddbe dfa6 563e 88cc 32be
00000300: c4d4 013e 5f6a 083f 7741 d7be 4bfd 0c3e
00000310: 2723 dc3e 4597 28be 6886 d7be 4eff d83d
00000320: ded9 993e 6d2b 83be 5dea b63e 2a1c c2be
00000330: 4247 ed3d 6cf2 e93e 1fbd 9e3e c1ed 67be
00000340: 567a b73e dc09 d6be c9ba 90be 2940 53be
00000350: 55ce b2bd 626f bf3e ef9a 513e 9174 96be
00000360: 6e55 283d b26d 8f3e 9d0d c1be 6368 8d3e
00000370: 32e1 76be b445 bfbe 19c3 87be f3b4 983e
00000380: c68a a63e 78df 4bbe dcce 5abe c659 c0be
00000390: c9ad 4dbe f284 04bf 795a ccbe 4966 24be
000003a0: c0b0 223d b63e a83e dc77 92be 7367 cd3e
000003b0: e311 e4bd f884 f93e ff96 ccbe 4af9 86be
000003c0: 5397 abbe f50b 45bd f5b7 833e b073 ec3e
000003d0: e47a 39be 195e 6ebe 826c 09be 4e63 bdbe
000003e0: 3e92 a23e 4d0c b3be b139 4e3e 021d c9bd
000003f0: f466 b53e d9ca ef3e f988 5bbe debb ae3e
-0.1055893 -0.129841 -0.184086 -0.40616214 0.14833027 -0.088214 0.06744769 0.26545006
-0.31510335 0.15570746 0.19992054 -0.048525784 0.2442464 0.07415075 -0.19267072 0.26975477
-0.17826816 0.10407 -0.22486028 -0.3889216 -0.075317696 0.0691723 -0.36869362 0.1514111
0.11815926 -0.19139144 -0.07349843 -0.07588437 -0.34285903 0.104873255 -0.37671787 -0.12265516
-0.33183357 -0.22488956 0.2324128 -0.22211188 -0.3269281 -0.036473136 0.044625502 -0.14654838
0.24889943 0.10060209 0.25594866 0.1368785 0.3737321 -0.13335124 0.30419475 -0.14496516
-0.20252766 0.27305692 -0.29816124 0.031252798 -0.40766588 0.27984858 -0.43323 -0.20967333
-0.31809098 -0.16088548 0.136878 0.31820783 0.215286 -0.018396815 0.21847776 0.32078916
-0.035843626 -0.056170836 0.17166549 0.32104543 -0.3489072 0.33599025 0.1247019 -0.2906863
0.06280586 -0.20940863 -0.18719263 0.15907876 -0.4003866 -0.007914494 0.19929132 -0.2808333
-0.032645404 -0.22464064 0.23917885 0.40506423 0.032303423 0.050444465 0.42395216 -0.2540829
-0.3410583 0.2522078 0.06318288 -0.20484206 0.3669583 0.01835187 0.29267383 -0.08853959
0.24063691 0.34479234 -0.24259962 0.27456674 0.26876423 -0.12459337 0.19855607 0.23911187
-0.3948845 -0.1289401 -0.065413445 -0.37661588 -0.3432961 0.16607039 -0.2723546 0.3156308
0.333954 -0.3282306 0.09937183 -0.15240681 0.41367668 -0.37009665 0.33125812 0.2654051
0.26361185 0.1793454 -0.18699381 -0.43771872 -0.3415699 0.00568889 -0.2795628 -0.33626404
0.099166475 -0.3728416 0.38505602 -0.23457347 -0.1949282 -0.11106957 0.26733375 -0.1198747
-0.3305283 0.15917064 -0.3371692 0.32644337 -0.07100621 -0.34508014 -0.18149018 0.32702523
-0.36717188 0.4022266 0.26063594 -0.003181332 0.17032869 -0.25042602 -0.19466263 0.37335125
-0.027271751 -0.34318426 0.34941307 -0.24107179 0.26813594 0.14988188 0.1511058 -0.10802468
-0.22312024 0.2193243 0.20583296 0.3464918 0.11705841 0.26104414 0.313305 0.20969449
-0.1188415 -0.24201111 0.2766961 -0.34192583 0.31345758 -0.4693758 0.34045333 0.030285113
0.18723194 0.02985927 -0.36618176 -0.42222264 0.1686494 0.28467846 0.13385622 0.21086177
-0.391975 0.2539902 0.03590501 0.24239 -0.31872034 -0.43212733 0.20962094 -0.17460835
0.1267882 0.5328731 -0.42042133 0.13768499 0.4299557 -0.16463955 -0.4209473 0.105955705
0.30049032 -0.2561907 0.3572568 -0.37912112 0.11585857 0.45692766 0.31003663 -0.2264929
0.35835522 -0.41804397 -0.28267506 -0.20629944 -0.08730761 0.37389666 0.20469259 -0.29385808
0.041097097 0.28013378 -0.377057 0.27618703 -0.24109343 -0.37357867 -0.26516035 0.29825553
0.3252775 -0.19909465 -0.21367973 -0.37568492 -0.20085825 -0.5176536 -0.39912775 -0.16054644
0.039719343 0.32860345 -0.2860707 0.40117988 -0.11136224 0.4873426 -0.3995895 -0.26362067
-0.3351389 -0.048107106 0.25726286 0.46182013 -0.18113285 -0.23278083 -0.13420299 -0.36989826
0.317522 -0.34970322 0.20139195 -0.09819986 0.3543011 0.46834448 -0.2143897 0.34127706

action_head.bias f4 [4]
00000000: 2b44 88bd 5dba bbbd 643c 86bd 25d5 abbd
-0.06653627 -0.09166405 -0.06554487 -0.083902635
