output/4-agents_domain-CoinGame-4_MATE-TD-T4_2022-08-09-02-34-17/critic_net_1.pth (torch, 44695 bytes, 5 tensors)

fc_net.0.weight f4 [64, 100]
-0.018566709 0.063353635 0.098909445 0.059532885 -0.1719765 -0.012748227 0.049510203 -0.24388295
-0.1575768 -0.02689136 -0.10678245 -0.21305642 -0.038626887 -0.15830483 -0.16732255 -0.06534721
-0.19156334 -0.10436534 -0.10607751 -0.05445067 -0.1483505 -0.11360375 -0.0779214 -0.14714947
-0.071608536 -0.01225704 0.1072448 -0.037270315 0.066876166 -0.15361883 0.081248984 -0.098121636
0.016064553 -0.23433684 -0.116265625 -0.2130334 0.06318863 -0.1409503 0.04163529 -0.1327921
-0.05996173 -0.25572845 0.03391146 -0.3058679 0.05771758 -0.15792064 -0.15745068 -0.19836774
-0.013389952 -0.1441266 -0.15819123 -0.21790747 0.03180113 -0.026887788 -0.1287371 -0.08043092
-0.049968567 -0.106313735 0.07930665 0.13783506 0.06165042 0.034698263 0.035884574 0.12787479
0.013163357 0.048106905 0.08394386 0.05845254 -0.08729407 0.05968914 0.13193657 -0.018457327
0.09997626 0.05962113 0.05594498 -0.26471296 -0.17486897 -0.2099157 -0.048712935 -0.16809621
-0.13608481 -0.13138607 -0.22831929 -0.010370205 -0.021507543 -0.16295795 -0.02814995 -0.0514369
-0.004272095 -0.06829679 0.0055660205 -0.16216068 -0.022581913 -0.061895397 0.011576332 -0.008608216
0.006453426 -0.028840428 -0.048239797 -0.034034137 0.11371764 0.054661915 0.13693178 0.14838934
-0.025959559 0.11570312 0.0678292 0.06252075 0.05973621 0.13958482 0.055855382 0.06606171
0.005663351 -0.028544571 0.14512175 0.035038345 0.09887955 0.030729907 0.15628634 0.069651
0.15310313 0.14182822 0.079174675 0.08311609 0.11185189 0.10277645 0.087950245 0.18093239
-0.0026803208 0.04443813 0.12567839 0.095752314 0.17777777 0.03703509 0.143204 -0.028140334
0.12510474 0.104671985 -0.008447788 0.059153605 0.043169145 0.06599527 0.15726954 0.18019934
0.0059761936 0.12520893 0.1681871 0.15339816 0.1045123 0.14569008 -0.015109757 0.10948928
0.05638692 -0.056057084 0.05059139 0.0035987915 -0.06609811 0.07327158 -0.018674225 -0.0698154
0.038854703 -0.06470229 0.0070244945 -0.07963306 -0.07872962 -0.08177231 -0.01592813 -0.078561835
0.020598307 -0.011134672 -0.057448313 -0.156972 -0.028355634 0.028634146 -0.049838074 0.03964973
0.059194174 0.13816282 0.19466689 0.15779252 0.056845374 0.010910918 0.078907646 0.14401372
-0.012985916 0.06254302 0.06410308 0.07744598 0.12349915 0.11868284 0.14991547 0.19072455
0.029423172 0.1678499 0.05167038 0.028857939 0.171402 0.11826601 0.09507045 0.10072231
0.043792617 0.16799709 0.0041839513 0.036069423 -0.0071989987 0.013234789 0.119219206 0.07408414
0.035975542 0.10901819 0.12873043 0.06655546 0.056581352 0.01714114 0.04096101 0.05617691
0.021691712 -0.0069846977 0.07663471 0.10795873 0.19625616 0.16225065 0.067050666 0.18049544
0.16868068 0.08819343 0.18495673 0.08752364 0.029303567 0.08582575 0.07531798 -0.009461558
0.02879713 0.16733299 -0.020858716 0.055781372 0.08215591 0.16912065 0.18306328 0.10564238
0.06826049 0.040854443 0.0015753863 0.044910908 0.17619431 0.083917394 0.076442085 0.05883546
0.012241315 0.027970856 0.04624071 0.15548386 0.025357218 0.0031023284 -0.090521194 -0.0971218
00000000: 3619 98bc 8dbf 813d 0991 ca3d c1d8 733d
00000010: 9c1a 30be f1dd 50bc 36cb 4a3d 74bc 79be
00000020: d05b 21be 454b dcbc c2b0 dabd 762b 5abe
00000030: 3a37 1ebd a91a 22be 9a56 2bbe c2d4 85bd
00000040: 2e29 44be 7fbd d5bd 2a3f d9bd aa07 5fbd
00000050: 32e9 17be 15a9 e8bd 4195 9fbd 5aae 16be
00000060: 7fa7 92bd c0d1 48bc 29a3 db3d c2a8 18bd
00000070: 5ff6 883d 414e 1dbe de65 a63d fff3 c8bd
00000080: cf99 833c fff5 6fbe ac1c eebd 6d25 5abe
00000090: 0a69 813d 4755 10be c489 2a3d a7fa 07be
000000a0: 6e9a 75bd d7ee 82be bee6 0a3d b89a 9cbe
000000b0: 4569 6c3d f3b5 21be c03a 21be ea20 4bbe
000000c0: 8761 5bbc ec95 13be e2fc 21be 2323 5fbe
000000d0: e741 023d c743 dcbc a9d3 03be f7b8 a4bd
000000e0: d7ab 4cbd 04bb d9bd 866b a23d a224 0d3e
000000f0: 2785 7c3d c41f 0e3d b4fb 123d 9cf1 023e
00000100: 1fab 573c bf0b 453d c2ea ab3d ee6b 6f3d
00000110: 3cc7 b2bd 9a7c 743d 611a 073e d233 97bc
00000120: 5ac0 cc3d 4935 743d 9026 653d 7588 87be
00000130: da10 33be 24f4 56be 3787 47bd 6a21 2cbe
00000140: d159 0bbe 128a 06be 88cc 69be cbe7 29bc
00000150: 9630 b0bc 73de 26be b99a e6bc 80af 52bd
00000160: eefc 8bbb 30df 8bbd 2a63 b63b 730d 26be
00000170: b4fd b8bc 0786 7dbd a8aa 3d3c 7a09 0dbc
00000180: 4377 d33b c342 ecbc 1897 45bd 6167 0bbd
00000190: cbe4 e83d 2ce5 5f3d d837 0c3e 60f3 173e
000001a0: 24a9 d4bc c2f5 ec3d 09ea 8a3d e10a 803d
000001b0: f5ad 743d 53ef 0e3e 9dc8 643d 5d4b 873d
000001c0: a293 b93b 4ed6 e9bc cc9a 143e 5e84 0f3d
000001d0: 5d81 ca3d 49bd fb3c 8709 203e 2fa5 8e3d
000001e0: 11c7 1c3e 6b3b 113e 5526 a23d c538 aa3d
000001f0: 9b12 e53d 767c d23d 421f b43d 5746 393e
00000200: 52a8 2fbb c204 363d d6b1 003e ca19 c43d
00000210: 600b 363e 1bb2 173d 12a4 123e 8f86 e6bc
00000220: 751b 003e 445e d63d 9768 0abc 0d4b 723d
00000230: 21d2 303d 8728 873d 440b 213e 2d86 383e
00000240: f2d3 c33b c536 003e 3d39 2c3e 6814 1d3e
00000250: 8b0a d63d c82f 153e ea8e 77bc ea3b e03d
00000260: f9f5 663d 1d9c 65bd eb38 4f3d b4d9 6b3b
00000270: 725e 87bd 690f 963d b0fa 98bc 60fb 8ebd
00000280: 1c26 1f3d a282 84bd bb2d e63b a816 a3bd
00000290: ff3c a1bd 3e78 a7bd b67b 82bc 07e5 a0bd
000002a0: c8bd a83c 336e 36bc ec4e 6bbd 45bd 20be
000002b0: 134a e8bc 2892 ea3c 0223 4cbd c167 223d
000002c0: 9775 723d 8e7a 0d3e c256 473e 5d94 213e
000002d0: b2d6 683d b5c3 323c 559a a13d 5578 133e
000002e0: e1c2 54bc 8e16 803d 7a48 833d ff9b 9e3d
000002f0: 1fed fc3d fd0f f33d 7183 193e 4c4d 433e
00000300: dd08 f13c d8e0 2b3e 52a4 533d 7c67 ec3c
00000310: 0284 2f3e 7335 f23d 4cb4 c23d 8047 ce3d
00000320: e35f 333d 6e07 2c3e 8719 893b 88bd 133d
00000330: 94e5 ebbb bad6 583c 3329 f43d 6db9 973d
00000340: 175b 133d ee44 df3d e9d1 033e 3b4e 883d
00000350: d9c1 673d 936b 8c3c bbc6 273d c219 663d
00000360: d1b2 b13c e4df e4bb a9f2 9c3d 7719 dd3d
00000370: 60f7 483e 0925 263e dc51 893d ccd3 383e
00000380: a1ba 2c3e c29e b43d 4c65 3d3e 983f b33d
00000390: 090e f03c 69c5 af3d 5040 9a3d a704 1bbc
000003a0: f5e7 eb3c 5759 2b3e e6df aabc 027b 643d
000003b0: 5c41 a83d f72d 2d3e f174 3b3e 085b d83d
000003c0: 28cc 8b3d fd56 273d 317d ce3a 80f4 373d
000003d0: 486c 343e e2dc ab3d ab8d 9c3d 74fd 703d
000003e0: cc8f 483c 2323 e53c e666 3d3d 2937 1f3e
000003f0: f1b9 cf3c 6f50 4b3b 2d63 b9bd cbe7 c6bd

fc_net.0.bias f4 [64]
-0.19548109 0.201231 0.16838609 -0.22024302 -0.16698618 -0.08066996 -0.19295578 0.07128635
-0.13833968 -0.12889385 0.18897122 0.15719372 0.14738978 -0.20934084 -0.19486704 -0.18575616
-0.16235584 -0.14133716 0.13233128 -0.16297448 -0.03895692 0.18251608 0.19755071 0.15320644
-0.18489334 -0.10240826 0.043213144 0.09745967 -0.1652051 0.06431151 0.17151038 -0.06948316
-0.048406135 -0.0852672 -0.09007572 -0.09263736 -0.113218635 0.14990193 -0.21352935 0.13686441
0.18604237 0.2048007 -0.19444843 0.12651217 0.13545781 -0.18904448 -0.072740406 0.15366374
-0.06933715 -0.129628 0.10917183 0.1804968 -0.15849714 0.07045325 0.14622274 -0.111062184
-0.17147133 0.11796997 -0.13644835 -0.16069399 0.18607904 -0.078187026 0.14723778 0.119253024
00000000: 322c 48be 800f 4e3e 676d 2c3e 6387 61be
00000010: 6dfe 2abe 4b36 a5bd 3396 45be 94fe 913d
00000020: eba8 0dbe c0fc 03be ac81 413e 64f7 203e
00000030: 59ed 163e 725d 56be 3a8b 47be dd36 3ebe
00000040: 9c40 26be b0ba 10be da81 073e c8e2 26be
00000050: 4b91 1fbd 7fe5 3a3e bc4a 4a3e 26e2 1c3e
00000060: ae54 3dbe 6cbb d1bd 4400 313d ef98 c73d
00000070: 872b 29be c1b5 833d 6ba0 2f3e 304d 8ebd
00000080: 8345 46bd 92a0 aebd 9e79 b8bd a8b8 bdbd
00000090: 2cdf e7bd e47f 193e 70a7 5abe 2f26 0c3e
000000a0: e481 3e3e 46b7 513e 7d1d 47be 688c 013e
000000b0: 74b5 0a3e e094 41be ecf8 94bd 075a 1d3e
000000c0: a300 8ebd 34bd 04be 7b95 df3d 27d4 383e
000000d0: 134d 22be cb49 903d 6abb 153e 9274 e3bd
000000e0: 2e96 2fbe 3d9a f13d 1eb9 0bbe f78c 24be
000000f0: 818b 3e3e 8520 a0bd 80c5 163e ee3a f43d

fc_net.2.weight f4 [64, 64]
-0.10139969 0.1540426 0.06746923 -0.038148124 -0.001893085 -0.2151162 -0.23556003 -0.106043585
-0.20708637 -0.15190485 0.09101242 0.122899584 0.101448186 -0.17318474 -0.0842192 0.0028098738
-0.046124183 -0.015728477 0.2008459 -0.18758664 0.033253632 -0.010327204 0.07468772 0.05420789
-0.122658275 -0.1789155 -0.008272921 0.063810855 0.009907365 0.048005678 0.17397137 -0.104881495
-0.08696287 -0.024766818 0.0084868595 -0.18355243 -0.15550154 0.11214049 -0.10560428 0.039295122
0.05961255 0.10125382 -0.23198186 0.18925963 0.036390986 -0.14245215 -0.186531 0.077941835
-0.10437501 -0.08386393 0.10212575 0.0753968 -0.02002899 0.11675447 0.059817996 -0.23787631
-0.19544041 0.12452785 -0.018576127 -0.103888504 0.00076600356 0.033178654 0.14983356 0.15680055
0.1707585 -0.05145349 -0.08020382 0.24644378 0.20117633 0.18239293 0.2153829 -0.04620169
0.053607747 0.13133506 -0.07385731 -0.03571137 -0.065331325 0.105150566 0.060869996 0.2220562
0.07404519 0.26897618 -0.08247088 0.0693102 0.11587607 -0.24128446 -0.08538999 -0.11391257
0.17808956 0.28896388 -0.025160622 -0.21254396 0.01633987 -0.028252179 -0.1526298 -0.1474241
0.2010406 0.29756448 0.11582187 0.2212813 0.05867832 -0.016127547 0.25334737 -0.11630077
-0.02654497 -0.118683845 0.1784994 -0.16909079 0.007791796 0.083335504 0.2431609 -0.22136644
-0.046738263 0.22038299 -0.07307321 -0.16700655 0.070762075 -0.05101136 -0.015680635 0.26193386
0.024218034 -0.09092039 0.10729715 0.016858922 -0.121392034 0.050434608 -0.03532773 -0.22519933
0.16034389 -0.1388314 -0.15196578 0.25799146 0.07171645 0.20925239 0.21578152 -0.049885787
0.13525862 0.2190461 -0.16960435 -0.07574329 -0.00944235 0.09202182 0.20318325 0.06655203
0.23684117 0.069060005 -0.03669505 0.23842187 -0.105921306 -0.23826331 -0.23056357 -0.07141617
0.21075357 0.1034588 -0.18575561 -0.2431663 0.123388 -0.09791772 -0.14043292 0.022540545
0.04273483 0.3035422 0.05150734 0.29874673 0.07235751 -0.22129627 0.2215086 -0.21390952
-0.25498158 -0.16950974 0.21423629 -0.27524528 -0.19200292 0.06487187 0.16510178 -0.19258563
0.03605217 0.18335676 -0.2115254 -0.14683478 0.1596576 -0.061140493 -0.17794386 0.1041767
0.105089344 -0.25380033 0.06910358 0.017645404 -0.2420793 -0.008735059 -0.1571277 -0.0757767
-0.17856555 0.0911469 0.073751226 -0.19129527 -0.14368714 -0.17744295 -0.07672992 0.051687483
-0.17095646 -0.17361674 0.15966487 -0.0022510681 -0.05671184 -0.18748891 -0.05286855 -0.20521073
-0.1408864 -0.21765086 0.19094677 -0.077026166 0.060518146 0.028701844 -0.038794797 0.046751447
-0.1937571 -0.10083012 -0.050703093 -0.052759644 0.05184962 -0.043695364 0.11080802 0.0129289515
-0.04630109 -0.22032492 -0.14803158 -0.040602222 -0.0169654 -0.0978291 -0.1650544 0.078205585
0.18199417 0.11359976 -0.14233167 0.01564579 0.10634831 -0.16387124 -0.103631526 -0.08934336
0.07916019 -0.161238 -0.0444914 0.07713748 0.030051168 0.13356942 0.07270804 -0.24326077
-0.04233326 0.121794544 0.021090154 -0.030844998 -0.020373112 0.042918228 0.08553682 0.17908436
00000000: a4aa cfbd 58bd 1d3e 4f2d 8a3d 3541 1cbd
00000010: 6421 f8ba 6c47 5cbe a636 71be 612d d9bd
00000020: 730e 54be f28c 1bbe b864 ba3d c7b2 fb3d
00000030: 11c4 cf3d 5757 31be 1e7b acbd dc25 383b
00000040: b6ec 3cbd 02d9 80bc 8caa 4d3e b616 40be
00000050: f634 083d 6f33 29bc e0f5 983d 1809 5e3d
00000060: 4334 fbbd a035 37be 258b 07bc 44af 823d
00000070: 8052 223c 9aa1 443d 8d25 323e 1ccc d6bd
00000080: 9719 b2bd c8e3 cabc 780c 0b3c 2bf5 3bbe
00000090: cc3b 1fbe eaa9 e53d 0f47 d8bd ecf3 203d
000000a0: 4a2c 743d 2a5e cf3d a78c 6dbe 47cd 413e
000000b0: b70e 153d fade 11be fc01 3fbe f89f 9f3d
000000c0: 91c2 d5bd dac0 abbd 4e27 d13d a369 9a3d
000000d0: d613 a4bc f81c ef3d b703 753d d995 73be
000000e0: 8821 48be 7508 ff3d f62c 98bc 7fc3 d4bd
000000f0: a1cd 483a 57e6 073d f86d 193e 5390 203e
00000100: 51db 2e3e e5c0 52bd e641 a4bd c25b 7c3e
00000110: 2b01 4e3e 36c5 3a3e 568d 5c3e fc3d 3dbd
00000120: cc93 5b3d b37c 063e 8042 97bd 1646 12bd
00000130: 6ecc 85bd 2e59 d73d d152 793d b362 633e
00000140: 01a5 973d 3fb7 893e 7ee6 a8bd 82f2 8d3d
00000150: 6f50 ed3d 4613 77be f2e0 aebd fe4a e9bd
00000160: 1c5d 363e 13f3 933e a61d cebc 20a5 59be
00000170: 31db 853c 1d71 e7bc fc4a 1cbe 58f6 16be
00000180: 96dd 4d3e 5f5a 983e 0434 ed3d 9197 623e
00000190: ae58 703d eb1d 84bc bfb6 813e 192f eebd
000001a0: d674 d9bc 8410 f3bd 8cc8 363e 2326 2dbe
000001b0: 5252 ff3b ceab aa3d 2cff 783e e2ad 62be
000001c0: 9f70 3fbd 14ac 613e 68a7 95bd c403 2bbe
000001d0: b5eb 903d 4af1 50bd ad74 80bc 321c 863e
000001e0: e664 c63c 7834 babd 9cbe db3d b91b 8a3c
000001f0: 639c f8bd 8594 4e3d cfb3 10bd a79a 66be
00000200: 3031 243e d229 0ebe eb9c 1bbe 7517 843e
00000210: 13e0 923d 4246 563e d5f5 5c3e 0a55 4cbd
00000220: 3c81 0a3e 9f4d 603e c3ac 2dbe 4c1f 9bbd
00000230: 16b4 1abc f075 bc3d 450f 503e 6e4c 883d
00000240: 7e86 723e 556f 8d3d 8c4d 16bd dd24 743e
00000250: 45ed d8bd 4cfb 73be db18 6cbe a442 92bd
00000260: c9cf 573e 35e2 d33d b836 3ebe 9600 79be
00000270: d9b2 fc3d 1689 c8bd a6cd 0fbe f3a6 b83c
00000280: b80a 2f3d e269 9b3e 5cf9 523d 55f5 983e
00000290: 2d30 943d 7d9b 62be 27d3 623e 190b 5bbe
000002a0: f28c 82be f693 2dbe c260 5b3e f3ec 8cbe
000002b0: 6a9c 44be 8bdb 843d 7110 293e 2b35 45be
000002c0: 71ab 133d e0c1 3b3e 1d9a 58be db5b 16be
000002d0: 487d 233e 746e 7abd ea36 36be 985a d53d
000002e0: 1539 d73d 1ef2 81be 2e86 8d3d 188d 903c
000002f0: a3e3 77be 7e1d 0fbc 15e6 20be d130 9bbd
00000300: e3d9 36be 3aab ba3d e20a 973d e8e2 43be
00000310: b922 13be 9bb3 35be 9424 9dbd 41b6 533d
00000320: 360f 2fbe 96c8 31be 307f 233e a886 13bb
00000330: ad4a 68bd 18fd 3fbe b18c 58bd c322 52be
00000340: 8644 10be dedf 5ebe 8d87 433e e5bf 9dbd
00000350: e0e1 773d 2120 eb3c 4be7 1ebd 727e 3f3d
00000360: 4368 46be 0680 cebd 0cae 4fbd 7f1a 58bd
00000370: 4460 543d e9f9 32bd 51ef e23d f4d3 533c
00000380: 36a6 3dbd db9c 61be 9795 17be 844e 26bd
00000390: 06fb 8abc a05a c8bd 0504 29be 402a a03d
000003a0: ae5c 3a3e fea6 e83d 65bf 11be 9a2b 803c
000003b0: 25cd d93d ddcd 27be c43c d4bd a7f9 b6bd
000003c0: bd1e a23d 931b 25be 9d3c 36bd 41fa 9d3d
000003d0: de2d f63c 6cc6 083e f4e7 943d 5a19 79be
000003e0: a465 2dbd 6b6f f93d 42c5 ac3c a6ae fcbc
000003f0: 83e5 a6bc 06cb 2f3d ee2d af3d e461 373e

fc_net.2.bias f4 [64]
0.117275625 -0.12513404 -0.0944201 0.22533344 0.14280312 0.121311076 0.02333047 0.05838341
0.14825048 0.2140604 0.03479787 0.2181398 -0.034264244 0.1071314 0.20441298 -0.014584124
-0.03437153 0.02682211 -0.21619444 -0.19339779 0.008986526 0.070350304 0.023199169 -0.036904868
0.06668892 0.084514245 0.1638407 0.08564682 -0.0097289225 0.015369371 -0.15504497 -0.068002105
-0.016424874 -0.17501591 -0.020016676 -0.19436693 -0.09335976 0.013958691 0.14940922 0.1893358
-0.084817514 0.21751603 -0.1781114 -0.1906538 -0.090515025 -0.11804111 0.0026792348 -0.21922897
0.0642335 0.0699169 0.068136364 0.0032823447 0.20684023 -0.07913547 -0.015993044 -0.023120973
0.0326267 -0.006846832 0.097818755 -0.08929243 0.00019641062 -0.05368267 -0.050342727 -0.16756102
00000000: 342e f03d 2323 00be 535f c1bd cfbd 663e
00000010: fb3a 123e f171 f83d 8b1f bf3c 7123 6f3d
00000020: f9ce 173e a632 5b3e 3688 0e3d 0a60 5f3e
00000030: aa58 0cbd b567 db3d a351 513e 40f2 6ebc
00000040: 29c9 0cbd 0bba db3c 1362 5dbe 120a 46be
00000050: 393c 133c d213 903d 2f0c be3c 8f29 17bd
00000060: 3394 883d ce15 ad3d dbc5 273e 9a67 af3d
00000070: 0f66 1fbc d0cf 7b3c 1cc4 1ebe b044 8bbd
00000080: 758d 86bc 5f37 33be 03fa a3bc 2008 47be
00000090: 6733 bfbd feb2 643c bbfe 183e 3ee1 413e
000000a0: ceb4 adbd 86bc 5e3e d662 36be c03a 43be
000000b0: f15f b9bd 8abf f1bd 1a96 2f3b 8f7d 60be
000000c0: da8c 833d 9730 8f3d 148b 8b3d 9b1c 573b
000000d0: edcd 533e c711 a2bd d803 83bc 3268 bdbc
000000e0: 93a3 053d 645b e0bb 3355 c83d f3de b6bd
000000f0: 93f3 4d39 5ce2 5bbd 2d34 4ebd 1e95 2bbe

value_head.weight f4 [1, 64]
0.1911814 -0.20824726 -0.24804267 0.18240793 0.1445612 0.16409047 0.14653926 0.16370045
0.1616022 0.1147428 -0.20711596 0.13769987 -0.1418655 0.1742863 0.19845474 -0.15141524
-0.115791366 0.09917806 -0.13311237 -0.12458289 0.11978692 0.087841764 0.16459607 -0.18794699
0.0059258565 0.15558338 0.09065632 0.1600409 0.07452289 0.07633419 -0.2313082 0.010510127
-0.14868407 -0.18375549 0.0693677 -0.21709152 -0.16634654 -0.16081464 0.18698622 0.09447939
-0.19100395 0.086594865 -0.17910103 -0.19987871 -0.14557223 -0.20105368 0.09143191 -0.18241253
0.0821292 0.1665586 0.17186128 0.12801552 0.10005137 -0.14091396 0.011256143 0.14419061
0.109460205 -0.2139085 0.060267925 -0.23699625 -0.09971592 -0.19568445 -0.10102227 -0.2520035
00000000: 0fc5 433e c53e 55be e6fe 7dbe 25c9 3a3e
00000010: da07 143e 5507 283e 630e 163e 17a1 273e
00000020: 0c7b 253e 46fe ea3d 3516 54be 3201 0d3e
00000030: 3145 11be 1c78 323e b837 4b3e 990c 1bbe
00000040: 0624 edbd de1d cb3d 9c4e 08be 5025 ffbd
00000050: d852 f53d 62e6 b33d df8b 283e 2d75 40be
00000060: b02d c23b 4051 1f3e 05aa b93d c3e1 233e
00000070: 759f 983d 1a55 9c3d 0fdc 6cbe ab32 2c3c
00000080: a340 18be 662a 3cbe a710 8e3d 3d4d 5ebe
00000090: bf56 2abe 98ac 24be 5179 3f3e 697e c13d
000000a0: 8a96 43be a658 b13d 4366 37be 01ad 4cbe
000000b0: e310 15be 04e1 4dbe a740 bb3d 5aca 3abe
000000c0: 5b33 a83d 568e 2a3e 67fc 2f3e 8016 033e
000000d0: bce7 cc3d c04b 10be b06b 383c b4a6 133e
000000e0: ac2c e03d d40a 5bbe 80db 763d 25af 72be
000000f0: dc37 ccbd 8161 48be c4e4 cebd 9a06 81be
