output/4-agents_domain-CoinGame-4_MATE-TD-T4_2022-08-09-02-34-17/critic_net_3.pth (torch, 44695 bytes, 5 tensors)

fc_net.0.weight f4 [64, 100]
00000000: d59d 803d 0f72 8b3d 26f5 cc3c 8347 753c
00000010: 07b5 453d bf77 ebbc 8a22 d7bd 19e4 c5bc
00000020: d6f1 3cbd f12d d5bd f4f1 ce3d 2045 123c
00000030: c8ba d93d a5eb 9cbc 8b88 cdbd 134b bb3d
00000040: 0ca5 87bd aaf2 8dbd 596b 1c3d 005a dfbc
00000050: 15f6 4f3d 7c0b 53bc ec6e b0bc 2c3a 8abd
00000060: e1d5 b4bd 1d42 d8bc 6334 853d 28a3 a73d
00000070: 5ce3 89bc a22e c53c 562f 7a3c 8287 b63d
00000080: 627b 26bd 996a 0b3d 354f dd3c 683a b33d
00000090: a893 24bd 6444 853c f41b 363b c16d bcbb
000000a0: dea1 7cbb bc3b 9abc 459b 983d 7d6f 27bd
000000b0: 5c22 3b3d fbad a8bb 2cd6 beba a431 4cbd
000000c0: c56b ff3b b050 873d bfb8 f4bd 65c6 5abc
000000d0: a1cd 61bd 7403 87bd 60dc c8bd 8cec e0bd
000000e0: c6c9 ac3d 813c adbd 0b0b ddbd 0d8f d7bd
000000f0: e607 223c ac13 0cbd 81de 1fbd 6427 ffbc
00000100: 13c7 3d3d b7be f7bc e39e 2bbd c58b a8bc
00000110: 9765 7abd d967 d73d ebce 32be bc96 d6bb
00000120: 4823 893c 3c00 0ebe e266 a73d 524b 17be
00000130: 8efb 973b 6d3d 9fbd 907a 1ebd 5a24 adbc
00000140: 8b81 3e3b 4d76 823d 828d c9bc 6f35 b8bc
00000150: a9cc c4bc fd7d c63b d31c 793d ff39 dcbd
00000160: a750 f53c 7d2a f33c 18fa 80bd 1a58 1d3c
00000170: 8d65 2cbd f4da 2c3d ff2b 74bd b264 f43a
00000180: 70d8 2a3c 8daa 0f3d 9326 b5bd b184 10bd
00000190: 7f08 8dbd 18bb 12be c61c 7abe ca6c 6ebd
000001a0: c90f fcbd e1f4 7abe da6b 80bd fefa c3bd
000001b0: 4599 3dbe ed5b 61be d0e5 55bc 92ee 6abc
000001c0: d83f 0fbe 7daa 71bd a07a 95bd aaf2 b6bd
000001d0: 756c 67be 4141 2ab9 1c7d 66bd c3ce 1cbd
000001e0: 3741 38be 6fee efbd c2e7 55bd 36fb 923b
000001f0: 2e91 2abe 8310 183c 2ce8 78be 608c 1abd
00000200: 2c50 6bbd 82d9 13be 4eec 24be 71d9 573d
00000210: 5a95 3dbe 5c81 ba3a c14d 09be 751b a9bd
00000220: 0675 02be 6dad 2dbd 31d1 72be b8dd 62bc
00000230: 8c8e 58be c8b5 bdbd 0241 82bd 625d e8bd
00000240: 0bae 4ebe 1106 3ebe fde8 f3bd 8079 24be
00000250: 6ec5 39bd 77cc 5abd 36d7 d93d c470 353d
00000260: 73dd 3e3d 29ba 183e 051c 8d3d fa6f 3b3d
00000270: 0568 19bd d918 273e 3dff 4c3d 8555 8e3c
00000280: b19d 0cbd adfa e63d 05ea d3bd a6d7 c33d
00000290: 9183 04bd 2321 873d 1e0a d4bd e4c0 a2bd
000002a0: 0659 29be 3a08 33bd f58c dabc 4fbc 4d3c
000002b0: 8741 ecbd 2ab3 9fbd ce5b e7bd ee63 163c
000002c0: e06a 91bd b490 45be d4bb 4fbe bc16 a1bd
000002d0: 840f 68be 47df dcbd 4762 d5bd db37 b3bc
000002e0: fb1d 4dbe fb0b 1a3c bf2e a0bd f60c 28be
000002f0: 31a0 ebbd 7aca 17be d8cc 163d 6ab1 2abe
00000300: 1ada 5a3d 7dec 01bd 9471 0fbe 5e2f eabc
00000310: f9f3 893a e4b6 55be a64d dabd 138b 16be
00000320: 2b32 5d3d 09dd 62be 950f 5abe a323 eebd
00000330: dc9f b2bd 2ca2 2cbe f514 14be 1c2f 42be
00000340: 444f a0bc 3f59 3ebe 618f 6abd c011 b8bd
00000350: 0950 82bc e5ba 1bbe b999 bbbd e318 2abe
00000360: 2f85 f2bc 909d 83bd 7167 7f3d 188b ffbd
00000370: 5504 c83a abb1 40be 1c97 8f3c 2b14 c6bd
00000380: 174a 8f3d 7b78 0ebd 21ef a4bd 300d 4ebe
00000390: 612e bcbd e863 d2bd d454 babd 38bd 18be
000003a0: 003f 063d 23b5 1cbe 57d1 6fbe 7094 39be
000003b0: 2a50 313d aaeb 2cbe c02e 2cbd ae00 24be
000003c0: 52de 49bd c9bd 0bbe a218 b2bc e8d5 78bd
000003d0: 3f07 d3bd f958 eabd 5987 5cbd d3ad 37be
000003e0: f83a 38bd c618 5ebd 313c 073e d9fc 653d
000003f0: 21dc 1a3c c18c 163e 1695 303e cac0 083e
0.06280104 0.06808864 0.02501924 0.014970663 0.048268344 -0.028743623 -0.10504635 -0.024156617
-0.04612907 -0.10409153 0.10104743 0.0089276135 0.10631329 -0.019155333 -0.10035809 0.09145179
-0.06623277 -0.0693105 0.038188312 -0.027264595 0.05077179 -0.012881156 -0.021537267 -0.06749377
-0.08829857 -0.026398713 0.065041326 0.081854165 -0.016832046 0.024070088 0.015270075 0.08912565
-0.04064501 0.034037206 0.027015308 0.087513745 -0.04017988 0.016267963 0.0027787657 -0.0057503884
-0.0038548629 -0.018827312 0.0745149 -0.040877808 0.045687065 -0.005147693 -0.0014559678 -0.04985203
0.0077948296 0.06607187 -0.119493 -0.013352965 -0.055127744 -0.065924555 -0.09807658 -0.10982618
0.08436923 -0.08458806 -0.10793122 -0.10525332 0.009889578 -0.034198448 -0.039030556 -0.031146713
0.04633243 -0.030242307 -0.041899573 -0.02057446 -0.06113204 0.10517854 -0.17461745 -0.0065487307
0.016740456 -0.13867277 0.0817392 -0.14774826 0.004638142 -0.07775388 -0.038691103 -0.021135498
0.0029068913 0.0637022 -0.024603609 -0.022486417 -0.02402337 0.0060574994 0.060818505 -0.107532494
0.029945685 0.029683346 -0.062977016 0.009603525 -0.042089034 0.042200997 -0.05961227 0.0018645732
0.010427579 0.03507476 -0.08845248 -0.035282794 -0.06886386 -0.14329183 -0.24425039 -0.058209218
-0.12307698 -0.24507476 -0.06270571 -0.09569357 -0.18515499 -0.22007723 -0.01305528 -0.014339106
-0.13989198 -0.05900048 -0.072987795 -0.08933003 -0.22599967 -0.00016236772 -0.056271657 -0.03828312
-0.17993627 -0.117153995 -0.052222975 0.004485513 -0.16656944 0.00928128 -0.24307317 -0.03773153
-0.057449505 -0.14438441 -0.16105768 0.052697603 -0.18514004 0.0014229226 -0.13408567 -0.0825719
-0.12739953 -0.04240172 -0.23712613 -0.013846807 -0.21148127 -0.09263188 -0.063600555 -0.11345936
-0.2018358 -0.18557002 -0.11909673 -0.16061974 -0.0453543 -0.05341765 0.10636751 0.044296995
0.04659791 0.14914764 0.0689011 0.045761086 -0.037452716 0.16318072 0.0500481 0.017374763
-0.034330074 0.11278281 -0.1034737 0.09562616 -0.032352034 0.06598117 -0.10353492 -0.07946947
-0.16537866 -0.043709017 -0.026678542 0.012557103 -0.11535936 -0.07797845 -0.11296807 0.0091790985
-0.07100463 -0.19293481 -0.20286494 -0.07865664 -0.22662169 -0.10784774 -0.104191355 -0.02187722
-0.20030968 0.00940227 -0.07821416 -0.16411194 -0.115051635 -0.14823332 0.036816448 -0.1666924
0.053430654 -0.031719673 -0.1400817 -0.02858704 0.001052498 -0.20870548 -0.106593415 -0.1470149
0.054002922 -0.2215463 -0.21295007 -0.11627891 -0.08721897 -0.16858739 -0.1446112 -0.18963283
-0.019569047 -0.18588732 -0.057265643 -0.089877605 -0.015907304 -0.15208013 -0.0916018 -0.16611056
-0.029604523 -0.06426537 0.06235451 -0.12477702 0.001526008 -0.18817775 0.01752811 -0.096718155
0.069965534 -0.034782868 -0.08053423 -0.20122218 -0.091885336 -0.10272962 -0.09098211 -0.14915931
0.032774925 -0.15303473 -0.234197 -0.1812303 0.04328934 -0.16886774 -0.04203677 -0.16015884
-0.049284287 -0.13646616 -0.021740261 -0.060750872 -0.103041165 -0.114427514 -0.053840015 -0.17937402
-0.044978112 -0.054222845 0.13206555 0.056149337 0.009451897 0.14702131 0.17244372 0.13354793

fc_net.0.bias f4 [64]
00000000: 62e6 b43c 42da b9bd 8852 ebbd 6fe5 1dbe
00000010: e5ce e9bd f4f9 233e f846 c9bd 40f2 3bbe
00000020: 5abd eebd a5bc 36be 21cd 16be 2dda c13d
00000030: 177d 55be a2be 6b3d 0da2 acbd 831c 0a3e
00000040: e987 933d e56e f9bd 557b 353d a22b 133e
00000050: 8948 ab3d fe29 083e 550e 42bc 8c3f c4bd
00000060: 671e e5bd 226d 113e 67f4 343e 278b dc3d
00000070: 2c07 3abe 921b 023e 39ea 4abd 91a7 1ebe
00000080: eced 32be 4bd2 283e f9ba a7bd 1079 393e
00000090: 45fe 11be 0d91 1c3e 49c1 a23d ab6f e93c
000000a0: 32f3 f83d fa5e 353e 839f 13be 6d4c 1e3e
000000b0: 869b 30be 5936 26be 278b 2ebe 140b e23d
000000c0: 1421 2f3e 79d0 b43d 41a7 09bd c83c fe3d
000000d0: 9e62 99bd 5afd c4bd 4340 443e e768 41bd
000000e0: dbf2 29be 99e8 243e ba52 38be 669d 393e
000000f0: 8768 403e 4f4a 59be 62ed c83d ee83 493e
0.022082511 -0.090748325 -0.11490351 -0.15419553 -0.11416415 0.16013318 -0.09827989 -0.1835413
-0.1165721 -0.178454 -0.14726688 0.09465442 -0.20848499 0.05755485 -0.08429346 0.13487439
0.07203657 -0.121793546 0.04430707 0.14372113 0.08363444 0.13297269 -0.011844237 -0.09582433
-0.111874394 0.14201787 0.17671357 0.10768729 -0.18166798 0.1270583 -0.04953978 -0.15493609
-0.17473572 0.1648647 -0.08189959 0.18112588 -0.14257152 0.15289707 0.079470225 0.02849563
0.12155761 0.17712012 -0.14416318 0.15458842 -0.17246827 -0.1623167 -0.1704527 0.11037269
0.17102462 0.088288255 -0.03360677 0.12413937 -0.07489513 -0.096186355 0.19165139 -0.047219183
-0.16596548 0.16104354 -0.18000308 0.18126449 0.18789874 -0.21219753 0.09810902 0.19679233

fc_net.2.weight f4 [64, 64]
00000000: 6e2d 2cbd ece3 1fbe b64a b3bd 57fd 76be
00000010: a539 cdbd 154e 9cbb fef0 41be 70ad 153d
00000020: b10f 49be 9f96 cbbd a84f 53be 18fb ac3d
00000030: 9248 8bbc ccc0 10bd 4a0c f0bd 6418 3b3d
00000040: ee1a 8cbd 323f 0cbe 76b0 babd 04be 07bc
00000050: 4120 8ebd 6943 f03d cd17 013e de0d 57be
00000060: 8b80 20be 02f1 813d 3182 2b3e 0d0a 073e
00000070: e252 0fbe ca15 de3d 1a33 51bd d7fc 59be
00000080: e00d f0bd 65da 0bbd 65b0 d0bd 906b 353e
00000090: d210 0bbe b773 143e e85d 883d 362f 81bd
000000a0: 22e0 343b ff49 9d3c ba9c 2bbe 5104 263e
000000b0: d16c 673b 590e 56be 5069 4dbe 6620 9bbd
000000c0: b2ca 173e 54fe cf3d 7d38 25bb 0e0c 833d
000000d0: 438f a6bd c27a 40be 2043 d03d 7ba6 3cbd
000000e0: a5f1 25be d51a 993d d333 0abd 1b03 48bd
000000f0: e3be 73bc ecaa 7dbd ad69 133e 9029 ef3c
00000100: 4c98 b8bd 0e15 5a3e 7843 2a3e e3d3 6e3d
00000110: 9f57 f23d 1e9a 67be 5a25 803e 8e1e 333e
00000120: 46b1 103e 3258 353d 3c37 853e 2dea 43be
00000130: 3dac 473d a481 71be 6a9e 4c3e 5e6c 66be
00000140: 723e fbbd 6a69 ce3c 55e3 48be 9aae 0fbe
00000150: 70fc 3abe 9251 5dbe 6a5a 5cbd ae99 7c3e
00000160: 4896 8b3d 0365 41be 8409 4dbe 5cb5 2bbe
00000170: 6b79 af3d 238e 89bd 2ee0 4e3e 75ed 603d
00000180: 1c48 2d3e b5e5 1dbd 7dc0 123d 82c2 5fbe
00000190: eb99 893e 1277 0cbe 8b44 01be fec0 08bd
000001a0: df6e c2bd 8b46 09be b115 183e c4c7 7dbe
000001b0: 9335 3a3e 08c2 253e 1a09 fb3d 2220 e2bd
000001c0: fd07 7fbd 0150 e1bd fb93 013e 36c2 7bbe
000001d0: 3125 cf3d 9369 963e 1190 13be f3fc 18bc
000001e0: 2986 ec3d dab6 2cbe db49 943d 8a60 59be
000001f0: 6f30 d9bc d36c d63d 3f94 34be 9e4d 7fbe
00000200: a0bc 123e 5fd9 54be 31df c6bc 703d 78be
00000210: f837 60be 22f6 ee3d b521 91bd 5b99 2fbe
00000220: 6ec1 6abd b66c 1abe c264 3bbd 1bca ab3d
00000230: c6e5 3ebe c767 9fbd 6696 1cbe fb62 813d
00000240: db37 213e abf1 b4bc dcb2 973c 49aa 123e
00000250: 535b 003e c737 f6bc d7d7 c73b 8f6d 5ebe
00000260: 19fb f4bd 1857 44ba 4713 bdbc 767c 5b3b
00000270: 0fc9 17be c68e 493d 59a5 ee3c b526 00be
00000280: 8fc9 71be 5964 053d 2fce 9bbd 92e8 fc3d
00000290: be5f e4bd feb7 133e 4f54 de3d 4994 42bd
000002a0: 57d4 893d a224 183e 04b4 d83c 2ec3 b73b
000002b0: 67c4 b43c 4728 73be 4be4 29be 2ba6 0b3e
000002c0: 5d69 b23d 5f59 663c b718 a1bd 598a d53d
000002d0: e2d5 e4bd bf12 0ebe 474d 3bbc 1c50 e5bd
000002e0: f4ce 57bd c816 8fbd a1d8 13bd f936 7e3d
000002f0: 7d44 ddbc f88d e2bd d9d6 7f3d a33e 163e
00000300: 50a3 ae3b 0c6b ef3d b540 933d 0d78 4d3e
00000310: a334 ae3d 4f68 82be a233 3e3d 700a b83d
00000320: c11e 453e 44fa a93d 12b2 553d 44db 77be
00000330: fe40 583e 3fa7 6fbb 7727 963e b94d 8cbe
00000340: 7ad1 78be 75d6 bc3c 5e94 edbd 9962 b2bd
00000350: 2900 34be 95ca 09be 1a81 a2bd 0286 953e
00000360: 31ae f03d 18f8 2abe 925b 2a3b 70d3 73be
00000370: d5b4 bb3c 437f 20be ab54 bc3d d640 bf3d
00000380: 422a 6e3e bb66 4bbe ee9c 473e d5d9 60be
00000390: d3c0 463e ae72 3bbe 8e6b e5bc 84e3 dcbd
000003a0: e007 fabd 8da7 06be 6006 663e bbc6 6abe
000003b0: 418c 8d3d 7072 393e 3357 553e 5a9c 5dbe
000003c0: d6f7 a6bd 9720 02be d820 803e ab6c f6bd
000003d0: 7e26 333e e14e 433d 1fb6 c7bd e652 d1bd
000003e0: 89b6 173e 4fc0 02be fc98 243d 37ed cebd
000003f0: dfb9 56be ae4c 393e a5a7 6fbe febf 53be
-0.042035513 -0.15614289 -0.08754484 -0.24120079 -0.100207604 -0.0047700503 -0.18939587 0.036542356
-0.19634892 -0.09940838 -0.20635855 0.0844633 -0.017002378 -0.035340115 -0.11721094 0.045677558
-0.06841074 -0.13695982 -0.091156885 -0.008285049 -0.06939746 0.117316075 0.12606736 -0.21001384
-0.15674035 0.06344797 0.16748883 0.13187428 -0.13996461 0.10844 -0.051074125 -0.21287857
-0.117213964 -0.034143824 -0.101898946 0.17716813 -0.13580635 0.14497267 0.06658536 -0.06307833
0.0027599414 0.019200323 -0.16759005 0.16212584 0.0035312662 -0.2090391 -0.20059705 -0.07574539
0.14823416 0.10155931 -0.0025210672 0.063987836 -0.08132794 -0.18796828 0.10169053 -0.046057206
-0.16205461 0.07475821 -0.03374083 -0.048831087 -0.014877054 -0.061930582 0.14395781 0.029194623
-0.09013423 0.21297094 0.166273 0.05830754 0.11833119 -0.22617385 0.25028497 0.17492124
0.14130124 0.044273563 0.26018703 -0.191323 0.048748244 -0.2358461 0.19982305 -0.22502276
-0.1226777 0.02519675 -0.1961797 -0.14031449 -0.1826036 -0.21613148 -0.053797163 0.24667999
0.06815773 -0.18886189 -0.20023161 -0.16768402 0.085680805 -0.067165636 0.20202705 0.054913957
0.16922039 -0.038549144 0.035828102 -0.21851543 0.26875243 -0.13717297 -0.12623803 -0.033387177
-0.09493803 -0.13405816 0.14852025 -0.24783236 0.181845 0.16187298 0.12257595 -0.11041285
-0.062263478 -0.11001588 0.12654106 -0.24585804 0.101145156 0.29377422 -0.14410426 -0.009337652
0.115490265 -0.16866627 0.07240649 -0.21228233 -0.026512353 0.10469975 -0.17634676 -0.24931952
0.14329767 -0.20786045 -0.024276348 -0.24242187 -0.2189635 0.1166804 -0.07086507 -0.17148344
-0.057313375 -0.15080532 -0.045750387 0.08388158 -0.18642339 -0.07783466 -0.15291747 0.06317707
0.15743963 -0.022087893 0.018517904 0.14322771 0.12534837 -0.030055894 0.006098728 -0.21721481
-0.119619556 -0.00074897846 -0.023080481 0.0033490933 -0.14822792 0.049208425 0.029131578 -0.12514766
-0.23612045 0.032566402 -0.07607686 0.12349047 -0.11151074 0.14425656 0.10855924 -0.047504697
0.06729954 0.14857724 0.026453026 0.005607984 0.022066308 -0.23745833 -0.16590993 0.13637607
0.08711503 0.014059394 -0.07866042 0.10426778 -0.111736074 -0.13874339 -0.011431999 -0.1119692
-0.0526876 -0.06986767 -0.036095265 0.062064145 -0.027010197 -0.11062235 0.062460754 0.14672332
0.005329527 0.116903394 0.07190076 0.20065327 0.085061334 -0.25470206 0.04643596 0.08986366
0.19250013 0.082996875 0.052171774 -0.24204737 0.21118543 -0.0036568192 0.29326984 -0.27403048
-0.24298659 0.02305148 -0.116005644 -0.08710212 -0.17578186 -0.13456185 -0.079347804 0.29203802
0.117519744 -0.16696203 0.0025994522 -0.23811126 0.022913376 -0.15673546 0.09195837 0.09338538
0.23258308 -0.19863407 0.19493458 -0.21958096 0.19409494 -0.18305466 -0.028005388 -0.10785583
-0.12208533 -0.13149853 0.2246337 -0.22927372 0.06911517 0.1811006 0.20834045 -0.21641675
-0.0815274 -0.12707745 0.25025058 -0.120324455 0.17495152 0.047682647 -0.09751534 -0.1022089
0.14815725 -0.12768672 0.04018496 -0.10103839 -0.20969342 0.18095657 -0.23403795 -0.20678708

fc_net.2.bias f4 [64]
00000000: 887c e53d 882f 34be c916 42bc 9e98 b2bb
00000010: c446 423e c291 4ebe e677 73bd dba6 903d
00000020: bcde cfbd 9b6a 02be 8988 3e3e c266 50be
00000030: 32bc 3bbe e385 23be 2108 3fbd 843f 1c3e
00000040: dde2 0cbe 4c0d 1d3e 4e55 483d 3dd1 c3bd
00000050: 8563 ba3d 9609 c5bd cbe2 4d3e 5201 98bd
00000060: 6256 9ebd fb0f 07be b1ca 44be 8b22 3dbe
00000070: 13fd 5abe 240b ad3c 71de 04bd ef7b 62be
00000080: 7143 a93c c72a 363e a2d7 a0bd d048 32be
00000090: 064b 1b3e cac5 90bd 3ba5 973c 3692 39be
000000a0: b7d8 febd 0523 2a3e 543d 46be 3356 053e
000000b0: e2bb 353d 2d5f f7bd fef6 1b3d 3de1 e2bd
000000c0: d478 94bd 3c36 49be 5d20 093e 0c0a a6bc
000000d0: c6e8 1dbe cf7b 2c3e 2c61 c43d 7834 b73d
000000e0: b6c4 98bd 4d74 76bd 1d00 903d 6750 053d
000000f0: 4652 043e f234 d23d f5a8 b33d 46ab 39be
0.11205393 -0.17596257 -0.011846253 -0.0054503223 0.18972307 -0.2017279 -0.059440516 0.07063075
-0.10149905 -0.1273598 0.18606772 -0.20351699 -0.1833351 -0.15969042 -0.04663861 0.15258604
-0.13758416 0.15337104 0.048909478 -0.095613934 0.09101013 -0.09620969 0.20106046 -0.07422127
-0.0773132 -0.1318969 -0.19217946 -0.18470208 -0.21385603 0.021123476 -0.0324387 -0.2211759
0.020662041 0.17789756 -0.07853629 -0.17410588 0.15165338 -0.07068975 0.018511405 -0.18122181
-0.12443679 0.16614921 -0.19359332 0.13021164 0.044368632 -0.120787 0.038077347 -0.11078117
-0.07249609 -0.19649595 0.13391252 -0.020268463 -0.15420827 0.16844104 0.095888466 0.089455545
-0.07459395 -0.060169507 0.070312716 0.03254738 0.1292201 0.10264005 0.0877246 -0.18131742

value_head.weight f4 [1, 64]
00000000: ded7 0c3e fcca 1dbe e651 3b3e 62c5 18be
00000010: bddc 2b3e 7d92 26be 5341 6abe c8eb 343e
00000020: def8 47be 97f4 51be 4183 f33d 0261 15be
00000030: 0746 67be eb4a 04be c5bd 61be 3458 3a3e
00000040: 6579 36be b4f5 323e 114e fa3d 68aa 2fbe
00000050: 29de ce3d 55b5 77be 3a32 173e 37c7 64be
00000060: fb04 31be 6e8f 15be f14c d3bd 5e89 6bbe
00000070: e3bf eabd 364a 49be 5383 42be b3eb 0ebe
00000080: d6da a33d 2a97 f43d 915f d0bd 07d7 26be
00000090: bccd 213e 7dbb 62be bb4f b53d 27f2 0ebe
000000a0: f36e 71be 1fb8 b23d 786f 16be f713 cd3d
000000b0: 4a56 de3d accd 5cbe 11fe bebd 87d3 7bbe
000000c0: e5db 34be b73d 37be a771 183e 22a1 39be
000000d0: 20d3 48be ba77 fa3d 5128 e43d 6e78 a93d
000000e0: b850 6cbe e8cc 5dbe f18b 093e 937a 403e
000000f0: 3378 d63d 7126 413e 0b3b d93d 79da 46be
0.13754222 -0.15409464 0.1829296 -0.14919046 0.16783424 -0.16266818 -0.22876482 0.17668068
-0.19528529 -0.2050346 0.11890269 -0.14587787 -0.22585307 -0.12919204 -0.22045048 0.1819771
-0.17819746 0.17476541 0.12221921 -0.17154849 0.101009674 -0.24190266 0.14765254 -0.2234162
-0.17287056 -0.14605495 -0.1031741 -0.2300162 -0.11462381 -0.19657215 -0.18995409 -0.139571
0.08000724 0.11942895 -0.10174478 -0.16292964 0.15801138 -0.22141834 0.08853098 -0.13959561
-0.2357748 0.087265246 -0.1469096 0.100135736 0.10856302 -0.21562833 -0.09325803 -0.2459241
-0.17662008 -0.17894636 0.14887105 -0.18127874 -0.19611788 0.12229867 0.11140502 0.08274923
-0.23077667 -0.21660197 0.1343229 0.18796758 0.10472145 0.1886232 0.10606965 -0.19419278
